BodelLigging/Amerongen beneden_bodemligging_V1.pt (torch, 661983 bytes, 5 tensors)

lstm.weight_ih_l0 f4 [400, 1]
0.80913067 -1.6833094 -1.1533536 -0.7124629 0.19344316 -0.25462776 1.6655128 -1.6830547
-0.7262241 -0.9657156 -1.5501007 -0.84164125 -2.052539 -1.5015796 -1.5703261 -0.8489097
-0.56949186 -1.7198175 -0.7110695 -1.4588197 -1.1246897 -0.20222753 -1.2907547 -0.84463924
0.33602488 -1.1512197 -1.3027385 -0.8223242 0.22449367 -0.52100533 -2.333289 -0.10840602
-0.10891502 -1.2925571 -0.04942967 0.23608388 -1.5438261 -0.62835145 -0.96455073 -0.4255898
-1.0337906 -1.5280908 -0.5153637 -1.3728917 -1.5692649 -1.4620334 0.08423134 -1.1347686
-0.48142 -1.7468138 -1.8550684 -1.6589683 -0.3791473 -2.435141 -0.5792145 -1.7231214
-1.471264 -0.8645957 -1.4165784 -0.5977137 -1.4441125 -2.559598 -0.2845089 -0.60253394
0.34570244 -1.8903292 -1.217986 -0.34818992 0.51940006 0.5843263 -1.5051327 0.77666146
-0.39741305 -0.33513415 -0.80794126 -1.8877695 -1.8641206 -0.56722426 0.5289406 -0.6722462
0.17759489 -0.40876013 -0.867754 -0.5934788 -0.09825486 -1.5320354 -2.2432833 -0.45599976
-0.19776465 -1.520455 -0.8237507 -1.5528514 -0.9275535 -0.60908943 -2.0446925 -0.47714305
-0.51796234 0.55296195 -0.81513286 -2.224528 0.22244795 -0.48532563 0.06898158 -0.49919492
-2.0849793 0.4123623 -0.20493473 -1.1459042 0.42679587 -1.3302953 -0.4227332 0.43694666
0.19857804 0.3033445 -0.9386479 -0.39140487 -1.1293608 -0.4757031 -0.003262831 0.1737745
-1.3773588 -2.1487648 -0.31817788 -0.93625325 0.20464687 -0.64448476 -0.9956278 -1.039887
0.113915496 -0.9843665 -0.24683915 -0.7346468 -1.5928806 0.122297026 -0.0641219 -0.132418
-0.83566064 0.5153557 -0.46967682 0.12507764 -1.408921 -0.12676696 -0.72317594 -0.4841329
-0.79321045 -0.85732365 0.00083100854 0.35959247 -0.6529615 0.25036567 -0.6040574 -0.723802
0.8417466 -0.850945 -0.6794788 0.5224834 -0.12998323 -0.31750548 -0.6126228 0.16487889
-0.47230077 -1.1244147 -1.21002 -1.7550954 0.40920413 0.087092966 -0.2791677 -1.3251384
-1.9835546 -1.8321737 -0.036329936 -1.5568097 -0.47703707 -0.2896336 0.18022513 -1.498979
-0.8316076 -0.6305589 -0.45393988 -0.74915975 -0.123412006 -1.7141242 -1.0043222 -0.56943303
-0.51348853 -0.72760254 -0.329382 0.25709155 0.6414367 -0.7253237 -1.2348156 0.16379176
-0.020977685 0.29128903 -0.7694501 -0.15977868 -0.3488235 -2.1660419 -0.76463044 -0.51178575
-1.4208587 1.3585166 -0.7332308 1.0883768 0.75601333 -1.2675159 1.4717628 1.5644934
-3.276096 -0.20855792 -0.90654325 -1.3197916 -1.2122914 -1.3237326 1.0593971 1.5299394
0.89691347 -0.74456567 -1.6754118 0.38608038 -1.3249629 1.1792885 -1.237652 -0.2501474
2.1149306 1.1754876 -1.2741642 -0.48828012 0.77811265 0.593472 -1.3914598 1.1575576
-1.3350188 -0.61256707 1.0197766 -0.30863485 -0.9390027 1.3979213 0.38711846 -1.4420105
-1.2169274 1.2944711 1.348842 -1.3449131 -0.9412497 1.4571315 -1.2565587 1.0936917
-0.95955676 -1.3415015 1.0996212 1.2870761 -1.3166631 -1.2805508 0.122153506 -0.9666612
00000000: 3023 4f3f af76 d7bf 17a1 93bf f863 36bf
00000010: f715 463e 925e 82be 862f d53f 566e d7bf
00000020: d3e9 39bf 2339 77bf b369 c6bf cd75 57bf
00000030: cd5c 03c0 c333 c0bf 7200 c9bf 2552 59bf
00000040: 38ca 11bf fb22 dcbf a708 36bf 9bba babf
00000050: d5f5 8fbf bc14 4fbe 7337 a5bf 473a 58bf
00000060: 740b ac3e 2b5b 93bf 23c0 a6bf d783 52bf
00000070: abe1 653e 9b60 05bf 9b54 15c0 fa03 debd
00000080: d70e dfbd 8372 a5bf c476 4abd f9bf 713e
00000090: 189c c5bf a4db 20bf ccec 76bf e8e6 d9be
000000a0: 4053 84bf 7b98 c3bf e0ee 03bf eaba afbf
000000b0: acdd c8bf e923 bbbf 7b81 ac3d 1940 91bf
000000c0: af7c f6be 9897 dfbf e272 edbf 1359 d4bf
000000d0: 981f c2be 5ad9 1bc0 6747 14bf 3e8f dcbf
000000e0: 6152 bcbf 2556 5dbf 7152 b5bf c403 19bf
000000f0: aed8 b8bf 74d0 23c0 27ab 91be aa3f 1abf
00000100: e9ff b03e 4ff6 f1bf f7e6 9bbf f345 b2be
00000110: 67f7 043f 6996 153f 30a8 c0bf 49d3 463f
00000120: b979 cbbe b496 abbe 3dd5 4ebf 6ea2 f1bf
00000130: 819b eebf 9c35 11bf a768 073f 5418 2cbf
00000140: 6fdb 353e 0249 d1be 2025 5ebf 3aee 17bf
00000150: d839 c9bd bc19 c4bf f491 0fc0 cd78 e9be
00000160: d182 4abe 459e c2bf 53e1 52bf d6c3 c6bf
00000170: 2574 6dbf 49ed 1bbf 3edc 02c0 184c f4be
00000180: 2e99 04bf ea8e 0d3f 8cac 50bf ab5e 0ec0
00000190: 65c9 633e 9a7c f8be 3746 8d3d 7a96 ffbe
000001a0: 4d70 05c0 2721 d33e 69da 51be fdac 92bf
000001b0: fd84 da3e 1e47 aabf 7c70 d8be 79b7 df3e
000001c0: 0b58 4b3e f84f 9b3e 3b4b 70bf 3866 c8be
000001d0: e58e 90bf 5b8f f3be 38d5 55bb f1f1 313e
000001e0: 4b4d b0bf 5d85 09c0 36e8 a2be 4bae 6fbf
000001f0: f38e 513e f4fc 24bf 77e1 7ebf 041b 85bf
00000200: 874c e93d 71ff 7bbf 67c3 7cbe d011 3cbf
00000210: 83e3 cbbf dd76 fa3d 5852 83bd 9698 07be
00000220: dbed 55bf 5aee 033f 7b79 f0be 5a14 003e
00000230: 8657 b4bf 33cf 01be 0f22 39bf 44e0 f7be
00000240: d70f 4bbf 9079 5bbf 0ad8 593a 811c b83e
00000250: 7c28 27bf ee2f 803e 81a3 1abf 164b 39bf
00000260: b57c 573f 88d7 59bf 53f2 2dbf 79c1 053f
00000270: 531a 05be 1490 a2be d9d4 1cbf 03d6 283e
00000280: 68d1 f1be d2ec 8fbf efe1 9abf f7a6 e0bf
00000290: 3483 d13e cc5d b23d 12ef 8ebe 239e a9bf
000002a0: 1ee5 fdbf ab84 eabf b3ce 14bd 8a45 c7bf
000002b0: 343e f4be db4a 94be f08c 383e 8bde bfbf
000002c0: 3ce4 54bf 4f6c 21bf cf6a e8be efc8 3fbf
000002d0: 6fbf fcbd 6c68 dbbf a18d 80bf 5dc6 11bf
000002e0: fc73 03bf 2944 3abf c2a4 a8be 81a1 833e
000002f0: 3235 243f d0ae 39bf 700e 9ebf 07b9 273e
00000300: 65d9 abbc d623 953e affa 44bf 069d 23be
00000310: fe98 b2be 6ea0 0ac0 d2be 43bf 6404 03bf
00000320: b3de b5bf dfe3 ad3f 04b5 3bbf ee4f 8b3f
00000330: 178a 413f f63d a2bf b962 bc3f 5241 c83f
00000340: 8fab 51c0 3590 55be 3813 68bf eeee a8bf
00000350: 5d2c 9bbf 1270 a9bf 539a 873f 0ed5 c33f
00000360: 1f9c 653f db9b 3ebf e573 d6bf 54ac c53e
00000370: 6298 a9bf edf2 963f 616b 9ebf 5213 80be
00000380: 065b 0740 6176 963f d017 a3bf daff f9be
00000390: 6432 473f c8ed 173f 5b1b b2bf d92a 943f
000003a0: e5e1 aabf 32d1 1cbf 0a88 823f 6305 9ebe
000003b0: 7b62 70bf 16ef b23f 6434 c63e cd93 b8bf
000003c0: 47c4 9bbf 3bb1 a53f dba6 ac3f 1d26 acbf
000003d0: bef5 70bf 4983 ba3f ead6 a0bf 17fe 8b3f
000003e0: 83a5 75bf 52b6 abbf 63c0 8c3f e9be a43f
000003f0: 6b88 a8bf 17e9 a3bf 9e2b fa3d 1c77 77bf

lstm.weight_hh_l0 f4 [400, 100]
-0.5802266 -0.07245101 -0.61279935 -0.02037624 -1.1218241 -0.3841828 -0.63549554 -0.22792153
-0.30329588 0.49047112 -0.80298567 -0.73832464 0.018993484 -0.17083304 0.14418314 0.30154216
0.011499128 0.08621899 -0.2073192 -0.22419153 0.06094587 -0.012421703 0.017873386 0.39135137
-0.088935845 -0.08471331 -0.22161746 0.6901099 -0.91111565 -0.07058412 0.16813071 0.81297463
0.12701277 -0.6946466 -0.68387485 -1.2420775 -0.13650225 0.037700754 0.13179752 -0.5318103
0.57373726 -0.10209094 0.026854686 -0.14781693 0.09790106 0.2282332 -0.12991592 0.05693549
-1.3125077 -0.07800042 0.102580026 0.003239936 -0.49587226 0.039547343 -0.7136092 -0.21639292
-0.70350534 0.5822436 -0.20195055 -1.267046 -0.24873725 -0.063343614 -0.5046641 -0.049934957
1.0866376 -0.18309684 -0.17404398 1.7686864 -0.45977816 -0.9857499 -1.3428863 0.5163667
0.37925285 -0.82270086 -1.2210727 0.24347004 0.25525594 -0.6009095 -0.22710858 0.6299671
0.10230383 -0.13761887 -0.68218666 -0.26955116 -0.9853497 0.31836852 -0.31814516 0.5117099
0.25963387 -0.86232257 0.5366287 -0.21110675 -1.0844711 -0.4350105 -0.005443887 0.014460205
-0.2666088 -0.16580763 -0.3836643 -0.99970007 -0.57014465 0.19899772 -0.038934436 0.37482464
0.0012651446 -0.19225064 -0.25409046 0.3373 -0.19171071 -0.17432918 -0.6155899 0.37856898
-0.15244849 -0.22325782 0.82247406 0.2802405 -0.05748901 -0.79820186 -0.5033717 0.39538616
-0.9274751 -0.04025112 -0.85015005 -0.26037946 -0.2305082 0.40279147 -0.44807988 -0.10103543
-0.7996715 -0.16904864 -0.3050272 -0.8533535 -0.30549914 -0.70777524 -0.819939 0.2914033
-0.2955964 0.49948055 0.2611485 -0.36097342 -0.45550004 0.3207856 -0.19398583 -0.40579963
-0.7773586 -0.12574586 -0.83990216 0.22366467 -1.4546053 -0.5788095 -0.21636468 0.26378518
-0.2987275 -0.036501065 -0.7300545 -0.5548989 -0.2638573 -0.31538415 0.09946017 -0.35939977
0.08016917 -0.12486802 0.6781873 -0.4716865 -0.61552966 -0.2802655 -0.18780713 -0.08650458
-0.021162633 -0.22182427 -0.7624858 -0.0063137915 0.05960714 -0.7840989 -0.3711582 -0.7052794
-0.7824546 -0.32199597 -0.7535688 -0.27218017 0.7159998 -0.6374869 0.28861505 -0.13445807
0.041158427 -0.08437862 -0.09980571 0.13133225 0.7007987 -0.28593084 -0.67306477 -0.10736989
-0.51750326 0.32265052 0.19097081 -0.14260556 -0.61374277 0.2002245 -0.26052424 -0.48524463
-0.17282876 0.9550572 0.18950869 -0.48304474 -0.4592934 -0.915231 -0.47723234 0.72521865
-0.22416021 -0.56611973 -1.2183025 0.09326038 -1.3364476 -1.1485777 0.051725883 0.113989666
0.50266147 -0.37560824 -1.1147113 -0.3122143 -0.07117663 -0.48799884 -1.2449691 -0.622772
0.8175924 0.7723248 0.20074308 -0.16186225 -1.5983336 -0.17639923 -0.6615484 -0.47742197
0.5152768 0.07073995 -0.9316724 0.18446529 -0.6821605 0.23369502 -0.15474574 -0.025891313
0.23506325 0.37260938 -0.1098694 -0.90866417 0.05689984 0.7729599 0.30143467 0.4075503
-0.5117604 -0.66922474 1.2109946 0.7258833 -0.27177536 -0.92724186 -0.7780513 0.046577804
00000000: bb89 14bf 3261 94bd 6be0 1cbf 13ec a6bc
00000010: ef97 8fbf 9cb3 c4be d6af 22bf 4364 69be
00000020: 9949 9bbe 081f fb3e 7890 4dbf d802 3dbf
00000030: 3998 9b3c dbee 2ebe bfa4 133e bc63 9a3e
00000040: d766 3c3c 9593 b03d 7c4b 54be 7792 65be
00000050: 60a2 793d 6684 4bbc 356b 923c 355f c83e
00000060: ff23 b6bd 2c7e adbd b0ef 62be 0bab 303f
00000070: e03e 69bf 688e 90bd 752a 2c3e 1b1f 503f
00000080: a30f 023e 5cd4 31bf 6c12 2fbf 65fc 9ebf
00000090: 3fc7 0bbe 1b6c 1a3d eef5 063e b824 08bf
000000a0: 72e0 123f 0e15 d1bd 5cfe db3c 525d 17be
000000b0: 5a80 c83d f7b5 693e ae08 05be 3035 693d
000000c0: 4100 a8bf afbe 9fbd 7a15 d23d 1b55 543b
000000d0: f8e2 fdbe 65fc 213d 18af 36bf 1b96 5dbe
000000e0: ed18 34bf eb0d 153f 20cc 4ebe 902e a2bf
000000f0: fab4 7ebe 4cba 81bd ab31 01bf 9988 4cbd
00000100: f116 8b3f bd7d 3bbe 9638 32be 5164 e23f
00000110: 0b68 ebbe 1b5a 7cbf b3e3 abbf 9c30 043f
00000120: 6e2d c23e 869c 52bf 1c4c 9cbf 3650 793e
00000130: e8b0 823e 34d5 19bf 278f 68be 8645 213f
00000140: ac84 d13d f6eb 0cbe c9a3 2ebf 9c02 8abe
00000150: e13f 7cbf 3301 a33e ece3 a2be 6cff 023f
00000160: bbee 843e 2cc1 5cbf 8060 093f 5e2c 58be
00000170: f3cf 8abf b2b9 debe a262 b2bb 7fea 6c3c
00000180: f380 88be 7ac9 29be a66f c4be 58ec 7fbf
00000190: 00f5 11bf 0fc6 4b3e b779 1fbd 04e9 bf3e
000001a0: 35d3 a53a 5add 44be 2518 82be 96b2 ac3e
000001b0: d04f 44be 5983 32be 4d97 1dbf cbd3 c13e
000001c0: 751b 1cbe b39d 64be a98d 523f af7b 8f3e
000001d0: 9979 6bbd f556 4cbf f8dc 00bf 0e70 ca3e
000001e0: 026f 6dbf 5cde 24bd 6fa3 59bf 7550 85be
000001f0: 570a 6cbe af3a ce3e ba6a e5be aaeb cebd
00000200: 45b7 4cbf 161b 2dbe 862c 9cbe 6075 5abf
00000210: 626a 9cbe c230 35bf 86e7 51bf d032 953e
00000220: 6958 97be eabb ff3e 42b5 853e 82d1 b8be
00000230: 4d37 e9be 033e a43e 39a4 46be f8c4 cfbe
00000240: f900 47bf 86c3 00be d403 57bf 5a08 653e
00000250: 8230 babf dc2c 14bf b48e 5dbe da0e 873e
00000260: d0f2 98be 2482 15bd dae4 3abf db0d 0ebf
00000270: 4e18 87be 087a a1be c6b1 cb3d 3f03 b8be
00000280: bc2f a43d ceba ffbd af9d 2d3f e580 f1be
00000290: 5a93 1dbf f67e 8fbe 8350 40be 5029 b1bd
000002a0: 425d adbc e725 63be 4532 43bf ece3 cebb
000002b0: 9e26 743d b5ba 48bf 7308 bebe 318d 34bf
000002c0: f24e 48bf a8dc a4be e3e9 40bf 335b 8bbe
000002d0: c34b 373f 5732 23bf 5ac5 933e 60af 09be
000002e0: bd95 283d b3ce acbd f066 ccbd f67b 063e
000002f0: 8b67 333f 8765 92be f94d 2cbf bfe4 dbbd
00000300: 187b 04bf 7332 a53e da8d 433e 3107 12be
00000310: 3f1e 1dbf a707 4d3e 6f63 85be fc71 f8be
00000320: 06fa 30be a17e 743f 910e 423e a451 f7be
00000330: 8128 ebbe 944c 6abf cc57 f4be eea7 393f
00000340: 418a 65be 39ed 10bf 56f1 9bbf 4cff be3d
00000350: b710 abbf 9804 93bf 85de 533d 6a73 e93d
00000360: 6cae 003f b94f c0be dcae 8ebf 8dda 9fbe
00000370: 0ec5 91bd fcda f9be 265b 9fbf fc6d 1fbf
00000380: bc4d 513f 14b7 453f 988f 4d3e 38bf 25be
00000390: 3296 ccbf 00a2 34be 3c5b 29bf a770 f4be
000003a0: 2ee9 033f 1be0 903d 1582 6ebf 78e4 3c3e
000003b0: 12a2 2ebf bf4d 6f3e ab75 1ebe 051a d4bc
000003c0: 6cb4 703e a8c6 be3e 3503 e1bd 379e 68bf
000003d0: ce0f 693d b3e0 453f a555 9a3e 6faa d03e
000003e0: bb02 03bf 5052 2bbf df01 9b3f 7dd3 393f
000003f0: 2426 8bbe b95f 6dbf 5f2e 47bf 5ec8 3e3d

lstm.bias_ih_l0 f4 [400]
0.082246095 -0.47648752 -1.4330236 -1.1490055 -0.23358774 -0.9847845 -0.616915 -0.44141814
1.096306 -1.3841414 -0.7333102 -0.27213597 -0.59318966 -0.7016156 -0.76209515 -0.48946878
-1.1557776 -0.74799705 -0.13219517 -0.7593109 -0.71842366 -0.76962537 -0.63475543 -1.2721076
0.67015004 -0.57330716 -0.72224885 -2.459173 -0.34714058 -2.837747 -1.1226789 -0.20687872
0.24592791 -1.4877734 -1.132571 -0.2890272 -0.8618565 -0.5396239 -0.6567039 0.29161963
-1.5109217 -0.91271174 -1.172237 -0.5846035 -1.3121119 -0.8905631 -0.100745305 -1.2433667
-0.55059344 -0.55786633 -0.3934425 -0.62378913 -0.66104275 -0.55972826 0.20363434 -1.3311223
-1.0872972 -2.5718997 -0.61250603 -0.31857392 -1.0126251 -0.48243043 -0.67140543 -0.574395
-0.5618381 -0.6728483 -1.1669155 -1.2236718 -0.4546989 -0.2869741 -0.7733202 -0.8696616
-3.0212483 -0.65092176 -0.7877586 -0.19768044 -1.0890386 0.20542184 -0.536811 -1.6566796
-0.871588 -0.6843832 -0.43537703 -2.5124345 -0.57526326 -1.9459897 -0.7808978 -1.9849706
-0.71993065 -0.74246687 -0.718064 -0.5880523 -0.14118282 -0.9364377 -0.7315992 -2.9282908
-0.9105386 -0.2505535 -0.6569753 -0.63905036 -0.866831 -0.7269681 -0.4359977 -0.7909721
-0.31371638 -1.1267159 -1.3707849 -1.0003884 -0.73067015 -0.46283254 -0.9836092 -0.81584424
-1.1340978 -1.2197385 -0.97209513 -1.6633023 -1.0688742 -0.7117567 -0.7544493 -0.26512572
-1.4170947 -0.8363232 -1.1694281 -0.6897128 -0.7292987 -1.1284177 -0.99071825 -1.1780787
-0.42542776 -1.3306316 -0.70873034 -0.53647435 -0.6737904 -0.63896227 -0.1978302 -0.49982834
-0.9379481 -1.1901001 -0.46374905 -1.1250582 -1.3445525 -1.309323 -0.7795728 -1.1613115
-1.1476113 -0.996329 -0.87771803 -0.94174886 -0.8244764 -1.2060913 -1.1403781 -1.1293213
-1.3566418 -1.1392343 -0.18903597 -0.45921957 -0.85916203 -1.2519273 -0.8252353 -1.0888791
-1.1394008 -1.7555832 -0.46882132 -0.7496498 -0.26905134 -0.058863997 -1.0395938 -0.8613636
-0.6810424 -0.42977396 -1.1912926 -0.59545195 -1.1396405 -0.44980535 -0.7476156 -0.16832456
-0.98586017 -1.0092252 -1.3613847 -1.1929271 -0.9401457 -0.89647806 -0.46778315 -1.2581005
-0.2454373 -1.5175393 -1.4681754 -0.9053424 -0.8001295 -0.20259039 -0.9490738 -1.4158161
-0.66940105 -0.76108766 -1.0796956 -1.0763494 -1.6084692 -1.101288 -1.1551787 -0.5045417
0.033003535 -0.25165248 0.034219533 0.0012373383 -0.21749356 0.13679424 -0.054054137 -0.0138666425
0.11464127 0.07877861 0.030276857 0.02092751 0.2225011 0.118212394 -0.12815785 -0.16807093
-0.090106785 0.041894473 0.13569416 0.11658147 0.18437491 -0.11057705 0.11993345 0.120802045
-0.13857877 -0.146328 0.14021671 0.08497061 -0.28649122 -0.04346694 0.07350816 -0.12795505
0.12499039 0.035850655 -0.08462615 0.05679243 -0.0052439696 -0.26719773 0.20506872 0.0665463
0.027933683 -0.08996382 -0.085752346 0.11126553 0.11478049 -0.15810709 0.054355882 -0.107174024
-0.0014784464 0.09829367 -0.20793903 -0.10672284 0.109874666 -0.07124356 -0.18073335 0.1471032
00000000: a470 a83d 2cf6 f3be 516d b7bf 9d12 93bf
00000010: a031 6fbe d61a 7cbf 24ee 1dbf 8f01 e2be
00000020: c153 8c3f 8c2b b1bf 38ba 3bbf 6855 8bbe
00000030: 47db 17bf 149d 33bf ab18 43bf a79b fabe
00000040: 85f0 93bf bc7c 3fbf 2c5e 07be 3362 42bf
00000050: 9dea 37bf 2b06 45bf 557f 22bf 6cd4 a2bf
00000060: f48e 2b3f 42c4 12bf 4de5 38bf 1763 1dc0
00000070: 69bc b1be a69d 35c0 f1b3 8fbf 04d8 53be
00000080: 87d4 7b3e 5c6f bebf 16f8 90bf 60fb 93be
00000090: a1a2 5cbf cb24 0abf bf1d 28bf 2b4f 953e
000000a0: e265 c1bf 7aa7 69bf dd0b 96bf 93a8 15bf
000000b0: 48f3 a7bf f1fb 63bf 8e53 cebd a426 9fbf
000000c0: b1f3 0cbf 54d0 0ebf 4c71 c9be a5b0 1fbf
000000d0: 193a 29bf 5a4a 0fbf 8585 503e 3762 aabf
000000e0: 8e2c 8bbf 019a 24c0 32cd 1cbf 1f1c a3be
000000f0: b39d 81bf 1f01 f7be 3ae1 2bbf 8d0b 13bf
00000100: 9fd4 0fbf c93f 2cbf 7d5d 95bf 47a1 9cbf
00000110: 4bce e8be 45ee 92be 50f8 45bf 25a2 5ebf
00000120: 225c 41c0 cfa2 26bf 8caa 49bf be6c 4abe
00000130: 9e65 8bbf 1a5a 523e 726c 09bf 140e d4bf
00000140: 6420 5fbf bd33 2fbf bde9 debe bacb 20c0
00000150: 7444 13bf 3116 f9bf ebe8 47bf 8413 febf
00000160: 604d 38bf 4f12 3ebf 0bd3 37bf 988a 16bf
00000170: 3b92 10be 62ba 6fbf 164a 3bbf 1e69 3bc0
00000180: 0f19 69bf 8c48 80be 892f 28bf ce98 23bf
00000190: a3e8 5dbf 951a 3abf 173b dfbe 267d 4abf
000001a0: 6f9f a0be 3a38 90bf e175 afbf ba0c 80bf
000001b0: 330d 3bbf 63f8 ecbe d0cd 7bbf 2bdb 50bf
000001c0: 1e2a 91bf 6420 9cbf 3adb 78bf 17e7 d4bf
000001d0: dfd0 88bf b035 36bf 9723 41bf 8fbe 87be
000001e0: 5c63 b5bf 4719 56bf d2af 95bf 0591 30bf
000001f0: 52b3 3abf fe6f 90bf b69f 7dbf 48cb 96bf
00000200: abd1 d9be 2352 aabf 5a6f 35bf 6256 09bf
00000210: 877d 2cbf 0893 23bf 0094 4abe 80e9 ffbe
00000220: 5e1d 70bf 3355 98bf 8470 edbe e801 90bf
00000230: 4c1a acbf e597 a7bf 1592 47bf dba5 94bf
00000240: ede4 92bf 6b0f 7fbf 21b2 60bf 7416 71bf
00000250: e310 53bf 3361 9abf e9f7 91bf 9a8d 90bf
00000260: 70a6 adbf 6ed2 91bf a592 41be d41e ebbe
00000270: 0bf2 5bbf 273f a0bf 9f42 53bf 6460 8bbf
00000280: e3d7 91bf f3b6 e0bf 5909 f0be 0de9 3fbf
00000290: 19c1 89be 601b 71bd 6911 85bf 5382 5cbf
000002a0: cb58 2ebf 550b dcbe 477c 98bf 8a6f 18bf
000002b0: bddf 91bf e34c e6be bc63 3fbf 465d 2cbe
000002c0: 5561 7cbf 4b2e 81bf db41 aebf d6b1 98bf
000002d0: 63ad 70bf 967f 65bf 4681 efbe 7009 a1bf
000002e0: ea53 7bbe ba3e c2bf 2ced bbbf 85c4 67bf
000002f0: 49d5 4cbf db73 4fbe 80f6 72bf 7639 b5bf
00000300: de5d 2bbf a4d6 42bf 7733 8abf d1c5 89bf
00000310: 52e2 cdbf 01f7 8cbf e5dc 93bf a529 01bf
00000320: b72e 073d 98d8 80be c829 0c3d 2f2e a23a
00000330: a2b6 5ebe ca13 0c3e df67 5dbd ea30 63bc
00000340: 0bc9 ea3d ae56 a13d 2c07 f83c 2b70 ab3c
00000350: 54d7 633e 5719 f23d d03b 03be c91a 2cbe
00000360: e889 b8bd 8a99 2b3d 69f3 0a3e 44c2 ee3d
00000370: c7cc 3c3e 3876 e2bd ab9f f53d 1067 f73d
00000380: 98e7 0dbe 02d7 15be f894 0f3e 1205 ae3d
00000390: faae 92be 640a 32bd 728b 963d a606 03be
000003a0: f6fa ff3d 23d8 123d 7a50 adbd 2e9f 683d
000003b0: 9bd5 abbb 24ce 88be 89fd 513e 6d49 883d
000003c0: 2ed5 e43c f43e b8bd ed9e afbd 2fdf e33d
000003d0: 0912 eb3d d3e6 21be 46a4 5e3d 0e7e dbbd
000003e0: 6ec8 c1ba 314e c93d f8ed 54be 8191 dabd
000003f0: f805 e13d 25e8 91bd 2a12 39be 39a2 163e

lstm.bias_hh_l0 f4 [400]
0.009693856 -0.33645117 -1.395734 -1.0007457 -0.25092775 -1.0465351 -0.66877383 -0.39009896
1.0509089 -1.3320197 -0.6783341 -0.27007025 -0.55678725 -0.7921638 -0.7679538 -0.43519133
-1.2171657 -0.8001447 -0.1356281 -0.7409664 -0.5609418 -0.7989146 -0.48745644 -1.3685862
0.6026837 -0.53760827 -0.6673202 -2.3860126 -0.2957963 -2.770564 -1.100308 -0.21456629
0.15298131 -1.3404149 -1.1279356 -0.28384507 -0.96456367 -0.52946854 -0.70681477 0.30944335
-1.5259073 -0.92497957 -1.1400999 -0.63491845 -1.2562547 -0.82041764 -0.05220896 -1.3213319
-0.51222414 -0.71701527 -0.43425623 -0.48319042 -0.6582478 -0.6725324 0.26035348 -1.330993
-1.0089067 -2.5336607 -0.79463845 -0.3040637 -1.052332 -0.60058355 -0.655045 -0.6365024
-0.5136315 -0.7850338 -1.0936044 -1.2403859 -0.30709404 -0.43072423 -0.79204863 -0.7162075
-2.9485781 -0.64228404 -0.8362113 -0.11569691 -0.91898036 0.21176529 -0.49236476 -1.763614
-0.9100273 -0.6671654 -0.38550365 -2.5069804 -0.6104839 -1.943201 -0.72837347 -1.8437669
-0.6513833 -0.8369833 -0.616974 -0.5251155 -0.15892254 -0.8425912 -0.61817926 -2.8935552
-0.8154751 -0.3528037 -0.6450163 -0.60656947 -0.83138186 -0.76545787 -0.4626894 -0.76800936
-0.36635315 -1.1156613 -1.4581779 -0.91046864 -0.61922246 -0.43525803 -0.9835663 -0.93619204
-1.0958576 -1.3031144 -0.86211795 -1.7124506 -1.1537386 -0.65833455 -0.7899154 -0.30416515
-1.4867173 -0.83405703 -1.1158491 -0.52999 -0.8078092 -1.2204653 -1.0342544 -1.1409128
-0.5888808 -1.3119663 -0.7504817 -0.6411352 -0.6726121 -0.7274794 -0.27990305 -0.48386654
-0.95150113 -1.2921445 -0.5355759 -1.0432419 -1.3501662 -1.3174272 -0.87483376 -1.3350142
-1.1618677 -1.0348237 -0.9317168 -0.9111229 -0.87022287 -1.1846483 -1.225155 -1.0935205
-1.4189929 -1.1816704 -0.11941588 -0.58337444 -0.7151105 -1.1226565 -0.9488389 -1.0329782
-1.0988773 -1.8604947 -0.47907236 -0.6605952 -0.09135148 -0.15447015 -1.0628952 -0.8145789
-0.60145944 -0.40456682 -1.0694222 -0.5973111 -1.1153672 -0.4777654 -0.7129285 -0.12377888
-1.0499917 -1.0418552 -1.2756839 -1.301832 -1.0437202 -0.88219434 -0.4199731 -1.1613545
-0.26307952 -1.4316295 -1.3291775 -1.0084962 -0.6905973 -0.18128969 -1.0483931 -1.4982736
-0.64965224 -0.76949877 -1.165572 -1.1112297 -1.5062882 -1.1479133 -1.097623 -0.4659566
0.21244116 -0.13667582 0.0374633 -0.11044275 -0.05103873 0.012955864 -0.1717423 -0.19801165
0.052098412 0.019633122 0.021550555 0.1110493 0.34682322 0.21195719 -0.083656214 -0.15620047
-0.21360642 0.042264123 0.17486076 0.17913625 0.037455153 -0.006294307 0.09061447 0.14950001
-0.16656958 -0.0028611503 0.08288187 0.05767696 -0.22374374 -0.07663371 0.028212054 -0.14041494
0.017700782 0.016295167 -0.108800896 0.105428554 0.15610431 -0.25147906 0.29535612 0.16188157
0.15554105 -0.056528106 -0.07307101 0.07930859 -0.010045045 -0.08794018 0.054135166 -0.15126896
0.08377736 0.12492811 -0.21943045 -0.050463885 0.12860987 0.05325243 -0.06108251 0.028061911
00000000: fbd2 1e3c 5443 acbe 69a7 b2bf 6f18 80bf
00000010: 9a79 80be ddf4 85bf c334 2bbf 0dbb c7be
00000020: 2f84 863f 9f7f aabf 4ea7 2dbf a646 8abe
00000030: 9c89 0ebf 3fcb 4abf 9f98 44bf 66d1 debe
00000040: 16cc 9bbf 48d6 4cbf 18e2 0abe f9af 3dbf
00000050: e299 0fbf ab85 4cbf e493 f9be d52d afbf
00000060: 7b49 1a3f b2a0 09bf 7fd5 2abf 6eb4 18c0
00000070: 9d72 97be ec50 31c0 e4d6 8cbf 44b7 5bbe
00000080: 22a7 1c3e b792 abbf 3260 90bf 2454 91be
00000090: a5ed 76bf 408b 07bf d0f1 34bf 5c6f 9e3e
000000a0: ee50 c3bf 76cb 6cbf cbee 91bf 048a 22bf
000000b0: f4cc a0bf e406 52bf 10d9 55bd 6721 a9bf
000000c0: 1f21 03bf 508e 37bf d556 debe bc64 f7be
000000d0: ee82 28bf 152b 2cbf 0d4d 853e fb5d aabf
000000e0: db23 81bf 7f27 22c0 6d6d 4bbf 3dae 9bbe
000000f0: d1b2 86bf d8bf 19bf 07b1 27bf d2f1 22bf
00000100: 5b7d 03bf faf7 48bf 3bfb 8bbf f7c4 9ebf
00000110: 6e3b 9dbe e387 dcbe b3c3 4abf 6059 37bf
00000120: 81b5 3cc0 ba6c 24bf f211 56bf 80f2 ecbd
00000130: 4c42 6bbf 00d9 583e 3c17 fcbe 1bbe e1bf
00000140: 8df7 68bf 5acb 2abf bc60 c5be 5e72 20c0
00000150: ac48 1cbf cfba f8bf af76 3abf 8e00 ecbf
00000160: 0ec1 26bf 8a44 56bf 02f2 1dbf f86d 06bf
00000170: 97bc 22be 0fb4 57bf ff40 1ebf 0230 39c0
00000180: fac2 50bf b0a2 b4be ca1f 25bf 2348 1bbf
00000190: 71d5 54bf 0cf5 43bf a0e5 ecbe 439c 44bf
000001a0: a492 bbbe fdcd 8ebf 93a5 babf 7914 69bf
000001b0: 5d85 1ebf 24da debe 00cb 7bbf 48aa 6fbf
000001c0: 1045 8cbf 74cc a6bf c3b3 5cbf 9531 dbbf
000001d0: b5ad 93bf 9d88 28bf e537 4abf 89bb 9bbe
000001e0: c14c bebf c384 55bf 25d4 8ebf 6dad 07bf
000001f0: 95cc 4ebf 3538 9cbf 7362 84bf 6e09 92bf
00000200: e4c0 16bf 83ee a7bf 921f 40bf 7021 24bf
00000210: 4e30 2cbf 173c 3abf 744f 8fbe 5bbd f7be
00000220: 9495 73bf fe64 a5bf 811b 09bf f388 85bf
00000230: 3fd2 acbf 74a1 a8bf 1bf5 5fbf bfe1 aabf
00000240: 15b8 94bf 1a75 84bf fe84 6ebf 5a3f 69bf
00000250: edc6 5ebf 8ea2 97bf e1d1 9cbf 7bf8 8bbf
00000260: 8fa1 b5bf fa40 97bf 5090 f4bd 0758 15bf
00000270: 7b11 37bf 35b3 8fbf 1be7 72bf a138 84bf
00000280: 03a8 8cbf b124 eebf f948 f5be c41c 29bf
00000290: 7c16 bbbd 6c2d 1ebe f30c 88bf 3e88 50bf
000002a0: 3ff9 19bf 6223 cfbe d4e2 88bf 61e9 18bf
000002b0: 5ac4 8ebf ab9d f4be 7b82 36bf c87f fdbd
000002c0: 2166 86bf 835b 85bf 9c49 a3bf 6ea2 a6bf
000002d0: a098 85bf 7dd7 61bf b706 d7be 44a7 94bf
000002e0: 5cb2 86be a33f b7bf 7d22 aabf 6716 81bf
000002f0: fcca 30bf 01a4 39be bf31 86bf 6ec7 bfbf
00000300: 9c4f 26bf dffd 44bf 7731 95bf c63c 8ebf
00000310: 0dce c0bf d3ee 92bf e97e 8cbf dd91 eebe
00000320: 2d8a 593e bff4 0bbe 1e73 193d cf2f e2bd
00000330: fd0d 51bd d544 543c 37dd 2fbe 91c3 4abe
00000340: 2565 553d a4d5 a03c ca8a b03c d16d e33d
00000350: d092 b13e 4e0b 593e f353 abbd 04f3 1fbe
00000360: a4bb 5abe 251d 2d3d b30e 333e 7e6f 373e
00000370: 936a 193d 7940 cebb 1494 b93d 8816 193e
00000380: 3791 2abe 2382 3bbb f8bd a93d ad3e 6c3d
00000390: 141d 65be 22f2 9cbd f71c e73c efc8 0fbe
000003a0: 3b01 913c 717d 853c 01d3 debd edea d73d
000003b0: cfd9 1f3e ddc1 80be eb38 973e 48c4 253e
000003c0: 2746 1f3e 048a 67bd 41a6 95bd 8b6c a23d
000003d0: f993 24bc fb19 b4bd d6bc 5d3d 40e6 1abe
000003e0: 7793 ab3d 4fda ff3d 60b2 60be 38b3 4ebd
000003f0: 4eb2 033e 381f 5a3d a731 7abd 18e2 e53c

linear.weight f4 [1, 100]
-0.06900535 0.09784881 -0.07523395 0.021236466 0.04222278 -0.108192354 -0.14072868 0.0067546554
-0.42434528 -0.011461484 0.011447618 -0.2100375 -0.2266881 -0.100212954 -0.13860494 0.1874427
0.12618549 -0.014176213 -0.113801844 0.15482426 -0.2590587 -0.009438048 -0.113004655 -0.027136682
0.41994366 0.041975588 -0.2065274 -0.003762394 0.11961591 0.0010742787 0.024639023 0.083441444
-0.09122774 -0.03004843 0.13131268 -0.079163365 -0.0055777463 0.35116464 0.099479444 -0.1163761
-0.33627725 -0.00051517977 0.014069875 -0.075660884 -0.018390048 0.027319016 -0.05861746 0.049533423
-0.08189758 -0.061780624 0.09841549 0.011024445 -0.13747083 0.22641438 0.040900286 -0.09122492
0.054853108 -0.10003604 0.020225646 -0.1704794 -0.03251702 -0.57565194 0.07345965 -0.15638416
0.3353978 -0.13255543 -0.04766789 -0.13341878 0.04377659 -0.085012145 -0.21372044 -0.2853689
-0.013902163 -0.12182671 -0.045509625 -0.23292662 -0.010805672 -0.18776836 0.05207365 0.014336433
0.070668936 -0.10096973 0.034457464 -0.00013868934 0.025561457 -0.060549743 -0.38636166 0.046791073
0.00944398 -0.04616899 -0.028277384 -0.19336419 -0.05068141 0.06680515 -0.1419909 -0.014357146
-0.0451817 -0.025772944 0.098641925 -0.0007552189
00000000: ad52 8dbd f564 c83d 4214 9abd 19f8 ad3c
00000010: cbf1 2c3d f493 ddbd 2e1b 10be 2856 dd3b
00000020: c943 d9be f3c8 3bbc ca8e 3b3c 1214 57be
00000030: ed20 68be 733c cdbd 74ee 0dbe fbf0 3f3e
00000040: c536 013e 5943 68bc f110 e9bd 408a 1e3e
00000050: 58a3 84be 0ba2 1abc fc6e e7bd bf4d debc
00000060: db02 d73e 98ee 2b3d eb7b 53be 7f92 76bb
00000070: 30f9 f43d d0ce 8c3a c7d7 c93c 59e3 aa3d
00000080: 9cd5 babd 2028 f6bc d576 063e 6720 a2bd
00000090: 87c5 b6bb dacb b33e e1bb cb3d 9856 eebd
000000a0: 882c acbe 210d 07ba 5585 663c 18f4 9abd
000000b0: baa6 96bc 21cc df3c dd18 70bd 8fe3 4a3d
000000c0: ebb9 a7bd ae0d 7dbd 0f8e c93d e09f 343c
000000d0: 27c5 0cbe 2cd9 673e 0f87 273d 21d4 babd
000000e0: a7ad 603d b2df ccbd 41b0 a53c 2792 2ebe
000000f0: 9130 05bd ed5d 13bf 0372 963d 2b23 20be
00000100: 43b9 ab3e 9cbc 07be 683f 43bd ef9e 08be
00000110: 154f 333d d91a aebd 88d9 5abe df1b 92be
00000120: e6c5 63bc 4880 f9bd 4d68 3abd 5184 6ebe
00000130: 460a 31bc 5946 40be 2e4b 553d 5ce3 6a3c
00000140: e0ba 903d 38c9 cebd 4523 0d3d 236d 11b9
00000150: 4366 d13c 0203 78bd 32d1 c5be ffa7 3f3d
00000160: ecba 1a3c b21b 3dbd f9a5 e7bc 4301 46be
00000170: 4f97 4fbd 23d1 883d 1066 11be 3c3a 6bbc
00000180: 7210 39bd c821 d3bc c704 ca3d e2f9 45ba
