BodelLigging/Amerongen boven_bodemligging_V1.pt (torch, 661983 bytes, 5 tensors)

lstm.weight_ih_l0 f4 [400, 1]
1.6570095 1.1532972 -0.11715159 2.0659544 0.5668267 -0.4271816 0.5501343 0.43150675
1.0660304 -0.58087724 0.9176525 -0.693208 0.5953126 -0.40891972 1.3191736 0.97595096
-0.14821935 -0.47832105 -0.12475022 3.132564 0.7073123 0.7367433 0.1987551 1.7930009
0.6176736 1.5073172 -0.5274148 -0.9832322 0.9676601 0.2770996 -0.18592925 1.5956086
0.9691546 1.3032475 0.7464531 1.1751789 -1.226944 6.680904e-05 1.9301417 0.7778209
0.152133 0.23229371 0.95123214 1.0823033 0.9093398 1.094985 1.1839048 0.40339166
-0.5390621 -1.0096898 0.9835599 0.0686406 1.6276428 0.26135823 -0.032794364 -1.3360944
0.69104874 0.92519134 0.65695465 0.1841261 1.4974021 0.19864836 0.7577931 0.5841938
0.32176968 1.2395072 -0.8726043 0.8278741 0.4039223 1.5215049 1.6881248 -0.41757384
-0.057294026 0.5355744 0.7994174 0.3222842 1.7853681 0.2531055 0.4326145 0.10586562
0.21173452 -0.16163161 0.10323331 0.4006082 -0.42345238 0.28937316 0.32704875 0.7572513
0.117878444 0.9086693 0.51411414 -0.19474845 -0.1411937 0.76897997 0.09147072 0.44020844
-1.2040186 0.6449492 0.95444375 1.4376382 0.08290743 0.08216995 0.4894834 -0.40860483
0.8348604 0.010065412 0.18409117 0.089272834 -0.8066133 -0.524429 -0.16449834 -0.31832543
0.7047413 -0.6939286 -0.09909069 0.2589489 -0.5240198 -0.72649646 -0.7226137 -0.40584794
0.14597926 0.056557965 0.42446828 0.16760722 -0.1973677 0.29246128 0.30653757 0.35175082
-0.22754565 0.71046793 -0.012415773 -0.18127075 -0.18265396 0.07108913 -0.03145641 -0.34965798
0.99228954 -0.037804905 0.35423717 1.4654827 0.065439075 0.058539752 0.42181784 -0.2423086
0.08649098 -0.44204786 0.27055246 0.1366899 0.1621527 0.48187485 1.0159259 -0.018101124
0.023877308 0.30537727 -0.21341531 0.72945845 -0.55459857 0.42311832 -0.16000485 0.121543534
-0.039657224 0.043211427 -0.38821498 0.23697682 -0.12736556 -0.22591813 -1.4721972 0.7543252
0.031713784 -0.09964569 0.36540934 -0.5417297 0.2999547 0.24305461 0.20254543 0.16713724
-0.29365325 -0.6354765 0.10952432 0.075278565 -0.44184315 -0.089836285 0.4008388 -0.4264132
-0.09679171 0.78258127 -0.113385454 0.06679398 0.73838633 -0.20856175 0.17203055 -0.38234842
0.0027050227 -0.15764044 0.25811824 0.20612793 -0.18306632 0.420421 -0.19784553 -0.4806615
1.99964 0.943098 0.41651312 0.15387008 1.5477914 0.30598065 0.8603051 -0.74381834
-1.2887604 -0.7947023 -0.19920594 -1.1459209 0.50691855 -0.7810319 1.1693761 -0.5631062
-0.58472234 -1.0274878 -0.73438597 1.5398514 1.3120224 0.6641512 -0.17847276 1.1273949
0.335856 -1.4417499 -1.3887085 -1.5552145 1.4614733 0.41640458 -0.67688644 1.1775291
1.1869085 1.6405544 -1.5509956 -0.994223 0.12121826 0.34502053 1.5770121 2.0471938
-1.132718 1.8953769 -0.7547625 -1.6284853 1.2985646 -1.2435958 -1.034408 -0.76701045
0.28866455 -1.4451078 1.6930432 1.0640261 1.9247702 0.047249686 -0.9792255 1.6076282
00000000: e318 d43f 3e9f 933f 2ced efbd 9938 0440
00000010: 8e1b 113f 8cb7 dabe 9ad5 0c3f 74ee dc3e
00000020: af73 883f 5fb4 14bf 46eb 6a3f 1476 31bf
00000030: 6866 183f ed5d d1be aeda a83f ecd7 793f
00000040: d0c6 17be 7fe6 f4be 0b7d ffbd ee7b 4840
00000050: 6b12 353f 359b 3c3f 7586 4b3e 0e81 e53f
00000060: db1f 1e3f c5ef c03f a804 07bf 1bb5 7bbf
00000070: 93b8 773f 00e0 8d3e 3d64 3ebe e73c cc3f
00000080: 841a 783f d0d0 a63f 8d17 3f3f 436c 963f
00000090: 800c 9dbf d51b 8c38 e20e f73f 451f 473f
000000a0: c1c8 1b3e 67de 6d3e f383 733f ea88 8a3f
000000b0: 7eca 683f 7828 8c3f 318a 973f 5a89 ce3e
000000c0: f9ff 09bf 843d 81bf 95ca 7b3f 7193 8c3d
000000d0: 9956 d03f bfd0 853e 6253 06bd 2405 abbf
000000e0: 92e8 303f 57d9 6c3f 2e2e 283f 8d8b 3c3e
000000f0: dfaa bf3f 7a6a 4b3e bbfe 413f ba8d 153f
00000100: ffbe a43e 2ca8 9e3f ff62 5fbf 8fef 533f
00000110: e7ce ce3e acc0 c23f 7914 d83f 3dcc d5be
00000120: 24ad 6abd 671b 093f 9ea6 4c3f 6f02 a53e
00000130: f186 e43f 0b97 813e a67f dd3e 13d0 d83d
00000140: efd0 583e c282 25be fc6b d33d 851c cd3e
00000150: c0ce d8be b828 943e ef72 a73e 39db 413f
00000160: 416a f13d 8d9e 683f fc9c 033f 236c 47be
00000170: 1595 10be dfdb 443f 0055 bb3d 0063 e13e
00000180: 481d 9abf 641b 253f 6d56 743f 8704 b83f
00000190: 5fcb a93d b848 a83d 919d fa3e a734 d1be
000001a0: 69b9 553f 66e9 243c 6582 3c3e add4 b63d
000001b0: 367e 4ebf fb40 06bf 4172 28be 8dfb a2be
000001c0: ed69 343f 4ea5 31bf 0ff0 cabd f394 843e
000001d0: 2926 06bf acfb 39bf 36fd 38bf 4dcb cfbe
000001e0: 967b 153e 53a9 673d e853 d93e 3aa1 2b3e
000001f0: c21a 4abe 7cbd 953e 7ef2 9c3e af18 b43e
00000200: ba01 69be 3ae1 353f 876b 4bbc 0a9f 39be
00000210: a409 3bbe 2e97 913d 70d8 00bd 5f06 b3be
00000220: b006 7e3f 51d9 1abd 935e b53e f094 bb3f
00000230: ec04 863d 61c7 6f3d 82f8 d73e bf1f 78be
00000240: 2f22 b13d 1954 e2be da85 8a3e 70f8 0b3e
00000250: 5b0b 263e 4db8 f63e dc09 823f cf48 94bc
00000260: 589a c33c 695a 9c3e 8b89 5abe cabd 3a3f
00000270: 2cfa 0dbf f7a2 d83e 50d8 23be d1eb f83d
00000280: 9d6f 22bd 77fe 303d 1dc4 c6be 0daa 723e
00000290: 1e6c 02be 1557 67be f570 bcbf 751b 413f
000002a0: 50e6 013d 0a13 ccbd ef16 bb3e ccae 0abf
000002b0: aa93 993e 4fe3 783e 1268 4f3e 0626 2b3e
000002c0: b859 96be 97ae 22bf 494e e03d a62b 9a3d
000002d0: 4439 e2be 16fc b7bd be3a cd3e d552 dabe
000002e0: bb3a c6bd 3f57 483f a236 e8bd 48cb 883d
000002f0: e306 3d3f 3691 55be c728 303e 2cc3 c3be
00000300: c046 313b 7f6c 21be 1328 843e 3313 533e
00000310: bd75 3bbe 6c41 d73e 0598 4abe 4419 f6be
00000320: 34f4 ff3f df6e 713f 3541 d53e 1e90 1d3e
00000330: 071e c63f 7fa9 9c3e f43c 5c3f e16a 3ebf
00000340: 1af6 a4bf 9c71 4bbf a4fc 4bbe 89ad 92bf
00000350: 6ac5 013f b5f1 47bf 1eae 953f ba27 10bf
00000360: 5db0 15bf b884 83bf b800 3cbf da19 c53f
00000370: 5af0 a73f d005 2a3f 90c1 36be 7a4e 903f
00000380: 51f5 ab3e 438b b8bf 33c1 b1bf 4511 c7bf
00000390: 8f11 bb3f fb32 d53e 6e48 2dbf 46b9 963f
000003a0: 9eec 973f b0fd d13f 0687 c6bf 6685 7ebf
000003b0: 4741 f83d 88a6 b03e 88db c93f 3905 0340
000003c0: e7fc 90bf b69b f23f 1d38 41bf 3572 d0bf
000003d0: 5d37 a63f 262e 9fbf 7b67 84bf cc5a 44bf
000003e0: d7cb 933e 4bf9 b8bf a4b5 d83f 0232 883f
000003f0: df5e f63f e388 413d 86ae 7abf c3c6 cd3f

lstm.weight_hh_l0 f4 [400, 100]
0.5407949 0.49926037 -0.7606532 -0.46841267 0.24438979 0.5262173 -0.53223944 0.11009923
0.0988244 -0.5638209 -0.6412282 -0.37865222 0.13976425 -0.5601161 -0.68499476 0.23014995
0.037626695 -0.62010515 -1.1822873 -0.37244403 -1.1275204 0.32845828 -1.7072948 0.7532417
0.94830376 -1.6471882 0.5936877 -0.6149475 0.55618095 -1.6938397 0.046691295 -0.7101236
1.114997 0.93681455 -0.3516869 -1.0417556 -0.60736465 1.0011648 0.26780647 -0.42678776
-1.6051583 0.92756754 -0.44153214 -0.7741014 -0.41476354 0.41073442 -0.055638947 -0.5749197
0.7084714 -0.48585746 -0.6082417 -0.61616206 0.052120246 -0.8556099 -0.6946183 1.3110548
0.6924663 0.055442277 0.32583356 1.4344993 -0.39886558 -1.3199232 -1.2687714 0.041721985
-0.6365612 0.01455679 0.024027888 -1.3072928 0.2489108 0.1913788 0.3787466 -1.4096618
0.08477262 -0.28931564 0.09148213 0.97875965 -1.2015532 -0.23105074 0.55745995 0.41015723
-0.8261423 -1.7886178 -0.89308476 0.74416757 -0.82707316 0.40704754 0.57449776 -0.7817165
0.5431562 -0.37973493 -0.10135657 -0.067497715 -0.59908843 -0.004763803 -0.76194984 0.134261
-1.2531674 -0.55809975 0.07494341 -0.19332455 0.46051168 -0.46578166 0.104043774 -0.39668763
-0.058056176 0.6975631 -0.6418642 -0.53863615 -0.94954336 -0.36281285 -0.6742592 -0.9710447
-0.9074487 -0.39665338 0.6620831 0.88110965 -0.5961226 -0.42351648 -0.42451262 -0.3581852
0.04220053 0.51463807 -0.14180493 0.11358918 -0.002735252 0.21707486 -0.2581551 -1.1793976
0.13264124 0.43355384 0.121048495 0.63284475 -0.926753 0.6047858 -0.83466935 -0.33369356
-0.9324467 -0.58027524 0.13302912 -1.4255413 -0.45548242 0.46185112 -0.03313089 -0.82975125
0.38435373 -0.8893349 -0.43199053 -0.7214674 0.28723913 -0.50002426 0.21013984 0.5537592
0.54189306 0.9712295 -0.410554 0.86421394 0.058167215 0.30754033 -0.3726756 -0.01604736
-1.1576735 -0.19593069 -0.62906677 -0.11913402 0.19782273 0.89237404 -0.45029697 -0.257331
-0.5882466 0.43566245 0.44478586 -0.48505354 -0.4821102 0.22230718 -1.028219 0.72108495
-0.68105 0.44208017 1.245689 0.39822328 -0.13304174 -0.83778626 -0.37152454 0.8187394
0.17344642 0.38548514 -0.23941143 -0.45965835 0.2482619 -1.1810904 -1.3059342 0.47704005
-0.8922271 -0.76764995 0.866282 -0.6206239 -1.4948641 -0.13430326 -0.62035817 0.10241767
-0.18444206 -0.58418787 -0.80613095 -1.3651973 0.077013984 0.46197712 -0.853602 0.17109671
0.19861265 -0.2097083 -0.17186554 0.57523066 1.0031142 0.4156552 -0.73570424 -0.42579788
-0.102318995 0.64307636 0.41630322 -0.9957182 0.40716344 0.6726967 0.32326618 -0.5188948
0.22502974 0.38015658 1.4295189 0.71767396 0.3442213 -1.2844485 0.05934778 0.023031285
-0.30062112 -0.07489498 -0.9996312 -0.36846888 -0.5744842 0.93948436 -0.7662447 0.5730438
0.40040043 -0.57452756 0.66092044 -0.18764362 -0.8101827 0.09532352 0.68139243 0.2910044
-0.70301 0.8756491 -0.09923481 -0.58074254 -0.69463503 -0.8957698 0.4230704 -1.3455663
00000000: 8971 0a3f 0e9f ff3e 2bba 42bf c9d3 efbe
00000010: 5141 7a3e 2db6 063f d840 08bf b57b e13d
00000020: 7264 ca3d 9156 10bf 8827 24bf b4de c1be
00000030: 5c1e 0f3e c563 0fbf d15b 2fbf 6eac 6b3e
00000040: 731e 1a3d 36bf 1ebf 3155 97bf fcb0 bebe
00000050: 9752 90bf af2b a83e a388 dabf 73d4 403f
00000060: 09c4 723f 10d7 d2bf ebfb 173f 336d 1dbf
00000070: e061 0e3f bdcf d8bf 5f3f 3f3d a9ca 35bf
00000080: 39b8 8e3f 14d3 6f3f 4e10 b4be 3f58 85bf
00000090: 407c 1bbf 2b26 803f ee1d 893e ed83 dabe
000000a0: d475 cdbf 1175 6d3f 8010 e2be 822b 46bf
000000b0: e35b d4be c84b d23e aae5 63bd f02d 13bf
000000c0: 625e 353f 4fc2 f8be bab5 1bbf ccbc 1dbf
000000d0: 0a7c 553d 4009 5bbf 81d2 31bf a5d0 a73f
000000e0: 7945 313f 7117 633d a8d3 a63e ac9d b73f
000000f0: 1c38 ccbe 3ef3 a8bf 1a67 a2bf ace4 2a3d
00000100: adf5 22bf 9a7f 6e3c 22d6 c43c 5f55 a7bf
00000110: 79e2 7e3e cef8 433e 13eb c13e cc6f b4bf
00000120: 449d ad3d 2e21 94be fc5a bb3d fe8f 7a3f
00000130: 7fcc 99bf 9198 6cbe b2b5 0e3f 2100 d23e
00000140: 107e 53bf 6ef1 e4bf 34a1 64bf c481 3e3f
00000150: 11bb 53bf 8968 d03e 4912 133f 931e 48bf
00000160: 490c 0b3f 9e6c c2be 0994 cfbd 3e3c 8abd
00000170: dc5d 19bf ad19 9cbb 250f 43bf b77b 093e
00000180: ca67 a0bf a0df 0ebf ee7b 993d dff6 45be
00000190: 30c8 eb3e ef7a eebe e714 d53d a41a cbbe
000001a0: 50cc 6dbd 7f93 323f 3651 24bf 0fe4 09bf
000001b0: 4615 73bf 9bc2 b9be 409c 2cbf 6396 78bf
000001c0: 8f4e 68bf 2716 cbbe 477e 293f 6790 613f
000001d0: 7e9b 18bf 27d7 d8be b859 d9be 0d64 b7be
000001e0: 77da 2c3d 52bf 033f 5035 11be 72a1 e83d
000001f0: ea41 33bb df48 5e3e e82c 84be 80f6 96bf
00000200: 1bd3 073e c5fa dd3e 46e8 f73d 1d02 223f
00000210: af3f 6dbf 3ed3 1a3f e4ac 55bf e2d9 aabe
00000220: d4b4 6ebf eb8c 14bf c938 083e 2378 b6bf
00000230: fe34 e9be c077 ec3e 42b4 07bd 946a 54bf
00000240: 03ca c43e 74ab 63bf dd2d ddbe 16b2 38bf
00000250: 0211 933e 9701 00bf e62e 573e 2ac3 0d3f
00000260: 81b9 0a3f 7fa2 783f 2234 d2be 203d 5d3f
00000270: bf40 6e3d ed75 9d3e 56cf bebe c175 83bc
00000280: a52e 94bf 0ea2 48be 850a 21bf 89fc f3bd
00000290: 0b92 4a3e a072 643f 538d e6be e4c0 83be
000002a0: 5497 16bf 260f df3e f9ba e33e f058 f8be
000002b0: 26d7 f6be 7ea4 633e ae9c 83bf 0699 383f
000002c0: 4b59 2ebf 5558 e23e bd72 9f3f ece3 cb3e
000002d0: 183c 08be 2979 56bf 7738 bebe e898 513f
000002e0: f09b 313e 4f5e c53e 4528 75be 5758 ebbe
000002f0: 5e38 7e3e f82d 97bf da28 a7bf 983e f43e
00000300: ff68 64bf b584 44bf a8c4 5d3f 35e1 1ebf
00000310: b557 bfbf cb86 09be cbcf 1ebf 5bc0 d13d
00000320: 61de 3cbe 568d 15bf 995e 4ebf c9be aebf
00000330: 82b9 9d3d 4488 ec3e a985 5abf fa33 2f3e
00000340: 1d61 4b3e c6bd 56be 85fd 2fbe 5142 133f
00000350: 0c66 803f c2d0 d43e 1d57 3cbf 2e02 dabe
00000360: 9f8c d1bd a7a0 243f b225 d53e 63e7 7ebf
00000370: ba77 d03e da35 2c3f 2583 a53e 4ad6 04bf
00000380: 326e 663e e2a3 c23e 7afa b63f 7bb9 373f
00000390: c63d b03e cf68 a4bf a816 733d 1bac bc3c
000003a0: 03eb 99be 8a62 99bd d5e7 7fbf f4a7 bcbe
000003b0: 6611 13bf 0c82 703f 9d28 44bf 00b3 123f
000003c0: 4901 cd3e 3d14 13bf 1532 293f a625 40be
000003d0: 2268 4fbf fa38 c33d bc6f 2e3f 87fe 943e
000003e0: 77f8 33bf 8a2a 603f 9f3b cbbd 8bab 14bf
000003f0: 9ad3 31bf 2b51 65bf af9c d83e 843b acbf

lstm.bias_ih_l0 f4 [400]
-0.5111909 -0.6412088 -1.2739881 -0.45702788 -0.97335273 -0.23629034 -0.5324606 -0.74593484
-0.5566927 -0.3692305 -1.769697 -0.36914316 -1.5070261 -0.8462964 -0.8964748 -0.96734023
-0.7817308 -0.43103006 -0.85373473 -0.78124684 -0.7104767 -1.4885304 -0.60621715 -0.78192633
-1.3705084 -0.33916557 -0.23871632 0.02294779 -0.8070319 -0.6943149 -1.4307795 -1.2398571
-0.36400944 -0.74736357 -1.0003896 -1.046418 0.16054873 -1.0646845 -0.68521196 -0.2569342
-0.54043233 -0.20577523 -1.2957635 -0.3581682 -0.5933329 -0.50225854 -1.118078 -0.47233918
-0.98223704 -0.45983094 -0.50783736 -0.77657896 -0.20196387 -1.2393864 -1.0420729 -0.12679054
-0.19138354 -0.68600214 -1.5080546 0.07295815 -0.6524224 -0.43896368 -0.9504259 0.25039345
-0.80947125 -0.86010194 0.2415901 -1.0979396 -0.6406772 -0.45097142 -0.3344822 -0.29665726
0.08634473 -1.1738356 0.3371723 -0.18520157 -0.1734314 -1.6910644 -0.033060987 -0.49279842
-0.60278213 -1.3906828 0.14825846 -0.61758 -0.84862614 -0.21573977 -0.62235147 -0.61925024
-0.96506536 -0.69372904 -1.1146731 -0.0642742 -0.14596301 -1.0591524 -2.4207559 -1.4781362
0.15949221 -2.9519298 -1.1761562 -0.63156444 -0.77643466 -0.57280755 -0.31359094 0.24314749
-0.9191252 -0.5226276 -0.03835234 -0.5699492 -0.9249048 -0.42918172 -0.5834419 -0.6445957
-0.6671687 0.1266864 -0.4273533 -0.4190743 -0.6238574 0.30210066 0.03921222 -0.4796685
-0.48749343 -0.5038699 -0.38041964 -0.55756676 -0.62661004 -0.7781634 -0.00033331622 -1.000085
-0.14262141 -0.7675289 -1.5478575 -0.94140023 -0.86899304 -0.7316321 -0.92149544 -0.390641
-0.49901074 -0.46554744 -0.5320613 -1.1042383 -0.6204002 -0.28637612 -0.4924003 -0.74882776
-0.58471614 -0.8731893 -0.46411538 -0.3825921 0.019644303 -1.4333131 -0.30923027 -0.671923
-0.30268994 -0.9671181 -0.33382264 -1.1658937 -0.71266395 -1.0162026 -0.5520061 -0.5433042
-0.5254511 -0.394678 -0.47442347 -0.641618 -0.81574446 -0.507183 0.09589886 -0.23784073
-1.0130389 -0.8177424 -0.55839294 -0.42617744 -0.38189742 -0.451284 -0.8714474 -0.6139411
-0.4729183 -0.26489267 -0.97341204 -1.2587372 -0.38632092 -0.91900724 -0.47662488 -0.55486554
-0.3497998 -0.6142042 -0.49989438 -0.48778114 -0.6391101 -1.0483727 -0.8090094 -0.29323015
-0.5448077 -1.0110754 -1.4048922 -1.4425281 -0.53577566 -0.7141422 -0.38922322 -0.18715099
0.05898348 -0.037319772 -0.16643935 0.5603843 -0.06706559 0.09094747 0.07208544 0.023832776
0.16977222 -0.1147175 -0.04360169 -0.1494587 0.0035681284 -0.16740656 -0.016089385 0.09481557
-0.02234823 -0.20136185 -0.08742615 -0.1737933 -0.12366172 0.113749884 0.103004485 0.09136892
-0.09049216 0.073432684 -0.123478495 -0.13633834 0.14878713 0.11185305 -0.029679123 -0.04584106
-0.101756625 0.14128087 0.058495224 -0.039576992 0.30533716 -0.061296523 0.012071127 -0.02183349
0.015742602 -0.037976965 0.0027336304 -0.02135909 0.15525913 -0.11347247 -0.05202747 -0.03733207
-0.4691379 -0.08515697 0.052277252 0.039842445 0.025462078 0.06328126 -0.13658203 0.3684733
00000000: 68dd 02bf 4326 24bf 0b12 a3bf 8fff e9be
00000010: a52d 79bf 18f6 71be 564f 08bf 96f5 3ebf
00000020: 6a83 0ebf c80b bdbe 6e85 e2bf 5500 bdbe
00000030: 3be6 c0bf e2a6 58bf 5f7f 65bf 9ca3 77bf
00000040: 821f 48bf f9af dcbe 5c8e 5abf cbff 47bf
00000050: cde1 35bf 2a88 bebf 0c31 1bbf 532c 48bf
00000060: d26c afbf 1ca7 adbe 0d72 74be 01fd bb3c
00000070: a599 4ebf 9fbe 31bf c823 b7bf a3b3 9ebf
00000080: 725f babe 3853 3fbf c40c 80bf 06f1 85bf
00000090: e366 243e 9547 88bf 0d6a 2fbf e18c 83be
000000a0: c659 0abf beb6 52be 94db a5bf d361 b7be
000000b0: aae4 17bf 0494 00bf 2e1d 8fbf 71d6 f1be
000000c0: e373 7bbf f66e ebbe a101 02bf e1cd 46bf
000000d0: 9ecf 4ebe 37a4 9ebf a562 85bf 61d5 01be
000000e0: 0cfa 43be d69d 2fbf ef07 c1bf 156b 953d
000000f0: 2805 27bf d9bf e0be 1d4f 73bf 9233 803e
00000100: 8239 4fbf a42f 5cbf 6563 773e 4989 8cbf
00000110: 6c03 24bf bae5 e6be 4041 abbe 76e3 97be
00000120: 81d5 b03d 3f40 96bf d9a1 ac3e 7ba5 3dbe
00000130: 0098 31be cc74 d8bf f56a 07bd 1350 fcbe
00000140: ee4f 1abf e501 b2bf 11d1 173e b919 1ebf
00000150: 903f 59bf e3ea 5cbe 6d52 1fbf 2f87 1ebf
00000160: 860e 77bf 3a98 31bf 9cad 8ebf 31a2 83bd
00000170: 5477 15be 4e92 87bf aaed 1ac0 9133 bdbf
00000180: ed51 233e 6bec 3cc0 498c 96bf 35ae 21bf
00000190: 6cc4 46bf 84a3 12bf fe8e a0be a8fb 783e
000001a0: ca4b 6bbf ecca 05bf 5817 1dbd 31e8 11bf
000001b0: 90c6 6cbf b5bd dbbe 735c 15bf 3904 25bf
000001c0: 91cb 2abf 14ba 013e 0dce dabe e890 d6be
000001d0: 1eb5 1fbf f0ac 9a3e fe9c 203d 1c97 f5be
000001e0: bd98 f9be 9efd 00bf 5dc6 c2be b2bc 0ebf
000001f0: 8469 20bf b735 47bf f2c0 aeb9 c902 80bf
00000200: 590b 12be c67c 44bf 3220 c6bf 9bff 70bf
00000210: 5476 5ebf 3e4c 3bbf 20e7 6bbf 1902 c8be
00000220: 567e ffbe 3c5c eebe 2b35 08bf ae57 8dbf
00000230: 8cd2 1ebf e49f 92be e41b fcbe 2db3 3fbf
00000240: f5af 15bf 5589 5fbf 88a0 edbe 1de3 c3be
00000250: 17ed a03c ce76 b7bf 6e53 9ebe 2503 2cbf
00000260: 2dfa 9abe 0d95 77bf cdea aabe 013c 95bf
00000270: 2571 36bf ed12 82bf 4650 0dbf fc15 0bbf
00000280: f783 06bf 3c13 cabe a2e7 f2be 1441 24bf
00000290: a1d4 50bf bfd6 01bf 9f66 c43d 858c 73be
000002a0: 42ab 81bf 9157 51bf d7f2 0ebf ee33 dabe
000002b0: 0f88 c3be b20e e7be 2d17 5fbf 3e2b 1dbf
000002c0: 5922 f2be 03a0 87be 8831 79bf 4d1e a1bf
000002d0: dbcb c5be 0f44 6bbf 2d08 f4be ab0b 0ebf
000002e0: f618 b3be 7d3c 1dbf 28f2 ffbe 73be f9be
000002f0: b89c 23bf 1431 86bf 3d1b 4fbf 4322 96be
00000300: 8478 0bbf eb6a 81bf 82d3 b3bf c3a4 b8bf
00000310: 9828 09bf 06d2 36bf 4448 c7be 82a4 3fbe
00000320: a998 713d 9edc 18bd 146f 2abe 5875 0f3f
00000330: af59 89bd ab42 ba3d 88a1 933d f43c c33c
00000340: c5d8 2d3e 02f1 eabd b097 32bd b40b 19be
00000350: 43d7 693b a06c 2bbe e3cd 83bc aa2e c23d
00000360: a313 b7bc cd31 4ebe 7b0c b3bd dff6 31be
00000370: 5b42 fdbd b3f5 e83d 04f4 d23d a11f bb3d
00000380: f453 b9bd e063 963d 4be2 fcbd 479c 0bbe
00000390: a75b 183e 3613 e53d a221 f3bc d6c3 3bbd
000003a0: c765 d0bd efab 103e b098 6f3d 7c1b 22bd
000003b0: 2755 9c3e 1012 7bbd fac5 453c 26dc b2bc
000003c0: a1f6 803c bc8d 1bbd b526 333b 42f9 aebc
000003d0: 40fc 1e3e 4164 e8bd c21a 55bd 83e9 18bd
000003e0: d832 f0be c766 aebd ac20 563d d531 233d
000003f0: d995 d03c 9b99 813d 29dc 0bbe 88a8 bc3e

lstm.bias_hh_l0 f4 [400]
-0.44267422 -0.7655585 -1.1479222 -0.40443763 -1.1039056 -0.2933456 -0.40032014 -0.7199949
-0.6728813 -0.50140697 -1.8404775 -0.4285066 -1.531773 -0.8240795 -0.86234415 -0.9330356
-0.80227286 -0.35181835 -0.7774288 -0.6703137 -0.6791863 -1.506588 -0.59651893 -0.82774657
-1.4959242 -0.36762196 -0.17509836 -0.0027790065 -0.9118862 -0.7470313 -1.5605538 -1.1973779
-0.53084743 -0.63599306 -1.0787966 -1.0474457 0.29896685 -1.1074495 -0.80420953 -0.24840148
-0.5440858 -0.09303916 -1.308053 -0.42344156 -0.62427294 -0.41573507 -1.1272128 -0.57565874
-0.95249516 -0.4503129 -0.3615134 -0.8671105 -0.2668647 -1.2632277 -1.076973 -0.15822192
-0.22858852 -0.7799887 -1.4074061 0.18829359 -0.6666663 -0.37493154 -0.9633763 0.17422828
-0.6494439 -0.85554993 0.3497019 -1.0950962 -0.7463124 -0.5191545 -0.3396747 -0.2658814
-0.04239791 -1.2963305 0.26502186 -0.2401 -0.25593784 -1.643211 -0.12521 -0.6209538
-0.6983176 -1.3127899 0.3098548 -0.61770487 -0.7685796 -0.20888883 -0.6820428 -0.525906
-0.7888067 -0.68338054 -1.0853208 -0.02298607 -0.1672616 -1.0728889 -2.4858196 -1.4830749
0.238378 -2.9504662 -1.0167801 -0.5059311 -0.8109905 -0.6630219 -0.38160667 0.17457661
-0.9544729 -0.5936337 -0.10303067 -0.7427853 -0.8376645 -0.40882564 -0.6439483 -0.533368
-0.66235095 0.05138185 -0.37632322 -0.37258235 -0.64150816 0.26391286 0.18070942 -0.5493602
-0.5519971 -0.43779898 -0.35842368 -0.52476364 -0.6332723 -0.8788644 -0.10975529 -1.1448189
-0.047424976 -0.7416386 -1.4096757 -0.9935605 -0.7655325 -0.6477095 -1.0091584 -0.36622053
-0.53974813 -0.5120449 -0.5492881 -1.0711349 -0.6710163 -0.41557246 -0.5187983 -0.8515239
-0.45855865 -0.87640023 -0.60159177 -0.36778113 0.00092758087 -1.4940165 -0.40861824 -0.6126198
-0.46444574 -1.0216773 -0.4031281 -1.1687565 -0.63564646 -1.0257283 -0.5701645 -0.6454116
-0.5854477 -0.4199925 -0.49420178 -0.7213921 -0.65714204 -0.46490222 0.06287242 -0.12776972
-1.0521947 -0.77681637 -0.66056734 -0.40545186 -0.25337058 -0.36639175 -0.9822862 -0.5202242
-0.50776416 -0.2642868 -0.8886072 -1.2399935 -0.32406458 -0.94835156 -0.45149735 -0.62120414
-0.37195924 -0.7535409 -0.40895456 -0.47287035 -0.70131207 -1.0397874 -0.9139604 -0.36218977
-0.55815065 -1.0316046 -1.3027576 -1.4632411 -0.6918728 -0.66037303 -0.3740079 -0.20905513
-0.13358429 0.047454022 -0.18189946 0.40466657 0.00932269 0.1315235 0.042681985 0.0360214
0.0464768 -0.03960091 0.07963062 -0.18965828 -0.08075291 -0.14437672 -0.035937417 0.1441018
-0.025131064 -0.12193089 -0.14428174 -0.15189734 -0.030502383 0.027795311 0.057797518 0.047866847
-0.086887345 0.048169326 -0.015357466 -0.13402042 0.12514551 0.242308 0.07267018 0.07018012
-0.052168984 -0.02778102 0.06606908 -0.05698132 0.37308946 0.11190925 0.03650816 -0.17689568
-0.0686276 0.07107675 0.032854937 0.0013098741 0.11844943 0.030553294 0.008430841 -0.02113146
-0.38156378 -0.17232253 -0.00389756 0.11631844 -0.107157886 -0.035562016 -0.056196433 0.29807556
00000000: 32a6 e2be a4fb 43bf 1def 92bf 7312 cfbe
00000010: c74c 8dbf 6531 96be c3f6 ccbe 9651 38bf
00000020: f341 2cbf 355c 00bf c494 ebbf 3865 dbbe
00000030: 2311 c4bf e0f6 52bf 96c2 5cbf 6cdb 6ebf
00000040: c161 4dbf 8921 b4be 9305 47bf ae99 2bbf
00000050: 27df 2dbf e0d7 c0bf 77b5 18bf 33e7 53bf
00000060: 727a bfbf f238 bcbe fc4c 33be fe1f 36bb
00000070: 6071 69bf 713d 3fbf 3ac0 c7bf ae43 99bf
00000080: 9ee5 07bf 71d0 22bf 0216 8abf b312 86bf
00000090: 2f12 993e e8c0 8dbf ade0 4dbf f55c 7ebe
000000a0: 3549 0bbf 518b bebd 486e a7bf 55cd d8be
000000b0: 5ad0 1fbf 3adb d4be 8248 90bf 5f5e 13bf
000000c0: b9d6 73bf 6a8f e6be 4918 b9be f4fa 5dbf
000000d0: 7da2 88be 72b1 a1bf 40da 89bf ed04 22be
000000e0: 1c13 6abe 57ad 47bf e225 b4bf 09d0 403e
000000f0: a5aa 2abf 07f7 bfbe d49f 76bf e668 323e
00000100: f541 26bf 5205 5bbf 210c b33e 1d2c 8cbf
00000110: 540e 3fbf 4fe7 04bf d8e9 adbe 9b21 88be
00000120: 6ea9 2dbd 28ee a5bf f2b0 873e c6dc 75be
00000130: 490a 83be bd54 d2bf 0d37 00be d4f6 1ebf
00000140: f1c4 32bf 8009 a8bf 4aa5 9e3e e821 1ebf
00000150: a2c1 44bf f4e6 55be 5b9a 2ebf c7a1 06bf
00000160: 3cef 49bf 07f2 2ebf cbeb 8abf 484d bcbc
00000170: a046 2bbe 6c54 89bf ab17 1fc0 66d5 bdbf
00000180: 5d19 743e 70d4 3cc0 da25 82bf b384 01bf
00000190: 139d 4fbf cebb 29bf f361 c3be 36c4 323e
000001a0: 5658 74bf 61f8 17bf be01 d3bd 2d27 3ebf
000001b0: 2e71 56bf 9851 d1be ccd9 24bf ce8a 08bf
000001c0: d58f 29bf c675 523d 70ad c0be 1dc3 bebe
000001d0: e139 24bf 961f 873e e40b 393e dfa2 0cbf
000001e0: af4f 0dbf 3027 e0be 4f83 b7be e956 06bf
000001f0: 221e 22bf 42fd 60bf 62c7 e0bd 6d89 92bf
00000200: b140 42bd 07dc 3dbf 4170 b4bf fb59 7ebf
00000210: f0f9 43bf 4ad0 25bf 1a2c 81bf 4281 bbbe
00000220: ef2c 0abf 6015 03bf 259e 0cbf f31a 89bf
00000230: b9c7 2bbf eac5 d4be f7cf 04bf 78fd 59bf
00000240: 33c8 eabe c45b 60bf eb01 1abf cf4d bcbe
00000250: e628 733a ef3b bfbf 6936 d1be a7d4 1cbf
00000260: d5cb edbe 52c6 82bf ce66 cebe d099 95bf
00000270: bab9 22bf 114b 83bf 4df6 11bf b239 25bf
00000280: e7df 15bf 4209 d7be 0408 fdbe 27ad 38bf
00000290: 763a 28bf aa07 eebe 41c3 803d 11d6 02be
000002a0: 51ae 86bf 70dd 46bf f11a 29bf 6397 cfbe
000002b0: cab9 81be b397 bbbe 1c77 7bbf 6a2d 05bf
000002c0: d5fc 01bf 9950 87be c37b 63bf 1bb8 9ebf
000002d0: cbeb a5be 2bc7 72bf a92a e7be 3c07 1fbf
000002e0: 7171 bebe 0ee8 40bf 7e62 d1be 101c f2be
000002f0: 3089 33bf c117 85bf 4ff9 69bf f070 b9be
00000300: f6e2 0ebf 9f0b 84bf c3c0 a6bf 7c4b bbbf
00000310: 931e 31bf 350e 29bf f77d bfbe 8c12 56be
00000320: 52ca 08be 265f 423d da43 3abe 7530 cf3e
00000330: 32be 183c 19ae 063e 4ed3 2e3d 2d8b 133d
00000340: 755e 3e3d 9034 22bd 6115 a33d c835 42be
00000350: c861 a5bd 7ed7 13be 1d33 13bd 6c8f 133e
00000360: a9df cdbc e7b6 f9bd 98be 13be fa8a 1bbe
00000370: 22e0 f9bc feb2 e33c 17bd 6c3d 0710 443d
00000380: fef1 b1bd 334d 453d e29d 7bbc a63c 09be
00000390: 2526 003e 971f 783e 1ad4 943d 98ba 8f3d
000003a0: 25af 55bd 0695 e3bc 3a4f 873d 3f65 69bd
000003b0: 9505 bf3e ad30 e53d 9589 153d 2424 35be
000003c0: a18c 8cbd b090 913d e692 063d 15b0 ab3a
000003d0: 9d95 f23d e74a fa3c 8321 0a3c e21b adbc
000003e0: 545c c3be 5175 30be 356e 7fbb 5d38 ee3d
000003f0: 9875 dbbd 7aa9 11bd 3b2e 66bd 5c9d 983e

linear.weight f4 [1, 100]
0.27615038 0.17395008 0.117556326 0.21814673 0.052059095 -0.14798206 -0.03855834 0.029342951
-0.12625009 -0.008808857 -0.011998483 -0.06296519 0.09065596 -0.05678335 0.11336117 0.32693392
-0.031032568 -0.13166995 -0.09082082 -0.0066024694 0.094248794 -0.017918475 0.008544585 0.20022207
0.038165983 -0.023869678 -0.15370084 -0.14646615 0.14260893 -0.059287842 -0.03890737 0.35117534
0.11545668 0.16342354 -0.16794947 -0.031021485 -0.15058856 0.15700738 0.2979209 0.20094168
-0.100647755 0.14216593 -0.049941223 -0.11174914 -0.054229 -0.03911532 -0.0064827353 0.05054061
0.22113287 -0.20569345 0.14815089 -0.013618744 0.10432473 0.022342743 -0.059473198 0.20881552
0.0007200575 0.1266781 0.08405563 0.1603712 -0.066648856 0.008009172 -0.07915259 0.19471037
-0.1783496 0.020678988 -0.44581679 -0.13796088 0.014149871 0.19649124 0.20029846 -0.228828
-0.14152439 -0.01632427 -0.29568312 0.1313065 0.21891789 0.13710147 -0.05280614 0.12241378
0.0302558 -0.10135325 -0.25725675 0.09055941 -0.114135474 -0.035541948 0.029046362 -0.052581273
-0.105940916 -0.051106445 -0.1112887 0.11595976 -0.14401734 -0.06452348 -0.0068035834 0.032045916
-0.19235331 -0.09471122 0.0055795065 0.15170151
00000000: 9563 8d3e f81f 323e 5fc1 f03d db61 5f3e
00000010: eb3b 553d 9c88 17be 5aef 1dbd a160 f03c
00000020: b447 01be 0653 10bc 4995 44bc e5f3 80bd
00000030: d5a9 b93d a895 68bd e729 e83d e263 a73e
00000040: 0338 febc 7dd4 06be 4400 babd 8759 d8bb
00000050: 8305 c13d c4c9 92bc 96fe 0b3c 0407 4d3e
00000060: ef53 1c3d 588a c3bc c163 1dbe 39fb 15be
00000070: 1308 123e cfd7 72bd 565d 1fbd 41cd b33e
00000080: 8d74 ec3d 8058 273e f2fa 2bbe c520 febc
00000090: e333 1abe 8bc6 203e 1789 983e a8c3 4d3e
000000a0: 6920 cebd f293 113e 2b8f 4cbd bcdc e4bd
000000b0: 3a1f 5ebd 6337 20bd 206d d4bb ac03 4f3d
000000c0: a870 623e 4ea1 52be deb4 173e 2721 5fbc
000000d0: 34a8 d53d 2108 b73c 2b9a 73bd bcd3 553e
000000e0: 3ec2 3c3a e7b7 013e 5c25 ac3d 5938 243e
000000f0: 327f 88bd e738 033c c11a a2bd 2862 473e
00000100: 47a1 36be fb66 a93c 1942 e4be 9e45 0dbe
00000110: dcd4 673c 0035 493e 0a1b 4d3e e351 6abe
00000120: c5eb 10be 7aba 85bc c763 97be 3675 063e
00000130: 032c 603e 5464 0c3e 404b 58bd 13b4 fa3d
00000140: 03db f73c 4b92 cfbd 28b7 83be 3677 b93d
00000150: dcbf e9bd 6f94 11bd a3f2 ed3c 765f 57bd
00000160: 8df7 d8bd fe54 51bd 54eb e3bd 507c ed3d
00000170: 4879 13be e324 84bd 98f0 debb 9442 033d
00000180: 44f8 44be f5f7 c1bd 4bd4 b63b a457 1b3e
