BodelLigging/Arnhem_bodemligging_V1.pt (torch, 661983 bytes, 5 tensors)

lstm.weight_ih_l0 f4 [400, 1]
00000000: 569c b9bf c69a cc3f 13f1 9a3f 2fd7 df3f
00000010: 111b 8d3f 0a1c 5ebd a979 12bf 8d67 babf
00000020: 5c93 8e3f 2e60 653e 4a3b 973e 5f29 0740
00000030: 82cc d53d c271 3540 1efd 02bf d518 373f
00000040: cf71 4dbe 5726 473f cc2e ad3f 59ef 6fbe
00000050: ed86 2cbe 9dfd 333f f518 8ebf 770d 923f
00000060: fdf8 2a3e de17 0ebd 1981 913f 53ab a9be
00000070: a6f9 c83e bf1e dc3d 53ee 30bf 28da 0840
00000080: 169e e6bf d899 9a3f 0c8b 7c3f 5166 953d
00000090: 3b8c 8e3d e2bc f73f 4442 f83e 82aa bbbf
000000a0: b525 ee3d e35a 413f 3d71 483f 1c45 843f
000000b0: c689 3cbe 6c47 2440 93fc 33bf d74f aebe
000000c0: 197a a6bf 8554 2240 a926 b4bf 9f3e 22bf
000000d0: 2b6c 203f 9e45 1340 afb2 c63e 0e65 f0bc
000000e0: 50c0 9a3e 81fa 3540 c53e d5bd 836b 933f
000000f0: 8413 f13f 42d6 983e 5c5c 913f 7565 9e3f
00000100: e8c1 823f b2e3 8bbb ccc1 57bf 026c c1bf
00000110: 7798 09bf 73a0 c93f 0b27 babf 29b8 fd3e
00000120: bee7 563f a3b4 9d3f 83b2 043f b878 1c40
00000130: b9cc f8be 293f 2ebd 75dc 11be 62fa 523e
00000140: 5dc3 783f 8a9d d73f b6fa d9be 4225 2abe
00000150: ba8c 81be cfef d73f 2ca0 813e f63c 433f
00000160: 6293 7b3e 5603 a83f ef8a 1c3d 2424 b8bf
00000170: 08b6 4fbf 2838 7c3f 6653 f83f 72c1 bbbd
00000180: 9043 e53f 2fdb 023f 0eb9 a73f 4dc7 bc3f
00000190: f5bf 2bbd a108 b7bf b9bb 50bf 8d3d 8f3f
000001a0: 09ab 92be 18f6 c8be 0f14 54bf 19ef dabe
000001b0: dd44 a3bf c9a3 86bf 8731 23bf 492e d2be
000001c0: 5c45 bebe 1089 6fbf 5317 b03f 9d80 36bf
000001d0: c977 b8be 994d 8bbf 6225 17bd 6a20 2ebf
000001e0: 1e6f cdbe 7b9a ba3d 27b0 c73e d9f9 9d3d
000001f0: 99e6 0d3f 915d e9be 75a1 cfbf 3387 9cbf
00000200: a793 da3b 9932 f9bf ad07 cbbf 111b c1bf
00000210: f9d3 20be 39e7 ecbe 536a df3d 7972 ea3d
00000220: 6bfc cb3e 1776 26bf 1a9a 71bd e7df 03bf
00000230: bc72 45bd 976c 9a3c 30a0 a23f 93b7 c8be
00000240: ccb9 31bf 59d4 7dbf 2fe4 323e 6c44 913d
00000250: 60d7 8bbd 274e 1ebf ade5 48bf e9ab c43f
00000260: ddd6 133f 3d05 aabe bc7d bcbe e95f 00c0
00000270: 1a62 04be 7ee9 98bf abe0 e6be 67a5 a4bf
00000280: 6533 34bd de1e c33d eab6 7dbf f9c0 633e
00000290: f9da d0be 7132 3140 ea28 03c0 4ceb 6fbc
000002a0: 70f6 c83f 4314 01bf 47ab edbe 4d27 f5bd
000002b0: d713 803f 511f 82be 4740 3fbf bf6b 8cbf
000002c0: e27b c8bf 81f9 2a3f 6285 883e 93cb cb3f
000002d0: 0986 85be dd05 abbf 58fd 59bf be9c 68bf
000002e0: 68c4 7dbf 3d93 6abf ce97 6fbf 10ce 713f
000002f0: 3aaf 933f d69d adbf 79f7 0bbf 7c57 b1bd
00000300: 9afe 573f 70bf 0cc0 0fa7 89bf 3947 92bf
00000310: 1375 01bf 9409 833e 55b5 edbf 96dd 243e
00000320: 727a 473f 2dbe 2ebf a2ab 7dbf c5be ac3f
00000330: abed afbf 80d1 8bbf d6d2 efbf dc24 2abd
00000340: 3f3a a6bf f067 54bf 1fc6 353f c676 743f
00000350: 4bbe 93bf 1986 14bf 9b9b 813f e366 5dbf
00000360: a83e 04c0 7cb2 e53e 5c05 923f c0ea 2ebf
00000370: 3214 e9be b18e b73f 1999 07bf 5b9b cdbf
00000380: 0a62 04c0 6cd5 c5bf c835 473f 8046 c3bf
00000390: b545 02be e76b dabf 62d9 edbf 8e98 2cbf
000003a0: 4d09 98be 5e7b 573f 1447 f2bf b7c1 2c40
000003b0: 28dd 0f40 5c9b a83e 9b6e bd3f 825b f2be
000003c0: 8d13 a9bf c6f0 42bf 5939 9abf 94f2 4bbd
000003d0: 9619 083f 03e0 7bbf 2cb2 a43f fdd8 38c0
000003e0: ecfb b1bf 6edb 8a3f a101 99bf d95b 623f
000003f0: 7cc9 ecbf a872 e9be 8cfb 9a3d 4e56 463f
-1.4500835 1.5984733 1.210482 1.7487544 1.1023885 -0.05422596 -0.5721689 -1.4562851
1.113872 0.22399971 0.2953742 2.1119 0.104393974 2.8350682 -0.51167476 0.71522266
-0.20062946 0.77792877 1.3529906 -0.23431148 -0.16848345 0.7030886 -1.1101366 1.1410359
0.16696544 -0.03469073 1.1367522 -0.33138523 0.39252967 0.10748052 -0.69113654 2.1383152
-1.8016994 1.2078199 0.9864967 0.07294906 0.069603406 1.9354517 0.48488057 -1.466141
0.11628286 0.7552931 0.7829779 1.033359 -0.18411931 2.5668592 -0.7030727 -0.34045288
-1.3006011 2.5364087 -1.4074298 -0.633768 0.6266505 2.301124 0.388082 -0.029345062
0.30224848 2.8434145 -0.10412363 1.1517185 1.8834081 0.29850966 1.1356311 1.2374712
1.0215425 -0.0042690868 -0.84280086 -1.5111086 -0.5374827 1.575209 -1.4543165 0.49554566
0.8394736 1.2320751 0.5183489 2.444868 -0.4859369 -0.042540703 -0.14244254 0.20603326
0.971731 1.6844952 -0.4257409 -0.16615775 -0.25302678 1.6870059 0.25317514 0.76264894
0.24567941 1.3126018 0.038218435 -1.4386029 -0.8113713 0.9852319 1.9400451 -0.09167756
1.7911243 0.511157 1.3103349 1.4748322 -0.04193111 -1.4299508 -0.8153644 1.1190659
-0.28646114 -0.39250255 -0.82843107 -0.42760542 -1.275539 -1.0518733 -0.6374745 -0.41050938
-0.37162292 -0.93568516 1.3757118 -0.7129 -0.3602889 -1.0883056 -0.036900885 -0.6801821
-0.40123838 0.09111496 0.3900158 0.0771367 0.5542999 -0.45579198 -1.6221148 -1.222876
0.0066704336 -1.9468566 -1.5861717 -1.5086385 -0.15705861 -0.4627016 0.109089516 0.11447615
0.39841017 -0.6502394 -0.058984853 -0.5151352 -0.048205122 0.018850608 1.2705135 -0.39202556
-0.6942413 -0.9915214 0.17469858 0.070931286 -0.06828189 -0.61838 -0.7847546 1.5364963
0.5774973 -0.33207121 -0.36814678 -2.005854 -0.12928048 -1.1946256 -0.45093283 -1.2862977
-0.043994326 0.09527372 -0.9910723 0.22241582 -0.40792063 2.7687037 -2.0493722 -0.0146435015
1.5700207 -0.5042154 -0.46419737 -0.11970387 1.0006055 -0.25414518 -0.74707454 -1.0970381
-1.5662806 0.6678696 0.26664263 1.5921501 -0.26078823 -1.3361164 -0.85152197 -0.9086417
-0.9912782 -0.9163092 -0.9359101 0.9445505 1.153785 -1.3563793 -0.5467449 -0.086592644
0.84372866 -2.1991844 -1.0754107 -1.1427985 -0.50569266 0.25593245 -1.8570963 0.16100153
0.7792121 -0.68258935 -0.99090016 1.3495718 -1.3744406 -1.0923309 -1.8736217 -0.041539058
-1.2986525 -0.82971096 0.71005434 0.95493734 -1.1542448 -0.58017117 1.0125612 -0.8648512
-2.0663242 0.44862735 1.1407886 -0.6832695 -0.4552322 1.4340421 -0.52967983 -1.6063036
-2.0684838 -1.5455756 0.7781644 -1.525589 -0.12721904 -1.7064179 -1.8581965 -0.6742028
-0.29694596 0.8417262 -1.8927941 2.6993234 2.2478733 0.3293103 1.4799379 -0.4733544
-1.3209091 -0.7614864 -1.2048751 -0.049791887 0.5316404 -0.9838869 1.2866874 -2.888244
-1.3905005 1.0848215 -1.1953622 0.884214 -1.8498988 -0.45595288 0.0756751 0.7747544

lstm.weight_hh_l0 f4 [400, 100]
00000000: 6452 8abe e61b 42be 0233 d5be bdf7 29bf
00000010: 00de 803e 1248 2cbe c929 023f 6064 983e
00000020: b422 1a3e bca8 5f3e 1d74 233f 07ee 32bf
00000030: 1fb6 3f3f a4c0 23bf fbad ac3d 93a7 07bf
00000040: b921 8cbd 9925 033e 93f0 b2be 8c85 adbd
00000050: 016d 153f 8a47 a3be 48fa f0be cdd4 d6bd
00000060: a446 943e b116 d1be a42c bbbd fa63 243f
00000070: 8853 d2bd 5a64 45be 3229 7c3e 6144 c2be
00000080: 91fa 5bbf dc75 a23e 2485 af3d 1d77 adbe
00000090: fd0c 71be 9d00 aebe ada3 cabe 27b7 193f
000000a0: 2f2f 4b3e 9555 76be 6415 87be f624 3cbe
000000b0: 472b 9d3e 0c4e 52bf 59e3 cfbe 9d8f f73d
000000c0: 20f0 123f e618 02bf 7cd4 143f 288e 8b3e
000000d0: 7503 5f3d e398 86bf 5cd7 38bf 9155 7f3d
000000e0: 5205 08bd 86b0 05bf aa73 cfbe f94e 503e
000000f0: 7c1a 0bbc 2dd2 81be 8b89 4e3f 6195 1abf
00000100: 3542 95bd fd1b 90be 3683 0c3f bc71 14bf
00000110: 0fb7 41be d6e7 3ebf eca2 52bf 549d f1be
00000120: 9ecc 893d 9a64 01be c136 a73c 1c5f 8abf
00000130: 5e35 923f 9337 43be 3562 03be de33 4ebe
00000140: 686b 98be 5d96 01be 7503 a83e 5e22 da3e
00000150: 7dde 1bbe 4445 02bf 5e95 28bd 3e27 78be
00000160: 65f2 ccbd 7e1a 403f 8ac1 a2be 4aa9 6ebf
00000170: 171d 53bf 4339 1cbe f5c3 073d 3a2f ec3e
00000180: 69d6 63be 2686 b03c 51ff acbe dd62 9abc
00000190: cfae af3e ac1b 4bbf 5fa7 2e3c 4f7e 1cbf
000001a0: 56b7 053c b0a7 8d3e 92a3 efbd 3555 8bbe
000001b0: 06f7 6dbe 48b6 b93d 1cc3 bfbe b6ae 85bf
000001c0: 93d1 af3f 41f1 a6be 5f27 30bd 3cc0 eabd
000001d0: 89f7 4dbf 1bca 34bf 2507 b8bf 3e44 aa3e
000001e0: a6b4 1b3e c68c c4be 5ddc 91bf f9b1 babd
000001f0: 4458 e4be ff57 8fbe 73c1 b1bf a907 17bf
00000200: c21a 823f 732f 6bbf a2d2 18bf 2742 183e
00000210: eac5 883e 898b 8fbf b775 e9be 3664 323e
00000220: 8f61 9cbe c63f 57b9 4945 8fbe 6744 263f
00000230: 2159 253d 5eaa a7be b5ad f83c 689f fb3d
00000240: 1738 bebe bc19 00bf aef8 8dbe 18da 15bf
00000250: eab1 1bbd 4edb acbe dd17 d13e f8a8 4cbe
00000260: ad05 44bf d4e1 43bf 9180 5e3f b0da 17bf
00000270: ab3f 2bbd 0912 1cbe ee35 22be 1708 9d3d
00000280: 27e5 a4be 7152 3ebe 0091 c8bc 968e 70bf
00000290: f2f3 d43e 2ca2 91bc 2d2f 94be 7ad2 1a3f
000002a0: 4d6d f83d 71e7 d7be 9ea0 8d3e e9b0 803d
000002b0: db42 15bf 2be9 0cbf ff87 4dbf 9900 03bf
000002c0: e17c aebd 4299 ed3e 85aa 723e 9439 b7be
000002d0: e7d5 693e 97bf 363f fbf5 7dbe c86c 31bd
000002e0: a1b2 30bf a9a0 91bd 814a 5e3f 2f94 0fbe
000002f0: 96b6 5dbf acbd debd 8cc7 b0bd 2e56 e03e
00000300: af9b be3d da79 e3be c623 133f 5d17 9d3c
00000310: 681f cbbf 3970 08be 9f72 b2bf dbf0 aabd
00000320: 4b85 fbbe 8c57 11bf 367e 923e cf32 253d
00000330: be7f 3ebf aa45 36bf 2fe7 15bf 8033 c5bd
00000340: 3610 e2bf 74c1 a1be 90d6 88bd 598c fbbd
00000350: 1131 83bf e1a0 003e 6889 3cbf 159e fcbe
00000360: 8172 0abf c777 7dbf 62a6 f8bd 6110 16bf
00000370: 025a 403e 5ba3 073f b29c 3ebe 6f52 29bf
00000380: 2c7f fdbe 4842 cebe e608 30bf 54bd a2be
00000390: 48bc d1be 2a2a f5be b1d7 aebe dc2c 083f
000003a0: 1545 03be 9da3 90be 9313 f9be 8eb6 4d3f
000003b0: ef77 303f d75a 743e 654a 30bf ba20 f2be
000003c0: a65e efbe 4bf5 b0bc 39b8 463f a5b4 29bf
000003d0: a92a 97be a7d7 d6bd 56d8 debe 7879 4cbf
000003e0: cc61 183e 0167 72be a088 59bf 7087 4fbf
000003f0: a9ce 45bf f743 bebc 305a f5be 5993 44bf
-0.27015984 -0.18955955 -0.41640478 -0.66393644 0.25169373 -0.16824368 0.5084501 0.2976408
0.150523 0.21841711 0.6384905 -0.6989445 0.7488727 -0.6396582 0.08431622 -0.5299007
-0.068423696 0.12807311 -0.3494917 -0.08472738 0.5836945 -0.31890517 -0.4706595 -0.10489807
0.28960145 -0.40837625 -0.09139374 0.6421505 -0.102698386 -0.19276562 0.2462509 -0.37942794
-0.8592921 0.31730545 0.085703164 -0.3387994 -0.23540111 -0.33984843 -0.39578 0.60045093
0.19842218 -0.24056084 -0.26383507 -0.18373474 0.3069708 -0.8215034 -0.4060314 0.12087939
0.5739765 -0.5081924 0.58136725 0.27256894 0.054446656 -1.0515407 -0.7220361 0.06233746
-0.0332082 -0.5222248 -0.40517932 0.20342626 -0.008490201 -0.25355664 0.80678624 -0.60384184
-0.072880186 -0.28146353 0.5488771 -0.57986045 -0.18917488 -0.74572504 -0.8227985 -0.47190344
0.06728481 -0.12636033 0.02041185 -1.0810275 1.1422536 -0.19064169 -0.12830432 -0.20136973
-0.29769444 -0.12655015 0.32815138 0.42604345 -0.15221591 -0.5088694 -0.041158073 -0.2423372
-0.100071706 0.75040424 -0.31788284 -0.93227065 -0.8246626 -0.15256219 0.033145864 0.4612978
-0.2224976 0.021548342 -0.3378854 -0.01884597 0.34313056 -0.793391 0.010660022 -0.6113023
0.0081613865 0.27666998 -0.117011204 -0.27213445 -0.23238763 0.090679705 -0.37453544 -1.0443943
1.3735832 -0.32605937 -0.043006297 -0.11462447 -0.80455834 -0.7062089 -1.437718 0.3325519
0.1520563 -0.38388652 -1.1395375 -0.09115977 -0.4459859 -0.27996823 -1.3887161 -0.58996063
1.0164416 -0.91869277 -0.596964 0.14868985 0.26713496 -1.1214458 -0.45597622 0.1742104
-0.3054318 -0.00020527755 -0.27982548 0.64948124 0.040368203 -0.32747167 0.030356267 0.12286264
-0.37152168 -0.5003927 -0.2772879 -0.5853591 -0.03801147 -0.33761066 0.4083852 -0.19986331
-0.7657116 -0.7651646 0.86914927 -0.59318066 -0.041808765 -0.15241255 -0.15840885 0.07667559
-0.3220608 -0.18586136 -0.024483204 -0.9396757 0.41592366 -0.017777525 -0.28942242 0.6047741
0.121302225 -0.42168763 0.27661604 0.06283743 -0.5830514 -0.55043286 -0.8028564 -0.51172787
-0.085199125 0.4640599 0.2369786 -0.35786116 0.22835504 0.7138609 -0.24800865 -0.043316633
-0.69022566 -0.071107216 0.86832434 -0.14021371 -0.8660673 -0.10876021 -0.086318105 0.4381575
0.09307038 -0.44428903 0.5747646 0.01917618 -1.586896 -0.1332406 -1.394123 -0.08346721
-0.49125132 -0.5677421 0.28611916 0.040331658 -0.7441367 -0.7120005 -0.58555883 -0.096289635
-1.7661197 -0.31592906 -0.066815495 -0.122826286 -1.0249349 0.1256137 -0.73647165 -0.49339357
-0.5408097 -0.9901089 -0.1214111 -0.5861874 0.18784335 0.52983636 -0.18614462 -0.6614141
-0.49511087 -0.40284944 -0.6876358 -0.3178507 -0.4096396 -0.4788373 -0.34148934 0.5319345
-0.12819321 -0.28249827 -0.48647746 0.8035668 0.68933004 0.23862778 -0.6886352 -0.47290593
-0.467519 -0.02160134 0.7762485 -0.66291267 -0.29524735 -0.10490351 -0.43524426 -0.79872847
0.14881057 -0.23672105 -0.849741 -0.81066036 -0.77268463 -0.023225768 -0.4792037 -0.76787335

lstm.bias_ih_l0 f4 [400]
00000000: c7f4 80bf ba88 83bf e537 88bf f984 31bf
00000010: 4a62 18bf c0f9 9abf 4c1e 21bf 9ae1 17bf
00000020: 1e8d d5be ca9e d8bf 46b2 d5be 4764 85bf
00000030: 16ad 2bba 4a5d 62bf d960 89bf 2a2b d5bf
00000040: 6d63 d5be 23e8 c7be a851 44bf 3bd2 2fbf
00000050: 034e 62bf bffe 2fbf 7aa1 afbf 2961 2fbf
00000060: 61ea e0be b897 9cbf 8dc1 81bf 87a9 13bd
00000070: ca80 57bf 620d 3abe 8e44 833e 6e01 66bf
00000080: bd5d 64bf 39e2 30bf 55f3 cfbe ec4b c03e
00000090: 534f f43e 64c8 5abf 6ef0 46bf cbf7 d3be
000000a0: 1546 b1bf 67ed e2bf 59e6 20bf 985c e4bf
000000b0: 3f41 84bf b813 4fbf 9f30 6bbf ac09 1d3e
000000c0: 5dc0 3cbf 3096 7dbf be3f 00bf 74a0 6fbf
000000d0: 3c99 1dbf f20f 9ebf ec93 f4be 3fe6 41bf
000000e0: d8dc 20bf 6426 35bf 8924 1dc0 f9e2 54bf
000000f0: 1934 0abf 9fa1 71bf cf3c 96bf eb92 94bf
00000100: 4cd0 adbf 2679 5cbf 92fe 73be 1ddc 7fbf
00000110: 0c36 5ebf c2cb 30bf 9290 89bf 3753 f2be
00000120: a02b 29bf d32e 8cbd b844 96bc 91ec 8abf
00000130: 00df f0be 63c8 9ebf 26db abbf 06cd 9abe
00000140: a1ff 1cbe d026 33bf 7669 2fbf 6dac d2be
00000150: 23a2 63bf 2f21 81bf 86b0 2dbf ae96 2dbf
00000160: 5c3e 69bf ba84 7fbe b03e 28bf 9dae a6bf
00000170: 1567 a6bf 9449 9abf 191b 5fbf 8279 7dbc
00000180: 9229 9bbe 7679 763d f5a6 95bf 7d0e abbf
00000190: f95a dcbe b561 00bf a952 84bf 4c57 3ebf
000001a0: 9988 97bf 273a 03bf 9eb9 f7be 4a76 06bf
000001b0: 36ea b2be 42e1 97bf c1aa 34bf e47f 9bbe
000001c0: 1adb f3be 9382 b0be 6041 61be 4ced b1bf
000001d0: ca73 33bf e0ff 3abf db20 d6be fb50 7ebf
000001e0: 0867 01bf 14fe 06bf 0b4a 07bf ec6e a3bf
000001f0: f421 e1be 2655 40bf 989e 37bf 7ba7 e6be
00000200: 93aa 87bf a7c6 a83c 48ce 9abe ae10 90be
00000210: 05dd b3bf c74f 75bf ca59 3dbf 3246 3bbf
00000220: c966 58bf dfe1 28bf 8e29 49be 61d1 40be
00000230: 69ce 1dbf 2a6b cabf 5a97 28be 9dab 91bf
00000240: 9882 5ebf f02d b0be f966 00bf 9647 2fbf
00000250: d97d e6be 0462 3abf 0f98 91be bc78 d4be
00000260: 1ac0 95be 8b52 dc3d 90a2 a6bf a585 b6be
00000270: 0ef3 57bf ff59 20bf 98f9 a7bf 1e43 05bf
00000280: e870 88bf 12c1 04c0 9916 1dbf 1c7d 60bf
00000290: c75e 42bf 2abc cebc 3b98 b9be f548 b6bf
000002a0: a67c aebd 24a3 84bf d0cc 5fbf 35a7 09bf
000002b0: 90de 16bf 67eb 38bf ef4b 663f 6046 363d
000002c0: d899 94be b859 3bbf 6f0d 21bf c628 2abf
000002d0: aadb 0cbf 0a03 0fbf cabd 20bf 77b8 09bf
000002e0: a973 1fbf 1d3d 19bf f54b 54bf 0f5e b2be
000002f0: d95d 2ebf 3c39 4abf ed10 01bf ed02 cbbf
00000300: 50df a4bf 4b9e 40bf 9670 f8be d46d 65bf
00000310: d37b d7bf 65a2 26bf 692d 58bf 9778 52bf
00000320: eb35 b43d 0171 0cbe 5492 1d3e 252f 24bc
00000330: 12e7 0cbe 64d7 a33d de5c a8bd f8a6 4fbe
00000340: c359 ffbc 0734 6cbe add1 10be ac25 ebbd
00000350: f5fc cabd b358 213e b1e9 f4bd 3f03 853c
00000360: 4e55 a7bd fe0f 9bbe 1fa2 bcbd 1638 773e
00000370: d8f3 4abd a63a c93d 2c19 b8bd 3985 9cbd
00000380: 49f9 cfbd b44e 15be 3c13 2a3b ecd1 53be
00000390: 02fd ec3d bd05 41bd ac4f 7fbe da71 253e
000003a0: 690e f53e 4ba9 ecbd c090 e8bd 474a 8b3d
000003b0: c779 083d 711f 86bc 456d 123e a1e6 37bd
000003c0: 40ec 3cbe c0dd ba3c 63c6 583e 18b1 8ab9
000003d0: f73c 93be 7f88 213e 7dc6 823e feac 85be
000003e0: ad00 2cbe 12a1 fa3d 7a84 69be b065 c4bd
000003f0: bc40 87bd d521 ff3d e877 dfbd b073 37be
-1.00747 -1.0276101 -1.0642058 -0.69343525 -0.5952498 -1.2107468 -0.62936854 -0.59328616
-0.41709226 -1.6923459 -0.41737574 -1.0421227 -0.0006548924 -0.884236 -1.073268 -1.6653798
-0.41677418 -0.39044294 -0.766871 -0.6868016 -0.88400286 -0.68748087 -1.3721154 -0.6850763
-0.43928817 -1.2233801 -1.0137192 -0.036050346 -0.8418089 -0.18169168 0.2563824 -0.8984593
-0.89205533 -0.6909519 -0.40615335 0.37557924 0.4771677 -0.8546202 -0.77710617 -0.4139999
-1.3849512 -1.77287 -0.6285148 -1.7840757 -1.0332412 -0.80889463 -0.91871065 0.15335721
-0.73731023 -0.9905729 -0.5009726 -0.9360421 -0.6156194 -1.2348616 -0.47769105 -0.7574195
-0.6283698 -0.70761704 -2.455355 -0.8315883 -0.53985745 -0.9438724 -1.1737307 -1.1607336
-1.3579192 -0.8612236 -0.2382758 -0.9994524 -0.8680122 -0.6906091 -1.0747244 -0.47329113
-0.6608219 -0.068448685 -0.018343315 -1.0853444 -0.47045135 -1.2404903 -1.3426254 -0.30234545
-0.1533189 -0.699811 -0.68520296 -0.41147175 -0.88919276 -1.0088252 -0.6784748 -0.67808044
-0.9111078 -0.24952975 -0.65720654 -1.3022038 -1.3000208 -1.2053704 -0.8715072 -0.015470864
-0.30305153 0.060174428 -1.1691576 -1.3363796 -0.43038157 -0.5014909 -1.0337726 -0.74351954
-1.1838561 -0.5126061 -0.48383802 -0.52524245 -0.34944314 -1.1865618 -0.7057305 -0.3037101
-0.476281 -0.3447462 -0.21997595 -1.3900542 -0.70098555 -0.73046684 -0.41821942 -0.99342316
-0.5054784 -0.5273144 -0.52847356 -1.2768226 -0.43971217 -0.75129926 -0.7172637 -0.45049652
-1.059893 0.020602537 -0.30235505 -0.28137726 -1.4051825 -0.95824856 -0.7396513 -0.73153985
-0.8453184 -0.6596965 -0.19644758 -0.18829872 -0.6164308 -1.5813954 -0.16463986 -1.1380497
-0.8691802 -0.34410048 -0.50157124 -0.68468606 -0.4501789 -0.7280581 -0.28436324 -0.41498363
-0.29248124 0.10757931 -1.301836 -0.35648838 -0.8435525 -0.62637323 -1.3123045 -0.5205554
-1.0659456 -2.074284 -0.61362606 -0.876909 -0.7592587 -0.025236208 -0.36248955 -1.4241015
-0.085198686 -1.0362287 -0.87421894 -0.5377076 -0.58933353 -0.72234195 0.89959615 0.04450071
-0.29023623 -0.73183775 -0.62911123 -0.66468465 -0.5502268 -0.5586401 -0.62789595 -0.53797096
-0.6228586 -0.59858876 -0.829284 -0.34837386 -0.6811195 -0.7899358 -0.5041645 -1.5860268
-1.288065 -0.75241536 -0.48523396 -0.8962071 -1.6834663 -0.65091544 -0.8444429 -0.82215255
0.087993465 -0.13714983 0.15387851 -0.010021006 -0.13760021 0.08000067 -0.08220838 -0.20278537
-0.031170731 -0.23066722 -0.14142485 -0.11481795 -0.09911529 0.15756492 -0.119586356 0.0162369
-0.081705675 -0.3028564 -0.0921061 0.24142489 -0.049548954 0.098256394 -0.08989176 -0.07642598
-0.10154969 -0.14580804 0.0025951406 -0.20685548 0.11571695 -0.047124613 -0.24932736 0.16156712
0.47862557 -0.115557276 -0.11355734 0.06801277 0.03331926 -0.016372414 0.14299496 -0.04489768
-0.18449497 0.022810817 0.21169429 -0.00026453356 -0.2875745 0.15774725 0.2554206 -0.26108545
-0.16797133 0.12237753 -0.22804442 -0.09589708 -0.06604144 0.12457625 -0.10911542 -0.17915225

lstm.bias_hh_l0 f4 [400]
00000000: 5124 64bf d86a 87bf da6f 85bf 26b8 03bf
00000010: 8fa9 2abf 17bf 9fbf 6925 09bf 16fb f5be
00000020: 9274 c9be 98a4 dfbf 0d75 06bf a1b3 84bf
00000030: ba16 cfbd ae31 6dbf 117b 8bbf 57d7 d3bf
00000040: 0dcd dcbe 75b0 e5be 2372 2abf 487b 2ebf
00000050: 59b0 81bf 1e1b 3cbf 5068 a7bf f82f 31bf
00000060: b12a d3be 06d2 9bbf b9a4 8bbf 022f c9bd
00000070: 499d 65bf 4e24 51be 5d53 833e 83dc 6dbf
00000080: 2fdd 69bf 54ca 14bf c1c9 a5be a2b1 cd3e
00000090: 2fdd da3e c9a9 55bf 92df 1fbf dc43 d4be
000000a0: 499e bfbf 8627 f2bf 0b05 47bf 9ed6 e0bf
000000b0: d246 80bf 9c3d 5abf e87d 57bf 7988 9cbb
000000c0: 1077 48bf 8350 8ebf d124 d1be bf21 61bf
000000d0: ef4f 0fbf 3eb1 a4bf 2ee4 25bf 0157 71bf
000000e0: c42c 19bf 2e9d 41bf aaa8 23c0 920f 7dbf
000000f0: 0a82 e3be fa5f 6bbf 8214 95bf f384 8cbf
00000100: 22c7 9dbf cb14 67bf c84c 60be 359c 61bf
00000110: a11d 6fbf 0ffa 34bf 2c4c 84bf a5ea 19bf
00000120: 8422 46bf 88e9 41be 9667 12bd 430a 8dbf
00000130: d678 0bbf eba7 8fbf 48a4 c3bf d10b b6be
00000140: e3c9 94be 86e2 19bf ab11 0fbf 049c d0be
00000150: b986 67bf e6ef 8dbf 912e 47bf 0207 33bf
00000160: 6f86 81bf 7941 6fbe 71dc 2bbf 950b aabf
00000170: bb8d babf 1100 9abf 63a6 4ebf c37d bdbd
00000180: e75e b8be a6b6 ecbc 580c abbf 233f b6bf
00000190: 69b1 08bf 61af 0fbf eda6 80bf b987 1dbf
000001a0: 6435 97bf b3c9 13bf 5047 d0be c2bf c6be
000001b0: 8563 c8be a238 a9bf b954 41bf 9f38 9abe
000001c0: f916 aabe a448 cabe 816d cbbe c303 b1bf
000001d0: 5a87 28bf 4ba2 29bf 8ca4 babe 105d 7dbf
000001e0: 7414 fbbe 25ef 25bf 5e50 d8be d5c3 a6bf
000001f0: 1f07 dfbe 786f 51bf 8b85 2cbf 7724 f5be
00000200: 3ef1 7dbf 5a89 863d 4827 a6be 4803 6dbe
00000210: 4931 babf c7fc 86bf 711b 2fbf 0703 62bf
00000220: 29f2 4cbf 7921 11bf ce82 5fbe 4ed6 f0bd
00000230: 5b58 39bf b3e9 c1bf edd0 74be 7fc7 8fbf
00000240: 64c6 3ebf a978 b6be 45b4 12bf 56b5 20bf
00000250: f37d dbbe 5d40 25bf 93e6 90be c874 c3be
00000260: fe14 64be b997 0f3e 040d 94bf 5961 e0be
00000270: 6e7e 2ebf 8bd3 0bbf 71d8 a6bf 7682 0bbf
00000280: ba01 77bf e4e6 00c0 49d7 04bf 88e4 79bf
00000290: cd85 67bf b263 8dbd 41e1 c2be 534a b4bf
000002a0: 4865 aebd 6b9f 6abf 80f7 4bbf 238a 06bf
000002b0: 5549 fbbe 8e35 08bf f15a 763f aa88 103e
000002c0: b72a babe 2455 45bf 8ac5 eebe c194 1cbf
000002d0: 6f78 cebe 1d04 d5be 638d 17bf 539a 15bf
000002e0: 4e1b 00bf c800 16bf 3c5c 3abf dd74 9bbe
000002f0: d2a3 2ebf dc01 21bf 9c20 15bf fc87 c0bf
00000300: 2f56 94bf ef78 31bf c670 0abf 1b57 4cbf
00000310: bf92 d9bf d10e 2ebf 0a87 3dbf 2e8e 35bf
00000320: eb9e 4cbd 25fd bbbd aafa 8d3d 701c c23c
00000330: c82f 6cbd f8b3 27bc d995 b5bd 3181 39be
00000340: 771b 813b cf77 26be 21d5 86be ad23 5f3d
00000350: a5a1 c9bd 991d 933e 6608 e6bd feae 5d3a
00000360: de7f 83bd 53a9 88be 622b 103d f2f2 363d
00000370: 532d e3bc 1dd9 443d 54f0 c6bd 8bc4 f7bd
00000380: edfb e3bd bcd4 98bc 4da6 06bd 81bc 17be
00000390: 6806 df3d b859 43be 8fb7 78be 2438 583e
000003a0: 1ed6 ee3e 71ef 58be bd83 4a3c 76ba b33d
000003b0: ac09 0f3e a45d 613d b177 423e 26aa 29be
000003c0: 2153 88bd 4b37 5a3c bb47 ef3d 1a31 d33b
000003d0: 4784 a6be 32c5 e23d 7a43 0b3e 91bd 21be
000003e0: 859b d3bd 5677 f63b 51aa 87be 3232 d8bd
000003f0: 9464 46be b1ce c13d 9d91 f9bd 9a09 02be
-0.89117914 -1.0579481 -1.0424759 -0.51452863 -0.66664976 -1.2480191 -0.5357271 -0.48043126
-0.3934675 -1.7472105 -0.52522355 -1.0367318 -0.101117566 -0.9265393 -1.0896932 -1.6550092
-0.4312519 -0.4486119 -0.6658041 -0.6815686 -1.0131942 -0.7347888 -1.3078709 -0.6921382
-0.41243508 -1.2173469 -1.0909644 -0.09823419 -0.89693123 -0.20424005 0.2564954 -0.929146
-0.91353124 -0.5812123 -0.3238049 0.40174586 0.42746875 -0.83462197 -0.62450516 -0.41458023
-1.497018 -1.8918312 -0.7774207 -1.7565496 -1.0021613 -0.8525026 -0.8417649 -0.004777011
-0.78306675 -1.111832 -0.408484 -0.8794212 -0.55981344 -1.286659 -0.648013 -0.9427338
-0.5983393 -0.7563046 -2.5571694 -0.98851883 -0.4443515 -0.91943324 -1.1646883 -1.0978073
-1.2326396 -0.902661 -0.2190429 -0.8812898 -0.93404585 -0.7069406 -1.0335746 -0.60123664
-0.77396417 -0.18936741 -0.03574332 -1.1018757 -0.54481256 -1.122312 -1.528451 -0.3555589
-0.29060277 -0.6011127 -0.55886334 -0.4074403 -0.90439945 -1.1088836 -0.7780543 -0.6993257
-1.0119151 -0.2336482 -0.6713324 -1.3284785 -1.4574503 -1.203127 -0.80722636 -0.09252503
-0.36009905 -0.028895687 -1.3363142 -1.4238018 -0.53395706 -0.5612698 -1.0050942 -0.6153522
-1.1813169 -0.57729644 -0.40679407 -0.38818175 -0.39138427 -1.3220408 -0.755199 -0.30121323
-0.33220652 -0.39508545 -0.39731982 -1.3829273 -0.6583153 -0.66263264 -0.36453664 -0.9897013
-0.49039042 -0.6481803 -0.42248815 -1.3028513 -0.4356012 -0.8181071 -0.6739127 -0.47879383
-0.9919623 0.065691665 -0.32451844 -0.23145783 -1.4546291 -1.0545892 -0.6840125 -0.8828587
-0.8005701 -0.566917 -0.21827242 -0.117596254 -0.72400445 -1.5149444 -0.23907824 -1.1232756
-0.7452147 -0.3563893 -0.5730632 -0.62776697 -0.4286953 -0.64551336 -0.28300914 -0.38175035
-0.22273633 0.14022721 -1.1566472 -0.4382427 -0.68161666 -0.54619664 -1.3034803 -0.5449594
-0.9648701 -2.0140924 -0.51891 -0.97614336 -0.9043854 -0.06903781 -0.3806248 -1.4085182
-0.085154116 -0.916495 -0.7967453 -0.5255453 -0.49079385 -0.5320672 0.96232516 0.14114633
-0.36360714 -0.7708304 -0.46635085 -0.6116448 -0.4032626 -0.416047 -0.59200114 -0.58438605
-0.50041664 -0.5859494 -0.7279699 -0.30362597 -0.6821872 -0.6289346 -0.5825288 -1.5041499
-1.1588801 -0.69325155 -0.5407833 -0.7982041 -1.6997908 -0.6799136 -0.7403418 -0.70920074
-0.049956243 -0.09179143 0.06932576 0.0236952 -0.057662755 -0.010235779 -0.08866472 -0.18115689
0.0039400416 -0.16256641 -0.2633448 0.054477382 -0.098452844 0.2873352 -0.112320706 0.0008456557
-0.06420873 -0.26691684 0.035197623 0.044665284 -0.027731573 0.048058618 -0.09713808 -0.120980345
-0.111320354 -0.018656127 -0.03287344 -0.14818002 0.10889894 -0.19077194 -0.24288772 0.21115166
0.46647733 -0.2118509 0.01236051 0.08775799 0.13968533 0.055020943 0.18990971 -0.16568813
-0.066564806 0.013318847 0.116836034 0.0064450623 -0.32522795 0.11072768 0.13599959 -0.1579497
-0.10332397 0.00752155 -0.2649713 -0.10556449 -0.19374305 0.094632514 -0.12185977 -0.12698975

linear.weight f4 [1, 100]
00000000: 817b 993d c344 09bd a125 c3be c256 493e
00000010: cf6b 99bc e797 5b3d 30fc 09bd 4776 173e
00000020: fe93 babd 82b5 093c 5479 d33c 9340 323d
00000030: db1b 8dbd 797b ae3e e1da 40be 2d8f 22bd
00000040: aa4d 50be 8261 193d 24bd bfbd 30fa c03d
00000050: a431 e4bc 928c 8e3d cf82 99bc 9d91 28bd
00000060: 8c50 f5bb 9fb6 0cbd 397a d7bc e1a0 24be
00000070: 7092 80be 7e9f 8ebe c42c c9bd 4e16 ef3c
00000080: 5522 a3be a877 b6bd c855 8ebd 899e 9e3e
00000090: 0a04 543e 9d4b 493c 3504 083e 440b ae3d
000000a0: 2883 efbc be1d 1bbd 9ade 773d 32d6 b2bb
000000b0: 581f 86bd f073 513d 4a96 393d d9c6 b2be
000000c0: 487c ebbd c590 333e 2e35 1dbc 28ae 2a3c
000000d0: 4ec8 5a3c c12b 203e 2497 4f3d 96fc 89bc
000000e0: 9d37 0fbd 12e2 ce3e 9883 453d fce8 52bc
000000f0: 3e9c 14be d2be edbd 7b85 67bb c09a 85be
00000100: e807 e7bd 8877 1abe 6e43 b43d ef4f 2dbe
00000110: 0a64 a9b9 9246 113f 251d 8cbe 0699 18be
00000120: 49f8 d1ba 33c0 c73d 7695 d53d 9cd4 b23d
00000130: 5e04 27be 0524 e1bd e00e acbb 9efe 073e
00000140: 17d2 f73d 3fbd 4c3d 7e26 1f3d 9d06 9dbd
00000150: 0d34 dbbc 9520 bc3d bfb4 d23e 00ca 023d
00000160: 6a70 bc3c dfcb be3c 26a7 67bc ef10 30be
00000170: 9a0e a4bd cbb1 b73a 7cf5 563c 0c47 3fbd
00000180: 93ee 6ebd 056e 0ebe 8bce ee3c 5a88 873c
0.074942596 -0.033512842 -0.38114646 0.19662002 -0.018728165 0.053611662 -0.03368777 0.14791213
-0.091102585 0.008405091 0.02581469 0.043518614 -0.06890079 0.34078577 -0.18833496 -0.039687324
-0.20342126 0.037446506 -0.093622476 0.094227195 -0.027855702 0.069604054 -0.018739132 -0.041154493
-0.0074864086 -0.03435385 -0.026303397 -0.16076995 -0.25111723 -0.27856058 -0.098229915 0.02918544
-0.3186213 -0.08909541 -0.06949955 0.30980328 0.20704666 0.012286094 0.13282855 0.084982425
-0.029237345 -0.03787016 0.060515024 -0.005457663 -0.06548947 0.051135957 0.045309342 -0.34917334
-0.11498314 0.17535694 -0.009595199 0.010417499 0.01335342 0.15641691 0.05068125 -0.016844075
-0.034965146 0.40406853 0.0482212 -0.012872931 -0.14512727 -0.11608662 -0.0035327363 -0.26094627
-0.11280805 -0.1508466 0.08801924 -0.16925023 -0.00032308727 0.56748307 -0.27365986 -0.14902124
-0.0016019429 0.09753456 0.10428898 0.08731958 -0.1631026 -0.10993198 -0.0052507967 0.13280722
0.12100618 0.049985167 0.03885507 -0.07667277 -0.026758218 0.09185902 0.41153523 0.031930923
0.023002822 0.023290573 -0.014138972 -0.1719396 -0.080105975 0.0014014778 0.0131200515 -0.046698615
-0.05833299 -0.13909157 0.029151222 0.01654451
