BodelLigging/De Steeg haven_bodemligging_V1.pt (torch, 661983 bytes, 5 tensors)

lstm.weight_ih_l0 f4 [400, 1]
000000 f8 b9 f9 3d 0d 9c 2d c0 b1 3b 76 3f 74 b7 59 3e
       0.12193674 -2.7126496 0.9618483 0.21261388
000010 f8 f1 af 3f 7a ce da be 30 d7 d4 3f 90 93 80 bf
       1.3745718 -0.42735654 1.662817 -1.0045033
000020 d4 e7 94 3d 93 f9 c8 3d fc 76 ce 3f a0 2f 9c bf
       0.0727078 0.098132275 1.6130061 -1.2202034
000030 f6 07 d1 3e 9d c3 6e 3e e2 30 95 bd 43 5a 83 3f
       0.40826386 0.23316808 -0.07284714 1.0261921
000040 9a 05 1c bf 41 06 36 bf 10 bf 99 bf 42 25 92 3e
       -0.6094605 -0.7110329 -1.2011433 0.2854405
000050 37 05 c5 c0 49 9d b7 3f fe 54 b3 3f d4 44 46 be
       -6.1568866 1.4344875 1.4010313 -0.19362193
000060 9e b2 91 bf 25 9b b0 3f d8 bc 9b 3e 70 91 ef 3e
       -1.1382635 1.3797346 0.30417514 0.46790648
000070 33 64 9b bb 60 aa 4d c0 7d 6c 68 3f bf 45 ad 3f
       -0.0047421693 -3.2135239 0.9079054 1.353691
000080 d9 4c 0a 3f 09 46 91 be 4e ed 6e 3f 44 d9 9b be
       0.5402351 -0.28373745 0.9333085 -0.30439198
000090 aa 27 0a c0 53 1a a1 3e 49 d1 bc 3f 26 0a 52 bf
       -2.158671 0.31465396 1.4751369 -0.82046735
0000a0 03 47 ae 3f 7e 46 da 3e 13 40 e3 3f f8 dd f7 be
       1.3615421 0.42631906 1.7753929 -0.48411536
0000b0 3d 52 51 3d 2e 6e 83 3d a1 66 87 be de 38 86 bf
       0.05110382 0.064174995 -0.26445487 -1.0486104
0000c0 d6 00 09 3e 31 56 c0 3f 42 16 43 bf 88 1d c4 3e
       0.13379225 1.5026304 -0.7620584 0.3830378
0000d0 95 a7 0b bf a1 8f a6 bf f9 7a b6 3e e7 65 5c 3f
       -0.54552585 -1.3012582 0.35640696 0.8609299
0000e0 eb 26 56 c0 c1 b0 88 bc 6d 13 3e 3e 91 d0 4c bf
       -3.3461254 -0.016685845 0.18562098 -0.8000575
0000f0 9e 35 0a 3f e6 54 e8 bf 7c 46 ca 3e 6d cc ee bf
       0.53988063 -1.8150909 0.395069 -1.8656136
000100 38 a5 4a 3f c0 f8 06 c0 31 cf 02 3f 31 5a af bf
       0.79158354 -2.1089325 0.510974 -1.3699399
000110 e0 22 df 3f 9b e5 7b bf 61 46 f5 3f 28 7f 01 bf
       1.7432518 -0.98397225 1.9162103 -0.5058465
000120 a5 43 36 c0 3d 6b 8f bf e0 a6 57 bf 07 88 13 40
       -2.8478787 -1.1204602 -0.84239006 2.3051775
000130 e4 1b b5 bf 66 05 72 3f 2a 54 ac 3f f1 6b 75 bf
       -1.4149137 0.9453949 1.3463185 -0.9586783
000140 d7 cf b9 3f d1 8b 4d bf 54 7f 3e be de 90 f2 3f
       1.4516553 -0.8029147 -0.1860326 1.895046
000150 ee b2 94 c0 8d 40 0a 3f 2b 63 84 3f 5b 84 cc bf
       -4.646842 0.54004747 1.0342764 -1.5977892
000160 a7 cd 30 be 78 6b 87 bf f7 20 ce 3e ac f8 a0 bd
       -0.1726595 -1.0579672 0.40259525 -0.078599304
000170 b8 85 10 c0 86 4b 6f 3f 93 7b 15 bf 91 d7 cb be
       -2.2581615 0.93474615 -0.58391684 -0.39812902
000180 92 78 40 bf cc 28 6a 3d 8d 36 cf 3f 14 68 96 bd
       -0.75183976 0.057167813 1.6188523 -0.0734407
000190 f5 fd 4b 3e 71 07 81 3c 04 84 1d 3e cf 6e 99 3d
       0.19921096 0.015750619 0.15382391 0.07491838
0001a0 9b ac 14 bf cd 6d 0e 3d 37 df 4e 3e 3d 34 cb be
       -0.58075875 0.034772683 0.20202337 -0.39688292
0001b0 e5 cf e8 bc 1e 96 cc 3e d7 54 cf 3d 77 39 02 3f
       -0.028419444 0.3995828 0.10123604 0.50868934
0001c0 8b e5 63 3e ae 63 0d be 29 fe 61 3f af 00 b5 be
       0.22255532 -0.13807556 0.8827844 -0.35352084
0001d0 56 e7 85 3f 71 82 05 c0 40 d5 8c 3f 71 d8 0d 3f
       1.0461223 -2.0860865 1.1002579 0.5540839
0001e0 56 4b 66 bf 35 5e 40 bf ff f6 65 3f a6 f6 c4 3f
       -0.89958704 -0.7514375 0.8983001 1.5387771
0001f0 8f 9f 26 be 8c 19 6a bf 89 d3 25 3e 49 06 81 bf
       -0.16271804 -0.9144523 0.16193976 -1.0080043
000200 bd bb ca 3e 77 fc 0d c0 e5 94 04 be 2f 25 0d 3e
       0.39596358 -2.2185342 -0.12947424 0.13783716
000210 f5 93 8e 3f 1e 40 88 be 95 b2 c1 bf 47 49 7d 3f
       1.1138903 -0.26611418 -1.5132624 0.9893994
000220 4e 36 dd be 15 87 23 3f 8f 53 1a bf 90 cd ea be
       -0.43205494 0.63877994 -0.6028375 -0.45859957
000230 c1 14 2f 3f c9 84 ad 3b 8e 31 84 3f 9b 46 29 bf
       0.6839104 0.0052953702 1.0327623 -0.6612336
000240 aa 0a 91 be d2 34 25 3f 56 57 2d 3f fc 92 99 3f
       -0.2832845 0.6453372 0.6771139 1.1997981
000250 8b 45 df 3e f9 ce c2 bf 51 18 6d 3e cd c5 a4 3e
       0.43607745 -1.5219413 0.23153807 0.3218216
000260 67 6c c3 be ed 10 68 3f 88 1e bd 3e f9 74 30 bf
       -0.38168642 0.90650827 0.36937356 -0.68928486
000270 71 d9 80 bf 3e 89 bb 3f 0f 1f ec 3e d3 1d 9c 3f
       -1.0066358 1.4651258 0.46117446 1.2196602
000280 bb 71 89 be 91 e2 9c 3f e0 c5 bc be 28 8b 8c 3f
       -0.26844582 1.2256643 -0.36869717 1.0979967
000290 3d ba 8a 3e 05 7d ee 3f be e6 df bf 35 e7 97 3f
       0.27095214 1.8631903 -1.7492292 1.1867434
0002a0 90 c7 8f be 67 c5 9e 3f aa a8 77 3f 5b 54 d5 3e
       -0.28081942 1.2403992 0.96741736 0.4166592
0002b0 76 6a 8e be 33 83 ef 3c b8 a9 91 be 37 2d 25 3f
       -0.27815598 0.029237365 -0.28449798 0.6452212
0002c0 e8 27 ac be 20 f9 2a bf 4e c4 78 3c 7f 21 e2 3f
       -0.33624196 -0.66786385 0.015183521 1.7666472
0002d0 1b 99 43 40 50 2a 36 3f 6a fe f1 3d f4 54 64 3d
       3.0562198 0.71158314 0.11816104 0.05574508
0002e0 c5 79 ee be 99 a5 85 3e 79 18 1f 3f fa e4 28 bf
       -0.46577278 0.26102903 0.6214672 -0.6597439
0002f0 db 6f f9 3e 3e 83 50 3f e3 36 1d be 3b 2d 8f bf
       0.4871815 0.8145026 -0.15352969 -1.1185678
000300 67 64 5c bf d7 a9 41 be f7 fd 12 3f d8 cc 87 3f
       -0.860907 -0.18912445 0.5741877 1.0609388
000310 b4 64 51 bf 3c 4c 29 3f 87 4a 3b be 9d 50 6f 3f
       -0.81794286 0.6613195 -0.18290149 0.9348238
000320 d7 f7 3a 3f 81 05 9a 3f ff ba a4 3f cc c1 00 c0
       0.73034424 1.203293 1.2869567 -2.0118284
000330 74 40 37 3f 92 9b 12 be 5d c2 0b 40 0f 92 b2 3e
       0.7158272 -0.14317158 2.183738 0.3487706
000340 2a ed 08 c0 14 93 c1 3f 16 70 de 3f 43 7f b4 bf
       -2.1394753 1.512301 1.7377956 -1.4101337
000350 3d 02 e3 3f 1e 18 7c bf ce 29 a2 bf 80 5d 72 3f
       1.7735058 -0.984743 -1.2669008 0.9467392
000360 4f ef 68 3f 5f 16 0a bf c7 68 9e bf a7 9b 5a 3f
       0.90990156 -0.53940386 -1.2375726 0.85393757
000370 00 c4 3f 3f fa 86 93 3f 0f a0 64 3f 85 8f fb 3e
       0.7490845 1.1525567 0.8930673 0.49132934
000380 0b 11 93 bf 31 d3 0d be 1e b4 d6 be 89 e0 60 3f
       -1.1489576 -0.13850094 -0.41934294 0.87842613
000390 6e 36 3f 3f c8 be 04 3f f3 9f e6 3f 89 59 3c 3e
       0.7469243 0.5185361 1.8017563 0.1839353
0003a0 fb 95 05 40 9e 5e f5 3e bc 84 a2 3d ec fc b8 3f
       2.087279 0.4792375 0.07935473 1.4452186
0003b0 34 3a 54 be 97 2d 96 bf bf 8e 93 bf 53 6d 25 40
       -0.20725328 -1.1732663 -1.1527938 2.5847976
0003c0 96 e8 e2 3f 4c 45 9c 3f 57 22 d7 3f 7e 01 96 3f
       1.772723 1.2208648 1.6807355 1.1719205
0003d0 e8 62 73 3f 13 9d 01 c0 5e 5e 83 bf f0 c1 ff bf
       0.95072794 -2.025212 -1.0263174 -1.998106
0003e0 09 62 57 bf 49 4c d6 bf 02 9b b8 3f 72 d2 53 bf
       -0.84133965 -1.674203 1.4422305 -0.8274299
0003f0 6b ab 60 3f 6c 63 56 bf 22 04 e2 3f bf 5c 82 be
       0.87761563 -0.83745456 1.7657511 -0.25461385

lstm.weight_hh_l0 f4 [400, 100]
000000 48 4e bc 3e bb be d8 3e 8c 6d 8e bf 5b d9 4d 3f
       0.36778474 0.42333016 -1.1127181 0.80409783
000010 9a 05 38 be 9a 71 61 bf fb 1e ec be 85 bc f9 3d
       -0.17970887 -0.8806397 -0.46117386 0.1219416
000020 85 3a f3 3e 0d 9c 29 be ce d9 e1 be 86 2c b6 3e
       0.47505584 -0.16563435 -0.44111484 0.35580844
000030 da a9 db be d9 88 f9 3e 0b ba fd be cc 4b 09 3d
       -0.42903024 0.4873722 -0.49556002 0.03351955
000040 2c 87 8b be dc c1 81 3e cd e6 20 3f f8 d0 fa be
       -0.27251565 0.25343215 0.62852174 -0.48987556
000050 7f b2 65 be c9 db 85 bf 40 96 63 bf b2 30 21 bf
       -0.22431372 -1.0457698 -0.8890114 -0.6296493
000060 25 3b e7 3e d1 64 47 bf a0 6e c4 3d da 13 10 bf
       0.4516231 -0.7788821 0.095914125 -0.5628029
000070 86 59 1e bf ad d1 45 3e 02 a8 0b bf 1f 21 1c bf
       -0.6185535 0.19318266 -0.54553235 -0.6098804
000080 2f 23 90 bd 0f 66 39 3f 23 64 ca be c3 8d 21 be
       -0.07037961 0.72421354 -0.39529523 -0.15776734
000090 d1 dc d0 be 75 f6 b2 be 54 24 de 3e 26 75 08 bf
       -0.4079347 -0.34953657 0.4338709 -0.53303754
0000a0 76 e4 01 3e 77 9c 38 be c5 1d 27 bf 7c d8 71 3d
       0.12684807 -0.18028437 -0.652798 0.059044346
0000b0 a7 eb 8f 3d 47 dc a1 3d 20 89 e2 3e 31 b0 04 3e
       0.07027369 0.07903343 0.44245243 0.12957837
0000c0 e1 bf 01 3f 7e ee ad 3d 65 36 8f 3d d3 31 52 be
       0.5068341 0.084927544 0.06992797 -0.20526819
0000d0 d6 75 f9 be a3 ab 2a bf 25 e4 e5 be 01 ba 64 3e
       -0.48722714 -0.66668147 -0.44900623 0.2233658
0000e0 95 d3 69 3f 36 6e 8f be 40 ca 9c 3e 84 e5 da 3e
       0.91338474 -0.28013772 0.30623055 0.42753232
0000f0 93 10 69 bf 0f d2 3e 3f ec 87 3d bf 23 50 0e bf
       -0.91040915 0.74539274 -0.74035525 -0.5559103
000100 ad 09 74 be b6 b2 9d bf 71 23 4c be 4e 44 4a 3e
       -0.23831816 -1.2320163 -0.19935395 0.19752619
000110 1a e0 db be 10 f1 a7 3e 8e e7 c7 bf f7 34 1d 3f
       -0.42944413 0.32801104 -1.561754 0.6140894
000120 3b 38 45 bf 03 7a f6 3d f0 4c 74 3e 2a 12 b2 bf
       -0.77038926 0.12034991 0.23857474 -1.3911793
000130 be ec 90 3e 81 61 10 bf 7c 70 02 3e fe d4 27 bf
       0.2830562 -0.5639878 0.12738222 -0.65559375
000140 ae 61 d8 bf d5 7e bb be 3f 9c 3e bf 9a bc 57 bf
       -1.690481 -0.36620203 -0.7445716 -0.8427216
000150 1e 2e 87 be 59 ad e8 bf 0a 47 dc be b7 e3 3f 3f
       -0.26402372 -1.8177902 -0.43022949 0.7495684
000160 1f e1 e0 3e a7 41 99 3f 35 55 33 bf f8 e7 e7 bd
       0.43921754 1.197316 -0.7005189 -0.113235414
000170 90 ad 1f bf 2a 57 5c bf de 7a cb 3e 8d ec 7f 3f
       -0.6237421 -0.860705 0.39742178 0.9997032
000180 09 44 02 bf 88 64 ee 3e e3 14 55 3e 03 3e 36 bf
       -0.50885063 0.46561074 0.20808749 -0.7118837
000190 5b 1a 37 be eb 53 34 3f 4e df b3 bf 4b f5 75 3f
       -0.17881148 0.7044055 -1.4052522 0.9607741
0001a0 e5 d2 84 3e dd 54 01 be ea fe 25 bf 50 f0 cf bd
       0.2594215 -0.12630029 -0.64842093 -0.10153258
0001b0 4f c6 18 3f fe ba c8 be 91 8a 44 3e 25 d6 64 3f
       0.59677595 -0.39205164 0.19193484 0.8938926
0001c0 b5 08 a3 be 9a 3b bf 3d db 7a c1 3e 5e fc 68 3d
       -0.3184258 0.0933754 0.37789044 0.0568813
0001d0 39 9b a9 3d 47 52 65 bc f5 d4 96 bd dd c5 82 be
       0.082815595 -0.013996667 -0.07364837 -0.25541583
0001e0 4a e9 6b bf a8 91 3a bf e5 fd 69 bd 90 58 b0 bf
       -0.92152846 -0.72878504 -0.0571269 -1.3777027
0001f0 d9 4d 3e 3f d4 96 27 be e5 55 7e bf 7a 6a 30 3e
       0.74337536 -0.1636613 -0.99349815 0.17228118
000200 33 fd 8a 3f 28 41 a1 3e 6c e1 15 bf 3c e3 36 bf
       1.085852 0.31495023 -0.5854709 -0.7144048
000210 31 a7 bb bf f7 09 a3 be 8a a5 35 3f 54 de 91 bf
       -1.4660398 -0.3184354 0.7095572 -1.1395974
000220 31 ac ca be 06 10 70 3e 63 b4 3c 3f 58 66 15 bf
       -0.39584497 0.23443612 0.7371275 -0.5835929
000230 6d 4b ae bf 36 dd 45 3d 49 b5 b6 bf 91 e1 93 bf
       -1.3616768 0.048306666 -1.4274074 -1.1553212
000240 d3 13 05 3e fc 10 8e 3f 79 98 16 3f 15 13 70 3f
       0.12995844 1.1098933 0.58826405 0.93779117
000250 b6 d9 b4 be c0 5d 6f 3e e4 82 d1 be fe 1c cf bd
       -0.3532235 0.23375607 -0.40920174 -0.10112952
000260 a1 80 39 bf 51 2f 4b 3f 5d 17 4a bf ac 66 a8 3f
       -0.724619 0.79369074 -0.789419 1.3156333
000270 7f 6d 16 be 5d 08 32 bf bc 14 92 bf 02 ff 9d 3f
       -0.14690207 -0.6954401 -1.1412578 1.2343447
000280 9a e8 56 bf 4c a0 b7 bd f9 2c a4 be 6f 9f ac bf
       -0.8394867 -0.08966121 -0.3206556 -1.3486155
000290 2b 33 3d 3f 47 85 94 bf a1 62 bf 3e ff eb 9c 3f
       0.739062 -1.1603173 0.37379935 1.225952
0002a0 4d f8 42 3f ea ab 26 3f 77 0c 13 bf b5 33 44 3f
       0.76160127 0.6510607 -0.57440895 0.766414
0002b0 e0 2c 54 be 26 2c 8c 3e bc b0 f0 3d 0c 29 85 bf
       -0.20720243 0.27377433 0.117524594 -1.0403152
0002c0 6d 61 b4 be 25 ae 42 be 3a 1a 54 bf bd 51 4d 3d
       -0.3523058 -0.19011743 -0.8285252 0.05012678
0002d0 fc 32 b5 be 9b 1f e3 3e 19 8c f7 3d 0e 3f bf bf
       -0.3539046 0.4436005 0.120872684 -1.4941118
0002e0 71 34 96 3e f8 57 64 bf 5f 20 00 be 82 17 f3 be
       0.29336885 -0.8919673 -0.12512349 -0.47478873
0002f0 10 64 5b 3e 75 67 c9 be ba 87 61 bf 36 45 7a 3f
       0.2142489 -0.39336744 -0.8809773 0.9776186
000300 9b 47 e5 bf d4 82 bf 3e f9 72 d2 be c2 a6 42 3f
       -1.7912477 0.374045 -0.41103342 0.760357
000310 31 49 88 3e 75 ce 3a bf 92 5d c6 be af 21 80 bf
       0.2661834 -0.7297128 -0.38743263 -1.001028
000320 f3 47 d2 be f0 1a 2b 3d 02 0f a6 be 34 04 88 3f
       -0.41070518 0.041773736 -0.32433325 1.0626283
000330 84 40 a0 bf 15 8e d0 be 47 8d ef bf 0d 04 24 bf
       -1.2519689 -0.407334 -1.871499 -0.6406868
000340 aa f8 ae 3f 92 8b 2b bf 38 25 6c bf 42 1d 56 3f
       1.3669636 -0.6700984 -0.9224429 0.83638394
000350 12 42 89 bf a0 86 08 3f 0d 36 13 3f 48 1e 85 bf
       -1.0723288 0.5333042 0.5750435 -1.0399866
000360 24 b0 d4 be 0a ec 7a 3f f8 7e 45 3f 1e cd 44 bf
       -0.41540635 0.9801642 0.77146864 -0.76875484
000370 41 9f 5e bf ae 06 e4 bf e5 9b c4 bf 70 67 28 bf
       -0.8696175 -1.7814538 -1.5360075 -0.65782833
000380 08 9e 1d be 49 3f 39 be 35 8e 63 bd 15 f2 94 bf
       -0.15392315 -0.18090548 -0.05555554 -1.1636378
000390 fa de 80 be 1e 55 82 be e4 3e 85 bf 32 66 da be
       -0.25170118 -0.25455564 -1.0409818 -0.42656094
0003a0 a1 ae bd bf 4d 84 d2 be c8 fe 7b 3f 3d f9 a5 bf
       -1.4818918 -0.41116562 0.9843564 -1.2966686
0003b0 91 fa e9 be 72 fe 89 bd c2 63 ff 3e 0c f6 89 bf
       -0.4569898 -0.06737985 0.49880797 -1.0778213
0003c0 a4 74 d9 bf b6 d0 98 bf 1a 9b 36 bf be 2f 98 bf
       -1.6988721 -1.1938694 -0.71330416 -1.188957
0003d0 57 5a 12 bf fb 6d c4 bc 14 bb 02 3f ae 03 85 3f
       -0.571691 -0.023978224 0.5106671 1.0391748
0003e0 c9 a1 84 3f 28 6b 86 3f be 65 8e bf 79 f9 33 3f
       1.0361873 1.0501451 -1.1124799 0.7030254
0003f0 f5 83 55 bf e4 bb f7 bf 7a 1f a4 bf 6c dc b2 3e
       -0.83404475 -1.9354215 -1.2822106 0.34933794

lstm.bias_ih_l0 f4 [400]
000000 2b 55 85 bf 6b 1b 84 be 15 66 7c be ed c3 9d be
       -1.0416616 -0.25802168 -0.24648316 -0.30813542
000010 f4 74 6d bf f9 24 c2 bf 71 36 54 bf c2 5c 98 bf
       -0.9275658 -1.5167533 -0.8289557 -1.1903307
000020 f6 94 84 bd a3 8b c3 bf 1e ae 04 bf 94 fa 19 bf
       -0.064737245 -1.5276989 -0.5182818 -0.60147977
000030 1f 1e 01 bf 75 a3 96 bf c8 76 2a bf cf 84 a2 bf
       -0.50436586 -1.1768633 -0.66587496 -1.269678
000040 cd 26 90 bf 3e cf 31 bf c2 0e 3b bf cf 01 80 bf
       -1.1261841 -0.6945685 -0.73069394 -1.0000552
000050 4c 58 1a bf aa 01 5a bf 9d 31 6c bf 83 db 08 bf
       -0.6029098 -0.8515879 -0.92263204 -0.5345995
000060 0d 8f 09 bf 35 2b bd bf 2e 8f 19 bf a5 89 c3 bf
       -0.53733903 -1.4778811 -0.599841 -1.5276381
000070 fa bc 3b bf 21 69 86 bf f6 5d 84 bf 98 eb 47 bf
       -0.7333523 -1.0500833 -1.0341175 -0.7809386
000080 ce af fe be 68 aa 98 bf a5 b1 b8 bf e9 2a 24 bd
       -0.49743503 -1.1927004 -1.4429213 -0.040079985
000090 72 3a 57 bf a4 ce 69 bf f4 f5 b1 be 3a ab 2b 3f
       -0.84073555 -0.91330934 -0.3475796 0.67058146
0000a0 46 98 33 bf 21 a5 60 bf 2b ff 8d bf 81 f2 8f bf
       -0.70154226 -0.87751967 -1.1093496 -1.1245881
0000b0 31 67 9a bf e9 2d b2 be 36 0e 94 bf 2a 2d f5 ba
       -1.2062742 -0.34800652 -1.1566837 -0.0018705477
0000c0 f7 59 79 bf 8f 4f e1 bd b0 03 6c bf d8 d3 bc be
       -0.974029 -0.11001503 -0.92193127 -0.36880374
0000d0 d0 8d d6 bf 87 d9 c4 be 23 7f 20 bf ef b4 72 bf
       -1.6762028 -0.3844721 -0.62693995 -0.9480733
0000e0 e0 85 31 bf c4 48 8c bd eb af 9a be fe 6a 44 be
       -0.693449 -0.068498164 -0.3021234 -0.1918144
0000f0 b4 94 a5 bf b2 20 5a bf 9b 36 99 bf 90 1f e6 be
       -1.2936006 -0.8520614 -1.1969789 -0.44945955
000100 d8 68 c7 bf 0d ee c3 be ff 52 17 c0 ee ea 11 be
       -1.5578871 -0.38267556 -2.3644407 -0.14249775
000110 a7 7a 6a bf 7d 21 c9 be a2 3b 41 bf 19 bd a6 be
       -0.915934 -0.39283362 -0.7548162 -0.32566145
000120 80 43 3e bf 38 a3 08 be d3 02 3b bf 0d 58 15 bf
       -0.74321747 -0.13343513 -0.73051184 -0.5833748
000130 6d b2 ea bf 0d 20 46 bf c9 e2 44 bf e4 eb 31 3e
       -1.8335701 -0.77392656 -0.76908547 0.17375141
000140 f8 5e e3 3e a4 fa 38 bf 5f 34 39 c0 d9 55 6b bf
       0.44408393 -0.7225745 -2.8938215 -0.9192787
000150 d2 1c 62 be 9d 8d 7a bf a8 64 ce be a6 0e 08 bf
       -0.22081307 -0.97872335 -0.4031117 -0.5314735
000160 56 38 81 bd 1a b1 42 bf 20 61 7d 3d 3f fe 24 c0
       -0.06309573 -0.76051486 0.061860204 -2.578018
000170 4b d0 69 bd e0 d8 88 bf 2e f7 ae be 00 6b fd 3c
       -0.05708341 -1.0691185 -0.34172958 0.03093481
000180 85 92 ba bf 44 9e a6 be 55 46 5b bf bb 25 23 bf
       -1.4575964 -0.32542622 -0.85654193 -0.6372945
000190 a3 f4 58 bf 42 b1 89 bf 1c f3 92 be 4a 0f 99 be
       -0.84748286 -1.075722 -0.28701103 -0.29894477
0001a0 56 bd 24 bf aa 50 36 bf bc da 56 bf 5b e0 d8 bf
       -0.64351404 -0.71216834 -0.8392751 -1.6943468
0001b0 e1 1e f2 be 07 c0 1e bf bb 8a 4e bf ac 8b 8e bf
       -0.47289184 -0.6201176 -0.80680436 -1.1136374
0001c0 8d 02 6f bf 90 b1 17 bf 4b 26 3b be 4d b2 64 bf
       -0.9336327 -0.59255314 -0.18276326 -0.89334565
0001d0 d2 fe 1e bf 30 19 2e bf 80 e8 2e bf 84 20 25 bf
       -0.62107575 -0.68007183 -0.68323517 -0.6450274
0001e0 06 d2 a7 bf 28 14 db be cf 7d 22 bf a1 81 18 be
       -1.3110969 -0.42788815 -0.6347322 -0.148932
0001f0 27 e3 51 bf fb bc 4d bf 2e 85 0c bf 03 9b 97 bf
       -0.8198723 -0.80366486 -0.54890716 -1.1844181
000200 be ab 2e be 91 3a 7c bf dd dd 18 bf 86 38 15 be
       -0.17057702 -0.98526865 -0.59713537 -0.14572343
000210 84 18 4a bf f3 c7 b0 bf dd ea 9e be 9a f6 2f be
       -0.7894366 -1.381102 -0.3103856 -0.17183915
000220 00 80 98 bf c1 ca 62 3d bd 1b 75 bf b7 44 c7 be
       -1.1914062 0.055369142 -0.9574545 -0.38919613
000230 f6 19 3e bf eb d5 11 bf b3 07 07 bf 4c f1 b1 bf
       -0.74258363 -0.5696704 -0.52746123 -1.3901763
000240 a5 bf 02 bf 64 da d2 be fd 49 10 bf 25 3f 97 bd
       -0.51073676 -0.41182244 -0.563629 -0.07385091
000250 30 ba b7 be d5 76 a5 be d3 ed 84 bf 5c 07 1e bf
       -0.35884237 -0.32317224 -1.0385078 -0.6172998
000260 b4 3b 49 bf c1 cf b1 be 10 c2 5c bf e8 61 89 bf
       -0.78606725 -0.34728816 -0.86233616 -1.0733004
000270 c8 9d 70 bf 47 c0 4e bf b9 19 4f be 33 06 4d bf
       -0.93990755 -0.8076214 -0.20224656 -0.80087584
000280 4a 42 10 bf 0c 24 31 bf bb 02 65 bf 2d d9 a6 bf
       -0.5635115 -0.6919563 -0.8945729 -1.3035027
000290 13 b8 9d bf ca fe ae be b7 3e c7 be 97 7e 08 be
       -1.23218 -0.34178764 -0.38915035 -0.1332954
0002a0 4d f6 fb be 05 db c0 be c3 a0 98 be 4d 4c cd be
       -0.4921135 -0.376671 -0.2981015 -0.40097275
0002b0 32 f2 ae bf f0 fb 24 bf d0 f5 43 bf fe 42 11 be
       -1.3667662 -0.64446926 -0.76546955 -0.14185712
0002c0 16 24 75 bf 40 ee 16 bf 2d 8d 36 bf 7f 39 4d bd
       -0.9575819 -0.5895729 -0.7130917 -0.05010366
0002d0 a5 d1 08 be bd ec c7 be 53 fd a9 bf c2 e0 fc be
       -0.13361223 -0.39047804 -1.3280433 -0.49390227
0002e0 fa 32 21 bf 28 13 e5 be 9e 04 8a be 6f 5b 68 3e
       -0.6296841 -0.44741178 -0.26956648 0.22691129
0002f0 26 a1 5b bf 32 fa 34 bf 1c 90 93 bf fe 9d 77 be
       -0.8579277 -0.7069427 -1.1528354 -0.24181363
000300 d2 07 0e bf ba 94 fc be 23 71 bc be 98 12 21 bf
       -0.5548068 -0.4933222 -0.36805066 -0.62918997
000310 63 c6 90 bf 16 1e 03 bf 22 1a 15 bf 0a 50 1a bf
       -1.1310543 -0.5121778 -0.58243 -0.6027838
000320 49 59 72 3c 09 33 8b 3e 58 c6 fe bd 4d d4 0e 3e
       0.014791795 0.27187374 -0.12440175 0.13948174
000330 49 28 7f bd f5 8e 1a bd 57 c4 63 bd 89 3e 26 be
       -0.06229428 -0.03773399 -0.055607166 -0.16234793
000340 ab be f4 3d 03 25 48 bc 77 ea 03 be ed 27 99 3d
       0.119504295 -0.0122158555 -0.1288241 0.07478318
000350 ee 2d 8f bd c4 a2 88 3c d2 69 dc bd 43 b6 0c be
       -0.06991182 0.016679175 -0.10762371 -0.13741402
000360 69 3e e1 bc b8 30 81 3d 68 0f a3 3c 14 c2 9d 3d
       -0.02749558 0.063081205 0.019904807 0.07703033
000370 78 60 02 be fa 74 93 3e dd 50 7c be 05 65 e4 3d
       -0.12732112 0.28800184 -0.24640222 0.111520804
000380 43 a9 72 bd 43 b5 08 be b7 2d 40 be 59 dd 86 bd
       -0.05924345 -0.13350396 -0.18767439 -0.065851875
000390 62 07 85 bd c5 75 e1 3d f0 b0 33 be 8d 26 95 bd
       -0.06495549 0.11008791 -0.17547965 -0.072827436
0003a0 8f ed a7 3b e6 6f b3 bd 98 cc 4e 3e 91 13 9a bd
       0.0051247547 -0.08761577 0.20195234 -0.07523263
0003b0 80 e9 16 3e 17 25 4a 3e 48 b2 65 3e ab 64 89 3d
       0.1473751 0.19740711 0.2243129 0.06708654
0003c0 e2 12 ef bd aa ad 28 bd 5e 1a 1a 3d 54 4c c9 3d
       -0.116735235 -0.041181244 0.037622802 0.098290116
0003d0 d7 20 94 bd de e6 9f 3d 0f 4e 3f be 4a 61 02 3e
       -0.07232826 0.07807706 -0.1868212 0.12732425
0003e0 ed be b2 3d 03 97 aa bc 1e cb 4e bb 2b f4 34 be
       0.087278225 -0.020823961 -0.0031554173 -0.17671268
0003f0 45 45 3e bd 3d 7b a1 be 02 d9 ca bd ab 46 e4 3e
       -0.04645278 -0.31539336 -0.09904672 0.44585165

lstm.bias_hh_l0 f4 [400]
000000 20 10 85 bf d5 67 b5 be 8e e6 a9 be 3c 97 79 be
       -1.0395546 -0.3543078 -0.33183712 -0.24374098
000010 df 04 40 bf 0b fe bd bf c6 89 38 bf 41 2b 8e bf
       -0.7500743 -1.4843153 -0.72085226 -1.110695
000020 92 eb ed 3b b1 c5 bf bf b7 ba 07 bf 6d 12 1c bf
       0.007260748 -1.4982206 -0.5301928 -0.60965616
000030 21 bd e4 be ab a2 98 bf e9 c7 37 bf 0f f0 b0 bf
       -0.44675544 -1.1924642 -0.71789414 -1.382326
000040 6f a3 96 bf 93 42 15 bf c7 3b 2a bf df f5 87 bf
       -1.1768626 -0.5830471 -0.66497463 -1.0621909
000050 c5 57 2a bf 9b b4 48 bf 90 d3 63 bf a8 18 16 bf
       -0.66540176 -0.7840058 -0.88994694 -0.5863137
000060 1a 97 08 bf fb 64 a5 bf a9 bc 18 bf 1c 30 ca bf
       -0.5335556 -1.2921442 -0.5966287 -1.5795932
000070 67 19 2a bf 90 a7 90 bf 91 99 79 bf 6b a4 1f bf
       -0.6644501 -1.1301136 -0.9749995 -0.62360257
000080 31 ba 20 bf 29 50 90 bf 06 93 cf bf ac 9d 82 bd
       -0.62784106 -1.1274463 -1.6216743 -0.0637773
000090 c6 5a 46 bf d9 8e 49 bf 1e 05 fd be c7 c0 21 3f
       -0.7748226 -0.78733593 -0.49417967 0.6318478
0000a0 64 82 38 bf fe d7 60 bf df 6d 8d bf 03 3e 85 bf
       -0.7207396 -0.8782958 -1.1049155 -1.040955
0000b0 8d 57 a5 bf 27 e8 90 be 81 e7 9b bf 0c 81 5a bd
       -1.2917343 -0.28302118 -1.2180024 -0.053345725
0000c0 72 53 67 bf 26 18 56 be 2f 66 6f bf 3f f7 e0 be
       -0.903617 -0.2090765 -0.93515295 -0.43938634
0000d0 96 2e d9 bf 5e 1d 79 be d6 40 32 bf 16 fe 5b bf
       -1.6967342 -0.24327609 -0.6963018 -0.8593458
0000e0 e4 e1 38 bf 49 1b b8 bd 0c 41 91 be 10 2e 7c be
       -0.7221968 -0.08989579 -0.2836994 -0.24626946
0000f0 93 75 a4 bf 30 ec 61 bf fe 46 92 bf 1f 88 08 bf
       -1.2848381 -0.8825102 -1.1427915 -0.53332704
000100 97 8b b5 bf 45 75 8f be 1a e5 16 c0 f5 94 22 be
       -1.4183224 -0.28019157 -2.3577332 -0.15877135
000110 b1 63 7f bf 5f a5 f2 be dd f5 58 bf 78 f1 93 be
       -0.9976149 -0.47391793 -0.8475016 -0.28895164
000120 39 3d 44 bf 98 c3 43 be 8e 78 40 bf 39 bf e1 be
       -0.7665592 -0.19117582 -0.7518395 -0.44091204
000130 13 1e f4 bf b2 88 46 bf 6b 75 67 bf 64 f3 81 3e
       -1.9071678 -0.7755233 -0.9041354 0.25381005
000140 bb 40 05 3f 08 b3 2b bf d5 ab 39 c0 74 11 84 bf
       0.52051896 -0.67070055 -2.9011128 -1.0317826
000150 a1 f8 88 be 08 96 66 bf 9a d1 f2 be 3e 70 f0 be
       -0.2675219 -0.9007268 -0.47425538 -0.46960634
000160 b9 22 bf bd 0c 7b 3f bf b3 12 02 3e 8e 30 28 c0
       -0.09332795 -0.7479713 0.12702446 -2.6279635
000170 0d 2d 04 3d 3d 35 89 bf 0f 3f ba be f7 98 1c 3d
       0.032269526 -1.0719372 -0.36376235 0.038231816
000180 15 b0 b1 bf 2d 39 91 be 6a 8a 3e bf 84 5f 10 bf
       -1.3881861 -0.28363934 -0.74429953 -0.56395745
000190 aa d3 44 bf bb e7 85 bf 1e f8 97 be b6 56 b7 be
       -0.76885474 -1.0461344 -0.29681486 -0.35808343
0001a0 e7 1f 2e bf 25 1d 4c bf be c7 3a bf 0e 19 ed bf
       -0.6801743 -0.7973197 -0.7296103 -1.8523271
0001b0 ed b3 fd be 2f c0 2d bf 4c 80 3c bf 4b 0c 88 bf
       -0.49551335 -0.67871374 -0.73633265 -1.0628752
0001c0 9b ed 5a bf 05 70 1d bf 3f 34 50 be 90 e4 53 bf
       -0.8551881 -0.61499053 -0.2033243 -0.82770634
0001d0 1c d2 17 bf cb d7 39 bf 23 03 12 bf 01 1b 0a bf
       -0.59304976 -0.725949 -0.57036036 -0.53947455
0001e0 d7 26 b1 bf 4a 2c cd be 7e 00 31 bf 63 42 f7 bd
       -1.3839978 -0.40072852 -0.69141376 -0.12073209
0001f0 f1 41 29 bf 5b 71 4f bf c9 a6 0d bf 30 1f 94 bf
       -0.66116244 -0.8103234 -0.5533262 -1.1572018
000200 1c 9e 30 be 8e 97 67 bf 78 42 27 bf b8 c2 a6 bd
       -0.17247814 -0.9046563 -0.653358 -0.081426084
000210 66 4b 3d bf ea d9 aa bf 01 2f 8c be cf 8f 38 be
       -0.73943174 -1.3347752 -0.2737961 -0.18023609
000220 14 57 81 bf 74 bc 04 be b2 24 67 bf 0f 3b fa be
       -1.0104699 -0.12962514 -0.9029037 -0.48873183
000230 50 bf 3d bf 58 37 16 bf 8e 6d 13 bf 7e 0f b8 bf
       -0.74120045 -0.586782 -0.5758904 -1.4379728
000240 72 74 12 bf 9f 4a de be eb 4c 1b bf 22 4d 79 be
       -0.5720893 -0.43416306 -0.6066424 -0.2434583
000250 90 a3 93 be 5e 77 f5 be 7a d9 72 bf 71 11 2d bf
       -0.28835726 -0.47942632 -0.9486309 -0.6760474
000260 df 2c 2a bf a2 78 cd be 81 7a 50 bf ad 21 97 bf
       -0.6647472 -0.40131098 -0.81436926 -1.1807152
000270 d0 ff 62 bf 3a 3b 6d bf 36 03 8c be cf 05 3a bf
       -0.8867159 -0.926685 -0.273462 -0.72665113
000280 a8 5d 2c bf 7c 7a 21 bf 05 54 6c bf de f8 9e bf
       -0.6733041 -0.6307752 -0.92315704 -1.2419698
000290 12 75 91 bf b9 15 a1 be 9d b7 9b be 04 da 98 bd
       -1.1363852 -0.31461886 -0.30413523 -0.07463458
0002a0 53 87 ff be 46 a7 00 bf bf ce a5 be 01 e1 c0 be
       -0.49907932 -0.5025524 -0.32384297 -0.37671664
0002b0 be 7f a6 bf 87 ca 20 bf 35 bf 45 bf a5 20 75 be
       -1.3007734 -0.6280903 -0.77244884 -0.23938234
0002c0 dc 41 81 bf 3a 87 2b bf 21 54 29 bf 9f 66 cb 3d
       -1.0098224 -0.67003214 -0.66143996 0.09931683
0002d0 75 62 1e be a4 f4 9a be 53 a1 9e bf d1 ed d7 be
       -0.15467246 -0.3026477 -1.2392982 -0.42173627
0002e0 26 b7 3a bf c4 99 c9 be 00 c8 8f be de b8 69 3d
       -0.7293571 -0.39375126 -0.28082275 0.05706107
0002f0 c0 a5 31 bf bb 72 1e bf 5f 0a ab bf da 26 c5 be
       -0.6939354 -0.61893815 -1.336254 -0.38506204
000300 2e 70 c7 be c1 17 dd be 51 d0 ec be a1 73 26 bf
       -0.38952774 -0.43182185 -0.46252683 -0.65020186
000310 27 57 92 bf 05 57 e3 be 1c 83 0d bf 51 a3 31 bf
       -1.1432847 -0.44402328 -0.5527818 -0.69389826
000320 6c 2b 5d bd 4f a8 88 3e c2 06 65 bd 84 2b c9 bc
       -0.05399649 0.2669091 -0.055914648 -0.024556883
000330 e9 a6 8b bd cf 59 60 3a 7a 57 35 be d8 3c 08 bc
       -0.06818945 0.00085583044 -0.17709151 -0.0083152875
000340 15 c1 06 3d 47 b4 51 be a3 17 5d bd e9 56 8f 3c
       0.03289898 -0.20478927 -0.05397762 0.017497497
000350 48 fc 2a bd 42 7f a1 bd 23 38 0a be d0 c2 f8 bd
       -0.0417445 -0.078856006 -0.13497977 -0.121465325
000360 44 63 f4 3c 6d 15 a5 3d 62 28 1d 3d 54 f3 aa 3d
       0.02983249 0.08060727 0.03836859 0.083471924
000370 2b 2b 83 be 9a b7 5b 3e 27 6b 3e be 1d a0 d4 3d
       -0.25618872 0.21456757 -0.18595563 0.10382102
000380 02 43 a3 bd e9 26 32 be 53 fe 65 be d7 9f 2c bd
       -0.07971765 -0.17397656 -0.22460298 -0.042144623
000390 dc c7 b4 3d 0a e0 6b 3e 62 b5 39 3c 01 82 8f bd
       0.08827183 0.23034683 0.011334749 -0.07007218
0003a0 b1 13 bc bd 87 7f 0f be 40 d6 88 3e 3b 27 01 3c
       -0.09183443 -0.14013492 0.2672596 0.007882888
0003b0 8f c3 3e 3e 9b d0 89 3e 37 f8 37 3e 98 c3 63 bc
       0.18629287 0.26916966 0.1796578 -0.013901614
0003c0 d9 4d db bd 4c 75 80 bd 7a 99 27 3d 87 64 d1 3c
       -0.10708208 -0.062723726 0.04091785 0.02556063
0003d0 97 8a 72 bd 93 1d e7 3d 21 24 18 be 4f ab 3e 3e
       -0.0592142 0.11284938 -0.14857532 0.18620037
0003e0 fe 81 5c bc 03 80 1c bc fa ad 10 bb 94 a9 50 be
       -0.013458727 -0.009552005 -0.0022076354 -0.20377189
0003f0 8c 50 b6 3c 04 ff 14 be 48 13 d4 bd 12 39 00 3f
       0.022255205 -0.14550406 -0.1035524 0.5008708

linear.weight f4 [1, 100]
000000 46 a8 60 3d e3 2b 60 be 12 fb 0d 3e 8a b2 42 be
       0.054847978 -0.21891741 0.13865307 -0.1901342
000010 95 6f 5b bd 58 49 af bd 20 72 6e be 3b fa 96 be
       -0.05357321 -0.08558911 -0.23285723 -0.29487786
000020 ea 5d 5b be 2c d3 48 3d 46 cf a0 3e 77 f3 59 be
       -0.21422544 0.049029514 0.31408137 -0.2128428
000030 5c 18 2a bd 00 4f 32 bd e6 dd 12 bb 39 70 a7 3d
       -0.041527137 -0.04353237 -0.0022410094 0.08175702
000040 46 90 ab 3d 8f 1b 23 3e 8c 12 aa bd 1a 8c 70 3c
       0.08377127 0.15928482 -0.08304319 0.01468184
000050 bf 4e 37 bf 33 65 7e 3d 4a 4c 5c 3e a6 cd 42 3d
       -0.7160453 0.06210823 0.21513477 0.047559403
000060 9f 56 e1 bd 1c 02 11 bd 54 2a 03 bd 48 53 20 bb
       -0.1100285 -0.035402402 -0.03202279 -0.0024463702
000070 6f 13 ce bb 1f e9 84 bd dd e3 bc bc 06 76 0e 3e
       -0.0062889378 -0.06489777 -0.023057872 0.1391221
000080 ca b6 39 3d 40 5b 68 3c af 57 b6 bd a1 6a 98 bc
       0.045340337 0.014181912 -0.08903443 -0.018605532
000090 63 bd b9 be 45 9a cf bd 9d e4 bd bc 54 0f 77 3e
       -0.36277303 -0.101368465 -0.0231803 0.24126941
0000a0 91 0e 90 3d a5 be 27 3e dd 11 be be 07 41 91 3c
       0.07034028 0.16381319 -0.37123004 0.017731203
0000b0 34 c5 39 3b 0d b1 6b 3d a1 81 54 3c dc ac b6 bd
       0.0028346302 0.057541896 0.012970359 -0.08919689
0000c0 a7 bc 38 bd 43 ba f0 3d f0 dc 1a 3e 22 f3 0a 3b
       -0.045101788 0.117542766 0.15123343 0.0021202047
0000d0 69 22 47 3d 83 89 19 bd 6f f9 1d bb 80 f2 89 bd
       0.0486168 -0.037484657 -0.0024104973 -0.06735706
0000e0 ec d2 72 bf b8 b2 0c 3d 19 00 84 bc 39 c1 48 bd
       -0.9485309 0.034350127 -0.016113328 -0.049012396
0000f0 20 ed cf bb 59 9f 79 be 81 62 9f 3d ff f8 12 3f
       -0.006345406 -0.24377193 0.0778246 0.5741119
000100 5a 3c 8e bd 3c b5 12 3e e6 d2 85 bd 1b 87 d9 bd
       -0.06945105 0.14326948 -0.06534366 -0.106214724
000110 d2 ff 18 3e 1e 43 33 bd a6 ea cc 3d 58 4c 2f bd
       0.14941338 -0.04376518 0.10005693 -0.042797416
000120 e0 35 4c bf 3c f6 1a be b4 da c4 bd c5 5c 95 3e
       -0.79769707 -0.15132993 -0.09612027 0.2917234
000130 6a d9 53 3d b7 5d 8a 3c fd 68 fb bd 6b 31 e1 3d
       0.051721014 0.01689039 -0.12275884 0.10995754
000140 54 ef 74 3e 09 ab 23 bd 2c 53 d7 bc de 39 a4 be
       0.23919421 -0.039958034 -0.026284777 -0.320754
000150 d4 af b0 be 4a 55 11 3d b4 5b ec bb a9 b4 a5 be
       -0.34509146 0.03548173 -0.0072130803 -0.32364395
000160 e3 73 d5 bd f6 ec c7 3d 73 df 52 3d 44 89 09 bc
       -0.10422494 0.097619936 0.05148263 -0.008394543
000170 6b 1c 6a 3d 6d 5c 03 3e b7 77 03 be ae ab 17 be
       0.057156008 0.12828226 -0.12838636 -0.14811584
000180 f7 a7 ec bd 18 c0 00 be 82 ec bd 3a 2e 95 53 3d
       -0.11555474 -0.12573278 0.001449004 0.05165594
