BodelLigging/Dodewaard_bodemligging_V1.pt (torch, 661983 bytes, 5 tensors)

lstm.weight_ih_l0 f4 [400, 1]
00000000: 6012 823f b3dd 3b3f e6f2 3b3f 1a13 f03e
00000010: be41 ca3f db1f 46bf be4a 5140 afb3 823e
00000020: 380e 5d40 28c0 183f 4c28 0b3f b14e c43f
00000030: 5d01 3e40 8678 8f3e 3454 2e3f ff89 f33f
00000040: 9054 533f 41cb 84be 5825 a43f eaaa c13e
00000050: e659 363f 6aa9 9cbe 66a8 0d3f 8baf 983f
00000060: 9b39 f63f aac8 b03f c6ab 373f fdf7 993f
00000070: 0369 f43f cd30 7dbe 6273 c93f 742c 1c3f
00000080: 7f52 b43f bb17 003f 411b d73f 13de df3f
00000090: cb48 953f 9a3d af3f bcd5 82be 9d01 8540
000000a0: f174 ef3f e728 5cbf f99d 6b40 00c7 1540
000000b0: 9675 433f 5cae 883f 1ffb 853f fa4e aebe
000000c0: 9c20 f5bc e6ce 21bf 965a 793f 12bc 9e3f
000000d0: c5f4 5bbe 2256 193f c454 0a40 f706 943f
000000e0: 6967 2940 fd57 02bf 1241 1740 e24f 743f
000000f0: c2b6 953f edef 19be bcf8 2b40 90c2 ab3f
00000100: 9153 3abf bc07 ae3f d5c2 d93f a46a 02bf
00000110: 6f39 b43f 0947 0140 b70e febe d64b 0240
00000120: e202 2440 9d4b b93f 5894 503f 3b3b 0a40
00000130: 70bd 3040 41ca 4a3f 193c c03f 59eb 50be
00000140: 8d19 f43f fff0 fb3d 1b4a 2e40 71f2 f73f
00000150: d93e 543f 7527 07be 9cf9 1140 0041 1b3f
00000160: 391d 34c0 6757 d93f f287 0740 05ce a23e
00000170: 820f 8e40 e623 80bf a206 1d40 aa69 253f
00000180: 821f 973e 7672 b43f b006 78be b0fd c6be
00000190: 6a51 f03d a2d3 173d 7af0 3d3f 9d4e 8fbf
000001a0: 3c87 0abc e439 a63f d5f0 59bf 30de c8be
000001b0: ae80 8e3f ad2f 89be dcc6 aabf 0ed2 d5be
000001c0: ecb1 0840 3c8c 8f3e fc48 ff3f 38e7 b23e
000001d0: 96e5 8e3d 51cb 83bd 7dfc cd3f 7c75 333f
000001e0: 4f2a ac3f 134b 903e 92b7 a13f c2aa 3e3f
000001f0: 25da 983f 432d 1cbd c454 cb3f 8237 f63f
00000200: c8ef 00bf cf59 7abf 39ef b43f 2597 e9bf
00000210: df5b b43f 7778 5d3f abb0 84bd 86cf bebe
00000220: 08d8 913f 9164 bb3f bafa ddbe 4086 123f
00000230: 53a5 9a3d 11db 59be 9df6 243f 972a 49be
00000240: b145 a43f a076 9a3f 5252 f1be 2cb5 363f
00000250: b96a 223f 7a39 ad3e bd92 443f 5f4d f13f
00000260: c57b bb3f c621 b0be f63b 5a3e 4b86 bc3f
00000270: d0b5 c43e 76d6 21bf b114 8d3f 8d26 a53f
00000280: f339 f03f 1eeb 81bf a5af 5740 66d9 a63f
00000290: a8f3 393f 2612 bd3f da67 ab3f 8649 713f
000002a0: 8794 e33f 865f b23c 154c 87bf b7f2 933f
000002b0: 3176 a93f f306 55be b178 95be 4036 90bd
000002c0: e5af ac3f be2f d83f 78b3 c23f 33f9 933f
000002d0: 5dec 12be b901 e73e 4f45 853f f716 e03f
000002e0: 4471 61bf bcd1 e9be b5a0 173f 4bb1 403f
000002f0: 7acb b23e 29ca babe 7637 3c40 eaa0 a13f
00000300: fed5 023f e173 223f 7888 e03e 4490 403f
00000310: 25bd 9d3f 7c3d ab3f edcf b83f 8194 293f
00000320: 027a 76be 7b04 64bf 6956 35bf 063f f93f
00000330: 53b9 c03f 35cb d7be 9c3a cc3f 2c34 2d3f
00000340: a43c b93d 188d e93f c302 0040 a153 40bf
00000350: 96af 2d40 71be 3e3f ede1 19bf f427 b33f
00000360: 5430 fe3f 02cb dabf 09c4 0dbf 7449 84be
00000370: 9bac 83be 269c 0f40 876d 75bf 9897 a83f
00000380: ea9e 293f e9db 93bf 88ab 6cbe 3be3 5c3e
00000390: 7a36 d9bf 7bac 2a40 f705 c8be f890 1f40
000003a0: ad03 143f 8fc9 ebbf 97d6 0ac0 3032 0cc0
000003b0: 6661 0ebe ad7f 783f cedf d33f 8fd7 fc3e
000003c0: 4c6c 06c0 3268 fbbf 484e 44c0 6229 ae3f
000003d0: d3a1 39bf fbad 3c3f 2f05 e33f 1e36 d7bf
000003e0: c32b 85bf e6e1 c0bf 1da6 0f3f 3617 043f
000003f0: b56a 0dbd 1548 893e 2e35 dcbf ba92 79be
1.0161858 0.7338516 0.7341751 0.46889573 1.5801313 -0.7739236 3.270187 0.25527713
3.4539928 0.5966821 0.54358363 1.5336515 2.9688332 0.2802164 0.68097234 1.9026488
0.8255091 -0.2593632 1.2823896 0.3782571 0.71230924 -0.30598003 0.5533508 1.1928571
1.923633 1.3811238 0.7174648 1.2028805 1.9094547 -0.24725647 1.5738337 0.6100533
1.4087676 0.5003621 1.6805192 1.7489647 1.166284 1.3690674 -0.2555369 4.156447
1.8707563 -0.8599991 3.681517 2.340271 0.76351297 1.067821 1.0467261 -0.3404463
-0.029922776 -0.63206327 0.9740385 1.2401145 -0.21480091 0.59897053 2.1614237 1.1564626
2.6469367 -0.5091551 2.3633466 0.9543439 1.1696398 -0.1503293 2.6870565 1.3418751
-0.7278376 1.359611 1.7012583 -0.5094397 1.4080027 2.0199606 -0.49620602 2.0358787
2.562676 1.44762 0.81476355 2.1598651 2.7615623 0.79214865 1.501834 -0.20402278
1.9070297 0.12301826 2.723273 1.9370862 0.829084 -0.13198645 2.28086 0.6064606
-2.8142836 1.6979798 2.1176724 0.31797805 4.439393 -1.0010955 2.4535298 0.64614356
0.29516226 1.4097431 -0.24221301 -0.38865423 0.117342785 0.037067063 0.74195063 -1.1195866
-0.008455094 1.2986417 -0.85133106 -0.39232016 1.113302 -0.26794186 -1.3341937 -0.41761822
2.1358595 0.28036678 1.9944148 0.3494203 0.06977384 -0.06435264 1.6092678 0.7010114
1.3450412 0.28182277 1.2634146 0.74479306 1.1941572 -0.038129102 1.5885243 1.923569
-0.5036588 -0.9779329 1.4135505 -1.8249251 1.4090537 0.8651194 -0.06479009 -0.37267703
1.1394053 1.4640065 -0.43355352 0.572361 0.07551064 -0.21274973 0.644388 -0.19645153
1.2833768 1.2067451 -0.47133118 0.71370196 0.63444096 0.33832914 0.76786405 1.8851737
1.4647146 -0.34400767 0.21311936 1.4728483 0.38419962 -0.63217866 1.102194 1.290239
1.8767685 -1.0149877 3.3700955 1.3035095 0.72637415 1.4771163 1.3391068 0.9425281
1.7779702 0.021774065 -1.0570093 1.1558446 1.3239194 -0.20803432 -0.29193643 -0.07041597
1.3491179 1.688957 1.521102 1.1560425 -0.14347978 0.45118502 1.0411776 1.7507008
-0.88063455 -0.45667827 0.59229594 0.7527053 0.34920865 -0.3648236 2.940885 1.2627232
0.51107776 0.6345807 0.43854117 0.7522013 1.2323347 1.3378139 1.4438454 0.66242224
-0.2406998 -0.89069337 -0.70834976 1.9472358 1.5056556 -0.42147222 1.5955386 0.6765773
0.090447694 1.8246183 2.0001686 -0.7512761 2.713842 0.7450934 -0.6011036 1.3996568
1.9858499 -1.7093203 -0.5537725 -0.2583729 -0.25717625 2.2439055 -0.9587025 1.3171263
0.6625811 -1.1551486 -0.23112309 0.21571057 -1.696975 2.6667774 -0.3906705 2.4932232
0.5781811 -1.8420886 -2.1693475 -2.1905632 -0.13904342 0.9706982 1.6552675 0.49383208
-2.10036 -1.9641173 -3.067278 1.3606379 -0.7251255 0.73702973 1.7735957 -1.681339
-1.040398 -1.5068939 0.56112844 0.5159792 -0.034525592 0.26812807 -1.7203729 -0.24372378

lstm.weight_hh_l0 f4 [400, 100]
00000000: 2ef6 c7be aeb2 9b3e 83ee 133f d251 213f
00000010: e675 8abf 5f59 323f 4671 a4be 7e2c 863e
00000020: 9c04 1a3f f830 833e acec 3c3f 2c37 02bf
00000030: a4d3 39bf 2460 e13e ee9f 1d3f 66e3 5dbf
00000040: d51e 933e e1f1 e13d fb2f 8a3e afb8 fe3e
00000050: 175f fa3e 908d 983e daf1 723f cdb0 103f
00000060: 0b20 d8be 3704 943f 62bb 063f f8e4 483f
00000070: 40d5 503f ada4 fb3e a62b 32be 4883 063f
00000080: fe30 ca3e de25 ce3d a11b 5dbe c8ee 613f
00000090: 4027 a83f fb30 773e 0a08 843f e088 e73e
000000a0: d70a 9e3f 9aba f2be f7e5 efbc 08a8 98be
000000b0: 75f1 4d3f cf08 5fbe e098 8c3f 65e0 9ebe
000000c0: 278c e33d 5483 5a3e fec5 08be a17c 0d3f
000000d0: 3c21 15bf d921 873e ffc5 a03f a633 8a3f
000000e0: baaf 993f 135f 7c3f dec3 f03e 003c d53f
000000f0: 6daf 853f e58c 333f 8bcd f9be 7f5a 9ebe
00000100: d8db 3d3e 3a47 ab3f 37ff 7c3f c271 23be
00000110: 008f 7f3e b040 2d3e 4933 783f 06f3 8d3f
00000120: 7b97 433f e7df f03e 87c6 c03f 0f26 7dbf
00000130: bb51 e93e ab4e 063e 13ad ef3d a6f2 ef3e
00000140: 7978 8f3e 970c 75bd 5274 01bf 0381 a83e
00000150: 2bd3 6d3f 9981 d83e e464 f5be eee2 6d3f
00000160: 0570 20bf f02c 4abe 35a1 83bf dacc 303f
00000170: 2bc1 f43e d99c bdbf d752 60be 9947 d3be
00000180: 11d5 523e 8e89 c93f 7a74 1b3f 8621 edbe
00000190: ca7f 75bf e21c 303f 12d8 093f 423f 973e
000001a0: d1cb 2cbe 7f85 11bf 41af ea3e 23ce 42bf
000001b0: 583f 993e 5c75 88be 833a 80bf 22fe 7a3f
000001c0: 826c 8cbf 677c 5bbe a3f8 0bbf 0a37 82bf
000001d0: f4f8 d0be fc7d 17bf b53c b63f 7e2f b53e
000001e0: 6ca0 6f3f 83b6 4ebe 02e5 1ebf 990a 0bbf
000001f0: 1b32 11bf de77 333f c0b2 35bf a9b6 053c
00000200: 6573 063f ff86 3c3e 0ae4 5dbf 6544 763f
00000210: d69b f6bd d88f 2d3f d4d4 b13f 61f2 303f
00000220: 5175 37be 431c 473e 5028 03bf 3a43 da3e
00000230: 5aed 06be 4ae5 e53d 40c8 b53f e5ab 87bf
00000240: baaf e9be 63c2 21be 927c 36bf 985d a53e
00000250: 2eb3 163e 5b3a 613d 0b62 e33e 60a4 99bf
00000260: 0d18 39bf 3541 16bf b105 2d3e 805e 57be
00000270: b639 2a3f 281f f5be d67e c5be a9ba 97be
00000280: 744a 94be 4bf4 473e bd60 0ebd d857 7abf
00000290: 7018 ed3d 1475 ebbe 5673 3ebf debb 12be
000002a0: 334e a63e b1aa 34bf f4b9 31be a230 f03e
000002b0: a8e2 75be 4d57 5cbd 6cd9 16bf 5052 9abe
000002c0: 9a0c 86be ef71 f83e d539 833e dff4 4a3e
000002d0: 79fd 2d3c ebe1 14bf 1ecd d3be 0c6f bbbf
000002e0: 294d 1ebf 55fd d13e ada6 0fbf c8db 813f
000002f0: 8899 1dbf c104 62bf 853f 63bf 5ca6 e8be
00000300: 4ca9 bf3e 40d6 7d3e f753 98bf 7d2d 0ebf
00000310: 6154 063e 402f 0ebf c5dc 05bf 151e 053e
00000320: 6592 c2bf 6a79 b3be 3850 213f 81bb 843f
00000330: 8ce1 c23e 58fc 93be 0d7b 9c3e 8f4d cfbf
00000340: 8767 293e ff4c 4a3e 01f3 1ebf ac5d fd3c
00000350: 93be 96bf 1ccb e1bd e2d1 e0be 6c70 4cbe
00000360: f3c3 db3d f06e a33e 2a73 aa3e 8a18 50bf
00000370: f825 ca3f 663f 073e a395 96be a72b c6be
00000380: 867a a0be 1a42 b13f b699 8ebf 8c51 a1be
00000390: e91c ba3f e83a 923f b5fe 9dbf cd10 b63f
000003a0: a35a 92bf 341a b13e c8f9 88be 69b4 8c3f
000003b0: ba56 89be e273 ef3e 2be6 d33d 2d0f 663d
000003c0: 5af4 4abe 4115 c1bf 4c6d b23f 23a7 f7bd
000003d0: 9386 3f3e 5f95 233f d28b 2b3d c28a babd
000003e0: 2cad 83bf 2607 52bf 060f be3e eae5 e4be
000003f0: 0753 b4bf 784c 48be 0fb2 2cbf 6c4a b8be
-0.39055008 0.3040976 0.57785815 0.6301547 -1.081723 0.6966762 -0.3211767 0.2620582
0.60163283 0.25623298 0.7379863 -0.50865436 -0.7258856 0.44018662 0.6157216 -0.8667511
0.2873446 0.11032463 0.2698973 0.49750277 0.48900673 0.29795504 0.94900286 0.56519777
-0.42211947 1.1563786 0.52629673 0.7847438 0.81575394 0.49149075 -0.17399463 0.5254407
0.39490503 0.10065816 -0.21592571 0.88254976 1.3136978 0.24139778 1.0314953 0.45221615
1.2347058 -0.4740799 -0.02928446 -0.29815698 0.8044656 -0.21780704 1.0984154 -0.31030574
0.11110716 0.2133916 -0.13356778 0.55268294 -0.58253837 0.2639301 1.2560424 1.0797012
1.2006752 0.9858257 0.47024435 1.6658936 1.0444161 0.70136863 -0.4878963 -0.30928418
0.18540895 1.3381112 0.98826927 -0.15961364 0.24956894 0.16919208 0.96953255 1.108979
0.76403016 0.47045824 1.5060586 -0.988862 0.45570168 0.13115947 0.11702933 0.46864814
0.280216 -0.05982646 -0.50568116 0.32910928 0.9290034 0.42286375 -0.47928536 0.9292439
-0.6267093 -0.19743705 -1.0283571 0.6906258 0.47803625 -1.4813491 -0.21906601 -0.41265562
0.20589091 1.5745103 0.60724604 -0.4631464 -0.95898116 0.6879407 0.5384532 0.2954045
-0.16874625 -0.56844324 0.45836833 -0.7609579 0.2993114 -0.26652038 -1.0017856 0.98044026
-1.0970614 -0.21434174 -0.54676265 -1.0173047 -0.40814936 -0.5917661 1.4237276 0.35387796
0.9360416 -0.2018681 -0.6206819 -0.54313046 -0.5671708 0.7010478 -0.70975876 0.008161225
0.5251983 0.18410872 -0.86676085 0.9619811 -0.12041442 0.67797613 1.3893075 0.6911984
-0.17915846 0.19444375 -0.51233387 0.42629415 -0.1317648 0.11225374 1.4201736 -1.0599333
-0.4564188 -0.15796809 -0.7128383 0.3229797 0.14716789 0.054987293 0.44410738 -1.2003288
-0.72302324 -0.5869325 0.16896702 -0.21032143 0.6649431 -0.47875333 -0.3857333 -0.29634598
-0.28963053 0.19526784 -0.034760226 -0.9779029 0.11576927 -0.4598776 -0.7439474 -0.14329478
0.32481536 -0.70572954 -0.17356092 0.46912104 -0.24012244 -0.053794194 -0.5892551 -0.30140924
-0.2618149 0.48524424 0.2563006 0.19819973 0.010619515 -0.58157223 -0.4136743 -1.4643264
-0.6183649 0.4101359 -0.561137 1.0145197 -0.61562395 -0.88288504 -0.887688 -0.45439422
0.3743385 0.24788761 -1.1900624 -0.5553816 0.13118125 -0.5554085 -0.5228999 0.12999757
-1.5200926 -0.3505357 0.6301303 1.0369722 0.38062704 -0.2890346 0.3056263 -1.6195544
0.16543399 0.19755934 -0.62089545 0.030928455 -1.1776909 -0.11025068 -0.43910128 -0.1996476
0.10730734 0.31920576 0.33290988 -0.81287444 1.5792837 0.13207778 -0.2941104 -0.3870518
-0.31343478 1.3848298 -1.1140659 -0.31507528 1.4540073 1.1424227 -1.2343355 1.4223877
-1.143391 0.34590304 -0.26753068 1.0992557 -0.2682398 0.467681 0.103466354 0.056166817
-0.19819775 -1.5084611 1.3939605 -0.12092426 0.1870368 0.638998 0.04188139 -0.09108497
-1.0287223 -0.8204216 0.37120837 -0.4470666 -1.4087838 -0.1956042 -0.67459196 -0.3599428

lstm.bias_ih_l0 f4 [400]
00000000: 2664 14bf 38ff 47bf fd55 74bf 3eed 6fbe
00000010: 1bf3 c6be db11 46bf 44d2 04bf 986b d43d
00000020: 3827 07bf 2201 cabe 98d0 ca3e b53f ddbe
00000030: 0a64 9d3d 34da 8ebf e408 70bf 1b8d 663d
00000040: de2e 88be 1077 a63e 2f8b 81bf b189 d6be
00000050: c2f1 6ebf ad17 103e f88c 0ebf e759 86bf
00000060: 13de 73bf c4b0 58bf 164f 92bf f168 87bf
00000070: e0b7 7dbe a8e5 1c3f 0ed4 02bf 538a 113f
00000080: 0ece aabf 7c0d 9dbe 9cd9 41be 2efc 32be
00000090: 9031 81bf 8343 4ebf db08 8f3e 1ac8 28be
000000a0: b000 82be 7520 783d 81c5 4cbd c642 d8be
000000b0: c5a8 84bf 3c69 86bd ca0e 1cbe 648c 73be
000000c0: 195d 8fbe 7dcf 24be 772f 89bf 890d 41bf
000000d0: 94db 93bf a832 03bf 32d1 09be 1f1c 61bf
000000e0: 240b c3be 219c b1be 326a e1be 15a2 4dbf
000000f0: dd66 fdbe 9f8b d9bc 7f94 96bf fe97 ccbe
00000100: a353 07be 850d 20bf 5eb6 a6be 117c ecbe
00000110: a65c b4be a961 8c3e ada1 f93e fb0f 02bf
00000120: 56c9 d9bf 3f0b 5fbf 8c06 fabe 904a 06bf
00000130: 8610 74bf eb4c 5ebf f842 9bbf 9542 9abf
00000140: 051c dbbe 654c c7bf 48eb a1be 5404 d6be
00000150: 9362 71bf 397a 52bd eebf 88be 814d a0bf
00000160: a9af 703f 501e 973d 6303 9abc 8dcb bebd
00000170: 94a0 48bf 12e7 9b3e 8756 15bf 1016 a0bf
00000180: 7e11 07bf 7b44 16bf 9a6d 5abf 453d 93be
00000190: 7660 dfbe 06b7 4fbf 2a4a 3fbf 6d5f 51bf
000001a0: b91d e4be 9175 02bf 2830 97be 659a ecbe
000001b0: 4fd2 46bf 8144 dfbe 8e9d c2be 84aa 55bf
000001c0: 5f3e 84be a7ea 97bf 940d 2fbf 4aa3 bebd
000001d0: d9e7 24bf 3fa5 17bf cdf0 95bf 9f89 10bf
000001e0: ee26 71bf 30d2 8dbf 3718 f1bd 247c 7ebf
000001f0: c92f 70bf 4ab1 c5be 9db4 fbbe acf1 90bf
00000200: 22ee 04bf 3ffc 1abd 310a c5be 7f4a 11be
00000210: 3f6f 83bf e557 75bf 6bfd 56bf 7521 05bf
00000220: bde4 61bf c0a3 60bf 4a8a 27bf 6fea 2fbf
00000230: 2d2c 81be 8e00 16bf 3d81 46bf 10f9 99bd
00000240: aa9e 50bf 80b2 4bbf f294 d5be 0f15 79bf
00000250: 4928 19bf ef87 d3be c488 59bf 3501 0cbe
00000260: 9df4 99bf b10b 9abe f01c e0be 7633 c0be
00000270: 61c0 26bf 8a11 27bf e40c 03bf 5f45 febe
00000280: 0fb0 16bf b50e 27bf 0aef 2dbf 74cf 32bf
00000290: 1c98 7abf 93e1 aabf 6ffb 383e 19fe 6cbf
000002a0: a8ce d2be 2f9d 11bf 14b5 13bf cb3d dbbf
000002b0: 7879 c1bf ff3e b2be 63fe 12bf 3acd bb3d
000002c0: d785 5bbf 8ada 05bf cd1e d6be a799 abbf
000002d0: 006e 05bf 9fb8 73bf a04e 16bf 5c26 b3be
000002e0: 4e9a 25bf ce89 27bf 88b1 c6be bfce 34bf
000002f0: f932 2cbf 59b4 7dbe ea6a 0cbf 32b6 6ebf
00000300: 545e 2abf 7b32 53bf d3a5 f4be 756b 6fbf
00000310: cafd babf f93f 4dbe 302b 99bf 12d0 5cbf
00000320: 2c93 abbe e666 d7bd 634f 3cbe adaf b83e
00000330: d01b aa3e 52bd 053f b615 c03e 744f 8ebe
00000340: 4a7d f13d d034 5d3e 2f77 993e 7bf7 8f3e
00000350: b4a1 5bbd 462b 113e 0890 a2bd f3b4 733e
00000360: 963b 9e3e 40d7 93be a8aa 00be 6b02 cebc
00000370: 7174 80be b689 923e f45d 79be c613 163e
00000380: 5c68 bbbc 3d24 26be 4522 a9be 1f58 a13d
00000390: f7c9 20be 664e 013f 0bf0 88be 895e 673e
000003a0: 50da 5e3d 4f9b 5dbe 616b 033e ce88 33be
000003b0: 8b19 be3d 2ae1 7bbe a166 5a3e 0346 093f
000003c0: 1053 adbe b14a c2be e8ab 1fbe 09a8 833e
000003d0: 3c5c 0fbd a635 523e 354b 773e 168d 24be
000003e0: 9fd5 bbbe cbff 94be eb70 1d3e d4fa 0bbd
000003f0: 9862 98be 7246 3bbe 2bb1 d3be 105a 3ebe
-0.57965314 -0.7812381 -0.9544371 -0.23430344 -0.3885735 -0.77370995 -0.5188334 0.103720844
-0.5279422 -0.3945399 0.3961227 -0.43212667 0.076850966 -1.116034 -0.93763566 0.056286912
-0.26598257 0.32512712 -1.01206 -0.41901925 -0.93337643 0.14071532 -0.5568385 -1.0496186
-0.95260733 -0.8464472 -1.1430385 -1.05789 -0.24777174 0.6128793 -0.5110482 0.5685169
-1.3344133 -0.3067435 -0.18930668 -0.17479011 -1.009325 -0.80571765 0.27936444 -0.16482583
-0.2539115 0.06057783 -0.049993042 -0.42238444 -1.0364004 -0.065630406 -0.15240017 -0.23784024
-0.28000715 -0.16094775 -1.071761 -0.7541128 -1.1551385 -0.5124917 -0.13458708 -0.87933534
-0.38094437 -0.3468943 -0.44026333 -0.8032544 -0.4949254 -0.026555834 -1.1764067 -0.3995971
-0.13215499 -0.6252063 -0.3256101 -0.46188405 -0.35226935 0.2741826 0.4875616 -0.50805634
-1.7014568 -0.87126535 -0.4883312 -0.52457523 -0.9533771 -0.8683612 -1.2129812 -1.2051569
-0.42794815 -1.5570189 -0.31624818 -0.41800177 -0.9429104 -0.05138609 -0.2670893 -1.2523652
0.94018036 0.073788285 -0.018800443 -0.09316168 -0.7837002 0.3044973 -0.58335155 -1.2506733
-0.52761066 -0.5869824 -0.8532349 -0.28757682 -0.4362828 -0.81138647 -0.7472254 -0.81786233
-0.44553927 -0.5096064 -0.29528928 -0.46211544 -0.77664655 -0.43606952 -0.3801083 -0.8346331
-0.25828835 -1.1868485 -0.68380094 -0.09308489 -0.6441627 -0.5923652 -1.1714112 -0.56459993
-0.94200027 -1.1079769 -0.11772197 -0.99408174 -0.93822914 -0.38611823 -0.49161234 -1.1323752
-0.5192586 -0.037838217 -0.38484338 -0.14188574 -1.0268325 -0.9583724 -0.83980435 -0.52004176
-0.8823965 -0.8774986 -0.6544539 -0.6871709 -0.25229016 -0.58594596 -0.7754095 -0.07518208
-0.814921 -0.79569244 -0.417152 -0.9729776 -0.59827095 -0.41314647 -0.8497431 -0.13672335
-1.2027775 -0.30087045 -0.43772078 -0.37539262 -0.65137297 -0.6526114 -0.51191545 -0.496623
-0.58862394 -0.65256816 -0.6794287 -0.698478 -0.9788835 -1.335009 0.18064664 -0.9257522
-0.4117329 -0.5688047 -0.5769818 -1.7128233 -1.5115194 -0.34813687 -0.57419413 0.09170003
-0.857511 -0.5228659 -0.41820374 -1.3406266 -0.5212097 -0.95203584 -0.5871372 -0.34990203
-0.64688575 -0.6544465 -0.3880732 -0.7062797 -0.6726528 -0.24775828 -0.5485064 -0.9324676
-0.66550183 -0.824989 -0.47782764 -0.9352334 -1.46087 -0.20043935 -1.1966305 -0.8625499
-0.3351072 -0.10517673 -0.18389659 0.3607153 0.33224344 0.52242005 0.37516564 -0.27794993
0.11791475 0.21602178 0.29973742 0.281185 -0.05362101 0.14176664 -0.07937628 0.23799495
0.30904835 -0.2887516 -0.125651 -0.025147637 -0.25088838 0.2862069 -0.24352247 0.1465598
-0.02287691 -0.16224761 -0.33033958 0.07878136 -0.15702043 0.5051025 -0.26745638 0.22594656
0.054407418 -0.21641277 0.1283393 -0.17532656 0.09282216 -0.24597612 0.21328212 0.53622454
-0.33852434 -0.3794761 -0.15592921 0.25714138 -0.03500007 0.20528278 0.24149783 -0.16069445
-0.36686417 -0.29101405 0.15375106 -0.034174755 -0.2976272 -0.18288592 -0.41346106 -0.18589044

lstm.bias_hh_l0 f4 [400]
00000000: 174e 13bf 0dc4 4bbf 45f8 80bf fd17 0dbe
00000010: 3243 97be 2d6e 67bf f0cb 00bf 947f b63d
00000020: 8acf b1be e96e 92be 5490 c33e 957c 01bf
00000030: d035 ce3d a507 84bf 0d8e 79bf 0a79 10bd
00000040: 6799 2dbe 5de5 763e c29c 6fbf c700 8bbe
00000050: 2a70 72bf 323d 743e 9032 e6be 8d93 7dbf
00000060: 0aa7 86bf d5e5 5bbf 1215 8fbf dcf7 85bf
00000070: 0862 75be 750e 403f 74e0 07bf b9ff 2c3f
00000080: 22c7 a3bf 4d5b 73be 4402 54be b02d 3bbe
00000090: 2b9f 6abf fab9 76bf 5d22 733e 321c e8bd
000000a0: f81b 63be 09e3 613d 9719 d53d 0765 dfbe
000000b0: c303 75bf 98d1 a8bd 74cd adbd 68c0 8bbe
000000c0: 9702 92be 1465 c5bd e492 8ebf 9317 3dbf
000000d0: e2f5 96bf 46e8 d3be 5487 10be 99a3 85bf
000000e0: dd0e 8fbe f59f a5be 4f2a e9be bfa2 39bf
000000f0: 115e 09bf 2594 813d a45c 86bf ea41 0bbf
00000100: 4e08 1ebe b0d4 15bf 778c 84be 0a16 f8be
00000110: 0236 d2be 4b71 223e c73b c13e 03bb 1fbf
00000120: 3298 e2bf c9e4 55bf ce1c 0abf 8bfd 2fbf
00000130: a9f0 76bf f595 3ebf 8eea 91bf 3a03 99bf
00000140: 171d f8be e639 bebf 23a7 c4be 3df3 adbe
00000150: af77 75bf 4c3d 81bd 241f 26be 18c3 9bbf
00000160: e02d 703f 88f0 a9bb ba47 073e 5ffb 09bd
00000170: 6a15 39bf f06d a93e 022c 0fbf 5544 a3bf
00000180: 2721 22bf c6be 25bf 328d 5abf 074b 36be
00000190: 4804 f8be 7136 6ebf f120 64bf cbfc 44bf
000001a0: 1292 99be 2392 ecbe 7e98 2cbe bf4b aebe
000001b0: eb63 53bf 4c8c fabe 8e5f f2be 5e29 4cbf
000001c0: 4b68 2dbe 85ab 88bf 98d8 0cbf dc64 58be
000001d0: d985 32bf 1821 25bf 022a 9ebf 5332 04bf
000001e0: 396c 71bf 6552 81bf 9c41 0bbe ce15 80bf
000001f0: 7b31 55bf 29b7 7fbe fc7a 07bf 706b a1bf
00000200: 34b3 0abf 111c 0fbe 9a2a ddbe 91ea 9bbe
00000210: 43b1 8cbf 1dd7 6fbf 4637 7abf 677e bcbe
00000220: a3ee 80bf 0cff 74bf 9d82 43bf 89d1 29bf
00000230: 802d 8cbe 5c07 10bf ed64 3abf c3ea 96bd
00000240: b77a 3abf 119f 5fbf 4b38 e3be 0e41 58bf
00000250: 5849 30bf 3115 01bf 8ac3 42bf 0b93 fdbd
00000260: db96 a9bf a5c3 d8be 20db c3be 4573 a5be
00000270: 46c4 f5be 0e5f 0ebf b298 0fbf 01ae 29bf
00000280: e485 13bf 6d8b 30bf 7cee 36bf c5ca 28bf
00000290: ac89 71bf 22ef bcbf 6cc2 bd3d 0e8b 76bf
000002a0: 7c74 a3be d4b7 11bf 0f5b 19bf f2dc dfbf
000002b0: 0a10 c3bf 48fa 7bbe 3509 01bf a5cd dc3d
000002c0: c20c 5fbf b066 e5be 0def fbbe 2d65 9abf
000002d0: 4b98 28bf 0b87 6fbf e255 cabe ad27 9cbe
000002e0: 3251 1dbf 9e5c 05bf 592d 01bf 1b4b 22bf
000002f0: 5a13 35bf 94fa 32be 5c49 05bf 382f 63bf
00000300: f13c 19bf eb33 2cbf 847f 16bf f6dd 87bf
00000310: 3a96 acbf c800 acbe 9dc8 9ebf 97e8 5fbf
00000320: 5003 babe 2186 ccbd 6ccf c8bc 8aef 983e
00000330: 440e 8a3e cdbc c43e d186 8c3e a6ef a3be
00000340: 1d51 623e 34c2 af3e 45a8 033e 7dd3 0d3e
00000350: 4dc3 30bd 5bc4 bf3d a8f3 5b3d 69e3 ad3e
00000360: 0e05 873e 0a43 a9be 35ee 8fbe 9e04 edbd
00000370: e92f 08be be44 453e 8e2c 66be de53 753e
00000380: 9286 0d3e 6750 75be 2ff5 7ebe 84e6 1f3e
00000390: 5a76 81be db04 c83e 7598 e1be 4648 8d3e
000003a0: f751 93bc 34db a6be abe3 2e3e 2858 72be
000003b0: da29 05bd 0b86 2fbe fe93 bc3e b21e 2c3f
000003c0: 7f1a 87be 71b5 b6be 2aaf d8bd c76d 163e
000003d0: 892a 82bc 328b 513e 3127 c93e 9239 9cbe
000003e0: 2787 c4be 8acc b1be 2a29 073e bfb8 943c
000003f0: ea40 6dbe 225d 27be 8a8d b2be 5523 2abd
-0.5754103 -0.79596025 -1.0075766 -0.13778682 -0.29543453 -0.9040249 -0.50311184 0.08911052
-0.34728652 -0.28600243 0.3819605 -0.5058072 0.10068858 -1.0314833 -0.9748238 -0.03527168
-0.1695305 0.24110933 -0.9359857 -0.2714903 -0.947024 0.23851469 -0.4496045 -0.9905327
-1.0519726 -0.8589757 -1.1178305 -1.0466266 -0.23963177 0.7502206 -0.53076863 0.675777
-1.2795146 -0.23765297 -0.2070399 -0.18279147 -0.9164912 -0.9637753 0.23743577 -0.11333503
-0.22178638 0.05514816 0.104052715 -0.43631765 -0.95708865 -0.08243102 -0.08486453 -0.27295232
-0.285176 -0.0963842 -1.1138577 -0.73864096 -1.1793787 -0.41388148 -0.14114124 -1.0440551
-0.27941027 -0.323486 -0.4554009 -0.72513956 -0.5365916 0.063270845 -1.0497022 -0.5439745
-0.15432855 -0.5852766 -0.25888416 -0.48454314 -0.4105683 0.1586353 0.3774092 -0.6239473
-1.7702696 -0.83552223 -0.539502 -0.6874625 -0.9646097 -0.74447566 -1.1399705 -1.195411
-0.48459694 -1.4861419 -0.38408765 -0.3397464 -0.9588575 -0.063105196 -0.16222817 -1.2168913
0.9382 -0.0051861443 0.13210955 -0.03368699 -0.722983 0.33091688 -0.55926526 -1.2755228
-0.63331836 -0.6474422 -0.85371697 -0.17802058 -0.48440766 -0.9305182 -0.89112765 -0.7694823
-0.29994255 -0.46205243 -0.16855046 -0.34042165 -0.8257434 -0.48935163 -0.47338527 -0.7975062
-0.16934316 -1.0677344 -0.55017996 -0.21132225 -0.69735485 -0.6450362 -1.235657 -0.5163929
-0.9430576 -1.010327 -0.13599247 -1.0006654 -0.83278626 -0.24972214 -0.52922034 -1.2610912
-0.5417969 -0.1397555 -0.43196565 -0.30452397 -1.0991596 -0.9368761 -0.9774059 -0.36815187
-1.0072826 -0.9570167 -0.76371175 -0.6633535 -0.27378464 -0.5626123 -0.7281025 -0.07368996
-0.728435 -0.8735209 -0.44378886 -0.84474266 -0.68861914 -0.5042296 -0.7607962 -0.12381562
-1.3249162 -0.42336765 -0.38253117 -0.32314506 -0.48001307 -0.5561379 -0.5609237 -0.66281134
-0.57626176 -0.68962747 -0.7145765 -0.659344 -0.94350696 -1.4760478 0.09265599 -0.9630593
-0.31924808 -0.56921124 -0.5990457 -1.7489302 -1.523927 -0.24607193 -0.50404674 0.10781411
-0.8712884 -0.44804907 -0.4920582 -1.2062126 -0.6585738 -0.93565434 -0.39518648 -0.3049902
-0.6145202 -0.5209445 -0.5045982 -0.6339585 -0.70732653 -0.174784 -0.5206506 -0.88743925
-0.59858614 -0.6726672 -0.58788323 -1.0614612 -1.3483346 -0.33594346 -1.2404972 -0.8746428
-0.36330652 -0.099865206 -0.024512969 0.29870254 0.2696401 0.38425294 0.27446607 -0.32018775
0.22101255 0.34327853 0.12857158 0.13850208 -0.043155003 0.09363624 0.053699166 0.33962563
0.26371044 -0.3305896 -0.28111425 -0.11573146 -0.13299526 0.19264504 -0.22477934 0.23957774
0.13820866 -0.23956452 -0.24898218 0.15615278 -0.25285608 0.39066204 -0.44061628 0.27594203
-0.01798342 -0.32589114 0.17079036 -0.23666441 -0.032510616 -0.17140977 0.3683166 0.6723434
-0.26387402 -0.35685304 -0.10580285 0.14690314 -0.015889423 0.20463255 0.39287713 -0.30512673
-0.38384363 -0.34726363 0.13199297 0.0181545 -0.23169294 -0.16344121 -0.3487361 -0.0415376

linear.weight f4 [1, 100]
00000000: ce72 babd 9b5a bbbd 3682 2abe eea8 3ebd
00000010: afe2 153d d75d 57be 7c91 8a3e 659c 253d
00000020: 04b7 503d 0d73 86bd 7fc2 d93d b4a7 69bd
00000030: 7f92 d03e 7a27 86be 6471 e9bd 4d4e 773e
00000040: 90a0 853d 6264 4bbd d470 d5bc e19b 49be
00000050: b075 9c3d c115 ef3d df03 d43d e875 98bd
00000060: 1390 98bd 5fb2 05be 3282 1abd 99a3 0bbe
00000070: c230 473d a4c1 2e3d 23fe 17bd 9c83 a33e
00000080: e640 02bf 5ae9 d8bd a7db 39bd c3aa bf3d
00000090: f84b 17be 980a b6bd f064 07bd 8f96 cf3e
000000a0: 7a56 ccbd 72dd 4d3e b6b7 c5be cff6 973d
000000b0: 9550 9f3e 4cfd 803e 9d4d 7c3e f87f 8cbc
000000c0: f88c 51be 69ac d23d f86a ffbc 27f6 88bd
000000d0: b206 003d 5225 0cbe b20e 66bd fa94 723e
000000e0: b95d 2b3c b803 8e3c a991 96bc 1191 a8bd
000000f0: 1228 9e3d f74b f2bc b25f d1bc 1785 81bd
00000100: 12ca 43bd 374c 0b3e 3ae6 53bd ab34 793e
00000110: 9eda 643e bfd8 913e 2451 9f3d a307 a9bd
00000120: 6c34 603d 1a7b 7abe 97f7 d93d 35af 2bbd
00000130: 244e 6f3e 9731 83bd c483 2bbe f0e1 bdbd
00000140: b4fa 36bd c481 4bbe 9e97 80bc 6d03 22bd
00000150: 99c5 2dbd 2f45 a7be 4fca 3b3d c19d 22bc
00000160: 6d9b 2a3e 472c c8bd 12d9 b83c a694 0abe
00000170: 19a1 bd3e d2a1 25be 5697 8dbd f488 d6bc
00000180: 6d48 903d 8a00 043d 0a54 103d 1509 bebc
-0.091039285 -0.09148141 -0.16651234 -0.046547823 0.036593135 -0.21031891 0.2706412 0.040432353
0.050955787 -0.06564913 0.106328 -0.0570447 0.40736768 -0.26201993 -0.11398581 0.24150963
0.065247655 -0.04965628 -0.026054777 -0.1968837 0.076396346 0.11674071 0.10352301 -0.07444364
-0.07449355 -0.13056324 -0.03772182 -0.13636626 0.048630483 0.04266514 -0.037107598 0.31936347
-0.5088028 -0.10591383 -0.045375492 0.09358742 -0.14775074 -0.08888739 -0.033055246 0.40544555
-0.099774316 0.20104006 -0.38616723 0.07420122 0.31116167 0.2519325 0.24638982 -0.017150864
-0.20463932 0.10286791 -0.031178936 -0.06687575 0.031256385 -0.13686112 -0.05616636 0.23689643
0.010459357 0.017335758 -0.018380003 -0.08230794 0.077224866 -0.029577238 -0.025558326 -0.06324213
-0.04780013 0.13603292 -0.051733233 0.24336497 0.22349021 0.28485677 0.07779148 -0.0825341
0.054737493 -0.24461022 0.10642927 -0.041915137 0.23369652 -0.06405943 -0.16749483 -0.0927161
-0.044672683 -0.1987372 -0.015697297 -0.03955405 -0.042424772 -0.3266997 0.045847233 -0.009925307
0.16660853 -0.0977407 0.022564445 -0.13533267 0.3703697 -0.16175011 -0.06913631 -0.026188351
0.07045064 0.032227077 0.035236396 -0.02319769
