BodelLigging/Doesburg brug_bodemligging_V1.pt (torch, 661983 bytes, 5 tensors)

lstm.weight_ih_l0 f4 [400, 1]
-0.7812088 -4.119488 2.6957467 -4.2161307 -1.4416684 -3.5849407 -2.3618858 -3.5089464
-0.5273817 -0.45094603 -6.1155796 -3.3657746 -1.9740729 -1.1306825 -4.454398 -3.4405835
-1.4418455 -3.124135 -4.799603 -2.4017105 -1.7392465 -1.6601148 -2.7047443 -2.281928
-2.8118482 -1.174976 -0.46331194 -0.9259369 -1.0478883 -1.8339771 -5.541305 -1.3656236
-1.8010309 -2.5267022 -2.278771 1.8802067 -1.584114 -2.2358482 -2.0360348 -4.4914784
-3.615017 -1.6363399 -3.6676295 -0.9014435 -4.3052454 -2.361062 -2.4414935 -3.5411043
-4.036581 -0.4114632 -3.0303605 -0.61323094 -2.5664 -3.2785628 -3.533996 0.79518384
0.5178781 -3.8833435 -2.8938403 -4.472769 -2.2879124 -1.8607094 -4.5879083 -1.907291
-4.9235873 -1.0009986 -0.44976088 -1.7468563 -3.1422865 -2.0071254 -1.4120357 -0.71461254
-0.07633415 1.0144951 -1.4153111 -2.387375 -0.9496473 -3.2887614 -2.8050702 -2.4769225
0.34500614 -3.9368837 -0.36718813 -2.7413633 -4.1681547 -2.5136974 -3.6750116 -4.2119484
-0.010494251 -4.049813 -3.4641027 -2.9857905 -3.0350864 -0.39470166 -1.6083155 -1.1625438
-2.2404604 -1.5609362 1.3860776 -1.7409824 -0.14891513 1.857158 -0.18974498 0.5470115
-0.84059834 1.1858541 -1.183712 0.2799777 1.260258 0.41635033 2.2392387 0.17568457
-2.9234893 -0.41031355 0.7458858 -0.5078359 -0.52935517 1.2099425 0.6759797 1.0206803
0.40057042 -0.5842173 -0.46177533 -0.3169993 0.56081915 0.30439693 -1.4534217 -0.051724702
-0.40499932 -0.61284286 2.1592913 0.31425387 0.28706667 1.7435529 1.0034114 -1.3226157
1.1499724 -0.33329248 2.574773 1.6256144 0.6996315 1.5783576 1.9365307 -1.5625273
3.0740178 -0.14695594 0.054061208 2.579518 1.781677 0.13119139 1.5665945 -2.0319672
-0.4576782 0.44956905 1.2810737 0.6024617 -0.17787607 -0.14599271 2.578391 -0.69791573
0.040708024 0.19598201 1.8813514 -0.3552435 1.4248713 -0.03529339 -2.5976303 0.12297732
1.2886059 0.1589367 -0.4653183 0.33047616 0.5405153 0.35469013 1.1807214 -0.17471215
-1.6631658 0.60913795 -0.6960233 -0.59265536 -1.0117589 2.087363 1.5298693 -0.8519245
2.3672242 0.4789202 1.2306587 1.306585 0.21272248 2.336411 0.7381245 1.0169767
-0.26224932 1.5583 0.5083339 0.92068154 1.877802 -3.337151 -0.8415597 -0.8513197
-0.72090036 0.90196925 2.5518434 1.1680585 -0.47843865 0.26178566 -0.3608923 -0.95345414
0.6248729 0.50744057 1.795675 -0.97863466 -1.1625847 -0.91597134 -0.36807647 -1.5804543
-1.1422188 -3.3827069 -0.9713941 -0.21745248 0.06188943 -0.7733782 -1.2935218 0.9296849
0.9916401 -0.16076241 -0.056342278 -0.5743308 -0.08547748 -0.8768032 -0.8986809 -1.1703622
-0.6984659 -2.5063918 -3.2002757 1.9332722 0.56043935 0.44536683 3.6523843 -1.4026754
-1.8499316 0.75297946 -0.0407014 -0.43791902 -0.47589567 -1.4094056 -1.5439079 0.7169047
-1.2521489 -2.967412 1.6817498 -0.44961149 0.7221924 -0.08374435 0.27195793 -3.165915
00000000: 4dfd 47bf d8d2 83c0 1d87 2c40 8bea 86c0
00000010: 9788 b8bf ab6f 65c0 2329 17c0 9492 60c0
00000020: 7d02 07bf 66e2 e6be d4b2 c3c0 da68 57c0
00000030: 6cae fcbf 34ba 90bf 6e8a 8ec0 8532 5cc0
00000040: 658e b8bf d4f1 47c0 5996 99c0 a0b5 19c0
00000050: a19f debf a47e d4bf 881a 2dc0 1c0b 12c0
00000060: 52f5 33c0 9d65 96bf 3937 edbe 330a 6dbf
00000070: 3421 86bf c3bf eabf 5f52 b1c0 c1cc aebf
00000080: 2e88 e6bf 7db5 21c0 62d7 11c0 9daa f03f
00000090: 3fc4 cabf 2318 0fc0 654e 02c0 31ba 8fc0
000000a0: 705c 67c0 9673 d1bf 71ba 6ac0 00c5 66bf
000000b0: 92c4 89c0 a41b 17c0 6e41 1cc0 74a1 62c0
000000c0: ac2b 81c0 4eab d2be 6df1 41c0 b4fc 1cbf
000000d0: e63f 24c0 f9d3 51c0 fe2c 62c0 2b91 4b3f
000000e0: a993 043f b388 78c0 ae34 39c0 ec20 8fc0
000000f0: 286d 12c0 ba2b eebf 25d0 92c0 1d22 f4bf
00000100: 078e 9dc0 b920 80bf 0f47 e6be fd98 dfbf
00000110: 391b 49c0 be74 00c0 96bd b4bf d9f0 36bf
00000120: 1455 9cbd fada 813f ea28 b5bf c1ca 18c0
00000130: 161c 73bf 117b 52c0 4586 33c0 e685 1ec0
00000140: a5a4 b03e e7f5 7bc0 1500 bcbe 7f72 2fc0
00000150: 8661 85c0 6be0 20c0 6433 6bc0 48c8 86c0
00000160: 14f0 2bbc 1198 81c0 dcb3 5dc0 3117 3fc0
00000170: db3e 42c0 5616 cabe 48dd cdbf 3cce 94bf
00000180: b463 0fc0 c2cc c7bf fe6a b13f 83d8 debf
00000190: 357d 18be 5ab7 ed3f 824c 42be f208 0c3f
000001a0: 7431 57bf 11ca 973f e083 97bf 3d59 8f3e
000001b0: 2250 a13f df2b d53e b04f 0f40 a8e6 333e
000001c0: 731a 3bc0 9e14 d2be 5ff2 3e3f 8901 02bf
000001d0: d283 07bf 65df 9a3f 010d 2d3f a7a5 823f
000001e0: 9117 cd3e 448f 15bf d16d ecbe bb4d a2be
000001f0: d891 0f3f ead9 9b3e b909 babf 48dd 53bd
00000200: 125c cfbe 45e3 1cbf d431 0a40 e2e5 a03e
00000210: 67fa 923e be2c df3f c96f 803f 794b a9bf
00000220: 4c32 933f 50a5 aabe 15c9 2440 2214 d03f
00000230: 0d1b 333f 9f07 ca3f 3de0 f73f e500 c8bf
00000240: b5bc 4440 9e7b 16be 496f 5d3d d316 2540
00000250: fe0d e43f 0957 063e 2b86 c83f c00b 02c0
00000260: cc54 eabe ea2d e63e 39fa a33f ee3a 1a3f
00000270: 2525 36be 1d7f 15be 5c04 2540 9baa 32bf
00000280: 75bd 263d 82af 483e 1fd0 f03f 7ae2 b5be
00000290: 2f62 b63f cd8f 10bd 933f 26c0 88db fb3d
000002a0: 0af1 a43f 4dc0 223e 333e eebe 2c34 a93e
000002b0: 365f 0a3f f299 b53e e121 973f bee7 32be
000002c0: 9ee2 d4bf 77f0 1b3f 952e 32bf 43b8 17bf
000002d0: 5181 81bf 5b97 0540 c2d2 c33f b917 5abf
000002e0: 9a80 1740 0735 f53e 3986 9d3f 2d3e a73f
000002f0: ecd3 593e c287 1540 baf5 3c3f 4b2c 823f
00000300: 8b45 86be 6076 c73f 2c22 023f c9b1 6b3f
00000310: d15b f03f e293 55c0 7570 57bf 16f0 59bf
00000320: ed8c 38bf 75e7 663f 6751 2340 f182 953f
00000330: e9f5 f4be c508 863e e0c6 b8be 9215 74bf
00000340: acf7 1f3f a0e7 013f aed8 e53f cd87 7abf
00000350: 93cf 94bf 197d 6abf 8574 bcbe 544c cabf
00000360: 3a34 92bf 457e 58c0 49ad 78bf ddab 5ebe
00000370: c57f 7d3d 1dfc 45bf 1f92 a5bf d4ff 6d3f
00000380: 20dc 7d3f e79e 24be 29c7 66bd 5807 13bf
00000390: d10e afbd 2d76 60bf f40f 66bf 6ece 95bf
000003a0: a9ce 32bf b968 20c0 51d1 4cc0 7775 f73f
000003b0: f478 0f3f 1f07 e43e aac0 6940 de8a b3bf
000003c0: 8fca ecbf 43c3 403f 83b6 26bd ec36 e0be
000003d0: 99a8 f3be 6767 b4bf c69e c5bf 1187 373f
000003e0: 6a46 a0bf 14ea 3dc0 9443 d73f 7a33 e6be
000003f0: 9ae1 383f 2882 abbd 123e 8b3e 5a9e 4ac0

lstm.weight_hh_l0 f4 [400, 100]
-0.08168435 0.30037412 -0.55012715 -0.30404115 0.1585063 0.24599041 -1.0818671 -1.1010654
-0.54081887 -0.25589725 0.96195436 -1.0096524 0.3819813 -0.27081108 -0.86714333 -0.4522711
0.03262273 -0.85780895 -0.28442755 -0.4899489 0.041644674 0.38391465 -0.36801574 0.4484165
0.8672351 -0.38318792 -0.009232978 0.5991401 -0.34889728 -0.6028482 -0.6622369 -0.6975713
-0.27824935 -0.57656544 -0.58271384 0.24240303 0.3005069 0.04294758 0.40788752 -0.71413195
-0.6978761 0.00055233506 -0.9038254 0.26216772 0.11663681 -0.024782725 0.15398695 0.38424975
0.07156664 0.06808284 0.15838313 0.33508864 0.85054064 -0.32926446 0.3554668 0.206451
0.5854764 -0.86447096 -0.5553708 -0.4333436 -0.22385849 -0.1523837 0.15517677 -0.91762096
-0.8588449 -0.3912174 0.64708006 0.02907251 -0.24195513 0.79855716 -0.14837863 -1.1461382
-0.5039708 0.16414794 -1.0120789 0.26493344 -0.20095631 0.6939705 0.086540684 -0.033026543
-0.7088892 0.23573564 -0.77694595 0.91473484 -0.13864951 -0.23753202 0.01842115 -0.020867992
-0.7484483 -0.39084503 -0.0064735133 0.09949121 0.068485335 -0.21366274 -0.27955613 -0.47638267
0.38984153 0.2854135 -0.74889034 -0.061070476 0.04780968 0.2491695 0.3166086 0.35703892
-0.27732688 0.2291196 -0.37338138 -0.49695963 -0.28138334 0.23250933 0.7270285 -0.68026954
0.5437534 -0.6419546 -0.005881652 0.15407322 -0.24169019 0.08200214 0.22513391 -0.19909413
-0.3102948 0.02808743 -0.29069784 -0.26558542 0.15940376 0.032817148 -0.42936084 0.01216656
-0.2255571 -0.099017724 0.21837921 0.08313304 -0.27280724 0.044509146 -1.1686337 -0.15785582
0.022418724 -0.057871312 1.0911658 -0.4879847 -0.32675081 -0.100714386 -0.2849947 -0.61981994
-0.13190079 -0.2699357 -0.17344819 0.1037762 -0.5234249 -0.52068454 0.35144144 0.25239044
0.019425176 0.033371985 0.76911616 -0.784429 0.09510375 -0.6506475 -0.97351635 -0.4361684
0.124646 -0.12216389 0.46477666 -1.1086684 -0.45756635 -1.0824986 0.33598906 -0.5995051
-0.14946806 0.2542382 -0.35266626 0.13016266 1.35678 0.15947656 -0.023714125 -0.03252474
-0.29362074 0.35114965 -0.329137 -0.0008472189 -0.023814952 0.051021017 -0.22112815 0.70461017
0.28660342 -0.2772835 0.4426436 0.5031529 -0.1517501 0.55786365 -0.13886897 0.21043795
-0.15714596 0.39720646 -0.38973024 -0.13201869 0.5634874 0.29356557 -0.17044516 -0.030365705
0.28618547 0.2788726 0.29436624 -0.4494445 -0.92464775 1.0066823 -0.1304083 -0.0252171
-1.261963 0.19328414 0.0012706758 -0.074489266 -0.50277233 -0.73094076 -0.10573442 -0.32550177
0.29608798 -1.0554761 -0.3936117 -0.45260406 -1.236239 0.6920237 -0.7297554 -0.09473189
-0.14163768 0.22967897 0.40917778 -0.2190051 0.06453791 0.53858304 -0.5462727 -0.5019131
-0.10536189 -1.8485744 -0.4990497 0.4629304 -0.9197675 -0.00838913 0.5525877 0.39639738
-0.5438153 -0.52367014 -1.2404946 0.62508065 -0.558066 0.09271155 0.52873176 0.745077
0.7110957 -0.056621403 0.55404764 -0.04418478 0.48154536 0.031128647 -0.48458472 0.5065275
00000000: 204a a7bd a3ca 993e 22d5 0cbf 48ab 9bbe
00000010: 7a4f 223e e9e4 7b3e 9f7a 8abf b6ef 8cbf
00000020: 1b73 0abf f704 83be a442 763f 4a3c 81bf
00000030: 0e93 c33e c0a7 8abe 1bfd 5dbf 1490 e7be
00000040: 699f 053d 5e99 5bbf 7da0 91be 95da fabe
00000050: 9b93 2a3d 7690 c43e 8f6c bcbe d996 e53e
00000060: 1f03 5e3f 3531 c4be eb45 17bc 3f61 193f
00000070: aaa2 b2be 4254 1abf 5c88 29bf 0894 32bf
00000080: b376 8ebe cb99 13bf bc2c 15bf 8038 783e
00000090: 0adc 993e cde9 2f3d a2d6 d03e 5ad1 36bf
000000a0: 02a8 32bf 94ca 103a 1a61 67bf d93a 863e
000000b0: 48df ee3d 2405 cbbc c1ae 1d3e 62bc c43e
000000c0: 8891 923d 046f 8b3d 302f 223e bd90 ab3e
000000d0: 08bd 593f 5a95 a8be bfff b53e e467 533e
000000e0: c8e1 153f f84d 5dbf c82c 0ebf 36df ddbe
000000f0: 293b 65be 790a 1cbe a9e6 1e3e 35e9 6abf
00000100: 42dd 5bbf a64d c8be 0aa7 253f 7929 ee3c
00000110: 16c3 77be 3e6e 4c3f 91f0 17be a8b4 92bf
00000120: 3b04 01bf 6616 283e cd8b 81bf 5ba5 873e
00000130: 7ec7 4dbe 0da8 313f 3e3c b13d d746 07bd
00000140: c379 35bf af64 713e eee5 46bf 102c 6a3f
00000150: 23fa 0dbe 983b 73be f4e7 963c 5af3 aabc
00000160: 4f9a 3fbf d71c c8be c41f d4bb 0cc2 cb3d
00000170: 0a42 8c3d 68ca 5abe fb21 8fbe 6ee8 f3be
00000180: 4f99 c73e b821 923e 47b7 3fbf 0925 7abd
00000190: 15d4 433d 4a26 7f3e 861a a23e cecd b63e
000001a0: cafd 8dbe 549e 6a3e d82b bfbe 7e71 febe
000001b0: 7a11 90be ed16 6e3e 8a1e 3a3f 2526 2ebf
000001c0: 6c33 0b3f 2357 24bf dfba c0bb 5fc5 1d3e
000001d0: a27d 77be bdf0 a73d 8189 663e 55df 4bbe
000001e0: f6de 9ebe 9c17 e63c 59d6 94be d0fa 87be
000001f0: bd3a 233e 466b 063d 2fd5 dbbe 4056 473c
00000200: 71f8 66be cec9 cabd cd9e 5f3e a841 aa3d
00000210: 64ad 8bbe 394f 363d ca95 95bf f5a4 21be
00000220: 79a7 b73c 780a 6dbd 52ab 8b3f 21d9 f9be
00000230: e24b a7be 5843 cebd d3ea 91be 85ac 1ebf
00000240: 0011 07be 0335 8abe 679c 31be 9e88 d43d
00000250: 2dff 05bf 954b 05bf 22f0 b33e 5239 813e
00000260: 8c21 9f3c 10b1 083d cce4 443f 57d0 48bf
00000270: c1c5 c23d d690 26bf 5e38 79bf 7751 dfbe
00000280: 6746 ff3d 1031 fabd 35f7 ed3e d9e8 8dbf
00000290: 2346 eabe 508f 8abf c206 ac3e 2b79 19bf
000002a0: 280e 19be 822b 823e ac90 b4be 5c49 053e
000002b0: f8aa ad3f d34d 233e 2044 c2bc a938 05bd
000002c0: 7555 96be e3c9 b33e a584 a8be e617 5eba
000002d0: 9317 c3bc 6afb 503d 6b6f 62be 5561 343f
000002e0: afbd 923e 1af8 8dbe 2fa2 e23e a1ce 003f
000002f0: 6164 1bbe 27d0 0e3f ab33 0ebe 0c7d 573e
00000300: dfea 20be a55e cb3e b98a c7be e82f 07be
00000310: b640 103f 3a4e 963e 2d89 2ebe 80c1 f8bc
00000320: e786 923e 64c8 8e3e 2cb7 963e 971d e6be
00000330: b7b5 6cbf f7da 803f c189 05be 1794 cebc
00000340: 0188 a1bf 47ec 453e ce8c a63a d48d 98bd
00000350: b0b5 00bf ef1e 3bbf 4a8b d8bd 2ba8 a6be
00000360: d898 973e d719 87bf 7987 c9be b8bb e7be
00000370: 143d 9ebf 7728 313f 40d1 3abf cb02 c2bd
00000380: 7809 11be f730 6b3e c07f d13e df42 60be
00000390: 742c 843d 94e0 093f 87d8 0bbf 607d 00bf
000003a0: f9c7 d7bd 169e ecbf 7183 ffbe 3705 ed3e
000003b0: e275 6bbf 9072 09bc 6376 0d3f 99f4 ca3e
000003c0: 7b37 0bbf 3f0f 06bf 87c8 9ebf 4905 203f
000003d0: 6add 0ebf 8edf bd3d f75a 073f 5ebd 3e3f
000003e0: 5e0a 363f d8eb 67bd 11d6 0d3f 1afb 34bd
000003f0: 1d8d f63e 8101 ff3c 7d1b f8be c9ab 013f

lstm.bias_ih_l0 f4 [400]
-1.3886336 -0.5990401 -0.09074 -0.8765146 -1.1733055 -0.36043635 -1.4686757 -0.9809659
-0.5862619 -1.5658702 -0.589609 -0.8202639 -1.3663062 -1.253162 -0.57059395 -1.0692626
-0.9309884 -0.58166414 -0.010953888 -1.4417448 -0.9896842 -0.9222826 -0.7922126 0.119922765
-0.8233956 -1.3002658 -1.8651744 -1.294183 -3.06975 -1.7370137 -0.79669803 -1.1308231
-1.3051118 -0.28238624 -0.4369889 -0.60154 -0.54915607 -1.1774001 -0.29300758 -0.8473741
-0.5816212 -0.89030373 -0.98963475 -0.4230796 -0.37934667 -0.7599431 -0.49006557 -0.25333753
-0.82361466 -0.5502775 -1.3078474 -1.1868801 -0.67950183 -0.6031709 -0.5919653 -0.3991785
-0.88399047 -0.9352554 -0.44133866 -0.72986674 -1.8038653 -1.2276245 -0.68839526 -1.0533252
-0.6721662 -0.75370467 -0.78838545 -1.2053858 -0.5070751 -1.5468465 -0.56641006 -0.17066047
0.2575761 -0.41404054 -0.7983348 -0.3882743 -1.4897993 -0.8973349 -1.0712221 -0.77503043
-0.0025156494 -0.7687984 -0.63452685 -0.43271273 -0.82175946 -1.2808851 -0.8736736 -0.12046616
-1.4181743 -0.6979978 -0.6353795 -0.8439759 -0.94534594 -0.11813461 -1.0222617 -0.73816675
-0.99592364 -1.19994 -1.6008273 -1.1955171 -0.9800517 -0.55804104 -1.2605227 -0.67499465
-1.0348705 -0.2187808 -1.9055554 -0.5088668 -0.68693113 -1.1394768 -0.20795396 -0.2859796
-0.24627325 -0.8509837 -0.5618692 -0.5124194 -1.0022564 -0.24463531 -0.32441884 -1.4916003
-0.78744525 -0.98929554 -0.008516017 -1.5220091 -0.41239482 -0.8656312 -0.7014826 -1.0549349
-1.0953368 -1.118566 -0.8865363 -0.80170774 -0.8331688 -0.029811697 -0.07038289 -0.52194214
-0.64409083 -0.4221526 -0.31853524 -0.6786673 -0.35224 -0.73108447 -0.9655333 -0.8270115
-0.423896 -0.5696609 -0.7752494 -0.570991 -0.41906643 -0.2736847 -0.74702704 -0.15678
-0.54850775 -1.0718929 -1.098803 -0.71890897 -0.6316966 -0.6676278 -0.34416685 -1.1106794
-0.7062662 -1.0504935 -0.27319935 -0.60655475 -1.3921913 -0.24805148 -0.042205855 -0.82249886
-0.056439806 -0.75750613 -0.879412 -0.27848282 -0.38863835 -0.86388373 -0.28591934 -0.691129
-0.53073233 -1.257939 -0.6319016 -0.5431123 -0.6802667 -0.041997895 -0.3787808 -0.41704202
-0.34828362 -1.3475162 -0.4007982 -0.722836 -0.8505242 -0.52483994 -0.67959976 -0.44737527
-0.61295146 0.06728264 -0.9436163 -0.74255335 -0.56786376 -0.11585231 -1.0594041 -0.4024495
0.16492546 0.19586222 -0.26131287 0.006124908 -0.19821727 0.04672163 0.07874397 -0.15641381
0.14306761 -0.10049503 0.23784685 -0.10925762 -0.15322386 0.014312668 -0.19073184 -0.04494664
-0.021212082 -0.011273472 0.12113513 0.06606745 0.047104742 0.114125386 0.005939922 0.1339608
0.088723294 -0.098588385 0.13966909 -0.056646552 0.10818009 -0.020078879 -0.103578895 -0.26067692
0.10051474 -0.0009099936 0.12447588 -0.023396231 -0.05516386 0.14438164 -4.191364e-05 0.031276613
-0.009420483 0.020332647 -0.043816186 -0.108086236 -0.0141573595 0.041533448 -0.0314241 0.032192636
-0.12680933 -0.07504391 0.17850587 -0.052039184 0.20685431 0.22719872 -0.18510094 0.07795664
00000000: bfbe b1bf b15a 19bf e5d5 b9bd 4363 60bf
00000010: e02e 96bf 1d8b b8be 91fd bbbf 9520 7bbf
00000020: 4315 16bf 6f6e c8bf 9ef0 16bf d1fc 51bf
00000030: 1fe3 aebf 9d67 a0bf 7212 12bf 99dd 88bf
00000040: 4155 6ebf f1e7 14bf f077 33bc 188b b8bf
00000050: f25b 7dbf b61a 6cbf 72ce 4abf 119a f53d
00000060: 0eca 52bf 1c6f a6bf 09be eebf caa7 a5bf
00000070: c976 44c0 7756 debf 67f4 4bbf d0be 90bf
00000080: e70d a7bf ee94 90be 02bd dfbe 87fe 19bf
00000090: 7e95 0cbf 0cb5 96bf 1705 96be 82ed 58bf
000000a0: 21e5 14bf f2ea 63bf b458 7dbf e49d d8be
000000b0: ba39 c2be a28b 42bf e0e9 fabe 75b5 81be
000000c0: 69d8 52bf fcde 0cbf 8b67 a7bf b0eb 97bf
000000d0: d5f3 2dbf 6869 1abf 0a8b 17bf 2061 ccbe
000000e0: 334d 62bf e66c 6fbf 24f7 e1be 8cd8 3abf
000000f0: 0fe5 e6bf cd22 9dbf ac3a 30bf 5cd3 86bf
00000100: 1613 2cbf caf2 40bf a1d3 49bf 154a 9abf
00000110: accf 01bf 11ff c5bf 4000 11bf 9ec1 2ebe
00000120: 04e1 833e 1ffd d3be ab5f 4cbf e4cb c6be
00000130: beb1 bebf bdb7 65bf ce1d 89bf 6568 46bf
00000140: 98dd 24bb f9cf 44bf 5a70 22bf 868c ddbe
00000150: d45e 52bf 0bf4 a3bf 13a9 5fbf f6b6 f6bd
00000160: bc86 b5bf fcaf 32bf 3ba8 22bf ce0e 58bf
00000170: 3102 72bf 8ff0 f1bd 79d9 82bf 7ff8 3cbf
00000180: daf4 7ebf a297 99bf e9e7 ccbf b406 99bf
00000190: abe4 7abf c7db 0ebf cf58 a1bf 73cc 2cbf
000001a0: a376 84bf 1308 60be 3de9 f3bf 1845 02bf
000001b0: b8da 2fbf 60da 91bf e2f1 54be eb6b 92be
000001c0: 0e2f 7cbe 11da 59bf a9d6 0fbf eb2d 03bf
000001d0: f049 80bf ae81 7abe 3a1a a6be c2ec bebf
000001e0: 0396 49bf 7942 7dbf c486 0bbc 32d1 c2bf
000001f0: 6a25 d3be 029a 5dbf 5d94 33bf 1b08 87bf
00000200: ff33 8cbf 2c2d 8fbf 0bf4 62bf b83c 4dbf
00000210: 8d4a 55bf a937 f4bc e824 90bd 009e 05bf
00000220: 23e3 24bf 6324 d8be 0d17 a3be 24bd 2dbf
00000230: cd58 b4be 5a28 3bbf 312d 77bf 07b7 53bf
00000240: e608 d9be 4cd5 11bf bf76 46bf 772c 12bf
00000250: e08f d6be 6720 8cbe 2a3d 3fbf f08a 20be
00000260: 016b 0cbf c933 89bf 94a5 8cbf 6b0a 38bf
00000270: deb6 21bf a8e9 2abf a336 b0be be2a 8ebf
00000280: ddcd 34bf 9276 86bf c9e0 8bbe 2c47 1bbf
00000290: 5333 b2bf 3501 7ebe 0ce0 2cbd 498f 52bf
000002a0: 6d2d 67bd eceb 41bf 2521 61bf 4d95 8ebe
000002b0: 9bfb c6be 7c27 5dbf 0564 92be d5ed 30bf
000002c0: 13de 07bf 2504 a1bf 4ec4 21bf 6809 0bbf
000002d0: f525 2ebf fc05 2cbd 8fef c1be 8886 d5be
000002e0: 3b52 b2be 697b acbf 6c35 cdbe c80b 39bf
000002f0: f4bb 59bf e95b 06bf 40fa 2dbf 5f0e e5be
00000300: 63ea 1cbf 7bcb 893d d690 71bf fa17 3ebf
00000310: 855f 11bf fa43 edbd 8e9a 87bf dc0d cebe
00000320: 38e2 283e 1b90 483e cdca 85be 74b3 c83b
00000330: 78f9 4abe 2e5f 3f3d 8544 a13d f12a 20be
00000340: 5180 123e 57d0 cdbd 208e 733e 76c2 dfbd
00000350: b7e6 1cbe ae7f 6a3c 354f 43be f819 38bd
00000360: f6c4 adbc 5eb4 38bc b215 f83d 5f4e 873d
00000370: e7f0 403d 92ba e93d ada3 c23b 052d 093e
00000380: 8fb4 b53d b5e8 c9bd 6a05 0f3e 3706 68bd
00000390: 868d dd3d 767c a4bc 2c21 d4bd 7277 85be
000003a0: acda cd3d a38c 6eba 36ed fe3d 74a9 bfbc
000003b0: 80f3 61bd c8d8 133e 6ecc 2fb8 e81b 003d
000003c0: 5f58 1abc a790 a63c 9a78 33bd 515c ddbd
000003d0: 45f4 67bc fa1e 2a3d 8fb6 00bd 6ddc 033d
000003e0: 4eda 01be 9fb0 99bd 3eca 363e 0a27 55bd
000003f0: 9ed1 533e c8a6 683e 1a8b 3dbe bba7 9f3d

lstm.bias_hh_l0 f4 [400]
-1.2483518 -0.68602824 -0.14994167 -0.73429906 -1.1629809 -0.333157 -1.4781713 -0.99284923
-0.47947142 -1.4985577 -0.6134992 -0.74770766 -1.4157257 -1.2254311 -0.7483607 -1.0460906
-0.972382 -0.6428607 -0.035451975 -1.5250555 -0.86564815 -0.95514125 -0.85366535 0.065927155
-0.8224628 -1.3448079 -1.8673286 -1.2371273 -3.021834 -1.6941549 -0.8671274 -1.212109
-1.2148365 -0.28456488 -0.48249334 -0.5093113 -0.48286685 -1.2126913 -0.32448784 -0.84158087
-0.6430568 -0.85023385 -1.0499003 -0.465921 -0.4602891 -0.755708 -0.61963874 -0.30793014
-0.87703377 -0.6971885 -1.2216697 -1.2889224 -0.7563284 -0.7648343 -0.53645074 -0.3866067
-0.83924073 -0.9332452 -0.39765453 -0.66904694 -1.8349319 -1.3193014 -0.6998807 -1.2225109
-0.5411109 -0.828581 -0.8194533 -1.3121258 -0.5043783 -1.4518667 -0.6708726 -0.32853764
0.38929227 -0.3771278 -0.78282696 -0.3720979 -1.4564888 -0.9838454 -1.0624593 -0.7727526
-0.10586355 -0.69949746 -0.5805245 -0.49337748 -0.77283615 -1.2267491 -0.8723681 -0.19259527
-1.3020984 -0.69848293 -0.7453473 -0.7393708 -0.96227276 -0.12248498 -1.1337557 -0.68410504
-0.8441227 -1.1547489 -1.5305666 -1.2677084 -0.92562664 -0.48651662 -1.2521561 -0.7334264
-1.0081306 -0.28725892 -1.8981334 -0.58734715 -0.7222884 -1.188167 -0.100612186 -0.30021736
-0.24671993 -0.87307984 -0.47839192 -0.43792206 -0.98838335 -0.12103826 -0.30997932 -1.3587554
-0.9522553 -1.0490044 0.07869405 -1.5534705 -0.3261644 -0.8592046 -0.8252234 -1.078951
-1.0621656 -1.126044 -0.82457155 -0.63590187 -0.8274926 -0.078728475 -0.06934407 -0.64536184
-0.6942511 -0.2705476 -0.290158 -0.73684865 -0.5183649 -0.7445689 -0.885624 -0.81794393
-0.46806264 -0.6535611 -0.78622603 -0.5639177 -0.31040472 -0.43322504 -0.81249595 -0.15156986
-0.6580072 -0.98944974 -1.0678802 -0.58926445 -0.6358781 -0.699466 -0.35945252 -1.0496603
-0.76731014 -1.1319461 -0.3109297 -0.6067006 -1.4113569 -0.26299238 -0.015292824 -0.72338593
-0.054451797 -0.6962333 -0.76999325 -0.44354498 -0.21135172 -0.8393849 -0.16990696 -0.72293067
-0.51575047 -1.2841456 -0.7274613 -0.7025381 -0.6672991 -0.015162123 -0.32078105 -0.5438078
-0.3550564 -1.3727114 -0.27622443 -0.6328323 -0.91768384 -0.6074741 -0.73664165 -0.48851094
-0.64830464 -0.045708667 -1.000884 -0.7563437 -0.45784172 -0.112128176 -1.0286006 -0.34987634
0.10413935 0.16579191 -0.14269485 0.09050077 -0.2207311 0.017060926 0.14250092 -0.039937485
0.090033345 0.019167202 0.23699945 -0.15603231 -0.01191242 -0.030190786 -0.10807719 -0.08159359
-0.12494038 0.0351742 0.1460677 -0.050686795 0.0048089386 0.023961455 0.018153248 0.05249506
0.16943781 0.051968887 0.14112028 -0.20688906 -0.0020794508 -0.036658876 -0.118286505 -0.3317622
0.011095204 -0.014709923 0.040997833 0.053720586 -0.023608973 0.14534806 0.014479147 -0.07195071
-0.12067016 0.06872135 -0.17190559 -0.032149192 -0.16227968 -0.0021339923 -0.060515203 0.020973522
-0.02628869 0.029327879 0.036133416 0.088277705 0.18465248 0.20340575 -0.22069858 0.09572198
00000000: fec9 9fbf 8c9f 2fbf 4f8a 19be 06fb 3bbf
00000010: 8fdc 94bf 8e93 aabe b834 bdbf 5e2b 7ebf
00000020: 477d f5be bdd0 bfbf 490e 1dbf c569 3fbf
00000030: 8036 b5bf edda 9cbf 9194 3fbf 4ce6 85bf
00000040: 07ee 78bf 8592 24bf 1736 11bd 0535 c3bf
00000050: 1e9b 5dbf 2384 74bf d089 5abf d104 873d
00000060: ec8c 52bf aa22 acbf a004 efbf 305a 9ebf
00000070: ba65 41c0 11da d8bf 10fc 5dbf 6326 9bbf
00000080: c37f 9bbf 7db2 91be 5e09 f7be 3a62 02bf
00000090: 533a f7be 7839 9bbf 4523 a6be d871 57bf
000000a0: 5f9f 24bf eda8 59bf 2263 86bf 338d eebe
000000b0: 03ab ebbe 1476 41bf a5a0 1ebf 05a9 9dbe
000000c0: 4985 60bf f27a 32bf ac5f 9cbf 69fb a4bf
000000d0: bd9e 41bf 2ecc 43bf d654 09bf 50f1 c5be
000000e0: 7bd8 56bf 28e9 6ebf 6099 cbbe a946 2bbf
000000f0: 0cdf eabf dede a8bf 622b 33bf 3d7b 9cbf
00000100: 3e86 0abf e21d 54bf b1c7 51bf bdf3 a7bf
00000110: f01e 01bf c5d6 b9bf 4fbe 2bbf 1636 a8be
00000120: 5151 c73e e516 c1be 5967 48bf 9e83 bebe
00000130: 3a6e babf 4bdd 7bbf abfe 87bf 1dd3 45bf
00000140: fdce d8bd 4412 33bf 419d 14bf f99b fcbe
00000150: 97d8 45bf 1d06 9dbf 8453 5fbf b237 45be
00000160: 29ab a6bf c7cf 32bf 15cf 3ebf 6847 3dbf
00000170: 8257 76bf 68d9 fabd e81e 91bf 8221 2fbf
00000180: 6d18 58bf d0ce 93bf 9be9 c3bf 4544 a2bf
00000190: def5 6cbf b518 f9be a746 a0bf d5c1 3bbf
000001a0: 6c0a 81bf 9a13 93be 09f6 f2bf 625c 16bf
000001b0: e5e7 38bf db15 98bf c30d cebd 17b6 99be
000001c0: 26a4 7cbe 2982 5fbf c9ef f4be 5237 e0be
000001d0: b106 7dbf e8e2 f7bd 9cb5 9ebe b2eb adbf
000001e0: 01c7 73bf c745 86bf 592a a13d 1fd8 c6bf
000001f0: 05ff a6be d5f4 5bbf d741 53bf 111b 8abf
00000200: 0bf5 87bf 3622 90bf 1f17 53bf 77ca 22bf
00000210: 8ed6 53bf 653c a1bd 4404 8ebd 6f36 25bf
00000220: 71ba 31bf 3785 8abe 978f 94be 1da2 3cbf
00000230: 90b3 04bf 119c 3ebf 41b8 62bf c664 51bf
00000240: e8a5 efbe c84f 27bf 1c46 49bf e95c 10bf
00000250: 5eed 9ebe accf ddbe bcff 4fbf 2135 1bbe
00000260: 2973 28bf 944c 7dbf 4cb0 88bf 09da 16bf
00000270: e8c8 22bf 3410 33bf 290a b8be 455b 86bf
00000280: 706e 44bf 9ce3 90bf 2d32 9fbe bb50 1bbf
00000290: 58a7 b4bf f0a6 86be c18e 7abc d22f 39bf
000002a0: d908 5fbd 583c 32bf 471e 45bf 5418 e3be
000002b0: 966c 58be eee1 56bf 17fc 2dbe fc11 39bf
000002c0: 3908 04bf e25e a4bf e73a 3abf 89d9 33bf
000002d0: 1dd4 2abf 8e6a 78bc 6a3d a4be fd36 0bbf
000002e0: f4c9 b5be 02b5 afbf 4a6d 8dbe 4c01 22bf
000002f0: 54ed 6abf 6c83 1bbf 8c94 3cbf 1b1e fabe
00000300: 4bf7 25bf 0339 3bbd f81c 80bf be9f 41bf
00000310: 3b6a eabe 75a3 e5bd 2fa9 83bf fe22 b3be
00000320: 0347 d53d 5bc5 293e 991e 12be 7858 b93d
00000330: 5507 62be 5bc3 8b3c c3eb 113e 7d95 23bd
00000340: 6763 b83d 8904 9d3c fcaf 723e efc6 1fbe
00000350: 502c 43bc ab52 f7bc 9357 ddbd 8a1a a7bd
00000360: bee0 ffbd d212 103d c592 153e f59c 4fbd
00000370: 4d94 9d3b d04a c43c 1fb6 943c 0f05 573d
00000380: 1b81 2d3e 54dd 543d d681 103e bada 53be
00000390: 6547 08bb 9e27 16bd 3240 f2bd bcdc a9be
000003a0: a9c8 353c e401 71bc 58ed 273d 1e0a 5c3d
000003b0: 9b67 c1bc 1fd6 143e f239 6d3c e55a 93bd
000003c0: eb21 f7bd c7bd 8c3d 0508 30be dfae 03bd
000003d0: a52c 26be 73da 0bbb cade 77bd aad0 ab3c
000003e0: 615b d7bc 0541 f03c a200 143d f1ca b43d
000003f0: 8a15 3d3e 9949 503e cffe 61be e309 c43d

linear.weight f4 [1, 100]
-0.043962773 0.10065999 0.1044372 0.22855698 -0.118071884 0.032044824 -0.011106444 -0.008816509
0.14494371 -0.062015932 0.25010145 -0.014796077 0.009835754 -0.11775422 0.025435913 -0.06928777
-0.05413806 -0.03550076 -0.11417103 0.089227855 -0.010697044 0.017188441 -0.111834586 0.01885363
0.09800171 0.008120727 -0.003193809 -0.11899347 -0.004815101 -0.03129578 0.011748568 -0.107623525
-0.04515921 -0.22754522 -0.06619496 0.15615794 0.22542599 -0.04371186 0.1681884 -0.019521154
0.023968793 0.14382415 0.06862447 -0.011711141 0.09795537 -0.039014176 0.056284476 -0.049983237
-0.06691642 -0.05938499 0.0122628 0.044114433 -0.034271367 0.0039989944 0.54563946 -0.35837224
0.024081824 -0.02752989 -0.19094758 0.28075993 0.022170858 0.025402946 0.077737294 -0.022295209
-0.0034206486 -0.04670954 0.06093894 0.019365799 -0.027894098 0.011072583 -0.16475762 0.17004332
0.3253894 0.11888854 0.058985915 0.10049827 0.03267574 -0.038563322 0.1748866 -0.03847464
0.11311124 -0.07562524 0.15958384 0.014714326 0.11943735 0.045696683 0.062939726 0.13575865
-0.13618231 0.16734704 0.046488643 -0.015162999 0.0024550299 0.36584496 0.08537822 0.017625226
0.0007051095 0.0077414373 0.040830698 -0.035246983
00000000: 4f12 34bd d326 ce3d 2ce3 d53d d70a 6a3e
00000010: accf f1bd 6f41 033d cdf7 35bc 1e73 10bc
00000020: 206c 143e 6b04 7ebd 4c0d 803e 3f6b 72bc
00000030: 2426 213c 2029 f1bd fa5e d03c bfe6 8dbd
00000040: dfbf 5dbd 3f69 11bd 80d2 e9bd 18bd b63d
00000050: a842 2fbc c6ce 8c3c 8809 e5bd ee72 9a3c
00000060: 1fb5 c83d cc0c 053c 394f 51bb d9b2 f3bd
00000070: ffc7 9dbb 0130 00bd 117d 403c b969 dcbd
00000080: ddf8 38bd 9d01 69be 3991 87bd dee7 1f3e
00000090: 12d6 663e 350b 33bd 9439 2c3e d4ea 9fbc
000000a0: 345a c43c a346 133e fc8a 8c3d 16e0 3fbc
000000b0: d39c c83d 54cd 1fbd 8d8a 663d 39bb 4cbd
000000c0: 7a0b 89bd ad3d 73bd e9e9 483c 56b1 343d
000000d0: 2260 0cbd ff09 833b 07af 0b3f 917c b7be
000000e0: 3f47 c53c 5d86 e1bc c387 43be c4bf 8f3e
000000f0: a99f b53c d719 d03c bb34 9f3d 71a4 b6bc
00000100: f62c 60bb 8152 3fbd 1c9b 793d 06a5 9e3c
00000110: 2a82 e4bc c769 353c 39b6 28be d61f 2e3e
00000120: 7099 a63e d67b f33d 379b 713d 09d2 cd3d
00000130: ffd6 053d 93f4 1dbd 7915 333e 9697 1dbd
00000140: dea6 e73d 68e1 9abd f269 233e 5b14 713c
00000150: 929b f43d 722c 3b3d 8be6 803d 5104 0b3e
00000160: 6073 0bbe 065d 2b3e e06a 3e3d 3a6e 78bc
00000170: 91e4 203b 0850 bb3e c7da ae3d c762 903c
00000180: 19d7 383a e2ab fd3b 173e 273d 245f 10bd
