BodelLigging/Driel beneden_bodemligging_V1.pt (torch, 661983 bytes, 5 tensors)

lstm.weight_ih_l0 f4 [400, 1]
000000 b4 fd 9c 3f 68 88 95 bf 59 1f 52 3f 36 31 ab 3e
       1.2264924 -1.1682253 0.8207908 0.33435982
000010 4c db ab be a7 6a ac bf b2 fa 3b 3e 70 0f cc 3f
       -0.33565748 -1.3470048 0.18357351 1.5942211
000020 b1 19 3f bf 92 98 30 3e ba a5 ae bf 61 18 91 bf
       -0.74648577 0.17245701 -1.3644326 -1.1335565
000030 df e1 5c bf bd 53 81 bf 9f ad f2 be 51 1c 48 bf
       -0.8628215 -1.010368 -0.47398087 -0.7816821
000040 af 67 51 bf 99 e6 bb 3d 36 96 11 be 43 32 c6 bf
       -0.81798834 0.091748424 -0.14217457 -1.5484089
000050 be 94 54 bf a0 e4 a3 bf 5e b6 ee bf 37 ee c2 bc
       -0.8303946 -1.2804146 -1.8649404 -0.02379523
000060 70 28 51 3f 5b e0 1e bf 7b e5 5c bf 98 29 1c bf
       0.8170233 -0.6206109 -0.8628766 -0.6100097
000070 08 ec 1e bf fd 3a 9a bf 71 99 92 be 03 84 ad bf
       -0.62078905 -1.2049252 -0.28632692 -1.3555912
000080 72 4a bd bf 24 1e 35 bf 5d 3b b6 3e 21 be 3f 3e
       -1.4788344 -0.70749116 0.35592166 0.18724872
000090 01 c9 be bf 55 49 82 3d d5 32 83 be b6 66 02 3f
       -1.4905092 0.06361643 -0.2562472 0.50937974
0000a0 60 cc a9 3d ed 4d 62 bf f1 b0 04 bf 51 60 97 3e
       0.082909346 -0.88400155 -0.5183249 0.2956567
0000b0 c7 6d c8 bc 13 1d d9 be f1 74 c5 3f 99 9a 9a bf
       -0.024466408 -0.42404994 1.5426313 -1.207843
0000c0 93 6a 6c bf 9c 81 ba bf 37 f9 5c c0 83 a4 34 3f
       -0.9235012 -1.4570804 -3.4527109 0.70563525
0000d0 14 1d 15 3d 11 07 97 bf ff a7 94 bf 70 11 c3 3f
       0.036404684 -1.1799031 -1.1613768 1.5239697
0000e0 6a 03 00 3f 7d cb 32 be 17 fd 6a 3d d0 9f e6 3a
       0.5000521 -0.17460437 0.05737027 0.0017595235
0000f0 fc c4 96 bf 9d 79 cc bf be 32 b0 bd cc 54 f5 be
       -1.1778865 -1.5974613 -0.08603428 -0.47916257
000100 10 93 8b bf c8 65 1c bf c7 be 35 c0 69 49 4a bf
       -1.0904255 -0.61092806 -2.8397691 -0.79018265
000110 0e 40 92 bf 1a c0 b0 bf ab 3d a1 bf 8b 09 8c bf
       -1.1425798 -1.3808625 -1.2596945 -1.0940412
000120 f0 ac 45 bd db ab ba bf 08 87 41 be e8 d9 3b bf
       -0.04826063 -1.4583696 -0.18899167 -0.73379374
000130 61 d0 8c be d8 e0 6b bf 9b 0c f5 bf 85 99 91 3e
       -0.2750273 -0.9213996 -1.9144472 0.2843744
000140 fb a7 81 bf e4 a5 c8 3d 4b 48 c1 ba 92 ba 07 3f
       -1.0129389 0.09797266 -0.0014746276 0.5301906
000150 67 e1 b9 bf 1d 20 79 bf 91 ce 96 bf 1e d9 28 bf
       -1.4521912 -0.97314626 -1.1781789 -0.65956295
000160 da 87 1d 3d bc 0f 81 bf 8d f8 79 3e ae e2 cd bf
       0.038459636 -1.0082927 0.24411221 -1.6084802
000170 f0 28 1b bf ac 00 47 bf 7e ae dd be 67 d1 90 3e
       -0.6060934 -0.777354 -0.4329719 0.2828476
000180 95 20 85 bf b1 d4 ad 3e 9d 1b 1c be 0e 86 8a bf
       -1.0400568 0.33951333 -0.15244909 -1.082216
000190 cc 04 c8 3e 45 d5 cb 3d 49 88 88 bf 00 96 78 bf
       0.3906616 0.09952787 -1.0666591 -0.9710388
0001a0 36 36 b2 bc 7c 93 1e 3e 26 4a e0 bf a5 68 c6 bd
       -0.021754365 0.15485948 -1.7522628 -0.09687928
0001b0 77 88 b0 be 9c be 99 3d d6 51 96 3d 6a 0b 10 3f
       -0.34479114 0.07507059 0.07339828 0.56267416
0001c0 a9 53 a3 3d 21 1a 59 be 07 09 5d bf 1a fa d7 3e
       0.07974941 -0.21201374 -0.863419 0.42183
0001d0 18 b7 44 be 4d 8c d0 be 03 d7 37 be 42 c4 1b 3f
       -0.1921047 -0.4073204 -0.17953114 0.6084634
0001e0 d8 12 be 3e f2 31 8b bf d7 b7 35 bf a6 e7 a3 3e
       0.37123752 -1.0874617 -0.7098364 0.3201267
0001f0 ca f1 4c be 09 ca 93 bd 66 b1 02 3f ee a5 93 bf
       -0.2001411 -0.072162695 0.5105194 -1.1535013
000200 0b a0 b4 be 9f 18 1b 3f 67 24 3c 3e 31 20 3c 3f
       -0.35278353 0.60584444 0.18373261 0.7348662
000210 9a 1a 08 3f 15 0e 04 3f 49 dc 25 3f 90 11 39 be
       0.5316559 0.5158399 0.64789253 -0.18073106
000220 54 52 d7 be db 66 06 3f 97 15 81 3f cc 0d c4 3d
       -0.42055 0.52500695 1.0084714 0.09572944
000230 ac bf 0b bf 80 43 e3 be 76 9f 80 bf e5 47 3e bf
       -0.54589343 -0.44387436 -1.0048664 -0.7432845
000240 f0 39 c2 bf 53 5f 6c bf 1f d4 09 3f e5 2e f2 3e
       -1.5173931 -0.92332953 0.53839296 0.47301403
000250 1c 6e 6f 3f af 86 2a bd 4f f8 56 3f 08 7d 09 3e
       0.9352739 -0.04163235 0.8397264 0.13426602
000260 77 c3 90 bf 0d 3f 0c 3e 9b 9a 90 3f d5 ad 0b bf
       -1.1309651 0.13695927 1.1297182 -0.5456212
000270 60 63 3d 3c 8d d2 2f 3d 4a a0 22 3e cd 47 1f 40
       0.011559337 0.042925406 0.15881458 2.4887574
000280 8c 8d 83 bf df 03 3f 3f ea 16 be 3e 75 4a 4f bf
       -1.0277572 0.7461528 0.37126857 -0.8097299
000290 49 b0 53 3f 93 d2 5c bf 24 fd 2b bf dd 0e 34 be
       0.82690865 -0.8625881 -0.67183137 -0.17583795
0002a0 e4 0e 32 bf f5 41 1f be e6 36 59 bf 44 55 61 be
       -0.6955397 -0.15552504 -0.84849393 -0.22005183
0002b0 08 23 aa 3f dd 22 97 be a5 da 13 3d 09 57 43 bf
       1.3291941 -0.29518786 0.036097188 -0.7630468
0002c0 61 1d 9d be ac 98 21 bf 85 04 ce bf f2 1e 38 bd
       -0.30686477 -0.63123584 -1.6095129 -0.044951387
0002d0 f4 5e 03 3f e0 83 c0 3f c2 d0 83 bf cd 17 a6 3d
       0.5131676 1.5040245 -1.0298083 0.081100084
0002e0 cb 8a 8a 3d a0 68 8e bd 13 db fe 3d 04 a2 dc be
       0.06764754 -0.069535494 0.12444129 -0.43092358
0002f0 cf b1 9c 3e bc ee a4 be 5d 2e 2c bf 47 db 7a be
       0.30604407 -0.3221339 -0.67258245 -0.2449771
000300 f1 cb 77 3e 1e 99 41 bf 77 9d ed bf 4a ed ca 3d
       0.24198891 -0.75624263 -1.856368 0.099085405
000310 52 b0 5e be 75 b8 76 bd 46 01 8c be 5e c7 22 3d
       -0.21746948 -0.060234506 -0.27344722 0.039740913
000320 67 18 91 3f da 65 f0 bf 8a 4d f7 bf 1c f1 37 3f
       1.1335572 -1.8781083 -1.9320538 0.7185228
000330 16 0e 28 be 95 14 fc bf cf 80 86 3f 93 ae 07 3f
       -0.16411623 -1.9693781 1.0508059 0.53000754
000340 6a c0 cb 3e 8e 24 16 3e 39 ef fd 3f 16 5e f8 bf
       0.39795238 0.14662382 1.983863 -1.9403713
000350 7c bc 9d bf 05 98 98 3f 37 f5 22 bf 19 d1 a5 bf
       -1.2323146 1.1921393 -0.6365542 -1.2954437
000360 3c a4 c3 bf 16 7f 04 3f 16 57 12 3f cb 91 c9 3f
       -1.5284495 0.5175642 0.5716413 1.5747617
000370 4b 24 12 bf 11 cb 09 c0 fe 19 d2 bf dd b0 ea 3d
       -0.5708663 -2.1530192 -1.6414182 0.11459515
000380 2d 45 78 3f 37 de 58 3f 29 75 bd bf b9 3a ca bf
       0.96980554 0.8471407 -1.480138 -1.5799171
000390 63 c0 83 3d ad 6d 00 c0 f3 b4 89 3f 69 a9 c1 bf
       0.06433179 -2.006694 1.0758346 -1.5129825
0003a0 06 6f 0b c0 b1 bb f7 bf b4 d7 92 bf 86 c2 54 3d
       -2.1786513 -1.9354154 -1.1472077 0.051943325
0003b0 df b7 11 c0 7d ec 9c be d8 e1 a2 bf 9a 39 34 bf
       -2.2768476 -0.30649176 -1.2725172 -0.70400393
0003c0 7e 90 88 3f 0c c0 4b 3f 0d 0a 34 3f b1 ad 1f bf
       1.0669096 0.79589915 0.70327836 -0.6237441
0003d0 3f ae 7d 3f 8d 80 a4 be 1d 7b 06 3f f2 46 e2 3f
       0.99094003 -0.32129326 0.52531606 1.7677901
0003e0 91 53 e4 be 05 c3 24 40 bc 22 e4 bf ce 06 42 3f
       -0.44595006 2.574403 -1.78231 0.75791633
0003f0 8e b4 ac bc 3f b4 86 bf a8 dc 0c c0 9c a9 55 bf
       -0.021082189 -1.0523757 -2.2009678 -0.8346193

lstm.weight_hh_l0 f4 [400, 100]
000000 29 1a 7c bc a1 47 49 3f 59 99 ec 3e 6a 3a 7f be
       -0.015387096 0.7862492 0.46210745 -0.24924627
000010 0f 1a 52 3e 21 9c 47 3f 48 0b fe 3e 0c f4 80 be
       0.20517753 0.7797261 0.49617982 -0.25186193
000020 0d 54 7f bf d8 e5 9e bc e0 6c 00 bf 33 a4 5d 3e
       -0.99737626 -0.019396707 -0.5016613 0.21644668
000030 b7 60 cf be 8e 18 22 bf 77 eb a2 bd 2e 6e 93 be
       -0.40503475 -0.6331872 -0.079550676 -0.28794998
000040 fe ae 62 bf 86 bf 90 ba ef 82 36 3d 93 e9 15 bf
       -0.88548267 -0.0011043407 0.04455846 -0.5855953
000050 f7 63 0e 3e a4 dc a4 3e 4d f2 16 3f b7 4f c4 3c
       0.13905321 0.32199585 0.5896347 0.023963792
000060 cb 26 98 3e a5 f5 22 bf 43 31 af be ea f7 9c 3f
       0.29717097 -0.63656074 -0.3421727 1.2263157
000070 bc 63 a6 bf 2c 26 19 3d 7b b4 93 3f 24 44 ce 3e
       -1.2999187 0.03738992 1.1539453 0.40286362
000080 05 5d 03 3e b9 49 6f 3e e7 f8 fe be d4 40 ef bd
       0.12828453 0.23367967 -0.49799272 -0.11682287
000090 e7 1c 28 3f 91 05 18 3f 6e 7d c9 bd 84 48 e6 3e
       0.656691 0.59383494 -0.09838377 0.449772
0000a0 47 05 cc be ea cf 1e 3d 97 fc ad 3d 69 aa 81 bf
       -0.39847776 0.0387725 0.08495443 -1.013013
0000b0 25 67 e1 bf 11 b6 a4 bd 43 c5 23 bd 34 ab 63 bf
       -1.7609602 -0.08042539 -0.039983045 -0.8893311
0000c0 8a ea 4d 3f a7 95 c3 be ce 3f cc 3e 51 6d d1 3c
       0.80436003 -0.38200113 0.3989243 0.025564821
0000d0 cf 61 48 3f 58 4f 2f 3f 0f 44 d8 3e 23 56 03 3f
       0.78274244 0.68480444 0.42239425 0.5130331
0000e0 43 3e 02 be 54 d1 26 be 08 3f 9e be 9c 4b c6 3f
       -0.12719063 -0.1629079 -0.30907464 1.5491824
0000f0 1b 7b ef be a8 77 9b 3a fc 4c 07 3d 6f 32 11 3d
       -0.4677361 0.0011861222 0.033032402 0.035448488
000100 0a bc 9e be c4 0c 35 3d ea 80 c4 be 56 51 8a bd
       -0.31002837 0.044201627 -0.38379604 -0.06753795
000110 4b 9c 0d 3f d0 76 56 bf e2 b1 dc 3c c8 2a a2 be
       0.5531661 -0.83775043 0.02694029 -0.31673265
000120 f8 6a 37 3e 69 17 d2 3e ab b0 8a be 67 3d 8b 3f
       0.17911899 0.41033486 -0.27087912 1.0878114
000130 0c 96 a0 bf 61 96 82 bf 7f e4 71 be 38 14 93 bd
       -1.2545791 -1.0202142 -0.2362232 -0.07181591
000140 53 31 2e be ca 6b 86 be fc 6a e3 3d b1 77 b4 be
       -0.17011003 -0.26254112 0.1110439 -0.35247567
000150 8b 5a 5f bf 31 4a c0 be a5 94 bb be 12 e8 fe bd
       -0.8724753 -0.37556604 -0.36636844 -0.12446608
000160 12 e9 46 bd aa 78 60 3e 20 3e d4 3e c3 fa e9 be
       -0.048562117 0.2192103 0.41453648 -0.45699129
000170 b6 5b 25 bd 1d 56 33 bf 20 eb c3 bc 71 1f d4 3d
       -0.040370665 -0.70053273 -0.023915827 0.103575595
000180 1f a7 ba 3e c3 77 27 be 96 b6 62 bd 0e 10 ec bd
       0.36455628 -0.16354279 -0.05534991 -0.115265
000190 7f e9 9d 3d 2c 5c 35 bf 42 2d 3c bf a5 79 8d 3d
       0.077105515 -0.7084377 -0.7350656 0.069079675
0001a0 d0 9f c2 be 16 18 84 3d 1f e1 f3 3e 2f be 9b 3e
       -0.38012552 0.064499065 0.4763269 0.30418536
0001b0 1a 4a 81 3f ce 93 87 3d b6 f3 cb be c8 e6 5a bf
       1.0100739 0.066199884 -0.39834374 -0.85508394
0001c0 82 91 10 be b1 f7 d5 3e c0 3d 18 bf c2 33 94 3f
       -0.14118007 0.41790536 -0.59469223 1.1578295
0001d0 62 af 23 bf 77 8a 06 be ac e3 90 bf a8 a7 55 3e
       -0.6393949 -0.13138758 -1.131948 0.20864737
0001e0 f4 33 96 bf f7 a0 88 3c 4a 68 09 be 47 03 ed bd
       -1.1734605 0.016678317 -0.1341869 -0.11572891
0001f0 fa bb f4 be 00 c2 08 bf 35 34 82 bf 31 92 52 3f
       -0.47799665 -0.5342102 -1.0172182 0.8225432
000200 26 70 d9 be 6a 43 81 3e 33 3f 70 bb 08 5c b9 3c
       -0.42468375 0.25246745 -0.0036658763 0.022626892
000210 45 ac 1d 3f ef eb 63 be 50 c9 71 3e 71 3c 9f 3d
       0.6159099 -0.2225797 0.23611951 0.077752
000220 b3 c0 95 3e d7 9c f4 bf ba ca 3e bf 58 dc 4a 3f
       0.2924858 -1.9110364 -0.74528086 0.7924247
000230 22 a1 2a 3f 18 c9 1c 3e 08 7f df 3b 96 f5 1c bf
       0.6665212 0.15311086 0.006820563 -0.61312234
000240 02 c7 28 3f f9 64 2a be 39 4b 9c 3d b2 c0 14 3e
       0.6592866 -0.1664008 0.07631535 0.14526632
000250 37 07 24 bf d4 99 22 bf f5 c8 14 bf 65 90 bb 3e
       -0.6407351 -0.63515973 -0.58119136 0.36633602
000260 2c af 31 3f aa 0f 5f bf e4 5c 8d bf 76 12 74 bf
       0.69407916 -0.87133276 -1.1043973 -0.9534067
000270 10 f9 11 3e f7 53 37 3f 4c 16 74 3e 72 84 7c 3f
       0.14255166 0.71612495 0.2383663 0.98639596
000280 48 84 01 be d6 c9 70 bf 3c 70 95 bf 5d 17 ab 3e
       -0.12648118 -0.9405798 -1.1674876 0.33416262
000290 8a 8f 49 bf 2f 53 99 be de fe 72 bf e8 ee 11 3f
       -0.7873465 -0.29946277 -0.94920146 0.57005167
0002a0 5e c4 24 be 7a 23 c2 be 37 77 91 bf 1c 83 a8 be
       -0.16090533 -0.3791769 -1.1364506 -0.3291253
0002b0 2d ef 1d bf 4b 10 6a 3e ef fb 6c bf 9f ab 7b 3f
       -0.6169308 0.22857778 -0.9257192 0.9830875
0002c0 7b d5 09 3f 0f b8 ce bf a4 a2 e7 3c 1b bb ac 3e
       0.5384137 -1.614992 0.028275795 0.337365
0002d0 ad 11 90 bf 49 7f ae bd 5c 00 3b 3e 5e f4 5d bf
       -1.1255394 -0.085203715 0.18261856 -0.86701
0002e0 d9 82 f0 be 5a 12 8d bc ea fe 58 bf bf 59 10 bf
       -0.4697483 -0.017220665 -0.8476397 -0.5638694
0002f0 d7 f1 95 be cc 23 42 be dc 9e bd 3e 21 3a 9b be
       -0.29286072 -0.18958968 0.37035263 -0.30317786
000300 22 d3 e3 be 0f 08 12 3f bc 5c 26 bf 40 6d b6 bc
       -0.4449702 0.57043546 -0.6498525 -0.022268891
000310 8d da 6b 3f 1d 53 54 3e 69 48 02 3f 4d c0 dc bc
       0.9213036 0.2073483 0.5089174 -0.026947165
000320 b0 2a 77 bf 69 06 65 bf 1e 69 6a bf 56 17 f1 bd
       -0.9654951 -0.89462906 -0.91566646 -0.11772029
000330 13 76 2a bf cd 6d d7 be c9 66 e0 bd d5 c7 35 3f
       -0.66586417 -0.4207596 -0.10957105 0.71008044
000340 79 c8 82 3f 7e 0c 9d be a9 a5 5c 3f c9 33 31 bf
       1.0217429 -0.30673593 0.8619028 -0.6921964
000350 90 a9 5b bf 71 9b b5 3f 4c 35 1d bf ac f7 26 be
       -0.85805607 1.4188062 -0.6140945 -0.16305417
000360 e5 95 9a be 72 bc 0b 3e 9b c3 7d 3f e4 56 e0 3e
       -0.30192485 0.13646105 0.99126595 0.43816292
000370 6e 44 6a be 88 cf 80 bf 19 9e c6 be cf c3 09 bf
       -0.22877666 -1.0063334 -0.38792494 -0.53814405
000380 4e 0e 94 3f c1 0d 8f bf 17 a7 cb bf e5 52 a2 bf
       1.1566865 -1.1176072 -1.5910367 -1.2681547
000390 5f a7 33 be 5c e6 2c bf 06 70 95 3e 48 fe 6c 3d
       -0.17544316 -0.67539 0.2918703 0.05785969
0003a0 9a e9 4d bf 05 67 87 bf 45 f4 c5 bf 56 2e 3b bf
       -0.8043457 -1.0578314 -1.546517 -0.7311758
0003b0 b3 29 96 bf 2f e4 8e bf ac ee 66 bf fc 6b 6d bf
       -1.1731476 -1.1163386 -0.90207934 -0.92742896
0003c0 ac 1c a5 3f 11 db f0 be 93 e9 41 3f 62 17 3e 3f
       1.2899375 -0.47042134 0.7574703 0.7425443
0003d0 f9 76 5d 3e f3 f6 a5 3e cc 9e 19 3f 4e 14 fa 3e
       0.21627416 0.3241497 0.6000793 0.48843616
0003e0 90 0a 8e bf 31 2c 4b 3f e4 91 9d be 2d be c6 3e
       -1.1096973 0.79364306 -0.30775368 0.38816968
0003f0 41 63 86 bf 3e e6 e9 bf 42 8b a4 bf 52 bc 31 be
       -1.049904 -1.8273389 -1.2854998 -0.17356995

lstm.bias_ih_l0 f4 [400]
000000 6d 56 da bf 29 2a 16 bf 11 38 0d 3e cb c5 07 c0
       -1.7057625 -0.5865808 0.13790919 -2.1214473
000010 f5 8b 15 c0 14 5c 40 bd b8 24 5c be 42 df 64 bf
       -2.3366673 -0.046962813 -0.21498382 -0.89403164
000020 8a 21 22 bf db 3e 4a c0 ad 91 6f bf 6c 38 f6 be
       -0.63332427 -3.1600864 -0.9358166 -0.4808992
000030 1d ee 0a bf 7a 4d 95 be 35 5d 7a bf 25 31 51 bf
       -0.5426958 -0.29160672 -0.9779847 -0.81715614
000040 e7 c5 06 bf d1 3f f9 bf 06 f4 81 bf ce a9 68 bf
       -0.52645725 -1.94726 -1.0152595 -0.908841
000050 ba 7a 31 bf dd e3 b3 3e 60 3b 48 bf 15 ae 44 c0
       -0.6932789 0.35134783 -0.782156 -3.0731251
000060 31 42 6e bf 55 dd b1 bf b7 dc 2c bf d6 d6 2a bf
       -0.9306975 -1.389567 -0.67524284 -0.66734064
000070 97 2e f1 bf d7 59 0f 3f 5b 31 a9 bf 04 3b 56 bf
       -1.8842343 0.5599646 -1.3218187 -0.836838
000080 2c 61 63 3d b7 3b f8 be 4e a0 cd bd 5b 8f 36 c0
       0.055512592 -0.4848306 -0.10040341 -2.8524997
000090 28 bb 9b be 03 54 b2 be 35 bd d1 be bc 79 0c bf
       -0.30416226 -0.3482972 -0.40964666 -0.5487325
0000a0 3f 29 da be 53 36 b3 bf f0 db 7f bf fd 5f 9c be
       -0.42609593 -1.4000953 -0.99944973 -0.30541983
0000b0 3a 20 32 bf 8e 55 23 c0 99 32 1f bf a9 89 88 bf
       -0.69580424 -2.5520968 -0.6218658 -1.066701
0000c0 2a 2e 42 bf 59 2e 0a bd af 99 1e bf 0a eb 0e c0
       -0.7585169 -0.033735607 -0.6195325 -2.2330956
0000d0 b1 c5 aa bf dc 0a 89 be e4 5f 83 3d 71 9c e2 3e
       -1.3341581 -0.26766098 0.06414774 0.4425998
0000e0 1a b0 3c c0 b9 04 e1 bf 1d 15 1b c0 56 c1 ce 3e
       -2.9482484 -1.7579566 -2.4231637 0.4038188
0000f0 26 16 e6 be 02 07 8c bf e5 3b 51 bf 20 ff 0e c0
       -0.44938773 -1.0939639 -0.81732017 -2.2343216
000100 2a ed 63 bf 71 76 5f bf 15 27 a2 bf d7 05 ca bf
       -0.8903376 -0.872901 -1.2668177 -1.5783032
000110 71 69 b5 be 61 48 01 bf 38 10 04 bf e1 ea 8f bf
       -0.35432008 -0.50501066 -0.5158725 -1.1243554
000120 1d 5f 11 bf 2f d0 d4 be 9c 4f cd bf 48 d6 db be
       -0.56785756 -0.4156508 -1.603992 -0.4293692
000130 fa c6 8e bf 3d 99 80 bf 74 a2 6c bf a2 eb 46 c0
       -1.1154473 -1.0046765 -0.92435384 -3.108132
000140 5c 06 b1 be 49 48 af bf f8 ce 92 bf 8e f2 cf bf
       -0.34575164 -1.3693935 -1.1469412 -1.6245897
000150 84 cc 83 bf 32 64 ad bf 71 d3 7f bf a7 1f 82 bf
       -1.0296788 -1.3546202 -0.9993201 -1.016591
000160 9a fa 38 c0 c5 ab 20 bf c0 40 42 bc b8 68 90 bf
       -2.8902955 -0.627621 -0.011856258 -1.1281958
000170 26 10 df bf 1b 26 44 be 7c 7d 48 bf 4e f4 47 c0
       -1.7426803 -0.19155161 -0.78316474 -3.1242862
000180 b3 6e 92 bf b5 c1 46 c0 7f 3b 08 c0 21 74 c8 bf
       -1.1440033 -3.105573 -2.1286314 -1.566044
000190 8b f4 87 bf 05 d2 da bd 26 77 99 bf 10 c7 75 bf
       -1.0621504 -0.10684589 -1.1989486 -0.9600687
0001a0 2a 9e 98 bf 67 46 07 bd 8e 5c 74 bf 14 6c 27 bf
       -1.1923268 -0.033026125 -0.9545373 -0.6539929
0001b0 e8 d6 0c bf bf cb b0 bf 9f e0 b0 bf a3 e4 d5 bd
       -0.5501542 -1.3812178 -1.3818549 -0.104439996
0001c0 ee 51 c6 bf 47 37 8f bf 23 09 4d bf 5a 2d 6a be
       -1.5493753 -1.1188744 -0.80092067 -0.22868863
0001d0 57 75 65 bf a8 30 8c bf 7f b1 ac bf 57 14 01 be
       -0.8963217 -1.0952349 -1.3491668 -0.12605415
0001e0 ba fa a4 bf 92 ef 9d bf 5a a5 7f bf 98 72 86 bf
       -1.2889016 -1.2338736 -0.9986168 -1.0503721
0001f0 37 d5 b5 bf 59 99 d6 bf 0d 04 87 bf 07 92 cb be
       -1.4205693 -1.6765548 -1.0548111 -0.39759848
000200 8a 91 b4 be 11 5f 0d 3e d2 f0 a2 bf 01 be b1 be
       -0.35267287 0.13805796 -1.2729743 -0.34715274
000210 db 52 6f be 96 69 ad be 2a ca d6 bf d2 c9 7d bf
       -0.2337145 -0.33869618 -1.6780446 -0.9913608
000220 1a 55 98 be a9 9e 16 be 10 1a 86 bf 36 ab 6b bf
       -0.29752427 -0.14708962 -1.0476704 -0.9205812
000230 da 7f 28 bf 12 35 89 bf e9 fa a1 bf 50 cd af be
       -0.65820086 -1.0719321 -1.2654697 -0.34336329
000240 1c db 68 bf 35 d2 9d bf 2b 08 e2 be bd 69 2e bf
       -0.90959334 -1.2329775 -0.44146857 -0.68130094
000250 78 ce 52 bf 07 0b be be 61 01 a2 be 4f de b5 bf
       -0.82346296 -0.37117788 -0.31641677 -1.4208468
000260 85 5d 99 be ac 83 6a bf d2 72 01 3e 2b e7 43 3e
       -0.29954162 -0.91607165 0.12641457 0.19131152
000270 59 73 8d bf f5 f6 aa bf bf a6 dc bf 6e 8c 4e 3c
       -1.1050826 -1.3356615 -1.7238387 0.012606723
000280 95 d6 73 bf cf 79 8b be 59 54 0f be 32 e2 58 bf
       -0.952493 -0.2724137 -0.1399702 -0.84720147
000290 fb cf b4 bf f0 9e 9c bf c3 16 85 bf c9 9b 9a bf
       -1.4125971 -1.2236004 -1.0397571 -1.2078792
0002a0 bf 5a 1f bf 8b 5e 0a bf 5b 36 35 bf 07 e1 66 bf
       -0.6224784 -0.5405051 -0.70786065 -0.90187114
0002b0 6c ab 82 be 0f 53 ea be 07 d8 03 bf a6 88 04 bf
       -0.2552141 -0.45766494 -0.51501507 -0.5177101
0002c0 bd f7 1d bf db 72 f8 be 4b 53 66 bf df f1 a1 bf
       -0.61706144 -0.48525128 -0.89970845 -1.2651938
0002d0 dc 52 5e be a1 63 2f bf 95 24 68 bf 24 4d c9 bf
       -0.21711296 -0.68511397 -0.9068082 -1.5726666
0002e0 f1 36 fe be e8 2d c9 bf 16 5e 91 bf 74 d0 af be
       -0.49651292 -1.5717134 -1.1356838 -0.34338725
0002f0 a3 22 a4 bf ff 71 33 bf 80 fb 91 bf 1c 44 5c bf
       -1.282307 -0.7009582 -1.1404877 -0.86041427
000300 57 97 8c bf b9 60 16 bf 4b 43 70 be 61 da 9b bf
       -1.0983685 -0.5874134 -0.2346317 -1.2176019
000310 73 d1 8d be 84 03 ba bf 1c 7e 88 bf 63 c2 35 bf
       -0.2769886 -1.4532323 -1.0663486 -0.70999736
000320 72 25 a4 bc e1 fb 6f bd 1a 0b 9c 3e 8f 56 23 3d
       -0.020037387 -0.05858982 0.3047722 0.03987747
000330 4e ba 22 3c 84 94 7d bd ba 97 92 be ff c0 85 3c
       0.009932114 -0.061909214 -0.28631383 0.01632738
000340 b8 2f 79 be 04 b2 af bd e1 a7 1c 3d 6c 8d b5 bd
       -0.2433461 -0.08578876 0.03824604 -0.08864865
000350 84 c8 bf bc 93 a7 32 be 3f 7e 50 bd 18 9a d6 3c
       -0.023411043 -0.17446737 -0.050901648 0.026196525
000360 23 30 61 3d c6 11 37 3b 29 f3 e6 bd 29 a1 b5 3b
       0.054977547 0.0027934178 -0.11276848 0.0055428934
000370 c4 d3 59 bc 9e 80 21 bc 1b 76 5b bd 7c e4 78 bd
       -0.013295118 -0.009857325 -0.05357943 -0.060764775
000380 e5 4a e9 39 5c 1e 83 3e 7a da da 3d d6 db 8d be
       0.00044497024 0.256091 0.10686202 -0.27706784
000390 c5 ab 5e 3e f3 84 d6 be 85 3e 36 be ca 91 95 3a
       0.21745212 -0.41898307 -0.17797287 0.0011411246
0003a0 e3 4d 93 3c bf 47 d1 bd b4 68 34 3e c9 3c ce bd
       0.017981475 -0.102187626 0.17618066 -0.100701876
0003b0 f6 e2 07 bd 38 c2 97 bd aa 97 1d be 46 ce b0 3d
       -0.03317543 -0.07410091 -0.15389886 0.086330935
0003c0 2b 88 8b bd 6f ff d8 3c d5 ba 8a bd 24 73 aa 3d
       -0.06813081 0.026488988 -0.06773917 0.083227426
0003d0 3f 20 b3 be c8 0e 2d 3d dc 0a b5 3b 5d b8 2d 3c
       -0.3498554 0.042250425 0.005524976 0.010603038
0003e0 23 2f a0 3e df cf 23 3e 5e d1 17 3d f1 47 ba 3c
       0.31285962 0.15997265 0.037064902 0.022739382
0003f0 4a da ad 3d e0 7e 15 3e f6 79 01 3d e2 a9 fa 3c
       0.08488901 0.1459918 0.03161045 0.030598585

lstm.bias_hh_l0 f4 [400]
000000 ff 4b c1 bf 1b b3 01 bf fb 1d 7b 3e 8a 45 0d c0
       -1.5101317 -0.5066392 0.24523155 -2.2073693
000010 fe b1 14 c0 28 fc 33 be f3 b7 ae bd 40 1f 58 bf
       -2.3233638 -0.17576659 -0.08531179 -0.84422684
000020 bd 07 2b bf 30 3e 4c c0 a3 cf 73 bf ea 3b a7 be
       -0.6680868 -3.1912956 -0.95238703 -0.32662898
000030 ea 56 13 bf bb aa ab be 54 90 71 bf 59 ec 20 bf
       -0.57554495 -0.33528695 -0.9436085 -0.6286064
000040 60 1d cc be f8 c3 ee bf 21 42 5d bf db d2 75 bf
       -0.3986616 -1.8653555 -0.8642903 -0.96024865
000050 ca c1 38 bf c6 ce 58 3e 80 d3 35 bf b0 37 3e c0
       -0.721707 0.21172628 -0.7102585 -2.972149
000060 7a 2b 6b bf f2 45 b0 bf 4d 68 4e bf 94 37 28 bf
       -0.91863215 -1.3771346 -0.806279 -0.65709805
000070 bb 87 01 c0 5c 8d f7 3e 7c 30 ad bf 2e ed 57 bf
       -2.0239093 0.48350036 -1.3530421 -0.8434628
000080 8d dc bc bd e7 bf f3 be 0e 1d e9 bd 46 45 35 c0
       -0.09221754 -0.47607347 -0.11382495 -2.832353
000090 07 8d a9 be a0 cb 82 be 9a 71 d2 be 39 20 06 bf
       -0.33115408 -0.2554598 -0.41102296 -0.5239292
0000a0 3c 37 02 bf b6 62 b9 bf 75 8e 90 bf 7c b3 9c be
       -0.5086553 -1.4483249 -1.1293474 -0.30605686
0000b0 ab 85 3e bf a4 79 17 c0 dc af 1d bf c7 c9 6f bf
       -0.7442271 -2.3667994 -0.61596465 -0.9366726
0000c0 a4 83 35 bf da fb ea bd 5c 6b 0d bf 4a 54 09 c0
       -0.7090399 -0.11473818 -0.5524194 -2.1457696
0000d0 8d db aa bf e7 81 e7 be 2d 29 53 3e 12 56 ec 3e
       -1.3348252 -0.45216295 0.20621176 0.46159416
0000e0 e7 72 42 c0 6f 5c dd bf e0 d3 1d c0 1b 07 cc 3e
       -3.038263 -1.7293833 -2.4660568 0.3984917
0000f0 5e 53 fc be fc 9a 7a bf c3 f0 4a bf 48 12 13 c0
       -0.49282354 -0.9789274 -0.79273623 -2.2979908
000100 b1 f0 7f bf bd 51 64 bf 40 31 a3 bf 1d bf d7 bf
       -0.9997664 -0.8918722 -1.2749405 -1.6855198
000110 a7 70 58 be 2e 7c 10 bf 9e a0 06 bf 6c ad 90 bf
       -0.21136723 -0.56439483 -0.5258883 -1.1302924
000120 03 8f 05 bf fd 07 b2 be 38 11 c7 bf 2c f7 f4 be
       -0.52171344 -0.3477172 -1.555213 -0.47844827
000130 94 4d 84 bf 20 ee 83 bf dd f9 4c bf 85 ab 3f c0
       -1.0336175 -1.0307045 -0.8006876 -2.9948437
000140 eb 3d 94 be dc 14 9b bf 28 05 8f bf a9 00 cc bf
       -0.2895349 -1.2115741 -1.1173449 -1.5937701
000150 8c 23 79 bf 72 1d bc bf 36 94 89 bf 0e b6 85 bf
       -0.97319865 -1.4696486 -1.0748355 -1.0446184
000160 7d 72 38 c0 93 81 4a bf 33 04 34 3c 7b e8 88 bf
       -2.8819878 -0.79103965 0.010987329 -1.0695947
000170 00 d4 ca bf a9 59 75 be 4f 57 36 bf 00 ae 41 c0
       -1.5845947 -0.23959984 -0.7122697 -3.026245
000180 fc bf 9a bf 6b 34 46 c0 2a c3 08 c0 89 15 c3 bf
       -1.2089839 -3.0969493 -2.1369119 -1.5240947
000190 36 ec 7f bf 88 34 c4 bd d6 72 a9 bf d8 a8 84 bf
       -0.99969804 -0.09580332 -1.323817 -1.0364027
0001a0 82 71 93 bf 81 81 0f be 44 7f 66 bf 68 e0 04 bf
       -1.1519015 -0.14014246 -0.9003794 -0.51904917
0001b0 94 51 18 bf 85 7e a7 bf 45 8e 9e bf e4 b4 4e be
       -0.5949948 -1.3085486 -1.2387167 -0.20186192
0001c0 53 31 c0 bf f7 c9 8d bf b9 1b 73 bf 32 2a d9 be
       -1.5015053 -1.107726 -0.94964176 -0.42415005
0001d0 c8 8a 62 bf 95 85 81 bf 09 d1 a4 bf 0e 72 4c be
       -0.88493013 -1.0118891 -1.2876292 -0.19965383
0001e0 f1 19 94 bf 80 6c 95 bf dc 58 65 bf 15 7d 90 bf
       -1.1570417 -1.1673737 -0.89588714 -1.1288172
0001f0 ca 19 bd bf 57 75 d1 bf 31 8e 83 bf cd 51 c7 be
       -1.4773495 -1.6363934 -1.0277768 -0.38929597
000200 73 4e bb be 7a 84 95 3e 4c 08 9e bf 1b 0a 8d be
       -0.3658329 0.29202634 -1.2346282 -0.27546772
000210 fe de 69 be e9 1b d2 be 4e 0a e8 bf 53 70 60 bf
       -0.22838971 -0.4103692 -1.8128145 -0.87671393
000220 11 a7 d2 be 30 d3 b5 bd ad 09 86 bf e0 8d 6e bf
       -0.41143087 -0.088781714 -1.0471703 -0.93185234
000230 55 aa 22 bf b5 23 89 bf 89 2c 9d bf 38 af a0 be
       -0.63541156 -1.0714022 -1.2279216 -0.3138368
000240 92 49 7f bf 9d 86 b3 bf 82 9c cf be fe 2e 1b bf
       -0.99721634 -1.4025456 -0.40549093 -0.6061858
000250 84 eb 26 bf 6a 8c ff be 68 13 70 be 30 7d ba bf
       -0.6520312 -0.49911815 -0.23444903 -1.4569454
000260 ee 34 ad be 68 31 79 bf 85 64 08 3d 6a 12 3b 3e
       -0.33829445 -0.9734101 0.033298988 0.18268743
000270 e9 9c 88 bf dc 8c 9f bf 5f b1 c5 bf 25 32 6d bd
       -1.0672885 -1.2464862 -1.5444754 -0.05790915
000280 af ab 7f bf 74 16 92 be 54 3c 84 bd b1 48 76 bf
       -0.99871343 -0.28532755 -0.06456819 -0.9620467
000290 13 a1 b7 bf 21 7f 93 bf fa a0 7c bf aa 46 8d bf
       -1.4346031 -1.1523172 -0.9868313 -1.103719
0002a0 0b 53 11 bf d4 04 18 bf 56 fe 59 bf fb 95 5c bf
       -0.5676734 -0.5938237 -0.8515371 -0.8616635
0002b0 3f 4c 69 be c3 fb 0b bf 43 96 2f bf 24 59 ee be
       -0.22782992 -0.5468103 -0.68588656 -0.46552384
0002c0 4c fe 1b bf b0 6d a9 be 9b c1 3e bf 10 59 9d bf
       -0.609349 -0.33091497 -0.7451417 -1.2292805
0002d0 1a 82 12 be ff 8a 19 bf c9 ad 67 bf 87 27 c9 bf
       -0.14307442 -0.59977716 -0.9049955 -1.5715188
0002e0 91 e2 f8 be ab b3 cd bf 96 e2 93 bf 11 08 3f be
       -0.48610356 -1.6070455 -1.1553524 -0.18655421
0002f0 9c c2 ab bf 79 b5 35 bf 81 be 96 bf de 15 65 bf
       -1.3418765 -0.7098003 -1.1776887 -0.8948649
000300 54 51 87 bf f9 5c 43 bf 95 11 6d be 75 b5 a1 bf
       -1.0571694 -0.7631374 -0.23151238 -1.2633501
000310 d2 7b 6f be e3 a4 b2 bf ec 24 84 bf 9d bf 21 bf
       -0.23387077 -1.395657 -1.0323768 -0.63183004
000320 2c 9a 35 bd a3 c4 70 bd f1 15 80 3e cc 02 ed bd
       -0.044336483 -0.058781277 0.2501674 -0.11572799
000330 9f cf af 3d dc 44 dc 3c 7c 5d 2e be 33 7b 9e 3d
       0.085845225 0.026888303 -0.17027849 0.07738342
000340 01 01 83 be 12 20 90 3d 5a 96 1c 3e de 32 94 3d
       -0.25586703 0.07037367 0.1529173 0.07236265
000350 7e c3 10 3e a9 7d 52 be 42 67 b7 3d 56 39 2f 3e
       0.14137074 -0.20555748 0.08955242 0.17111716
000360 dd b6 46 3d d6 85 e5 3c 87 91 6c bd e6 53 59 3d
       0.048514236 0.02801792 -0.057755973 0.053058527
000370 82 58 8f 3d 15 64 41 3d ea 12 04 bc e4 0e d7 3c
       0.069993034 0.047214586 -0.00806115 0.026252218
000380 2f 73 6b 3b 8b 79 d9 3d 24 7a 1d bd 65 a2 1b be
       0.003592681 0.106188856 -0.03844656 -0.15198667
000390 03 51 63 3e f5 b4 c1 be bc 33 a9 bd d9 ed a0 3c
       0.22198872 -0.37833372 -0.08261821 0.019644665
0003a0 e2 52 d7 bc 80 1b db bd b0 02 80 3e 70 36 b8 3c
       -0.026284639 -0.106986046 0.2500205 0.022486895
0003b0 af d5 1d bd b6 06 62 bb ff 17 0e be c1 7e fc 3d
       -0.038533863 -0.0034488863 -0.13876341 0.12328864
0003c0 16 e6 f5 3c ce d2 68 bc a0 e5 d0 bb c3 f4 e9 3c
       0.03001694 -0.014210416 -0.0063750297 0.028559094
0003d0 e2 16 a0 be d3 9b 16 bd 5c 14 3f bd 1b 18 ee 3d
       -0.31267458 -0.0367697 -0.046650276 0.116256915
0003e0 25 2e a4 3e d2 b9 5b 3c f0 fb 00 3d d6 8e 9d bc
       0.32066455 0.013411002 0.031490266 -0.019233149
0003f0 df 4f 73 bd ee b9 48 3e ba 20 e6 3c 85 91 a3 bc
       -0.059402343 0.19602177 0.028091777 -0.01996685

linear.weight f4 [1, 100]
000000 a5 97 8e 3b 0f 66 f5 bd 68 c0 96 3d 51 df 89 3c
       0.0043515735 -0.11982357 0.07360917 0.016830118
000010 d8 43 71 3c d1 92 3c be 5c 6b d1 3d 87 cf 07 be
       0.014725648 -0.18415381 0.10225555 -0.13262759
000020 bd d5 d0 3d df c4 2e bd 77 7b 75 3e e2 ad 4a be
       0.10197017 -0.04266822 0.2397288 -0.19792894
000030 88 a0 3b bd 6e b0 83 3d 6a 02 3d bd 5b 94 23 be
       -0.04580739 0.06430136 -0.04614488 -0.15974562
000040 42 e3 5a bd 15 26 91 bd 5a 32 08 3d 2c 3e 4a 3d
       -0.053439386 -0.07087342 0.033251144 0.049375698
000050 0c a4 6c bd 9d 53 5a be e8 6b 10 be 7e 7c c7 bc
       -0.057773635 -0.21320958 -0.14103663 -0.024351355
000060 82 bc 92 3b c4 c8 13 bc cb ab 17 be 2b 7a 27 be
       0.0044780383 -0.009020034 -0.14811628 -0.16355197
000070 71 5d cf bd 06 3c a9 be a8 b8 e5 3d e8 60 22 bd
       -0.101252444 -0.33053607 0.11216861 -0.0396432
000080 16 e3 30 be ba 33 e8 bd c4 75 4c 3c b1 7e 3c 3b
       -0.17274126 -0.11337991 0.012479249 0.0028762037
000090 ec 63 2a be 94 dd d0 3d 1f 6f 39 be 63 3c c4 3d
       -0.1663968 0.10198513 -0.18108796 0.0958183
0000a0 70 71 1e bd c5 4e 1b 3d f6 5a 65 3d d4 b5 b8 bc
       -0.0386824 0.037916917 0.05599495 -0.02254764
0000b0 72 e4 43 3a 6f cb 73 3c b0 da b4 be a3 c6 2d 3e
       0.00074727007 0.014880045 -0.35323095 0.16970305
0000c0 51 e4 fa bc f8 a7 84 3e 91 4b a3 bd 32 7e 59 bd
       -0.030626448 0.259094 -0.079733975 -0.053098865
0000d0 3f cf 98 bd 22 c1 30 bb 96 91 6c be 3c 45 0d 3e
       -0.07461404 -0.0026970585 -0.23102412 0.13795942
0000e0 23 08 38 3b c4 da 2d bc 4b b8 94 3d 3f 5f 9b be
       0.0028081022 -0.01061124 0.072617136 -0.30346105
0000f0 b1 38 30 3d a1 c3 5f bd 68 e4 ab bd f1 a8 85 3b
       0.043022815 -0.054629926 -0.083931744 0.0040789773
000100 ac ab 96 3d 3f 1b 0e 3b 06 57 32 be 05 36 38 3d
       0.073569626 0.002168372 -0.1741601 0.044973392
000110 cc f9 f7 bd 91 8b ee 3e e4 7a f6 bd d0 15 fe 3b
       -0.12108192 0.46590856 -0.12035158 0.007754065
000120 b8 30 cb bd 3f b4 c4 be a1 2f 8a 3d 34 32 64 be
       -0.09921402 -0.38418767 0.06747366 -0.22284776
000130 03 87 05 be 8a 10 22 3d a0 9b 9d 3c 02 0f d8 bb
       -0.13039784 0.039566554 0.019239247 -0.006593586
000140 92 99 e4 bd 0b 3f 05 3d 7a e0 e3 3c 7f 98 08 be
       -0.11162104 0.032530826 0.027817 -0.13339423
000150 9f 0f 22 ba de 4c 7e 3d cf 2b c0 3d 50 18 6d be
       -0.00061821373 0.062085025 0.09383356 -0.23153806
000160 eb 95 07 bd 4f 9b ae 3d 4c 3b 61 3d c7 4b 19 3e
       -0.033101957 0.085257165 0.05498819 0.14970313
000170 ab a9 4c bc 7c b2 75 be 17 60 25 3e b1 27 0a bd
       -0.012491624 -0.23993868 0.16149937 -0.03372926
000180 bc d0 5a 3d 29 64 10 bd 20 4d 85 3c 56 a4 bb bc
       0.05342172 -0.03525177 0.016272128 -0.02290551
