BodelLigging/Driel boven_bodemligging_V1.pt (torch, 661983 bytes, 5 tensors)

lstm.weight_ih_l0 f4 [400, 1]
0	0xbfcd71f0	-1.6050396
1	0xbfab93b8	-1.3404455
2	0xc0258f40	-2.5868683
3	0xbfca13a6	-1.5787246
4	0xbf8e1a58	-1.110179
5	0xc045b73c	-3.0893087
6	0x3e554601	0.20827486
7	0xbf412cb9	-0.75458866
8	0x3d21cdb5	0.03950282
9	0xbe8ec3dd	-0.27883807
10	0xbf58a7d9	-0.84631115
11	0xbfae6f72	-1.362776
12	0xbf419e2e	-0.7563199
13	0xbf8ec22f	-1.115301
14	0xbf175471	-0.5911322
15	0xbf6351b2	-0.8879653
16	0xbefe4234	-0.49659884
17	0x3faa1e78	1.3290548
18	0xbf490f7b	-0.78539246
19	0xbf89a775	-1.0754229
20	0xbf8aed90	-1.0853748
21	0xbf8d6887	-1.1047524
22	0xbfa46fb9	-1.2846595
23	0xbf208af8	-0.6271205
24	0xbe326932	-0.17422941
25	0xbea2a3b3	-0.31765518
26	0xc01246fd	-2.2855828
27	0xbf542f22	-0.8288442
28	0xbec54553	-0.38529453
29	0xc031f5a6	-2.7806182
30	0xbda5e3be	-0.08100079
31	0xbf5110cd	-0.8166626
32	0x3c90250b	0.017595788
33	0xc053f4f3	-3.3118255
34	0xbed0b191	-0.40760472
35	0xbf38dd70	-0.72212887
36	0xbf6fd871	-0.9368964
37	0x3f330de7	0.6994309
38	0xbe79653e	-0.24355027
39	0xbf7adc89	-0.9799276
40	0xbf4e7dcd	-0.80660707
41	0xbf44b05a	-0.7683159
42	0xc06a6fbf	-3.6630704
43	0xc00aaaba	-2.1666703
44	0xbfb6c98e	-1.428026
45	0xbf1bd310	-0.6086893
46	0xbe91b046	-0.28454798
47	0xc00293c8	-2.0402699
48	0xbfc4a2a8	-1.5362139
49	0xbfb7bfda	-1.4355423
50	0xbf3aaacb	-0.7291686
51	0xbf9a6ffe	-1.2065427
52	0xbfd848e4	-1.6897244
53	0xbe852ce2	-0.26010805
54	0xbf8602f9	-1.0469657
55	0xbfe19d8c	-1.7626204
56	0xbe74dbe8	-0.23912013
57	0xc04c6be9	-3.1940863
58	0xbf8ede10	-1.1161518
59	0xc04a1817	-3.1577203
60	0xbfe71d33	-1.8055786
61	0xbe90ddf5	-0.2829434
62	0xbf512979	-0.8170391
63	0xbfb76b58	-1.4329634
64	0xbfaac3ee	-1.3341043
65	0xc0339d4d	-2.8064759
66	0xbff21274	-1.8911881
67	0xc027b05b	-2.620139
68	0xbfdd13bb	-1.7271646
69	0xbeb1b885	-0.3471109
70	0xbfa6455c	-1.2989917
71	0xc04e79a8	-3.2261753
72	0xbf4e7a59	-0.8065544
73	0xbf9ec84f	-1.2404879
74	0xbfc00641	-1.5001909
75	0xbfec0b8d	-1.8441025
76	0xbeee9f56	-0.4660594
77	0xbfa39b77	-1.2781819
78	0xbf8e081d	-1.1096226
79	0xbf3215a2	-0.6956426
80	0xbf47b440	-0.78009415
81	0xbf9bf81f	-1.2185096
82	0xbf9fb6f3	-1.2477707
83	0xbf2b6c6f	-0.6696233
84	0xbfa8439c	-1.3145633
85	0xbfc153e6	-1.5103729
86	0xbfdeca36	-1.740546
87	0x3f488bcc	0.78338313
88	0xbf613a14	-0.87979245
89	0xbf5b9a97	-0.8578276
90	0xc00013ce	-2.0012088
91	0xbe95f9b8	-0.29292083
92	0xc0073c4b	-2.113055
93	0xbfb98bbc	-1.4495769
94	0xbf5d5ab7	-0.86466545
95	0xbf9515ac	-1.1647239
96	0xbf9ce64a	-1.2257779
97	0xbff3a50f	-1.9034747
98	0xbfcef938	-1.6169806
99	0xbed57ad7	-0.41695282
100	0xbe6cf982	-0.23142055
101	0x3f1ee2f6	0.62065065
102	0xbeb77090	-0.35828066
103	0xbf800844	-1.0002522
104	0xbfa94993	-1.3225578
105	0x3f2e638c	0.68120646
106	0xc00c8273	-2.195462
107	0xbe0a293c	-0.13492292
108	0xbf81ffb9	-1.0156165
109	0x3e902f8d	0.28161278
110	0xbf1b1b48	-0.605885
111	0xbf906aad	-1.1282555
112	0x3f0d972e	0.55308807
113	0x3e3c3fa2	0.18383649
114	0x3e795449	0.24348558
115	0xbe797dca	-0.24364391
116	0x3f064dfc	0.52462745
117	0xbee7d576	-0.45280045
118	0x3dffac7c	0.12484071
119	0x3f25dd48	0.64790773
120	0xbea2f5d8	-0.3182819
121	0xbee69a33	-0.4503952
122	0x3d82329a	0.06357308
123	0xbe9081de	-0.2822408
124	0xbe92d373	-0.28676948
125	0xbe686643	-0.2269526
126	0x3f09475c	0.5362451
127	0xbeb4b776	-0.3529622
128	0xbfa2fa7f	-1.2732695
129	0xbe9a5977	-0.3014638
130	0x3dbdd686	0.09269433
131	0x3e5f20a4	0.21789795
132	0xbee43708	-0.44573236
133	0xbf642545	-0.8911937
134	0x3ea3fc89	0.32028607
135	0x3d64666e	0.055761747
136	0xbeae74e0	-0.34073544
137	0x3de95a65	0.113941945
138	0xbfa28edf	-1.2699851
139	0x3e263a62	0.16233209
140	0xbee93279	-0.4554632
141	0x3c593e32	0.013259457
142	0x3f7a2df9	0.977264
143	0x3dda5ad7	0.106618576
144	0xbf66d786	-0.9017261
145	0xbed7ba61	-0.42134383
146	0xbf8b5ac3	-1.0887073
147	0x3e264765	0.16238172
148	0xbfbb0b8f	-1.4612902
149	0x3e7b48dc	0.24539512
150	0x3f2e18f1	0.6800681
151	0xbe5cdcc8	-0.21568596
152	0xbeeae3a3	-0.45876798
153	0xbf4c22b6	-0.79740465
154	0xbf50cb6e	-0.8156041
155	0xbcdf3243	-0.027245646
156	0x3df7a950	0.12092841
157	0x3f79a707	0.9752049
158	0xbdd83bcc	-0.1055828
159	0x3f3db660	0.7410641
160	0xbe11073e	-0.14162919
161	0xbf727664	-0.947119
162	0x3e265983	0.16245084
163	0xbea0bd76	-0.31394547
164	0xbf5e9788	-0.8694997
165	0xbee5d30e	-0.44887584
166	0x3f3ed480	0.74543
167	0x3f5bb76e	0.85826766
168	0x3f80e165	1.0068785
169	0x3ce1c77e	0.027560946
170	0xbe298147	-0.16553222
171	0x3ea39897	0.31952354
172	0x3e917b3c	0.28414333
173	0xbec4c510	-0.38431597
174	0xbe7327b1	-0.2374561
175	0xbf41d94b	-0.7572219
176	0xbf007618	-0.50180197
177	0xbfc78125	-1.5586287
178	0x3d816fd7	0.0632016
179	0xbf89d381	-1.0767671
180	0xbf375a83	-0.71622485
181	0xbff0c027	-1.880864
182	0xbeffb9ce	-0.49946445
183	0xbfaf9b02	-1.371918
184	0xbebc4458	-0.36770892
185	0x3e14b0a1	0.14520504
186	0x3f527930	0.8221617
187	0x3e8cc74b	0.27495798
188	0x3e82b5ca	0.2552932
189	0x3ecf6c5d	0.40512362
190	0x3f2defba	0.6794392
191	0xbfcbbff0	-1.591795
192	0x3f829c62	1.0203974
193	0xbfda8270	-1.7071056
194	0x3ef94705	0.48686996
195	0xbdc98672	-0.098400965
196	0xbe09652c	-0.134175
197	0x3ddb9269	0.10721285
198	0xbe86a198	-0.2629516
199	0x3e1fac4f	0.15593074
200	0xbf6cfa2f	-0.9256925
201	0x3f5714c6	0.8401607
202	0xbf90aefd	-1.1303402
203	0xbe8bed99	-0.2732971
204	0xbea7e186	-0.32789248
205	0x3faf966b	1.3717779
206	0x3e6de235	0.23230822
207	0xbeb2e78c	-0.3494228
208	0x3e760166	0.24023971
209	0xbf37e8e2	-0.71839726
210	0xbd0fe6c2	-0.035132177
211	0xbea7a1b7	-0.32740566
212	0x3f909b57	1.1297406
213	0x3f84f116	1.0386074
214	0xbfc6e3ac	-1.553823
215	0x3e044ded	0.12920351
216	0x3f4cfaea	0.80070364
217	0xbfa26790	-1.2687855
218	0x3f67199c	0.9027345
219	0xbf2ad6c1	-0.6673394
220	0x3f06caad	0.5265301
221	0xbe6eb092	-0.23309544
222	0x3f79c748	0.97569704
223	0x396f71d3	0.00022835219
224	0xbfa4b17e	-1.2866666
225	0xbe8b1af2	-0.27168995
226	0x3fbd48fa	1.4787896
227	0xbfa4de70	-1.2880383
228	0xbeae1c01	-0.3400574
229	0xbfa8916e	-1.3169382
230	0xbfbe4d59	-1.4867355
231	0x3eeef721	0.4667292
232	0xbe82fc51	-0.25583127
233	0xbfab8c11	-1.340212
234	0xbf95865b	-1.1681627
235	0xbfa3ae33	-1.2787536
236	0xbe2cc05d	-0.16870256
237	0xbf5443b5	-0.8291581
238	0xbe107153	-0.1410573
239	0xbfc73a28	-1.5564623
240	0xbd7b9e9f	-0.06143057
241	0x3f8ec5ac	1.1154075
242	0xbfa84ce9	-1.3148471
243	0xbf9b827b	-1.2149194
244	0x3e8542fc	0.26027668
245	0xbd2c8024	-0.042114392
246	0xbd324c9a	-0.043530084
247	0xbf78fbca	-0.972592
248	0xbeed5b2a	-0.46358615
249	0xbfc2b11f	-1.5210303
250	0xbfa2a625	-1.2706953
251	0xbf11b3db	-0.5691506
252	0xbe98c16e	-0.29835075
253	0xbf1b99b5	-0.60781413
254	0x3c818ab2	0.015813205
255	0x3fa59ada	1.2937882

lstm.weight_hh_l0 f4 [400, 100]
0	0xbf0829be	-0.53188694
1	0xbf04f434	-0.51935124
2	0xbdaa496c	-0.08314785
3	0xbf704416	-0.9385389
4	0xbea553f8	-0.32290626
5	0x3f54b2e3	0.8308546
6	0xbf6bf84c	-0.92175746
7	0x3e9d017e	0.306652
8	0xbf463200	-0.77420044
9	0xbf84a2ed	-1.0362221
10	0xbdeca31c	-0.11554548
11	0xbeaef966	-0.3417465
12	0xbd877235	-0.0661358
13	0xbf3d12d5	-0.7385686
14	0x3e6565e8	0.22402155
15	0x3dcdba5b	0.1004531
16	0xbef3aad6	-0.47591275
17	0xbfa71b3d	-1.3055187
18	0xbee035a7	-0.43790933
19	0x3e20c7e6	0.15701255
20	0xbecd0d60	-0.40049267
21	0x3dfed6e9	0.124433346
22	0x3f37c316	0.7178205
23	0xbd984364	-0.07434729
24	0xbe6cfc6d	-0.23143168
25	0xbeaedd70	-0.34153318
26	0x3f2dce04	0.6789248
27	0xbf2dfeeb	-0.679671
28	0x3e13159b	0.1436371
29	0xbebde796	-0.3709075
30	0xbdb8bff2	-0.09020986
31	0xbe33a1bf	-0.1754217
32	0xbf41187d	-0.7542799
33	0xbe5cda9d	-0.2156777
34	0x3ed23274	0.41054118
35	0x3efb39da	0.49067575
36	0x3ef025bf	0.46903798
37	0xbf05db6f	-0.52287954
38	0xbf226486	-0.63434637
39	0xbee363bb	-0.44412026
40	0xbeb00371	-0.34377626
41	0x3f41053c	0.7539861
42	0xbf2e426c	-0.680701
43	0x3e79fb48	0.24412262
44	0xbee73bce	-0.45162815
45	0xbe014e2f	-0.12627481
46	0xbf053139	-0.5202823
47	0x3ec669b3	0.38752517
48	0xbef9f368	-0.48818517
49	0xbf17e8b1	-0.59339434
50	0x3e7c7a9a	0.24656144
51	0xbe45c61b	-0.19313852
52	0xbe8aca09	-0.27107266
53	0xbf669255	-0.90067035
54	0xbea434c4	-0.32071507
55	0x3f213f91	0.6298762
56	0x3f20cfce	0.62817085
57	0xbf83ad8b	-1.0287336
58	0xbecb0d12	-0.3965841
59	0xbeea692c	-0.45783365
60	0xbfa0d050	-1.2563572
61	0xbf4b34b6	-0.79377306
62	0xbe1b98c2	-0.15194991
63	0xbe3c0c7b	-0.18364136
64	0xbe600f93	-0.21880941
65	0xbe0031f7	-0.1251906
66	0xbfad3174	-1.3530717
67	0xbd8c694e	-0.06856023
68	0xbdf98b30	-0.12184751
69	0xbe94fe8d	-0.29100457
70	0xbf013d38	-0.5048404
71	0x3d970832	0.0737461
72	0x3f000af6	0.50016725
73	0x3d966066	0.07342605
74	0x3e1b7777	0.15182291
75	0xbf02e1f4	-0.5112603
76	0xbf2a5d40	-0.6654854
77	0xbd84cef3	-0.06484785
78	0x3e47a519	0.19496574
79	0xbf3d244a	-0.738835
80	0xbe4950f5	-0.19659789
81	0xbe32630e	-0.17420599
82	0xbeab5617	-0.3346412
83	0xbee43c88	-0.44577432
84	0xbe08627d	-0.1331882
85	0xbef084fa	-0.46976453
86	0x3f3ab692	0.7293483
87	0x3d6f9029	0.05848709
88	0x3ea85722	0.32878977
89	0xbf2b1ab8	-0.66837645
90	0x3f558bc5	0.83416396
91	0xbf15f177	-0.5857157
92	0xbf61e9bf	-0.88247293
93	0x3e968a5c	0.29402435
94	0x3e0a687e	0.13516423
95	0x3e283114	0.16424972
96	0x40153ad1	2.3317149
97	0xbf1232c0	-0.5710869
98	0x3f0535f3	0.52035445
99	0x3ea86e12	0.32896477
100	0xbf4bfd16	-0.79683053
101	0xbf01ec31	-0.50751024
102	0x3dc2bd68	0.095087826
103	0xbf703a45	-0.9383891
104	0xbf7b7e24	-0.9823935
105	0xbe925804	-0.28582776
106	0xbee2aeb2	-0.44273907
107	0xbd2f7c66	-0.042843245
108	0xbeaa5b65	-0.33272853
109	0xbfdedf64	-1.7411923
110	0xbe4b100c	-0.1983034
111	0xbefa88cd	-0.48932496
112	0xbf07086b	-0.5274722
113	0xbf0f7c46	-0.56049
114	0x3c9e4e4b	0.019324442
115	0xbe243607	-0.16036235
116	0xbf2982a5	-0.6621497
117	0xbf762a74	-0.9615853
118	0xbf2a806f	-0.66602224
119	0xbf476dbf	-0.77901834
120	0xbf9699d9	-1.17657
121	0xbdf8b966	-0.12144737
122	0x3d97818c	0.07397756
123	0x3de7559c	0.112956256
124	0x3f0fd3bb	0.5618245
125	0x3e5b5862	0.21420434
126	0x3f9a8a06	1.2073371
127	0xbe6ae6c5	-0.22939594
128	0xbec43ba1	-0.38326743
129	0xbf2e0566	-0.6797699
130	0xbcc60510	-0.024172336
131	0xbe2f8a65	-0.17142637
132	0xbe74db2d	-0.23911734
133	0xbfc0cfd1	-1.506342
134	0x3f534d98	0.82540274
135	0x3efb07bd	0.4902934
136	0x3de61ba8	0.11235744
137	0xbfbf522f	-1.4946955
138	0xbf0a2334	-0.53959966
139	0xbf02005e	-0.5078181
140	0xbf3a63a3	-0.72808284
141	0x3e2f3974	0.1711176
142	0xbee1c6f9	-0.44097117
143	0x3f31b82a	0.6942164
144	0x3f1a8f0a	0.6037451
145	0xbe89bf1f	-0.26903626
146	0xbf1f1bc9	-0.6215177
147	0x3f64a9b8	0.8932147
148	0xbf804cf4	-1.0023484
149	0xbd942091	-0.07232774
150	0x3e8ea26d	0.27858296
151	0x3f2ea843	0.68225497
152	0xbec137d2	-0.377379
153	0xbf3349ed	-0.70034677
154	0xbec1d444	-0.37857258
155	0xbea8eabf	-0.32991597
156	0xbe3013bd	-0.1719503
157	0x3f0cf27b	0.55057496
158	0xbf525017	-0.8215346
159	0x3e261168	0.16217577
160	0xc0087e63	-2.132714
161	0xbf221281	-0.63309485
162	0xbdcdaf38	-0.10043186
163	0xbe32eb00	-0.17472458
164	0xbf23e128	-0.64015436
165	0xbe860178	-0.26172996
166	0xbdcde461	-0.100533254
167	0xbe10da24	-0.14145714
168	0xbe55070a	-0.20803466
169	0xbeefd70b	-0.46843752
170	0xbf4f33d8	-0.8093848
171	0x3e1f21bd	0.15540214
172	0x3eef098e	0.46686977
173	0x3f51166e	0.8167485
174	0x3f1776b3	0.59165496
175	0xbf272780	-0.6529465
176	0xbf81e47b	-1.0147852
177	0xbf624fcf	-0.8840303
178	0xbe0f67c9	-0.14004435
179	0xbfb92bdf	-1.4466513
180	0xbe4196b0	-0.18905139
181	0xbf6f74a2	-0.9353734
182	0x3f3b442a	0.73150885
183	0x3d5b4f79	0.053542588
184	0xbe8086ef	-0.25102946
185	0xbf28542b	-0.6575343
186	0x3f4c15d6	0.7972082
187	0xbf9d2969	-1.2278262
188	0xbd43a265	-0.047762293
189	0x3d93fdb8	0.072261274
190	0x3e7b21ff	0.24524687
191	0xbf16b0d0	-0.58863544
192	0xbd114a27	-0.035471108
193	0xbf8311ce	-1.0239809
194	0xbe2f1c3d	-0.17100616
195	0x3e1f7c2f	0.15574716
196	0x3f77ef4f	0.9684953
197	0xbe328578	-0.17433727
198	0x3eb4809c	0.3525437
199	0x3edb3140	0.42811012
200	0x3eedbce5	0.46433178
201	0xbee1377f	-0.43987653
202	0xbdd5722a	-0.10422166
203	0xbf326d34	-0.6969788
204	0x3e0efc34	0.13963395
205	0x3d88d28d	0.066807844
206	0xbe26a8d3	-0.16275339
207	0x3f0a3636	0.5398897
208	0xbf19a181	-0.6001206
209	0xbefac597	-0.48978874
210	0xbd11146d	-0.03541987
211	0xbd2ba3be	-0.041904204
212	0xbe900031	-0.28125146
213	0xbe910728	-0.28325772
214	0x3de8d6eb	0.11369117
215	0x3d37b112	0.0448466
216	0xbee1fec7	-0.44139692
217	0xbf391fd0	-0.7231417
218	0xbf189dd7	-0.59615844
219	0x3da9ab37	0.0828461
220	0x3de5556e	0.11197935
221	0x3e4451b8	0.19171798
222	0x3f0fe4ab	0.56208295
223	0x3e1a15cf	0.15047382
224	0xbf05009d	-0.5195406
225	0x3edcc3ef	0.43118235
226	0xbd077346	-0.033068918
227	0xbe8defbe	-0.2772197
228	0x3e6719c3	0.22568421
229	0xbb61d53e	-0.0034459378
230	0xbea65fd2	-0.3249498
231	0xbcd7f2dc	-0.026360922
232	0x3e7804e3	0.24220614
233	0xbda5e1c1	-0.080997
234	0x3c797b21	0.01522711
235	0xbdd0a936	-0.101885244
236	0x3f6f83e9	0.93560654
237	0xbe75187d	-0.23935123
238	0xbdc136e9	-0.094343014
239	0xbdd69166	-0.10476951
240	0xbf314d45	-0.6925853
241	0x3f2699af	0.6507825
242	0xbf7c3933	-0.9852478
243	0xbd9c9cbc	-0.07647082
244	0x3c2b062c	0.010438483
245	0xbda641c3	-0.08118012
246	0x3ae5edc8	0.0017542178
247	0xbd67a451	-0.05655319
248	0xbe95bbf1	-0.2924495
249	0xbc857b7f	-0.01629424
250	0x3e9c97cf	0.3058457
251	0xbdb692d3	-0.08914723
252	0x3db4cadb	0.08827754
253	0xbed0e033	-0.4079605
254	0xbebafea1	-0.3652239
255	0x3ebd0dc9	0.3692458

lstm.bias_ih_l0 f4 [400]
0	0xbf3b527e	-0.7317275
1	0xbf2586d5	-0.6465886
2	0xbef64c76	-0.4810521
3	0xbe86cc15	-0.26327577
4	0xbfdd0c7a	-1.7269433
5	0xbf27b356	-0.6550802
6	0xbf6c1a34	-0.9222748
7	0xbf946db5	-1.159598
8	0xbf8014f6	-1.0006397
9	0xbf75bd2f	-0.95991796
10	0xc037f525	-2.8743374
11	0xc006f3b0	-2.1086235
12	0xbe398a7a	-0.18119231
13	0xbf431027	-0.7619652
14	0x3ea690fb	0.32532486
15	0xc02a75c7	-2.6634386
16	0xbf284155	-0.6572469
17	0xbdb502cd	-0.08838425
18	0xbf85f1f6	-1.0464466
19	0xbf2d303a	-0.6765171
20	0xbf760252	-0.9609729
21	0xc0285821	-2.630379
22	0xbf8f9cc7	-1.121972
23	0xc03b5000	-2.9267578
24	0xbd8c8f79	-0.06863303
25	0xbf9b1b2b	-1.2117666
26	0xbb471b16	-0.0030381135
27	0x3d5656ec	0.05232899
28	0xbf1b232b	-0.6060054
29	0xbec31fd0	-0.3811021
30	0x3e71771a	0.2358059
31	0xc01903cb	-2.3908565
32	0xbf68cc85	-0.9093707
33	0xbe30c126	-0.1726118
34	0xbe8ca145	-0.2746679
35	0xbc1c61c8	-0.009544797
36	0xbfad7716	-1.3551967
37	0xbf12801e	-0.5722674
38	0xbf13ed80	-0.5778427
39	0x3eb941a8	0.36182904
40	0xbfd6c09d	-1.6777531
41	0xbb571981	-0.0032821598
42	0xbe90ec2e	-0.2830519
43	0xbf36ec7e	-0.7145461
44	0xbf00b9ed	-0.502837
45	0xc016bf88	-2.3554401
46	0xc003f3bf	-2.061752
47	0xbf50b8ce	-0.8153199
48	0xbfd95ccf	-1.6981448
49	0xbc1bbcd9	-0.009505474
50	0xbde92d85	-0.11385635
51	0xbf7d6772	-0.9898597
52	0xc02282bd	-2.5392296
53	0xbf752973	-0.9576637
54	0xc020b5d0	-2.511097
55	0xbef574ed	-0.4794077
56	0xbdc3ff45	-0.09570173
57	0xbe711222	-0.23542073
58	0xbed6bf56	-0.41942853
59	0xbf0f413a	-0.559589
60	0x3d951ed7	0.07281273
61	0xbfa41827	-1.2819871
62	0xc0107716	-2.2572684
63	0xc02c5ee3	-2.6932914
64	0xc00ce7e9	-2.2016547
65	0xbe162296	-0.14661631
66	0xbd8347c7	-0.06410175
67	0xbeeb4040	-0.45947456
68	0xbd847caa	-0.0646909
69	0xbfafb394	-1.3726678
70	0xbf7ffddc	-0.99996734
71	0xbeb2992d	-0.3488249
72	0x3e9b5122	0.30335337
73	0xbf8db013	-1.1069359
74	0xbf9c8d67	-1.2230653
75	0xc017b5a5	-2.3704617
76	0xbf460ea0	-0.77366066
77	0xbef56e51	-0.47935727
78	0xbfa5ca89	-1.2952434
79	0xbe9091bd	-0.2823619
80	0xc036c8d0	-2.8560066
81	0xbf4aaba5	-0.7916816
82	0xbf8912c5	-1.0708853
83	0xbec1d675	-0.3785893
84	0xc031062f	-2.7660024
85	0xbfc28cbd	-1.51992
86	0x3e8b4b1f	0.2720575
87	0xbe9fe770	-0.3123126
88	0xbf40331e	-0.75078
89	0xbda2c9dd	-0.079486586
90	0xbe8354ce	-0.25650638
91	0xbdf7f2c4	-0.12106851
92	0xbec66ffe	-0.38757318
93	0xbf4ecc54	-0.8078053
94	0x3d3408bd	0.043953646
95	0xbf7856f6	-0.9700769
96	0xbda61010	-0.081085324
97	0xbf7f745e	-0.9978694
98	0xbfe7004d	-1.8046967
99	0xbed124b3	-0.40848312
100	0xbf8f6efe	-1.1205747
101	0xbf73183d	-0.9495886
102	0xbf857932	-1.0427611
103	0xbf71a127	-0.94386524
104	0xbf2c52d6	-0.673139
105	0xbf15ac51	-0.5846606
106	0xc01eab70	-2.4792137
107	0xbfbec98d	-1.4905258
108	0xbf565e05	-0.8373721
109	0xbefd9864	-0.49530327
110	0xbf8bb506	-1.0914619
111	0xbf73ca98	-0.9523101
112	0xbf7d8e03	-0.9904482
113	0xbf7dbc8e	-0.99115837
114	0xbe5d71fb	-0.21625511
115	0xbf6db42f	-0.92853063
116	0xbf581a38	-0.84415007
117	0xbf232b4c	-0.6373794
118	0xbf7cf050	-0.9880419
119	0xbeb8e52d	-0.36112347
120	0xbf7bbacb	-0.983319
121	0xbf951bd4	-1.1649117
122	0xbf0869a9	-0.53286225
123	0xbf97801f	-1.1835974
124	0xbf09bef2	-0.53806984
125	0xbe8f3018	-0.2796638
126	0xbebf9449	-0.3741782
127	0xbf192800	-0.5982666
128	0xbfa0a87d	-1.2551419
129	0xbf8f5a7d	-1.119949
130	0xbef47478	-0.4774511
131	0xbf6abf82	-0.9169847
132	0xbf7430d7	-0.95387024
133	0xbf73c849	-0.95227486
134	0xbf50e6ea	-0.81602347
135	0xbf4e9033	-0.8068878
136	0xbf911a7b	-1.1336206
137	0xbe79db61	-0.24400093
138	0xbf2ad830	-0.66736126
139	0xbe7d1f74	-0.2471903
140	0xbf1dc5e4	-0.6163008
141	0xbe884f61	-0.2662306
142	0x3deb9242	0.11502506
143	0xbfc02334	-1.5010743
144	0xbf3c02c1	-0.734417
145	0xbfa46200	-1.2842407
146	0xbf00054f	-0.500081
147	0xbfaa249d	-1.3292423
148	0xbf0bb387	-0.5457081
149	0xbf3b09f0	-0.7306204
150	0xbef6c71d	-0.48198786
151	0xbf5fbad9	-0.8739448
152	0xbfa1637b	-1.2608484
153	0xbf7639a4	-0.961817
154	0xbfbe858d	-1.4884506
155	0xbe41ba25	-0.18918665
156	0xbf765bc6	-0.96233785
157	0xbe66ba8c	-0.225321
158	0xbf8bdf8e	-1.0927598
159	0xbe8acdfa	-0.27110273
160	0xbf3c1d2a	-0.73482
161	0xbff334d4	-1.9000497
162	0xbfa895b1	-1.3170682
163	0xbfa342ca	-1.2754757
164	0xbf6634ba	-0.89924204
165	0xbfa13c78	-1.2596579
166	0xbd4d312a	-0.050095715
167	0xbef9c6e7	-0.48784563
168	0xbe626c70	-0.22111678
169	0xbf7cef0d	-0.9880226
170	0xbf00169f	-0.5003452
171	0xbf7833b0	-0.9695387
172	0xbec91e3f	-0.39280888
173	0xbee7f4bf	-0.45303914
174	0xbf8cd308	-1.1001902
175	0xbfa92615	-1.3214747
176	0xbf341a5d	-0.7035273
177	0xbf00a1db	-0.5024697
178	0xbf3ebd75	-0.7450784
179	0xbfb308e6	-1.398709
180	0xbf78b2b7	-0.971477
181	0xbf2e83cb	-0.6816985
182	0xbeb989d4	-0.36237967
183	0xbf13db0a	-0.577561
184	0xbf7f6f88	-0.9977956
185	0xbf348741	-0.7051888
186	0xbed49b03	-0.41524515
187	0xbf1f12ec	-0.6213825
188	0xbf1b6cc5	-0.60712844
189	0xbf00918f	-0.50222105
190	0xbec508ad	-0.38483182
191	0xbf9a34d5	-1.2047373
192	0xbe043982	-0.12912562
193	0xbf18ff6e	-0.59764755
194	0xbef94fa3	-0.4869357
195	0xbf9fe394	-1.2491326
196	0xbf799423	-0.97491664
197	0xbf30f6cc	-0.6912658
198	0xbf6234f1	-0.8836203
199	0xbf5401b8	-0.8281512
200	0x3e7ddca0	0.24791193
201	0xbe87ce8d	-0.26524773
202	0x3e69d72e	0.22835991
203	0xbd5cff77	-0.053954568
204	0x3dec4cb1	0.11538065
205	0xbe93f39c	-0.28896797
206	0xbe5d4ad1	-0.21610571
207	0x3d7c91ea	0.061662592
208	0xbe883cd7	-0.26608917
209	0xbdc6ab62	-0.097006574
210	0xbc45c871	-0.012071715
211	0x3e0f9c49	0.14024462
212	0xbe2ad116	-0.16681322
213	0xbe39cf9e	-0.18145606
214	0x3ea68e5d	0.3253049
215	0xbc4644c6	-0.012101358
216	0xbe29717d	-0.16547199
217	0x3ea78e76	0.32725877
218	0xbe78e3f8	-0.24305713
219	0x3e649a78	0.2232455
220	0xbe16ad85	-0.1471463
221	0x3d6a6f11	0.057234827
222	0xbead1465	-0.33804622
223	0xbd6fa6aa	-0.058508553
224	0x3e86ce63	0.26329336
225	0x3e09b4f7	0.13447939
226	0xbea1e621	-0.31620887
227	0x3e838222	0.2568522
228	0xbde07538	-0.10959858
229	0x3e6bf583	0.23042874
230	0x3eb13530	0.3461089
231	0xbe1b8b73	-0.15189914
232	0x3d2c3893	0.04204614
233	0x3cae6c1f	0.02129179
234	0x3e717590	0.23580003
235	0x3e7bf707	0.24605952
236	0x3e636c07	0.22209178
237	0xbdeecab7	-0.116597585
238	0xbd49b23a	-0.049242236
239	0x3ed9d3e8	0.42544484
240	0xbd2a7904	-0.041619316
241	0xbed5a030	-0.41723776
242	0x3f0c9f57	0.54930633
243	0x3e8d3e30	0.27586508
244	0x3daa0ac3	0.08302834
245	0x3d47f2d1	0.048815552
246	0xbe453de5	-0.19261892
247	0x3e1d34e6	0.1535221
248	0x3e049b98	0.1294998
249	0x3eab034e	0.3340096
250	0x3e8a9a97	0.27071068
251	0x3e4a0045	0.19726665
252	0x3c01e06a	0.00792704
253	0x3e079893	0.13241796
254	0xbd0df2d7	-0.03465542
255	0xbea0942c	-0.31363046

lstm.bias_hh_l0 f4 [400]
0	0xbf55e31c	-0.83549666
1	0xbf0a11e6	-0.5393356
2	0xbed14038	-0.40869308
3	0xbed19c71	-0.40939668
4	0xbfd41fa2	-1.6572154
5	0xbf1fd251	-0.6243029
6	0xbf84168a	-1.0319378
7	0xbf9d4911	-1.2287923
8	0xbf762cb7	-0.9616198
9	0xbf7b9cd7	-0.98286194
10	0xc0392fb4	-2.8935366
11	0xc00ec0fa	-2.2305284
12	0xbe922e6c	-0.28551042
13	0xbf645e91	-0.89206797
14	0x3e951165	0.29114833
15	0xc033db1e	-2.8102489
16	0xbf28c5db	-0.65926903
17	0xbdff1ee3	-0.12457063
18	0xbf930427	-1.1485642
19	0xbf081249	-0.531529
20	0xbf819e52	-1.012644
21	0xc02f9293	-2.7433212
22	0xbf987a11	-1.1912252
23	0xc03ddd83	-2.966645
24	0xbda7ef06	-0.08199887
25	0xbf97f964	-1.1872983
26	0x3d973113	0.07382407
27	0x3e01590d	0.12631626
28	0xbf238a85	-0.6388324
29	0xbed4f8ae	-0.41595978
30	0x3e872ff3	0.2640377
31	0xc01a7b0d	-2.4137604
32	0xbf4afcbb	-0.79291886
33	0xbe21e4e3	-0.1580997
34	0xbe5ce7df	-0.21572827
35	0x3cd5f08d	0.02611568
36	0xbfae3913	-1.3611168
37	0xbf25c2a2	-0.6475011
38	0xbf02899d	-0.5099123
39	0x3ecb5eed	0.3972086
40	0xbfc31caa	-1.5243123
41	0xbde1039f	-0.10987019
42	0xbea7d1c8	-0.32777238
43	0xbf3855fe	-0.72006214
44	0xbf0cd500	-0.5501251
45	0xc018d1a2	-2.387795
46	0xc003348f	-2.050083
47	0xbf305f9f	-0.68895906
48	0xbfd65ddd	-1.6747395
49	0x3ddb019a	0.10693665
50	0xbe29a731	-0.16567685
51	0xbf685567	-0.90755314
52	0xc01f9f5d	-2.4941018
53	0xbf7a9491	-0.97882944
54	0xc01f8c8c	-2.4929533
55	0xbeb957a0	-0.36199665
56	0xbe1498a7	-0.14511357
57	0xbeba19fe	-0.36347955
58	0xbefe2114	-0.49634612
59	0xbf1d08c2	-0.6134149
60	0x3d6cdda0	0.057828546
61	0xbfb915e6	-1.4459808
62	0xc014f986	-2.3277297
63	0xc0344e79	-2.8172896
64	0xc00b8e50	-2.180561
65	0xbe39bb3c	-0.1813783
66	0xbc146fcf	-0.00905986
67	0xbee28b0a	-0.44246703
68	0xbe3bfc74	-0.18358022
69	0xbfabd77e	-1.3425138
70	0xbf763540	-0.96175003
71	0xbebaf57a	-0.3651541
72	0x3e9cb293	0.3060499
73	0xbf8c224e	-1.0947969
74	0xbfac6215	-1.3467432
75	0xc0125813	-2.2866256
76	0xbf2adbcc	-0.66741633
77	0xbe98d704	-0.29851544
78	0xbfa83bb6	-1.3143222
79	0xbea97258	-0.3309505
80	0xc03b1385	-2.9230664
81	0xbf474faf	-0.7785596
82	0xbf8d7fcb	-1.1054624
83	0xbed4c849	-0.41559055
84	0xc0333775	-2.8002598
85	0xbfc26fc0	-1.5190353
86	0x3e486796	0.19570765
87	0xbedb76f2	-0.42864186
88	0xbf390c9c	-0.72284865
89	0xbcc3be59	-0.023894476
90	0xbe81356c	-0.2523607
91	0xbdce172a	-0.10063012
92	0xbee38368	-0.44436193
93	0xbf497265	-0.7869018
94	0xbc31b1cf	-0.0108456155
95	0xbf6dddb5	-0.92916423
96	0xbe42cefb	-0.1902427
97	0xbf700b76	-0.9376749
98	0xbfd3bc49	-1.6541835
99	0xbeaab1e5	-0.33338848
100	0xbf90b91a	-1.1306489
101	0xbf7f6a4d	-0.9977158
102	0xbf88bc87	-1.0682534
103	0xbf8a2cb6	-1.0794895
104	0xbf4c1568	-0.79720163
105	0xbf114790	-0.5674982
106	0xc0202552	-2.5022779
107	0xbfc341e9	-1.5254489
108	0xbf52ea0b	-0.8238837
109	0xbee5214f	-0.44751975
110	0xbf801f7b	-1.0009607
111	0xbf8ebfe3	-1.1152309
112	0xbf6a002f	-0.9140653
113	0xbf836a65	-1.0266844
114	0xbecbc13d	-0.39795867
115	0xbf7ea379	-0.9946819
116	0xbf62f9ee	-0.8866261
117	0xbf0e7d54	-0.55659986
118	0xbf78d7c3	-0.97204226
119	0xbe6f2b88	-0.2335645
120	0xbf7f693d	-0.99769956
121	0xbf9ca513	-1.2237877
122	0xbf04da3e	-0.5189551
123	0xbf966378	-1.1749105
124	0xbf09cae4	-0.5382521
125	0xbeb9ebcd	-0.36312714
126	0xbeeef8df	-0.4667425
127	0xbefc59ec	-0.49287355
128	0xbf8f0d9c	-1.1176028
129	0xbfa11f9f	-1.2587775
130	0xbf05c1ef	-0.52249044
131	0xbf72b798	-0.9481139
132	0xbf855b9e	-1.0418584
133	0xbf7009d4	-0.93764997
134	0xbf4706fa	-0.7774502
135	0xbf5a2dcb	-0.85226125
136	0xbf965717	-1.1745328
137	0xbe17b916	-0.14816698
138	0xbf431102	-0.76197827
139	0xbe8077b9	-0.2509134
140	0xbf26b34b	-0.6511733
141	0xbe841faf	-0.25805423
142	0x3d1e63c1	0.03866935
143	0xbfa775fd	-1.3082882
144	0xbf394ea6	-0.72385633
145	0xbfa97c81	-1.324112
146	0xbf07cbd0	-0.5304537
147	0xbfaf4035	-1.369147
148	0xbf2af5b7	-0.6678118
149	0xbf4f28b9	-0.8092151
150	0xbee68ae3	-0.45027837
151	0xbf5419ba	-0.82851756
152	0xbfa2d362	-1.2720759
153	0xbf6f2e9f	-0.93430513
154	0xbfb436bd	-1.4079205
155	0xbe39e465	-0.18153532
156	0xbf607399	-0.8767639
157	0xbe17ab70	-0.14811492
158	0xbf97d673	-1.186232
159	0xbe4f117d	-0.20221515
160	0xbf11c04d	-0.5693405
161	0xbff335ed	-1.9000832
162	0xbf9f5a57	-1.2449445
163	0xbf9242e8	-1.1426668
164	0xbf457f1f	-0.77147096
165	0xbfab0f63	-1.3364071
166	0xbd0cc789	-0.03436998
167	0xbeb5ad64	-0.3548385
168	0xbec988e3	-0.3936225
169	0xbf83a59f	-1.0284919
170	0xbf0eafc4	-0.5573695
171	0xbf8b6949	-1.0891505
172	0xbecdc252	-0.40187317
173	0xbee47152	-0.44617707
174	0xbf90510e	-1.1274736
175	0xbfb6b7f9	-1.4274894
176	0xbf1b587d	-0.606819
177	0xbf0cd66f	-0.550147
178	0xbf24033a	-0.64067423
179	0xbfb709d7	-1.4299878
180	0xbf6b1d6d	-0.91841775
181	0xbf2a9312	-0.6663066
182	0xbeb39ddd	-0.35081378
183	0xbefb83c5	-0.4912397
184	0xbf82a6bb	-1.0207132
185	0xbf04765a	-0.5174309
186	0xbec036fd	-0.37541953
187	0xbeec0d65	-0.4610397
188	0xbf0d7bc0	-0.5526695
189	0xbf030bc4	-0.5118983
190	0xbed78d4b	-0.42099985
191	0xbf9676b1	-1.1754972
192	0xbe0c4163	-0.13696818
193	0xbefda6df	-0.49541375
194	0xbee5a551	-0.4485269
195	0xbfa72397	-1.3057736
196	0xbf85b015	-1.0444361
197	0xbf183cda	-0.5946785
198	0xbf51f692	-0.8201686
199	0xbf428fd5	-0.7600072
200	0x3e853219	0.26014784
201	0xbe5cd6c5	-0.21566303
202	0x3dd99b8b	0.106253706
203	0xbd806fc7	-0.0627132
204	0x3d48e730	0.049048603
205	0xbe7dc383	-0.24781613
206	0xbe41b22b	-0.18915622
207	0x3e3fa63a	0.18715754
208	0xbe894ae3	-0.26814947
209	0x3aaed5d9	0.0013338878
210	0x3cc7aafd	0.024373526
211	0x3dd2adf9	0.10287089
212	0xbe9eedcd	-0.31040803
213	0xbe312dd1	-0.17302634
214	0x3eb89f8c	0.36059225
215	0xbda8c974	-0.08241549
216	0xbe70a807	-0.23501597
217	0x3e22412a	0.1584517
218	0xbe272ade	-0.16324946
219	0x3d75ffa2	0.060058244
220	0xbe2d9e1f	-0.1695485
221	0x3dc78c4c	0.097435564
222	0xbe82cea7	-0.25548288
223	0x3d3b3ae3	0.045710456
224	0x3e070eed	0.13189287
225	0x3e1d0399	0.15333404
226	0xbed0735b	-0.4071301
227	0x3e97380f	0.29534957
228	0xbe0e2f60	-0.1388526
229	0x3eabdb39	0.3356569
230	0x3e948e04	0.290146
231	0xbdca58e9	-0.098802395
232	0x3d944ddf	0.07241415
233	0xbe04d6da	-0.12972584
234	0x3e8e0730	0.2773986
235	0x3eae9fb1	0.3410621
236	0x3d568005	0.052368183
237	0x3d732963	0.05936564
238	0xbd2cbc53	-0.042171787
239	0x3ea12170	0.31470823
240	0xbd8be372	-0.06830491
241	0xbe91f4cb	-0.28507075
242	0x3eff4717	0.49858925
243	0x3e32b14c	0.17450446
244	0xbb1ed366	-0.002423489
245	0xbb1aa69f	-0.002359785
246	0xbe392f94	-0.18084556
247	0x3e16d6a5	0.14730318
248	0x3e2087d2	0.15676811
249	0x3eb3ef7e	0.35143656
250	0x3eaa65a9	0.33280686
251	0x3e2069e4	0.15665394
252	0x3e2c0090	0.1679709
253	0x3e85082b	0.25982794
254	0xb9e0c868	-0.00042873924
255	0xbece5464	-0.4029876

linear.weight f4 [1, 100]
0	0xbe54fa2a	-0.20798555
1	0x3d47204e	0.048614793
2	0xbec8ea61	-0.39241317
3	0x3e36a370	0.17835784
4	0x3b22b811	0.002482895
5	0x3e0e7abd	0.13914008
6	0x3b627b49	0.0034558347
7	0xbd502634	-0.050817683
8	0xbc8ff042	-0.017570619
9	0xbe4e6985	-0.2015744
10	0xbc20ddf6	-0.009818545
11	0xbb0420ef	-0.0020161232
12	0x3db61fea	0.08892806
13	0x3dd06f4c	0.10177478
14	0xbe5e8a31	-0.21732403
15	0x3aac9cbf	0.0013169273
16	0x3d6b5bbf	0.057460543
17	0xbdaaeebc	-0.08346316
18	0x3ac5750a	0.0015064788
19	0xbdd45515	-0.103677906
20	0x3c6118af	0.013738795
21	0xbc17426c	-0.009232145
22	0x3bede36f	0.007259778
23	0x3c98d23d	0.018654937
24	0xbe4fb420	-0.20283556
25	0x3e39c8a0	0.18142939
26	0x3ead781f	0.33880708
27	0xbd8aebc3	-0.06783249
28	0xbd9ddb89	-0.07707889
29	0xbe8f95b7	-0.2804391
30	0xbe15b57c	-0.14620012
31	0xbbe61511	-0.0070215543
32	0x3e051a35	0.12998278
33	0xbeffa9eb	-0.49934325
34	0xbdee8c7d	-0.1164789
35	0xbd3ef89f	-0.046623822
36	0xbded586e	-0.11589132
37	0xbe039a28	-0.12851775
38	0x3c72e26d	0.014824492
39	0xbe468139	-0.19385232
40	0xbc0cb909	-0.008589038
41	0x3e342fb5	0.17596324
42	0xbed3b767	-0.41350862
43	0xbd8d91fe	-0.069126114
44	0xbcf8f249	-0.030388968
45	0x3cbb5543	0.022867804
46	0xbce7eb4b	-0.028310439
47	0xbd069b38	-0.032862872
48	0xbabc5d72	-0.0014371111
49	0xbe02552c	-0.12727803
50	0xbde68e67	-0.1125763
51	0x3b84d642	0.004053862
52	0xbc9b5886	-0.01896311
53	0xbcd4e407	-0.025987638
54	0xba494592	-0.0007677908
55	0x3e529245	0.2056361
56	0x3a8b8e92	0.0010647348
57	0xbecd1cf2	-0.40061146
58	0x3e61de88	0.22057545
59	0xbeb58b7c	-0.3545798
60	0xbdc15218	-0.09439486
61	0xbd3b1576	-0.045674764
62	0xbaa94068	-0.0012912871
63	0xbcf39711	-0.02973512
64	0xbb984c75	-0.0046477863
65	0xbeb32bc6	-0.34994334
66	0xbe25dbdf	-0.16197155
67	0xbe698e88	-0.22808278
68	0xbe1c72f0	-0.1527822
69	0xbcb8d587	-0.022562755
70	0xbcbbf086	-0.022941839
71	0x3f009103	0.5022127
72	0x3e38613d	0.18005843
73	0xbc3eafb8	-0.011638574
74	0xbb48d6b8	-0.003064556
75	0xbd07ebb7	-0.03318378
76	0xbd4e7f0b	-0.050414126
77	0xbc5bcef7	-0.0134160435
78	0xbc6a30b4	-0.014293838
79	0x3cddd075	0.02707694
80	0xbc90233a	-0.017594922
81	0x3c0a4f6d	0.008441788
82	0xbc736591	-0.014855758
83	0x3d856863	0.06514051
84	0x3c1237d9	0.008924448
85	0x3cc443bd	0.023958081
86	0x3e8d7601	0.27629092
87	0xbd924233	-0.07141533
88	0xbd6b7149	-0.057481084
89	0xbe281cc7	-0.16417228
90	0x3e20b549	0.15694155
91	0x3cb62ece	0.022239115
92	0xbe316598	-0.17323911
93	0x3cba28a1	0.022724451
94	0x3ec05182	0.37562186
95	0xbd13ce2b	-0.03608529
96	0xbe4b6e59	-0.19866313
97	0xbc50c06c	-0.012741189
98	0xbc49cfc6	-0.012317603
99	0xbd6f3313	-0.058398318
