BodelLigging/Gennep_bodemligging_V1.pt (torch, 661983 bytes, 5 tensors)

lstm.weight_ih_l0 f4 [400, 1]
00000000: dc97 69bf e516 81bd 0024 983e 4f42 03bf
00000010: 505a 72bf e615 d3be b062 e0bf 1f4f 92bf
00000020: 0803 ecbf 9c23 60bf e4b9 68bf af4f 5dbf
00000030: bfa0 fabf 7383 c8bf 2aa3 40bd 06dd 15bf
00000040: 2791 8fbf b6af e8bf dc70 16c0 1678 bcbf
00000050: 9c88 adbf 5027 a9be 1cf7 17c0 5128 b7bf
00000060: faf0 6fbf fa23 7cbf 88c5 c1bf 1b00 a9bf
00000070: 6d1e 5bbf a7e7 a9bf ed28 52bf 4153 e7bd
00000080: 3d29 ecbf a320 abbf e0f7 72bf 406c 9abf
00000090: 1c3e 84bf ee29 48bf 8fbc 69bf 9c0a 0ebf
000000a0: 4100 f9be ea1b f7be dfbf 30be 8ba2 ecbf
000000b0: 2639 7ebf d3f5 0ebf 2ec8 99bf ee36 3cbf
000000c0: f845 6cbf cbba debf 49cb 27bf 1166 b4bf
000000d0: 06a2 aa3e 00cd f7bf 0682 59bf 9923 cabf
000000e0: e5a2 21bf 028f c6bf 9c7f 41bf 2a26 2cbf
000000f0: fb8b c7bf 0ed9 833e 4167 b4bf 8aba 17bf
00000100: 7c34 48bb e221 f6bf 076b a5c0 f66b 3fbe
00000110: 4eda 8cbf 93d1 a7bf 8684 36bf 21be e43e
00000120: d6e0 aebf 96f6 a7bf ca0f 3ec0 7071 95be
00000130: b99c cabe b60d cebf f106 aabf c2a7 37be
00000140: ba43 4fbf 5cf1 d53e b11e acbe acd5 a8bf
00000150: 2942 82bf 93b6 03ba 8d2a 61bf 9bfa 153f
00000160: a394 f8bf 2943 733e 2b9b 75bf 8f92 b73f
00000170: c685 20c0 813e 0abf 8eca b8be b35f 28bd
00000180: 2c29 7fbf 58d9 54bf fe08 633e 1f26 70bf
00000190: 7cd7 e4be 2776 f3be a21b 033d 8b87 1e3f
000001a0: 305e 133f 90e1 38bf a919 eb3f 7136 403f
000001b0: 8298 973f 5876 193f 172c 35be e4f7 aa3c
000001c0: 0606 0140 aaad d03e f70f e93f 5718 6bbf
000001d0: 770c 723f 3db3 8a3f 9a0b 2a40 09bc 3a3f
000001e0: 7ee2 013f 5fca 34bf c89e aa3f f6cd 883e
000001f0: c102 8a3e f9a9 5e3f 0cd8 a13f d67a 1c3f
00000200: 216a 133f 1b36 1bbd 8f4c 813e 82dc af3f
00000210: e866 393f 76c8 e43e e958 b33f ba76 d23f
00000220: d4bf 4d3f b255 703f a774 1d3f 018c 713f
00000230: 5eda 933f d3e0 dbbe 33a2 b03f 2739 da3f
00000240: 5765 183f 72ed bebf 0f65 743f 9bad 823f
00000250: df77 873e 7953 80bd dc7f 663f d2e7 863f
00000260: ac26 e83e db52 22bf 83fb 773d d406 b03e
00000270: 252b c53d 040c 0a3f 082f 24bf ec49 e93f
00000280: be3b 5abc 5d94 623f 639b 023f 3692 d6be
00000290: 45d0 713f 6b64 163e 25e6 0f40 e297 20bf
000002a0: 245e 823f b227 babd a0ae 1a3e c851 21bf
000002b0: dd5f 3c3f 657c 533f 498a 323f 1f72 7dbe
000002c0: dc0d 003e ba3c 33be fe83 23bf 78b8 ddbf
000002d0: 2a07 633f 16d3 21bf 29fc 1a3f 4de4 633f
000002e0: 04e7 963f e2f0 f6be 98c4 763f dcd4 eabe
000002f0: 4a11 e53e dcca 0c3e 34f2 a63e 53f4 c13e
00000300: 05d7 6c3f eb41 543e fd3d a03f 99b1 963e
00000310: 60f4 983f 2fc7 8cbe 57cc 893e 0409 193f
00000320: e590 31bf 7265 ddbf b6db d13e 0d6e f13e
00000330: 0b03 823e 2934 c8bf 3232 bc3e 8cc0 f23e
00000340: b05b 873f d460 0e3f 8fd5 dcbf 7bf6 c0bf
00000350: fd79 96bf 84ef 82bf b4d5 82bf 4321 a93f
00000360: eab7 acbf 5a0d b53f 823e 4d3e 7870 83be
00000370: da53 7ebf 3352 b63f 4b39 dd3f e1b8 d23e
00000380: bf81 f63f 704a 113f 569f b1bf 3b6d 98bd
00000390: 1640 90bf 43ac d13f 0a20 9abf 2471 ac3e
000003a0: 4aaf f2bf 2c13 aebf 0714 15be 234b f2be
000003b0: 04dd 1abf d5a8 703f 098a abbf 7ff4 553f
000003c0: 0583 aebf cf9c a5bf 1a93 a9be ebae c83f
000003d0: 54d3 913d 770e e63f f9bc e3bf 811c c53f
000003e0: 5daf 46bf 4bf9 0640 6e1f 3fbf 6171 e73f
000003f0: 0a77 0640 a5cd 09c0 1e73 48bf e0e4 b5be
-0.91247344 -0.06303195 0.29714966 -0.51273054 -0.94669056 -0.41227645 -1.7530117 -1.1430396
-1.8438425 -0.87554336 -0.90908647 -0.8644971 -1.9580306 -1.5665115 -0.047030605 -0.5854038
-1.1216172 -1.8178623 -2.3506384 -1.4724147 -1.3557315 -0.33037806 -2.3744574 -1.4309179
-0.93727076 -0.98492396 -1.5138407 -1.3203157 -0.855933 -1.327382 -0.820937 -0.11295176
-1.8450085 -1.3369335 -0.9490948 -1.2064285 -1.0331454 -0.7818898 -0.9130334 -0.5548494
-0.48633006 -0.48263484 -0.17260693 -1.8487104 -0.9930595 -0.5584385 -1.2014215 -0.73521316
-0.92294264 -1.7400755 -0.65544564 -1.4093648 0.3332674 -1.9359436 -0.84964025 -1.5792114
-0.6313918 -1.5512393 -0.7558534 -0.67245734 -1.5589594 0.25751537 -1.409401 -0.5926901
-0.0030548861 -1.922909 -5.169315 -0.18693528 -1.1004121 -1.3110832 -0.71295965 0.44676307
-1.3662364 -1.3122127 -2.9697137 -0.29188108 -0.39572695 -1.6097934 -1.3283368 -0.17935088
-0.8096272 0.41785705 -0.33617166 -1.3190207 -1.017644 -0.0005024459 -0.8795555 0.5858552
-1.942036 0.23756088 -0.9593989 1.4341601 -2.508165 -0.54001623 -0.36092037 -0.04110689
-0.996722 -0.8314414 0.22171399 -0.9380817 -0.44695652 -0.4755108 0.032008775 0.6192557
0.57565594 -0.7221918 1.8367206 0.7508307 1.1843417 0.59946203 -0.176926 0.020870157
2.0159926 0.40757495 1.8207997 -0.91834015 0.9455027 1.0835949 2.656958 0.7294317
0.50736225 -0.70621294 1.3329706 0.26719636 0.26955226 0.8697811 1.2644057 0.6112493
0.57583815 -0.037893396 0.25253722 1.3739169 0.7242265 0.4468419 1.4011508 1.6442482
0.8037083 0.9388076 0.6150612 0.94354254 1.1551015 -0.42944965 1.3799499 1.7048692
0.5952963 -1.4916213 0.95466703 1.020923 0.26458642 -0.06265921 0.9003885 1.0539496
0.45342004 -0.6340768 0.060542595 0.3438021 0.0962737 0.53924584 -0.64134264 1.8225684
-0.013319908 0.88507634 0.5101835 -0.41908425 0.9445842 0.14686744 2.248422 -0.62731755
1.018498 -0.090896025 0.15105677 -0.63015413 0.73583776 0.82611686 0.69742256 -0.24750565
0.12505287 -0.17503634 -0.6387328 -1.732192 0.88682806 -0.63212717 0.60541016 0.89020234
1.178925 -0.48230654 0.9639373 -0.45865524 0.44739753 0.1374926 0.3260666 0.37881717
0.92515594 0.2072827 1.2518917 0.2943237 1.1949577 -0.27495715 0.2691371 0.5977938
-0.69361717 -1.7296584 0.4098794 0.47154275 0.25392947 -1.5640918 0.36757046 0.47412527
1.0574856 0.556165 -1.7252673 -1.507522 -1.1755978 -1.0229344 -1.0221467 1.3213276
-1.3493626 1.41447 0.20043376 -0.25671744 -0.993467 1.4243835 1.728311 0.41156676
1.9258345 0.5675421 -1.387675 -0.07442709 -1.1269557 1.6380695 -1.2041028 0.3368007
-1.8959744 -1.3599601 -0.14558421 -0.4732295 -0.60493493 0.9400762 -1.34015 0.83576196
-1.3633734 -1.2938479 -0.33120042 1.5678381 0.07120386 1.7973164 -1.7792045 1.5399324
-0.77611333 2.1089656 -0.7465733 1.8081475 2.1010156 -2.1531765 -0.78300655 -0.3552618

lstm.weight_hh_l0 f4 [400, 100]
00000000: a3e9 1bbf 6c78 0ebe 8f7f 5f3f 3692 19bf
00000010: b15f 2b3d c383 68bc dca2 74bf eb57 f4be
00000020: eaee 793d 3658 b4bd 4389 a8be 382a c83e
00000030: 2ee5 62be f674 ef3d 0ba6 b33d be13 c6bd
00000040: f1eb 0e3f ba6a 04bc 640d 07bf 23a2 ffbe
00000050: 8d80 f5be 913e 2dbe bde2 0abe f06d 5ebf
00000060: c4b7 fc3d 352e 433e a499 853d a750 c6be
00000070: e9c1 0dbe 2791 d8bd 99b5 a1be 4c0b dcbe
00000080: 624f 643e f4c6 483e c46f 12bf 1433 9cbe
00000090: 9a11 ae3c cc76 023e 15ad b6be 0f87 fc3d
000000a0: f14c 25bf 3ccc c93e 44b4 d6be 52cc 3b3d
000000b0: b7cd a9be 270a 4b3e 2712 633a 1e9e 35be
000000c0: afe0 01bf d88b c33d 959f 1b3c 614e 1f3e
000000d0: 302a 5c3f 501e 6fbc e6a0 85be 44fe 55be
000000e0: c981 233d b83f a63d 25db 92be 0422 b5be
000000f0: 2bef 4f3d 1749 163e 40a3 4fbd 7409 7dbd
00000100: 4c79 a1bd 5f8c a93e 1a2c 5fbe 50f2 b83e
00000110: 7714 2ebf 64be 1ebf 5fc5 613e 4522 18bd
00000120: a9d7 16be 7ccb 4bbf a52f fdbe 1838 d6be
00000130: 3003 48be d4af 573d d11a 883c 6b81 41be
00000140: ae1d dfbe 554f e53d 7bc7 52be 1a0e 06bf
00000150: fad0 10bf 86dd 143f d212 1aba 13ec 323c
00000160: 6ce4 e13c e154 80be b737 89be 832b 72bf
00000170: 9cd5 8f3c e72c 413e 8a3e f4be b82c 8fbe
00000180: 8bfa 0ebe 062d 27be 54ec adbc ba59 d3be
00000190: 418a 1fbf 22ae 20be e1ba f8be 94a2 ae3f
000001a0: cb05 1cbf ae26 bb3e bf1a 433e 9c46 443f
000001b0: f1b4 7e3f 91e9 74bf c45f 79be 7b5d 1d3f
000001c0: 8f48 5abf 2b15 81be 91b7 e53d 448a a0be
000001d0: 6544 acbf 2b30 963e ae98 203e 3420 c4be
000001e0: 24ca 4dbf 1dcd 4ebf 2079 de3c 8987 10bf
000001f0: 8a10 23bf 8f63 6cbe f16e f7be 09c6 88bf
00000200: a70f 99bf 057b 1bbf de54 96bf 564c a13f
00000210: 02ea 56bf 1fca bb3b 6f6c 0dbf 3001 fcbd
00000220: 18c4 90bd b5b2 473d e0fe 45bf b505 803f
00000230: bd51 bd3c 474e 303e eb65 7dbf 8a2a 85be
00000240: 8337 ffbe 4f95 23bf 98ed 4e3d 39b7 72be
00000250: 8ee1 b5bf 2fe9 59bf de5e 1fbe 65fe 8fbe
00000260: bf1d 263f 3653 123f 2b07 1fbf dc1c aebe
00000270: b38b c5bf 0367 8fbf 0903 81bf 1dbc 91be
00000280: 0cb1 5f3e 13be 0ebf a216 08bf 0bc1 18bd
00000290: 9744 8fbf 102a 163f e51a 88be 3093 ec3e
000002a0: 9a4c 0dbe 6d9c 9abf cafc a8bf 9358 273d
000002b0: bbfc a8be 370d 8dbf 7b40 41be 9ad4 06bf
000002c0: 2306 0abf 1f64 48be 5840 bcbe 829a 3abe
000002d0: 2bba 953d 25d3 64bf 0c75 51bf c845 be3d
000002e0: 88be 1fbe 0a07 e1be 165a fabe edfe 23bf
000002f0: 2ce9 b1be 3a8a 41bf 420c 173f d281 70be
00000300: dc2e fb3e 0ed7 5cbf 586a 8c3e 643a 64bf
00000310: 9e83 54bf 152a 68bf 2997 563d 48a0 32bf
00000320: e8e9 1abe 636f 53be 87ea 283d 73ce 0a3e
00000330: eacb e4be 34ca 73be 58ed 98be 61e1 0fbe
00000340: 80ac 9f3c 3472 f6be 6a2e d9be cd27 e93d
00000350: 5034 fdbe 5fe1 723e 9063 8ebe 2c4f e53e
00000360: 516c 95be 7035 cc3e 8039 57bd 1435 94be
00000370: dd38 febe d6a1 af3e 477f 1b3f fb6d 82bf
00000380: 5d08 903e a19d d83e 768f 9abe 5aa5 3abf
00000390: e9d0 75be eb1b 1a3e e94e 6ebe 480a cdbc
000003a0: ad36 dbbe 06ed adbd 8438 b1bf 9976 743d
000003b0: 8bd4 7cbe bfd3 fbbd b063 09be 6125 6b3e
000003c0: ec8b bfbd 0f96 ad3e be09 b7bf b564 92bd
000003d0: 84c9 a8bf de22 7d3e ed30 1bbf a276 60be
000003e0: e7c7 09bf f291 1b3e cf9a 03be adfa 633f
000003f0: 481b 863e 4db3 95be e940 97bf 1708 16bf
-0.60903376 -0.13913125 0.87304014 -0.59988725 0.041839305 -0.014191571 -0.95561004 -0.47723326
0.06101886 -0.088058874 -0.32917222 0.3909471 -0.22157738 0.116922304 0.087719046 -0.09671734
0.5582877 -0.008082086 -0.5275481 -0.49928388 -0.4794964 -0.16918398 -0.13563056 -0.868865
0.12339738 0.19060595 0.06523445 -0.38733408 -0.13843502 -0.105745606 -0.3158386 -0.4297737
0.22295907 0.19607145 -0.5720179 -0.3050772 0.021248627 0.1274063 -0.35678926 0.12330448
-0.6457053 0.3941363 -0.41934407 0.045849152 -0.3316476 0.19828092 0.00086620677 -0.17736098
-0.50733465 0.095481575 0.009498497 0.15557243 0.86001873 -0.014594629 -0.26099318 -0.20897776
0.039918695 0.08117622 -0.2868282 -0.35377514 0.050765198 0.14676319 -0.050692797 -0.061776593
-0.07884464 0.33114907 -0.21794167 0.3612237 -0.67999977 -0.62009263 0.22047947 -0.037142057
-0.14730705 -0.7960737 -0.49450412 -0.4183967 -0.19532466 0.052657917 0.01661435 -0.18897025
-0.4357733 0.11196772 -0.20583908 -0.5236527 -0.5656887 0.5815052 -0.0005877438 0.010920542
0.02757474 -0.25064757 -0.2680032 -0.94597644 0.017557912 0.18864785 -0.47703964 -0.27963805
-0.13962762 -0.16325769 -0.021230854 -0.41279393 -0.62320334 -0.15691426 -0.48580077 1.3643365
-0.6094634 0.36552948 0.19053172 0.7667024 0.99494845 -0.95668894 -0.24352938 0.61470765
-0.85266966 -0.25211462 0.11216653 -0.31355488 -1.3458372 0.29333624 0.15683243 -0.3830582
-0.8038657 -0.8078173 0.027157366 -0.5645681 -0.6369711 -0.23084854 -0.4832683 -1.0685436
-1.1957902 -0.6073459 -1.174465 1.2601421 -0.8395082 0.005730882 -0.5524358 -0.12304914
-0.07068652 0.048754413 -0.77342033 1.0001742 0.023110265 0.1721736 -0.9898364 -0.26009017
-0.4984704 -0.638997 0.050519556 -0.23702706 -1.4209459 -0.85121435 -0.15563533 -0.28123775
0.6488914 0.5715822 -0.6212031 -0.34006393 -1.5433258 -1.1203312 -1.0079051 -0.28463832
0.21844882 -0.5575878 -0.53159535 -0.037293475 -1.1192807 0.5865793 -0.2658302 0.46206045
-0.13798752 -1.2078987 -1.3202145 0.040855955 -0.33005318 -1.1019658 -0.18872254 -0.52668154
-0.53915614 -0.19569443 -0.3676784 -0.18223003 0.07310899 -0.8938468 -0.81819224 0.092906535
-0.15600026 -0.43950683 -0.48896855 -0.6406086 -0.3474821 -0.7560154 0.5900308 -0.23487023
0.49059188 -0.8626565 0.27424884 -0.891516 -0.8301333 -0.9068921 0.05239025 -0.6977582
-0.1512829 -0.2064796 0.041239288 0.13555317 -0.44686824 -0.23807603 -0.2986858 -0.14050819
0.019491434 -0.48134005 -0.42418224 0.113845445 -0.49453974 0.23718785 -0.27810335 0.44786966
-0.291842 0.3988452 -0.05254507 -0.28946745 -0.49652758 0.3430316 0.60741085 -1.0189813
0.2813138 0.4230776 -0.30187577 -0.72908556 -0.24005474 0.15049712 -0.2327229 -0.025029317
-0.42815152 -0.08492474 -1.3845372 0.059683416 -0.24690454 -0.12296247 -0.13416934 0.22963478
-0.0935286 0.33903548 -1.4299848 -0.071481146 -1.3186498 0.24720332 -0.6062153 -0.21920255
-0.5382065 0.15192392 -0.12852024 0.89054376 0.2619269 -0.29238358 -1.1816684 -0.58606094

lstm.bias_ih_l0 f4 [400]
00000000: e19d c8bf 6cd0 593c 66dc 3ebf 0cb5 9cbe
00000010: 846b 77bf d1f2 e6bd d364 c2bd 63c8 83bf
00000020: 8805 a9bf fe6c 11bf a26d 31ba b8e2 d3be
00000030: 5efe 67be eae0 6dbf 3b18 88be 5e18 143b
00000040: 940d 2abe 860c 66bf 3500 00bf 93d2 88bf
00000050: f73c 42bf 7a73 d3be 17c6 813e 32c9 98bf
00000060: 7a6f 8c3e 3c39 8abf a220 92be 6190 4fbf
00000070: 321b 3ebf 6965 c1be e6a7 09bf 3f73 29bf
00000080: a4cf 583d 3712 32bf 9b63 83bf 4c08 5dbe
00000090: c6eb 19bf e379 2cbf 9072 b7be d0f2 f4bd
000000a0: 1bac b7bd 655c 10bf cb76 81bf 7db8 2ebf
000000b0: 417f afbf 83ae 883e bfec 4ebd 678e 46bf
000000c0: 8561 74bf 4222 10be 22e6 92be 9092 e9bd
000000d0: 4b09 bc3d 616f 713e c94d 4bbf 878b 4bbf
000000e0: d2e7 c7be a714 dabd 734c 8abe 0bbc ad3d
000000f0: 4a46 a4be b606 08bf 4985 91bf 09e8 75bd
00000100: 93c3 c5be fbb4 dfbe 957e 22bf dbea bebe
00000110: 4d9f 74be 8fbe 92bf 743b 63bf b1fd 3bbf
00000120: 4e56 2abf 849a e4be 4697 04bd ad4b 74be
00000130: b5a4 0dbf 29b5 94bf 5629 bbbc 425d 9b3a
00000140: d6e9 bcbe 3f32 18bf 52cb c53c 7bf7 e0be
00000150: 5706 333f a370 cdbc 0f73 0fbf 80e8 adbe
00000160: 0304 84bf 0b00 79bf 5311 33bf 8191 91bf
00000170: 6f6e 45bf 3d26 96bf ae02 80bd a33b ebbe
00000180: 5f34 4bbf 7263 9bbe 5738 d9be f707 41bf
00000190: 0065 01bf 6d4a 2dbf be7a 37bf cb10 02bf
000001a0: dceb 03bf 0510 e2be 5859 58be 342f 3ebe
000001b0: 32aa 3abf 78a0 fdbe 2ce6 2abf 721a cbbe
000001c0: 064e 01bf 7d49 30bf bf4f 7c3d 0c2a 3abf
000001d0: 99b7 f1be 8aff 0fbf c012 e9be 5def 9dbd
000001e0: 1a56 47bf 013a 1dbf 7325 f9be c1ac dabe
000001f0: 3c7b dabe 87d8 f7be d82e 4bbf bcbf b6bd
00000200: aed6 dbbe 53d1 97be ec74 47bf d9f0 10bd
00000210: d940 4ebf 2574 3dbe 4d5d 11bf 151e 9fbe
00000220: b8a5 eebe 4753 0ebf 22bf fbbe 1bc0 0bbd
00000230: 553a 74be afb5 1fbf 948e d9be 9516 c6be
00000240: 8f5c e8be 4c43 9cbf 19e2 00bf ec94 45bf
00000250: 1359 eabe e156 3abf 7086 85be 2d81 f3be
00000260: 4abf 5cbf e36a 0bbf d249 21bf 0d41 6bbe
00000270: d2a1 9bbe b729 75be a094 0abf 20eb ab3b
00000280: da85 16bf 9556 c0be 2822 70bf d595 02be
00000290: 362a c3be 0474 9bbf e344 3cbe cca9 efbd
000002a0: 073f b4be 23fb 1bbf b157 24bf c6ee c2be
000002b0: dfca 4bbf 6bb8 07bf 88fe bebe 36b2 00bf
000002c0: 5058 f4be a9eb 5ebf ad6d 30bf f16b 60bf
000002d0: 1dcd adbe ce5d 54bf 34d2 35bf 8bfb 12bf
000002e0: 4009 acbe cf2e 8fbe 3234 dabe f564 e2be
000002f0: f6b4 34bf ff32 c3be 4784 cfbe 6cd9 37bf
00000300: ea90 ccbe 4764 10bd 5bd6 f3bd fa63 2bbf
00000310: e4c0 29bf 8789 21bf 1ad1 86be e2d3 cbbe
00000320: d932 c13d da5c 633e e9ab 103e 47a8 8bbd
00000330: 14dc e83c 3a85 f93d 26fc e23d 1cf0 7cbe
00000340: e5ed 1fbe a272 813d 9dba 913e 65f0 d03c
00000350: 495b d13d c6f5 363e 3ac9 1e3e fa06 ffbd
00000360: 44af ee3c ca05 2bbe f458 66bc 1486 1abd
00000370: 10b1 2d3d 0462 f3bd 7047 1fbe 8d19 98be
00000380: ee77 4abe 4770 cbbd c616 003e 15de 313e
00000390: 5865 493e 5b22 d0bd 8c95 153e 7abd 10bd
000003a0: 9b29 263e 5860 503e 12f9 51be f163 113e
000003b0: 7985 4d3d 9a18 fdbd 0310 003d ac87 22bd
000003c0: 792b f13d deb3 be3d cf60 48be 0911 03be
000003d0: da05 5abe 400e 43bd 0d46 983e 499c 5dbe
000003e0: a157 d3bd 9c7c d0bd ea55 c2bd dfec 34be
000003f0: 6360 66be b73d 173e 3e7d 083e 75f4 9c3b
-1.5673181 0.013294321 -0.7455505 -0.30606878 -0.9664843 -0.11276782 -0.09491887 -1.0295528
-1.3204813 -0.56806934 -0.0006768351 -0.4138391 -0.22655627 -0.92921317 -0.26580986 0.0022597532
-0.16606742 -0.8986286 -0.50000316 -1.0689262 -0.75874275 -0.4129904 0.25346443 -1.19364
0.274288 -1.0798717 -0.28540522 -0.8107968 -0.74260247 -0.37772682 -0.5377182 -0.66191477
0.052932397 -0.69559044 -1.0264772 -0.21585196 -0.60125387 -0.67373484 -0.35829592 -0.11960375
-0.089683734 -0.5639098 -1.0114378 -0.68250257 -1.371071 0.26695642 -0.050518747 -0.7756104
-0.95461303 -0.14075568 -0.28691202 -0.11404908 0.0918146 0.23577644 -0.79415566 -0.79509777
-0.39044052 -0.1064847 -0.2701145 0.08483132 -0.32084876 -0.5313524 -1.13688 -0.06003574
-0.38625774 -0.43692765 -0.634744 -0.37288556 -0.23888893 -1.1464404 -0.88762593 -0.7343398
-0.6653794 -0.44649136 -0.032370828 -0.23856993 -0.5532945 -1.1617786 -0.022846859 0.0011853355
-0.36897153 -0.5945167 0.024144802 -0.43938813 0.6993155 -0.025078123 -0.5603494 -0.33966446
-1.0313724 -0.9726569 -0.6994831 -1.1372529 -0.77121633 -1.1730419 -0.06250511 -0.45943937
-0.79376787 -0.30349308 -0.42425796 -0.7540278 -0.5054474 -0.6769169 -0.71671665 -0.50806874
-0.5153177 -0.44152847 -0.21127832 -0.18572694 -0.7291595 -0.4953649 -0.66757464 -0.39668614
-0.5050968 -0.68862134 0.06159949 -0.7272041 -0.47210386 -0.56249297 -0.45522118 -0.077116705
-0.77865756 -0.6141663 -0.48661384 -0.42709926 -0.42672145 -0.48407385 -0.7936835 -0.08923289
-0.42937225 -0.2965189 -0.77912784 -0.03538594 -0.805677 -0.18501337 -0.5678299 -0.31077638
-0.46610808 -0.5559582 -0.4916926 -0.034118753 -0.23850377 -0.623866 -0.4249159 -0.38689104
-0.45383117 -1.2208037 -0.50345 -0.7718036 -0.45771083 -0.72788817 -0.2607913 -0.4755949
-0.86229384 -0.5445997 -0.63003266 -0.22974034 -0.30396897 -0.23941694 -0.54133034 0.005246535
-0.5879799 -0.37566057 -0.9380212 -0.12752469 -0.38118142 -1.214478 -0.18385653 -0.11702308
-0.35204336 -0.6093008 -0.64196306 -0.38072795 -0.7960643 -0.53015774 -0.37303567 -0.5027193
-0.47723627 -0.8707834 -0.6891735 -0.87664706 -0.33945552 -0.82955635 -0.7102387 -0.57415074
-0.33600807 -0.279654 -0.42617947 -0.4421765 -0.70588624 -0.38124844 -0.40530607 -0.71816134
-0.3995431 -0.035251882 -0.119061194 -0.6694943 -0.6630995 -0.63100475 -0.26331407 -0.3981009
0.094335265 0.22203389 0.14128079 -0.06819206 0.028425254 0.12183614 0.1108325 -0.2470097
-0.15618093 0.063206926 0.28462687 0.025505254 0.102224894 0.17867193 0.1550645 -0.124525025
0.029136308 -0.16701427 -0.014059294 -0.037725523 0.042405188 -0.11883929 -0.15554595 -0.29706994
-0.19772312 -0.099335246 0.12508687 0.17369874 0.19667566 -0.10162803 0.14607829 -0.03533695
0.16226809 0.20349252 -0.20505169 0.14198281 0.050176118 -0.12358208 0.03126527 -0.039680168
0.1177587 0.09311651 -0.1956818 -0.12799467 -0.21291295 -0.04762101 0.29740945 -0.2164165
-0.10319448 -0.10180017 -0.09489043 -0.17668484 -0.22497706 0.14769636 0.13329026 0.0047898837

lstm.bias_hh_l0 f4 [400]
00000000: f6bd d7bf 5089 453c 8228 4fbf 6032 a0be
00000010: af46 7fbf 33b8 d7bd 2eb0 5dbe 244c 84bf
00000020: 90a9 a5bf abcd ebbe 4380 1dbd 976a 94be
00000030: b41a 82be a20e 77bf 8105 a0be 1a81 21bd
00000040: 1ee7 5cbe e139 43bf 1067 e0be cf16 69bf
00000050: e313 3ebf 7f28 bdbe 462b 2d3e 2e6e abbf
00000060: 06b9 ae3e 427a 89bf 6857 a0be 69d5 77bf
00000070: f91a 67bf fe45 69be 629b e8be d4e9 f1be
00000080: 0ad0 42bd 0898 0abf d7b3 85bf b9a4 8fbe
00000090: 33b0 1abf 7a38 42bf 5745 09bf 63fd 33bd
000000a0: def9 9dbc 631e 08bf 0e51 83bf 5ab7 2fbf
000000b0: 2f00 c5bf e4b0 c43e 40a1 b7bc 45d7 22bf
000000c0: c103 72bf 97ee 7dbd 3d98 c5bd a23e 643c
000000d0: 83eb 213e 567d af3d e0a8 58bf eeba 5bbf
000000e0: 8952 c9be d412 02be e38f 7ebe 3d9e 113e
000000f0: 327c abbe 8d0c 20bf 089d 88bf c284 08be
00000100: 7f3e cbbe 2bc9 cabe eb2f 3bbf d0ee 93be
00000110: eb07 4cbe 918b 85bf c347 59bf 3928 4abf
00000120: a71d 1bbf 2d0d cabe add8 1fbe b579 47be
00000130: 5dae dbbe c552 94bf 9b51 17be 8ce0 dabd
00000140: 3436 e0be e238 2bbf e0de 113e 476c e1be
00000150: 0890 123f 8718 083d 30e8 03bf 3fe8 87be
00000160: 3b4a 6ebf 6ffb 92bf 9397 5bbf 0ab7 87bf
00000170: fa10 41bf a3c6 95bf b3a2 6f3d 561d b9be
00000180: e1df 58bf aec7 aebe ebf7 b6be 9ebd 43bf
00000190: 64fd adbe c26b 21bf 328b 10bf 538a d6be
000001a0: 3dd9 e8be 6935 e8be f514 48be aa2d 38be
000001b0: c242 3cbf 8af4 0fbf f9c2 4abf 4a32 00bf
000001c0: 1165 1cbf 059f 0bbf 7e2a 013e 0a9e 40bf
000001d0: 2191 01bf 62b6 0ebf d561 e7be 6ea0 adbd
000001e0: 6c2d 52bf 5c01 29bf f19e bbbe 9b01 ddbe
000001f0: 8d89 bbbe 331e febe 2d13 43bf bee4 fa3b
00000200: 3862 d8be 9676 83be 9254 55bf 3936 bcbd
00000210: 4b9d 41bf 1ae0 11be c783 20bf 5ae5 c7be
00000220: feaf 04bf ddda 0abf d639 11bf 90a3 f8bc
00000230: 8f1f 95be 6e28 25bf 23e7 efbe b80d a3be
00000240: 860a d9be f50c 8fbf 4a2b edbe c424 5cbf
00000250: a558 0bbf 9300 30bf a1a0 c8be 46b6 03bf
00000260: 5b0f 5abf 5806 34bf 67b5 40bf 77c0 3abe
00000270: 6099 cdbe ced1 76be ef68 3abf 8f35 febd
00000280: 0d40 03bf 6cc8 d5be b3a7 6bbf 47ba 6dbd
00000290: d06b dabe e558 8fbf 0f6c 3abe 5bcd b0bc
000002a0: 2c55 cbbe 8f25 39bf 391a 0cbf b13d 0abf
000002b0: 1fea 67bf 72ec e3be fdbb a4be ef21 0bbf
000002c0: 25c4 11bf 7234 4cbf cc66 18bf c997 56bf
000002d0: 3b9d 53be d176 53bf c287 05bf 6253 06bf
000002e0: 3408 62be 547b a5be c9dd b1be 3799 f0be
000002f0: a4d8 31bf 28c3 c8be 7205 cbbe f8f2 1fbf
00000300: 98da c3be dd15 8e3c 1bf2 7abd 5168 18bf
00000310: 1f5d 41bf 05b9 02bf 454b aebe 34c8 97be
00000320: 8c55 613d dbc5 353e 0791 213e 3fde 80bd
00000330: 8cf9 ea3d c680 d83d 65e2 1b3d 266c 13be
00000340: 5469 f7bd 28f0 863d 1cd6 463e e6b8 b53d
00000350: 7d0d 3d3e e00d a53b aa6b c13d 9f06 c2bd
00000360: 91e6 f83c 1d2f 44be 81d4 8cbd a614 0a3c
00000370: b328 a53d eaf7 c5bd 8491 67be efba 68be
00000380: 312f 94be 0e46 8ebd f96d 283e 1dbc 083e
00000390: 0b57 cb3d de66 6abe 5414 413e faf6 643d
000003a0: b2c6 653e c65b 223e c313 96be 9251 ae3d
000003b0: 9ecd 263e 28ad 53bd faa0 073e 9375 21be
000003c0: 2d41 873e 78d7 7e3d ff91 9dbe b584 4abe
000003d0: 6c34 6ebe 6d02 babd 21e2 7e3e 9a1a bebd
000003e0: c35a 7bbe 2439 18be c441 33bd c6a2 3abe
000003f0: 1f1e 8bbe 209c 5b3c d584 bfbc 0336 013e
-1.6854846 0.012056664 -0.80921185 -0.31288433 -0.9971723 -0.1053318 -0.21649238 -1.0335736
-1.2942371 -0.4605535 -0.038452398 -0.28987572 -0.25410998 -0.965067 -0.312542 -0.03942976
-0.21572539 -0.7626019 -0.4382863 -0.9105043 -0.74249095 -0.3694496 0.16911039 -1.3392999
0.34125537 -1.0740435 -0.31316686 -0.96810013 -0.9027553 -0.22780606 -0.45431048 -0.4724871
-0.047561683 -0.5413823 -1.0445508 -0.2805536 -0.6042511 -0.75867426 -0.5362143 -0.04394282
-0.019284185 -0.53171366 -1.0259111 -0.6863915 -1.5390681 0.38416207 -0.022415757 -0.63609725
-0.9453698 -0.061995115 -0.09648178 0.013930948 0.15812497 0.08568828 -0.8463268 -0.8583211
-0.39320782 -0.12702495 -0.24859576 0.1422052 -0.3349319 -0.6251915 -1.0672922 -0.13331893
-0.39696118 -0.39606604 -0.7311999 -0.28893137 -0.19924895 -1.0433217 -0.84875125 -0.78967625
-0.6059212 -0.39463177 -0.15609999 -0.19480021 -0.42906466 -1.1587759 -0.14777224 -0.1068736
-0.43791354 -0.6688367 0.14245176 -0.44027922 0.57251024 0.033226516 -0.51526165 -0.26544377
-0.93082017 -1.1482981 -0.8577816 -1.0602734 -0.7541653 -1.1701244 0.05850477 -0.36155194
-0.8471661 -0.3413672 -0.3573602 -0.7646121 -0.33982384 -0.6305505 -0.56462395 -0.41902408
-0.4547824 -0.4535325 -0.19539244 -0.1798617 -0.73539364 -0.5623251 -0.79203755 -0.50076735
-0.61091715 -0.5453952 0.12613866 -0.7524115 -0.50612074 -0.55747044 -0.45191827 -0.08477865
-0.8210056 -0.660177 -0.366447 -0.43165287 -0.3662838 -0.49632415 -0.76201135 0.0076566627
-0.42262435 -0.2567641 -0.8333217 -0.0919003 -0.75630635 -0.14245644 -0.62701076 -0.3904217
-0.5183104 -0.5424021 -0.56728876 -0.03035143 -0.2912564 -0.64514816 -0.4685603 -0.31846404
-0.4239084 -1.1175829 -0.4632209 -0.859936 -0.54432136 -0.68750876 -0.3918505 -0.5145
-0.8517968 -0.7032218 -0.752768 -0.18237482 -0.40156078 -0.24103472 -0.72816366 -0.12412559
-0.5126961 -0.41754472 -0.92052764 -0.058038976 -0.4266038 -1.1199003 -0.18205284 -0.021582296
-0.39713418 -0.72322935 -0.5472751 -0.54000384 -0.90591615 -0.4451633 -0.32174674 -0.54348654
-0.5693992 -0.79767525 -0.59531856 -0.83825356 -0.20665447 -0.82603174 -0.52160275 -0.5247098
-0.22073442 -0.32320654 -0.3473952 -0.46991894 -0.6947119 -0.39211392 -0.39652592 -0.62480116
-0.3825271 0.01734441 -0.061266046 -0.59534174 -0.75532717 -0.5106357 -0.340418 -0.2964493
0.055013224 0.17751257 0.1577798 -0.0629239 0.114733785 0.105714366 0.038057704 -0.14396724
-0.120806366 0.06588775 0.19417614 0.08873157 0.18462177 0.0050370544 0.094443634 -0.09473919
0.03038338 -0.19158597 -0.068764694 0.0084277745 0.080644034 -0.096664265 -0.22614104 -0.2272756
-0.28942254 -0.069469556 0.16448201 0.1335301 0.099287115 -0.22890803 0.18855411 0.055899598
0.22439077 0.15855321 -0.29311952 0.08511652 0.16289374 -0.051678807 0.13245001 -0.15767507
0.26416913 0.062217206 -0.3077545 -0.19777186 -0.23262185 -0.09082494 0.24890949 -0.092824176
-0.24546342 -0.14865547 -0.04376389 -0.18226156 -0.27171418 0.013403922 -0.023378769 0.1261826

linear.weight f4 [1, 100]
00000000: 596e 9cbc 4957 0fbe c62b 713d b759 b8bd
00000010: 1b18 88bd 269b 71bd a5b7 9cbe dbc9 31bd
00000020: 3416 893d d263 a83c 9d72 333d 2906 2cbe
00000030: e710 a3bd a4b7 2fbd 5174 813e 5847 2cbd
00000040: 3a3a 81bd 2df2 b83d 42ba e8be 6846 0c3b
00000050: 6de4 f03c 5b90 633c e880 e63d 3cb1 3f3d
00000060: b434 a03d bd06 f0bc fb4d 1bbd 9762 15be
00000070: d71d 6cbb 925e cd3d 7521 e1bc dce4 203e
00000080: 0feb 43be 4797 01be 0ec9 f4bc ffbd 12be
00000090: e726 9dbb b31d 343b 7fa2 ffbd 206c 613d
000000a0: 9e55 733e 8bb9 b13c eb17 8ebd 9e54 c53d
000000b0: f4b4 4cbc 6112 ff3d 56d2 e7bb 78cc 293c
000000c0: 2b92 25bc d47b d23e efbc 68bd 76af b33d
000000d0: 7200 42be cf16 03bf 6736 933d 152f bf3d
000000e0: 584b 54bc c4f0 f13d 59ab 183d d0d1 c1bd
000000f0: 62aa 8ebc d139 483e 884f 543d 61d9 a0bc
00000100: e719 bd3c 8c62 c33e 1a22 bfbd 367b 423d
00000110: cc50 45bd 3646 52bc 73ec dbb9 cac8 ec3d
00000120: 5a82 cebc 1e2f 11be 1260 c3bd ddd0 a3bb
00000130: bd1e b1ba 2c10 813d d857 af3e 48ec 3d3e
00000140: 0f01 3e3d fb1e c83c 2e8e 67bd cf7d 513c
00000150: 23b2 8abe d839 903d 5f06 6d3d bc44 733b
00000160: 12dc b53d bb63 063d 1c93 61bd 4ce4 a3be
00000170: feb0 c23c 0c9d f5bc 2aec b03d 7dfd e9bc
00000180: a608 153c 4279 123d e1a2 f23b 1408 37bc
-0.019095587 -0.1399814 0.058879636 -0.09001487 -0.06645223 -0.05898585 -0.3060886 -0.043405395
0.06693688 0.02055541 0.043810476 -0.16799225 -0.07962208 -0.042899743 0.25284055 -0.042060226
-0.06309934 0.09030566 -0.45454603 0.002140427 0.029405797 0.0138893975 0.11255056 0.046799883
0.07822552 -0.029300088 -0.037916165 -0.1458839 -0.0036028528 0.100278035 -0.027481774 0.15712303
-0.19132636 -0.12655364 -0.029881027 -0.1433029 -0.0047958973 0.0027483522 -0.124821655 0.055034757
0.23763129 0.02169492 -0.06938156 0.0963528 -0.012494314 0.124546774 -0.0070746345 0.010363691
-0.01010565 0.41110098 -0.056820806 0.08773701 -0.18945482 -0.5120668 0.07188111 0.09335152
-0.0129574165 0.118135005 0.037272785 -0.09463847 -0.01741523 0.19553305 0.05183366 -0.019634904
0.02308364 0.38161123 -0.09332676 0.047480784 -0.048172757 -0.012834122 -0.00041947103 0.11561735
-0.02520864 -0.1417813 -0.09539808 -0.0049992637 -0.0013513189 0.06301913 0.34246707 0.18547165
0.04638773 0.024428835 -0.056532077 0.012786343 -0.27089033 0.07042283 0.057867404 0.0037119826
0.08879866 0.032809954 -0.055071935 -0.32010114 0.023766037 -0.029982112 0.08638795 -0.028563255
0.0090963 0.03576017 0.0074046706 -0.01117136
