BodelLigging/Grave beneden_bodemligging_V1.pt (torch, 661983 bytes, 5 tensors)

lstm.weight_ih_l0 f4 [400, 1]
000000 86 57 d1 be 08 2a ee 3f 1f 0b fe bc b0 7a a1 3d
       -0.40887088 1.8606577 -0.031011162 0.07884729
000010 5a eb 8c 3f 67 b6 4b be a8 4c 8d bf 9d 6a e9 3f
       1.1009324 -0.198938 -1.1039019 1.8235661
000020 67 ae 76 be 5a 1b a0 3e 1d 56 d0 3f d6 d8 2c be
       -0.24089967 0.31270868 1.627628 -0.16879591
000030 ec b9 78 bf f8 70 56 be 19 6e 28 bf 42 a4 63 be
       -0.97158694 -0.20941532 -0.65792996 -0.22230628
000040 92 1e a8 3e 84 70 42 be 52 9f fa be 7a 0d 8a 3f
       0.32835823 -0.18988234 -0.48949677 1.0785363
000050 9f a1 92 be 1e d9 49 bf cf c7 c5 3d 5a bf bf be
       -0.28638932 -0.7884692 0.09657251 -0.37450677
000060 61 6a f1 3f 2c be 8f bf 00 cb 31 3f 0e bb 89 bf
       1.8860589 -1.1229911 0.6945038 -1.076021
000070 37 85 69 bf 39 9a 8c 3f 1a a9 81 3e 8c aa 26 3f
       -0.91218895 1.0984565 0.25324327 0.65103984
000080 77 d2 91 3f a3 c2 10 bf f4 74 31 bf 46 bd b7 3d
       1.1392354 -0.5654699 -0.6931908 0.08971648
000090 71 23 37 be db 46 14 be 8d 98 a1 bf 35 42 8f bf
       -0.17884614 -0.14480154 -1.262468 -1.119208
0000a0 29 c9 1b 3f 19 86 cc bd 39 04 0c 40 ef b8 fd be
       0.6085382 -0.099865146 2.1877577 -0.49555156
0000b0 16 4a 67 3e 4a 5c 4c 3f 6f a1 4a bf 1a 9a db 3e
       0.22586855 0.7982832 -0.7915258 0.42891008
0000c0 71 e9 50 bf 7f b4 33 3f 3b d9 ea 3f 61 7c a6 3e
       -0.81606203 0.7019729 1.8347543 0.3251677
0000d0 3b fc 06 40 aa 98 44 be 5c 81 dc 3f 91 cc 98 3f
       2.109145 -0.19198862 1.7226977 1.1937429
0000e0 2f c5 a5 3e ff 14 0c 3e 42 17 13 bf 0a 6d 0c 3d
       0.32377002 0.13679884 -0.57457364 0.034283675
0000f0 ac 02 f3 be 84 31 40 bf 01 ff 08 3e a7 55 63 be
       -0.47462976 -0.75075555 0.13378526 -0.22200643
000100 dd f2 2d bf 13 34 e6 be 9d 44 fb 3e 6e 10 ad 3e
       -0.67948705 -0.44961604 0.49075785 0.33801597
000110 a9 e7 9e 3f 8a 17 d8 3e cc 8f 82 bf f5 41 d3 be
       1.2414447 0.4220546 -1.0200133 -0.4126126
000120 32 d1 58 bf 0d 01 9e be d9 d7 a8 be 0a b2 a6 bf
       -0.84694207 -0.30860177 -0.3297718 -1.3023083
000130 ec 37 80 3e be f9 ab 3f ef 37 68 be ff f7 15 bf
       0.25042665 1.343559 -0.22677587 -0.58581537
000140 3e 7e 34 bf 73 b2 0f 40 b9 37 25 bf 8e 7d 8a bf
       -0.7050513 2.2452667 -0.6453815 -1.0819566
000150 7d 0a ec be a7 3e 7c 3e 97 9f db 3e 10 bb b2 3e
       -0.46101752 0.24633275 0.42895195 0.34908342
000160 0d b0 b7 be 19 db d9 bd da a0 1c 3f 69 fe 91 be
       -0.35876504 -0.10637493 0.6118294 -0.28514412
000170 d5 49 2b 3f 7b e3 0e 3f ab 8c 0c 3f 84 9c 98 3e
       0.66909534 0.5581586 0.5490214 0.29806912
000180 ff 8b 50 3f 01 aa 7d be 97 a0 25 3f c0 41 e1 3e
       0.8146362 -0.24771883 0.64698166 0.43995476
000190 c8 b8 10 3f f8 a7 1b 3e a2 c4 15 3e a7 e3 8b bf
       0.56531954 0.15200794 0.1462579 -1.0928849
0001a0 6d 01 1e bf ad 23 d2 bd 34 f3 a6 3e 6a 0d 3c bf
       -0.61720926 -0.10260711 0.32607424 -0.7345797
0001b0 f9 8b 93 be 5a fc 0a be e0 28 77 3e 1b 95 42 be
       -0.28817728 -0.13572827 0.24136686 -0.19002192
0001c0 7e b5 3a 3e 5c 69 15 bf 87 f4 ac be 29 ce 83 3e
       0.18233296 -0.5836389 -0.3378031 0.25743225
0001d0 6f 26 b5 be 36 8f fc be b7 e7 81 bf b7 6d df be
       -0.35380885 -0.4932801 -1.0148839 -0.43638393
0001e0 e8 60 4f be 03 12 0c bf c4 29 28 3f e0 45 9b 3d
       -0.2025181 -0.54714984 0.6568873 0.07581687
0001f0 75 43 a6 be b1 05 82 bf 60 a5 4a bf aa 62 b9 be
       -0.3247334 -1.0157987 -0.7915859 -0.36208087
000200 ee 0d 03 3f 40 85 73 be 49 47 74 bf 1f a8 8a be
       0.5119313 -0.237813 -0.9542127 -0.2708139
000210 10 dc 78 bf e0 0d 5a be a8 c3 65 bf 44 a9 b4 be
       -0.9721079 -0.21294355 -0.8975167 -0.3528539
000220 e0 e9 ca be 4b 63 80 bf 6f 73 d8 be 45 30 a7 bd
       -0.39631557 -1.0030302 -0.4227557 -0.081635036
000230 34 c0 cb be 9a 91 be bf 3f e0 9a 3e 93 49 e7 bd
       -0.39795077 -1.4888184 0.3024921 -0.1129333
000240 84 28 e5 3e c5 5d 83 be 43 fc c6 3e 75 b0 07 3e
       0.44757473 -0.25657478 0.38864335 0.13250907
000250 4a 40 ff 3e f5 86 1f bf d9 bf 5f bd 90 50 18 bd
       0.49853736 -0.62315303 -0.05462632 -0.037186205
000260 54 a3 85 bf 0a 86 52 bf b5 ab 89 bf 18 b2 67 be
       -1.0440469 -0.8223578 -1.0755526 -0.22626531
000270 fd 9e 1d bf 66 d5 2c bf 3c 06 95 3f 6a bb 6c bf
       -0.6157072 -0.6751312 1.1642528 -0.9247347
000280 5c ba a0 3e 84 30 c9 3d f5 f7 29 3f 3e a6 4e 3f
       0.3139218 0.09823707 0.6639398 0.80722415
000290 e9 9b 08 3d 6b 94 d1 be 45 65 ca be 1d dd c9 be
       0.033351813 -0.40933546 -0.39530388 -0.3942651
0002a0 b9 96 40 bf ff d7 3e 3f eb e1 ab be a4 96 7b be
       -0.75229985 0.74548334 -0.335708 -0.24569184
0002b0 08 37 9a be 3f 31 f7 be 41 4c f2 be 8c 18 38 bf
       -0.3012011 -0.4827976 -0.47323802 -0.71912456
0002c0 14 aa 04 be 3e 62 6e bf 14 cf cb 3d 1f 0e 36 3e
       -0.12955505 -0.93118656 0.099516064 0.17778824
0002d0 60 48 6b be bc 19 92 bf 6f 54 3d bf 57 49 1a 3f
       -0.22976828 -1.1414104 -0.7395696 0.6026816
0002e0 c4 25 3e 3e c0 88 ba bb c1 41 f1 3e be 86 40 3f
       0.18569094 -0.0056925714 0.4712048 0.752056
0002f0 d8 f3 90 bf bb 76 2c bf 0c 5c 64 bf c0 8e 33 be
       -1.1324415 -0.6736867 -0.8920295 -0.17534924
000300 37 bb 1e bf 0a c2 48 bf f1 04 89 bf f1 7c cc 3e
       -0.6200442 -0.7842108 -1.0704633 0.39939073
000310 7b 7d a6 3d b9 e7 84 bf 61 51 05 bf 8d 34 dc bd
       0.08129402 -1.0383216 -0.520773 -0.10752211
000320 20 17 30 3e b5 6e d7 3f d5 83 75 3f 16 44 85 bf
       0.17196321 1.683066 0.95904285 -1.0411403
000330 60 3f b6 3f b8 fd 79 bf 2b 53 8a 3f 76 83 4f 40
       1.423809 -0.9765277 1.0806631 3.2423987
000340 f6 49 45 3d b7 f6 be be a7 63 c2 3e f0 35 76 3f
       0.048166238 -0.37297603 0.37966654 0.9617605
000350 1e 44 53 bf a2 0e 7a bf 9a 4d 85 3c 62 4f 98 bf
       -0.82525814 -0.9767858 0.016272355 -1.1899226
000360 1e 19 8e 3f 54 77 90 3d 03 4d 21 c0 27 09 88 3d
       1.1101415 0.0705401 -2.5203254 0.06642371
000370 52 af 6a 3f 9b 45 8d bf 56 32 a7 3d d4 c3 63 3f
       0.9167377 -1.1036867 0.08163898 0.88970685
000380 3f 86 aa bf 4b 80 cb bf da 93 66 bf c9 95 55 bf
       -1.3322219 -1.5898527 -0.90069354 -0.8343168
000390 ff b2 b5 3f 85 46 d0 3f 59 7b e1 3e 8f d1 95 3f
       1.419525 1.6271521 0.4403942 1.1704577
0003a0 98 66 39 c0 a9 8b b3 bf 7b 1b a5 be 73 88 ac bf
       -2.8968868 -1.4026996 -0.32247528 -1.3479141
0003b0 05 f0 9b bf 85 cb 71 bf 34 f4 86 bf 03 67 50 bf
       -1.2182623 -0.9445117 -1.0543275 -0.81407183
0003c0 aa 54 07 c0 15 fc 3a bf 4e 37 fe 3f cb 65 2e 3f
       -2.1145425 -0.73040897 1.9860628 0.68124074
0003d0 34 d0 67 bf af 38 9d bf 35 8e a7 bf 68 3a 83 3f
       -0.9055207 -1.2282923 -1.3090273 1.0252199
0003e0 6e 67 cb 3f 2f dc 22 3f da 0b ab bf 20 ce 47 3f
       1.5890939 0.63617224 -1.3362992 0.78048897
0003f0 f1 b8 8b bf 18 28 97 be 1b 72 60 be 34 53 b2 3f
       -1.0915815 -0.29522777 -0.21918528 1.3931642

lstm.weight_hh_l0 f4 [400, 100]
000000 6c 7f 86 bf fb 45 cb 3e 95 8f 0c bf 75 0b 89 bf
       -1.0507636 0.39701828 -0.5490659 -1.0706621
000010 7b 18 85 3e ef 17 92 3c b4 ec 11 bf 85 a2 f4 bd
       0.2599524 0.017833678 -0.57001805 -0.11945061
000020 d1 5b 5f 3e 65 a0 d0 be d0 b4 20 be 3c c4 11 bf
       0.21812369 -0.4074737 -0.15693974 -0.56940055
000030 f1 8e 46 bf 08 43 a2 bf 81 7f 40 3f f2 60 9b be
       -0.7756186 -1.2676706 0.75194556 -0.303474
000040 59 95 15 3e e7 d9 1d 3e 33 a8 e0 3e 3e 5b e0 3e
       0.14607753 0.15415154 0.43878326 0.43819612
000050 66 6f 50 3e 92 e8 4e bf 18 c9 d3 bf 06 0a be bf
       0.20354995 -0.80823624 -1.6545744 -1.4846809
000060 56 ba 20 bf 07 e8 db 3e c8 94 4c 3e c0 c9 33 3e
       -0.62784326 0.4295046 0.1997863 0.1755743
000070 f4 c4 b0 be 9b b9 d8 be 05 b3 8b be d0 ee 46 be
       -0.34525263 -0.42329106 -0.2728502 -0.19427037
000080 66 fa 2e bc da cd 0b 3e 19 2e dc 3e 4b f0 55 3d
       -0.010679817 0.13652745 0.4300392 0.052231114
000090 3c cc 77 3e 96 8c 56 bf 24 d9 1b 3f 38 44 8c 3e
       0.24199003 -0.8380827 0.60878205 0.27395797
0000a0 9a 84 05 3d a1 d9 20 bf 4c d0 8c 3e 07 c3 29 bf
       0.03259716 -0.62832075 0.27502668 -0.66313213
0000b0 8a 75 f6 bd 53 9e d1 be 4f a9 29 3f f1 34 ec 3e
       -0.120341375 -0.40941104 0.6627397 0.4613414
0000c0 6c 57 a3 be be 5a 1d bf 8b 67 37 bf ad 0f a0 be
       -0.31902635 -0.61466587 -0.7164237 -0.3126196
0000d0 93 eb 81 be 9e 6a 79 3e 16 9e 7b be f5 82 fd 3e
       -0.2537504 0.24357077 -0.24572024 0.49513975
0000e0 67 8d 98 3e 96 8b e3 be 11 a4 9a 3f 14 b6 7f be
       0.2979538 -0.44442433 1.2081319 -0.24971801
0000f0 06 fb ef be 19 60 ac bf 29 f6 a2 bd bf 11 d2 bf
       -0.46871203 -1.3466827 -0.079571076 -1.6411666
000100 34 72 bf bf eb fa 9b 3e 52 0a 96 3e 4b bc 98 bd
       -1.4956727 0.30464873 0.2930475 -0.07457789
000110 e4 7e 69 3e 0d 18 8f be 13 af 31 3d a4 25 a8 bf
       0.22802311 -0.27948037 0.043379854 -1.3136487
000120 45 19 3d bd ae 46 12 bd 49 70 00 3e 83 27 7f bf
       -0.046166677 -0.035711937 0.12542833 -0.99669665
000130 e3 24 6a be 4b b4 4d bf c7 cf 25 bf c5 38 8e 3d
       -0.22865634 -0.8035323 -0.6477017 0.06944422
000140 3e 67 34 be 8a e4 c9 bd 03 a7 b8 3e fb 43 62 3e
       -0.17617509 -0.098580435 0.3606492 0.22096245
000150 2f 4a a6 be 89 6f 11 be 03 18 8e bf 8f b4 91 bd
       -0.32478473 -0.14202704 -1.1101078 -0.07114517
000160 8f b9 ae 3e 15 6f 10 bf bf 89 8f 3e 0b 3d e7 bd
       0.34125945 -0.564195 0.2803478 -0.1129094
000170 0b df a5 bf 83 4a 02 bf 04 73 11 be 5a 29 ec be
       -1.2958692 -0.50894946 -0.14204031 -0.461253
000180 aa e3 b9 3e bc e3 90 bf 9d 0c 2c 3e 73 18 8b bd
       0.36306506 -1.1319499 0.16801687 -0.06791773
000190 55 c8 4b bf 64 df 74 3d ab 64 26 3f e2 dc a2 bf
       -0.7960256 0.059783354 0.6499736 -1.2723658
0001a0 c9 52 7c 3f e1 90 45 bf 3a de ec 3e 61 2c e9 3e
       0.9856382 -0.7717419 0.46263295 0.4554167
0001b0 16 6d 90 3e ea 86 69 be ec 7c a0 bf 25 6d 15 3f
       0.28208226 -0.22805372 -1.2538123 0.58369666
0001c0 38 45 a2 bf bc 58 95 bf a1 be 21 bf 91 36 a3 bf
       -1.2677374 -1.1667705 -0.631815 -1.2751027
0001d0 6f fd 36 3f 0d 5d 5e bf 34 7b 0e bf 0e 2b 38 3f
       0.7148046 -0.86860734 -0.55656743 0.71940696
0001e0 33 36 88 3e 7b 02 8e bf 20 ad 3d bf 82 7b 80 bf
       0.2660385 -1.1094507 -0.7409229 -1.0037692
0001f0 68 bb 06 3f 4c 24 87 bf 7e 11 83 bf dc 38 87 bf
       0.5262971 -1.0557952 -1.0239713 -1.0564227
000200 94 16 bb 3f 9d 01 c5 3f 99 3e 7f 3e fc 70 23 be
       1.4616265 1.5391117 0.24926223 -0.15961069
000210 b7 68 44 3e e8 6b c1 bf 50 b8 78 3d 1b 3e 96 bf
       0.1918057 -1.5111055 0.06072265 -1.1737703
000220 11 e2 01 3f 8b a7 77 bf 59 af 93 bf 19 f6 d9 be
       0.50735575 -0.96740025 -1.1537887 -0.4257057
000230 23 1c cd bf dd cf af bf b3 1a 85 3e 3a 73 a4 3d
       -1.6024212 -1.373531 0.25996932 0.0802979
000240 67 dc 52 bf 60 e5 30 bf 38 05 8c bf ff bb 5f 3e
       -0.8236756 -0.691 -1.0939093 0.21849059
000250 9c c9 d9 3f 73 e7 e6 3e 3d 69 52 bc d0 f5 33 3f
       1.7014651 0.45098457 -0.012842474 0.70296955
000260 ba d6 d4 3e bc cd 8f 3d b6 87 7d 3e 38 0e 7c be
       0.41570073 0.070216626 0.24758801 -0.24614799
000270 0d ab b5 3f b5 c2 59 bf f3 1a 88 bf a7 3e ef bf
       1.4192826 -0.85062724 -1.0633224 -1.8690995
000280 8d 3a 78 3f 63 9b 63 bf c2 bb b4 bf 75 6c 15 be
       0.9696434 -0.88908976 -1.4119799 -0.14592154
000290 e9 28 f3 be b0 fd 24 be e8 f8 8e 3e b1 d0 cb be
       -0.4749215 -0.16112399 0.27924275 -0.39807656
0002a0 83 23 67 bf 63 b9 99 3e 92 77 94 3f f9 09 a0 be
       -0.9028856 0.3002425 1.159899 -0.3125761
0002b0 05 68 48 3e 16 ae 55 3f e6 e1 59 bf b0 72 89 be
       0.1957093 0.8346876 -0.8511032 -0.26845312
0002c0 53 37 10 bf bf 4d 4b 3e 26 13 54 3d 86 ef 93 bf
       -0.5633442 0.19853877 0.051776074 -1.1557472
0002d0 a5 49 ee 3e 79 e2 53 bf 53 06 52 3e 1b 17 c6 bf
       0.4654056 -0.82767445 0.20510225 -1.5475801
0002e0 54 0b 95 3f 3d 16 52 3f 18 e0 58 bf d4 dd 20 bf
       1.1644082 0.8206518 -0.8471694 -0.6283848
0002f0 d4 8b 5d bf 8f 12 a8 3e 53 1c 4f bc 41 8e 56 bf
       -0.86541486 0.3282666 -0.01264103 -0.8381081
000300 d9 b7 aa be 53 0c 8a be f4 86 0c 3f 19 42 84 bf
       -0.3334339 -0.26962528 0.5489342 -1.0332671
000310 3b 9f 51 3e 4b cf de be c3 ab ab bf 8c 72 92 bf
       0.20470898 -0.43517527 -1.3411793 -1.1441207
000320 6e 86 b6 bf d0 02 8b bd 86 e1 2c bf c5 51 46 be
       -1.4259775 -0.06787646 -0.6753162 -0.1936713
000330 19 1f b4 be 21 fb f3 3e 14 9a c1 3d 5f 70 98 3e
       -0.35179976 0.47652534 0.09453216 0.29773232
000340 02 42 89 be 38 19 21 3f da 07 92 3d e2 96 9e be
       -0.26808172 0.62929106 0.07130404 -0.3097449
000350 ff 7b 8d bf 96 f8 64 bf e8 5e 2a be 1e ce d7 3e
       -1.1053466 -0.8944181 -0.16637766 0.42149442
000360 fe cc 1e bf 89 93 72 3d a6 cc 8b 3e c1 32 a7 3e
       -0.62031543 0.05922273 0.27304572 0.3265591
000370 cf 31 b1 3e eb 53 69 bf cc 2d 69 bf 6b a8 5c bf
       0.34608313 -0.91143674 -0.91085505 -0.86194485
000380 7a e3 4d bf b1 2b 01 3d bc 20 f6 3e 61 cf 10 bf
       -0.80425227 0.031535808 0.4807185 -0.56566435
000390 3b dc 37 be 38 74 e6 bd 04 31 13 bf 93 8f 3b bf
       -0.17955105 -0.11252636 -0.57496667 -0.7326595
0003a0 58 9d ab be 77 7f 8e be 8c 9d 21 3e 49 49 04 bf
       -0.3351848 -0.27831623 0.15782756 -0.51674324
0003b0 ea 86 f0 3e b3 83 7a bf e8 51 97 be da 64 c3 be
       0.4697793 -0.9785721 -0.29554677 -0.3816288
0003c0 33 5e 2e bd d9 cc eb be c2 8f c4 3d 80 65 77 bf
       -0.042570304 -0.46054724 0.09597732 -0.9663925
0003d0 fd 7c 8e 3d 4f 61 14 3e 2e 21 78 be c8 ee c9 be
       0.069574334 0.14490245 -0.24231407 -0.39439988
0003e0 c7 eb 57 3e b8 74 a5 be 0d 21 f8 3c 49 03 1d 3c
       0.21086036 -0.32315612 0.030289197 0.009583303
0003f0 83 92 ef be 5b 12 a4 bd f6 d8 d7 be 74 f6 29 bf
       -0.46791467 -0.080113135 -0.42157716 -0.6639168

lstm.bias_ih_l0 f4 [400]
000000 11 8b 99 bf 0f 89 07 be 94 e2 8e bf 7a e0 e4 bd
       -1.1995565 -0.13235877 -1.1162896 -0.11175628
000010 a7 25 0c be 95 a8 93 bf 6f 8f 8e bf 8e 65 8d 3f
       -0.13686238 -1.1535822 -1.1137522 1.1046617
000020 5c cf 91 bf ce 52 75 bf 9f 7d 35 bf 66 94 73 bf
       -1.1391406 -0.95829475 -0.7089481 -0.95148313
000030 fd a8 89 bf 8c 3f b8 be 92 37 0b c0 99 ad 31 bf
       -1.0754696 -0.35985982 -2.1752667 -0.69405514
000040 e8 2b 32 bf 53 a8 bd bf 3a ea cb 3d 02 44 8c bf
       -0.69598246 -1.4816993 0.099567845 -1.0958254
000050 9c a6 d2 bf 34 fc 25 bf f0 a7 11 bf 36 c7 10 bf
       -1.6457095 -0.64837956 -0.5689688 -0.5655397
000060 29 26 0c bf 02 5b f0 3c d8 9f 72 bf b5 54 dc bf
       -0.5474573 0.02934027 -0.9477515 -1.721335
000070 45 8d c3 be 0b 38 44 3e 89 1a 2c bf 1f c8 18 bf
       -0.38193718 0.19162004 -0.6722799 -0.5968036
000080 23 d2 ac 3e c5 8f d4 be de be 88 bf b6 f1 1e be
       0.33754072 -0.41515937 -1.0683248 -0.15521893
000090 72 10 17 bf 5f 90 ad be 26 40 3e bf 07 4f 04 c0
       -0.5900947 -0.3389921 -0.7431663 -2.0673234
0000a0 d1 17 af be f5 cb 9d bf 65 5a 9b 3d e0 09 a3 bf
       -0.34197858 -1.2327868 0.07585601 -1.2737389
0000b0 2f 25 5f bf 92 ae 2b bf 29 c4 d5 be 61 6c 90 bf
       -0.8716611 -0.6706325 -0.4175122 -1.1283075
0000c0 41 56 a2 3d 1e f7 8e bf 8b a0 f0 be 13 3e a9 bc
       0.07926608 -1.1169164 -0.46997485 -0.020659482
0000d0 49 a8 d2 be 2e db 9f bf a0 44 ab be d4 59 ff be
       -0.41144016 -1.2488763 -0.33450794 -0.4987322
0000e0 ae 94 03 bf 8d 52 19 bf 82 ab 23 bf 63 05 6c be
       -0.5139874 -0.5989159 -0.63933575 -0.2304893
0000f0 98 d1 79 bf 74 f1 f4 be 4d ff bc 3c d2 9b 66 bf
       -0.9758544 -0.47840464 0.023070956 -0.9008151
000100 2e 0b 52 bf 39 3c f0 be 74 2a 90 bf 5f fa bc be
       -0.8204831 -0.46920946 -1.1262956 -0.36909768
000110 6d 9e 48 bf 52 3f 1f bf 95 cb 0b bf 6f 7f 72 bf
       -0.7836674 -0.62205994 -0.54607517 -0.947257
000120 8b ca 70 bf ab cf 28 bf fd 0e 90 bf b6 68 56 bf
       -0.94059056 -0.65941876 -1.1254574 -0.83753526
000130 9c 02 d5 be fe 74 27 bf c4 f6 34 bf 74 98 90 be
       -0.41603553 -0.6541289 -0.70689034 -0.28241313
000140 fd a1 bc bf ad 17 95 be 45 7a 81 be 62 a0 dd be
       -1.4736935 -0.29119626 -0.25288597 -0.43286425
000150 f2 95 86 be e7 73 38 bf e8 d7 ed be 37 21 1c be
       -0.26286274 -0.7205185 -0.46453786 -0.15247045
000160 51 81 a1 bc 95 a5 ea be 19 34 3f bf d4 1e c0 bf
       -0.019714983 -0.45829454 -0.7468887 -1.5009408
000170 bb ef 15 bf ab 9e 73 bf 99 93 87 3c f3 17 76 be
       -0.58568925 -0.95163983 0.016549872 -0.24032573
000180 1c 68 4b bf 9a 84 05 bf 53 5f 83 be 17 1d 37 bf
       -0.79455733 -0.5215546 -0.25658664 -0.7152876
000190 35 18 1d bf 14 e0 24 bf 37 55 30 bf de 0f 73 bf
       -0.6136506 -0.64404416 -0.6888003 -0.94946086
0001a0 85 5a f7 be a0 3d 31 bf 29 0e 6d bf cb af 9a bf
       -0.48311248 -0.6923466 -0.9259973 -1.2084898
0001b0 a3 b9 b9 be 4b d3 f3 be 35 6f 84 bf ac 48 32 bf
       -0.36274442 -0.4762214 -1.0346438 -0.6964214
0001c0 9b 24 16 bf 33 72 43 bf 56 23 a1 bf 19 12 c7 be
       -0.58649606 -0.7634613 -1.2588909 -0.38880995
0001d0 e5 91 1c bf 57 a0 57 bf 5b 2b 89 bf b5 e3 4c bf
       -0.6116012 -0.84229034 -1.0716356 -0.80034953
0001e0 6d c9 51 bf 9e ec 38 bf f0 04 23 bf f7 97 76 bf
       -0.81947976 -0.7223605 -0.6367941 -0.9632563
0001f0 2b 84 21 bf 2f 55 43 bf 33 3a 71 bf fb b8 e1 bf
       -0.630923 -0.76301855 -0.9422943 -1.7634577
000200 ca 2f de be 71 50 4e bf 4a ca 31 bf 42 5d 60 bf
       -0.43395835 -0.80591494 -0.69449294 -0.876423
000210 eb 68 26 bf 46 21 79 bf 56 98 e7 be 3b 90 84 bf
       -0.6500384 -0.97316396 -0.4523341 -1.0356516
000220 b8 a3 fc be b1 f0 26 bf 5f b5 9a bf 36 e0 30 bf
       -0.49343657 -0.65211016 -1.20866 -0.6909212
000230 71 19 94 bf a5 93 78 bf 9f 9c 09 bf 00 28 b7 bf
       -1.1570264 -0.9710029 -0.5375461 -1.4309082
000240 04 60 92 be 06 6a 29 bf 18 92 91 be 0d 6d fc be
       -0.2858888 -0.66177404 -0.28431773 -0.4930195
000250 7b 24 a7 be 7e 27 5e bf f0 35 17 bf ec ad 50 bf
       -0.3264502 -0.8677901 -0.5906668 -0.81515384
000260 b1 e1 45 bf c7 a5 0d be 84 6a 0f bf be 73 1e bf
       -0.772975 -0.1383277 -0.56021905 -0.6189536
000270 54 7f 47 bf 89 c8 73 bf 56 89 b6 3e 55 31 6f bf
       -0.7792866 -0.9522787 0.35651654 -0.9343465
000280 35 39 b3 be fc b0 f9 be 90 0a d9 be 11 b7 f8 be
       -0.35004583 -0.4876784 -0.4239087 -0.4857717
000290 6f 18 7e bf 99 fe 81 bf a5 35 56 bf ad ee 77 bf
       -0.9925603 -1.0155822 -0.83675605 -0.96848565
0002a0 72 54 90 bf 76 e2 be be 5b 3b 65 bf 34 38 cf be
       -1.1275771 -0.3728215 -0.89543694 -0.40472567
0002b0 42 06 42 bf 47 11 5e bf a1 38 63 bf 85 63 f5 be
       -0.757908 -0.86745113 -0.88758284 -0.4792749
0002c0 cf 92 df be 82 e1 3b bf a7 44 65 bf 56 ca 48 bf
       -0.43666694 -0.7339097 -0.8955788 -0.7843374
0002d0 fd 47 2e bf 33 ea 53 bf 7a be 86 be 48 dc 83 be
       -0.68078595 -0.82779235 -0.26317197 -0.25754
0002e0 24 00 64 bf 98 2d 0b bf 91 2c 2d bf 5f d1 dd be
       -0.89062715 -0.54366446 -0.6764613 -0.433238
0002f0 7b 67 e3 be 9f e6 42 bf 69 90 46 bf 0b 45 8d bf
       -0.44414887 -0.7613315 -0.775641 -1.1036695
000300 7a 68 16 bf 75 9c 35 bf c0 85 fe be be 10 41 bf
       -0.5875317 -0.7094186 -0.49711418 -0.7541617
000310 a3 95 41 bf bd 37 2c bf 1d 1a 17 bf ba 53 36 bf
       -0.7561895 -0.6727255 -0.5902422 -0.71221507
000320 2e fc a8 bd 42 ee 8c be de d5 43 be 4b 41 f0 3d
       -0.082512245 -0.27525526 -0.19124553 0.11731204
000330 dc e0 57 be d3 6a 12 3e 56 f5 78 be d9 28 19 bf
       -0.21081871 0.14298563 -0.24312338 -0.59827954
000340 99 db bb 3c 2f 5d ca 3d 71 5e e4 bb 39 80 6f be
       0.02293186 0.098810546 -0.006969266 -0.23388757
000350 90 7e 06 3e 58 7e 3d 3e ad b8 86 3d 41 94 30 3e
       0.13134217 0.18505228 0.06578193 0.17244054
000360 97 c0 3a be e9 79 6a 3d e8 13 44 bd 72 20 2c 3e
       -0.1823753 0.05724517 -0.047870547 0.16809252
000370 5f 5d 14 be 78 31 5c 3e 04 56 94 bd a0 88 91 bd
       -0.14488743 0.21503246 -0.07242969 -0.07106137
000380 3c 80 ad 3e 21 7b f2 3d ce b1 a8 3d ec f1 a7 bc
       0.33886898 0.11839891 0.082370386 -0.0205011
000390 95 4c 35 be c3 71 93 be 14 9f 32 be db 87 67 be
       -0.17704995 -0.2879773 -0.17443496 -0.22610418
0003a0 19 8c ec 3e 28 7e 78 3e 20 8a 1e bc 8e 7e 73 3e
       0.46200636 0.24266875 -0.009676486 0.23778746
0003b0 f6 02 da 3d 0a d2 91 3e 7d aa cc 3d fb cd 13 3e
       0.10645096 0.2848056 0.099934556 0.14434044
0003c0 db 8d 97 3e 38 99 6a 3e 31 29 14 bf e2 4f 92 bd
       0.29600415 0.22910011 -0.57875353 -0.07144143
0003d0 70 7e 03 bc 5f 86 2a 3e 6d 9b 34 3e 9e ee d8 be
       -0.0080257505 0.16652821 0.17637415 -0.4236955
0003e0 61 de 02 be de 2f 6a bd 32 bb 3f 3e 7e 1f 5f be
       -0.12780143 -0.057174556 0.18723753 -0.21789357
0003f0 ff 9b ff 3d 47 cf ba 3d a0 62 e5 3e 39 77 a2 be
       0.12480926 0.09121566 0.44801807 -0.31731585

lstm.bias_hh_l0 f4 [400]
000000 9d fc 92 bf d0 b3 0f be 2f fa 84 bf 8b d0 5b be
       -1.1483341 -0.14033437 -1.038885 -0.21466272
000010 d4 1e f3 bd 07 4c 8e bf bb 2d 93 bf bb d7 89 3f
       -0.118711144 -1.1116952 -1.1498331 1.0768961
000020 24 85 91 bf 02 4d 51 bf a4 ab 40 bf 77 5b 73 bf
       -1.1368756 -0.8175813 -0.752619 -0.9506144
000030 f1 fe 87 bf ab 82 ca be e3 f6 0e c0 f2 4c 27 bf
       -1.0624677 -0.39552817 -2.2338188 -0.65351784
000040 43 e6 54 bf 19 61 c0 bf 9a 71 51 3e 11 80 84 bf
       -0.8316385 -1.5029632 0.20453492 -1.0351583
000050 20 d0 dd bf de 4f 1a bf 18 35 cd be 00 6c 2c bf
       -1.732914 -0.6027812 -0.4007957 -0.67352295
000060 b9 7c d9 be 49 27 9d 3c a0 cf 6f bf b1 ac de bf
       -0.42477968 0.019183772 -0.93676186 -1.7396451
000070 4d a8 8d be 4c 44 05 3e 1c 36 24 bf 3a d5 07 bf
       -0.27667466 0.13014334 -0.64145064 -0.5305973
000080 ee 28 d3 3e 7b 7f dd be ab c9 75 bf 85 53 a1 be
       0.41242164 -0.43261322 -0.96010846 -0.31509033
000090 c2 99 18 bf c6 f1 ad be 77 ea 18 bf 58 53 fa bf
       -0.59609616 -0.3397352 -0.59732765 -1.9556684
0000a0 86 de 70 be d6 1b a0 bf 59 39 45 3e a5 de a2 bf
       -0.23522386 -1.2508495 0.19260158 -1.2724196
0000b0 4a 9e 6f bf 74 9c 3a bf 9f e3 0c bf 2d 05 83 bf
       -0.93600905 -0.7289498 -0.5503482 -1.0235955
0000c0 79 fb b2 3d 1b 2a 96 bf ec 96 98 be 0e 8a 48 be
       0.08739371 -1.17316 -0.29802644 -0.19583914
0000d0 ef bc ed be bb b6 95 bf 83 9d 9f be d6 bf ec be
       -0.46433207 -1.169639 -0.3117486 -0.4624011
0000e0 bf 29 05 bf 12 6c 25 bf f1 a5 27 bf 40 88 8b be
       -0.52016824 -0.6461803 -0.6548758 -0.27252388
0000f0 2d f4 71 bf e7 ea da be 9d 0a 68 3c 43 47 68 bf
       -0.9451321 -0.4275734 0.014162687 -0.90733737
000100 6c 35 6b bf 42 4b 11 bf b5 1a 8e bf 58 4a a9 be
       -0.9187839 -0.5675546 -1.11019 -0.33064532
000110 c1 93 5c bf 34 b4 06 bf ff 42 31 bf 51 79 63 bf
       -0.86162955 -0.5261872 -0.6924285 -0.8885699
000120 9b 27 8e bf d2 59 27 bf 0c 6b 83 bf 14 89 63 bf
       -1.1105837 -0.6537143 -1.0267043 -0.8888104
000130 0c 77 fc be f8 aa 30 bf f2 d5 42 bf 64 87 b2 be
       -0.49309576 -0.6901088 -0.76107705 -0.3486892
000140 01 a1 b8 bf 5c d4 c1 be 46 b3 08 be 10 cf d4 be
       -1.4424134 -0.3785733 -0.13349637 -0.41564226
000150 f3 a8 1b be 65 32 3e bf 18 c6 03 bf 5b 29 46 be
       -0.15201168 -0.74295646 -0.5147414 -0.19351713
000160 b0 7c aa 3d df 95 e9 be 13 0b 5b bf 1c f8 be bf
       0.083245635 -0.45622155 -0.8556377 -1.4919467
000170 c3 33 12 bf c0 e7 79 bf d6 b9 3c bd 48 bd 79 be
       -0.5711023 -0.9761925 -0.046075664 -0.24388611
000180 da b7 58 bf 1c ec f5 be ea c8 cf be c8 38 4f bf
       -0.84655535 -0.480317 -0.40582973 -0.80946016
000190 1f 15 27 bf bd 51 17 bf 75 bb 37 bf c0 19 55 bf
       -0.65266603 -0.591091 -0.7177041 -0.83242416
0001a0 f9 9c 00 bf 9a 77 25 bf 8f a4 61 bf 37 d6 ad bf
       -0.5023952 -0.6463562 -0.8814172 -1.3580998
0001b0 2b 1a db be 2a 01 11 bf bb 45 76 bf 60 80 26 bf
       -0.42793402 -0.566424 -0.9620015 -0.65039635
0001c0 89 e0 da be f1 80 4f bf fa 9e b3 bf 95 1d f3 be
       -0.42749432 -0.81056124 -1.4032891 -0.47483507
0001d0 a2 e8 24 bf d3 58 62 bf 9a f2 97 bf 32 26 41 bf
       -0.6441747 -0.88416785 -1.1870911 -0.75448906
0001e0 99 11 5d bf 36 a2 2e bf 43 7f ee be d6 66 89 bf
       -0.86354977 -0.68216264 -0.46581468 -1.0734508
0001f0 37 2b 25 bf 40 71 53 bf bd b3 8b bf 21 10 d1 bf
       -0.64519066 -0.8259468 -1.0914227 -1.6333047
000200 93 9a a1 be cc 89 3a bf 2a 29 3a bf c8 19 5e bf
       -0.31563243 -0.7286651 -0.7271906 -0.8675809
000210 bc 8d f9 be cf 34 68 bf 50 24 13 bf 9f 0d 85 bf
       -0.48740947 -0.9070558 -0.57477283 -1.0394782
000220 20 09 13 bf e0 35 25 bf 27 1e a9 bf bd 03 3b bf
       -0.574358 -0.6453533 -1.3212327 -0.7305258
000230 c6 a8 a5 bf 11 32 77 bf 29 df 08 bf e4 4b ad bf
       -1.294213 -0.9656077 -0.53465515 -1.3538785
000240 51 82 94 be 05 49 4a bf 24 b5 a1 be 68 4c f3 be
       -0.29005674 -0.7901767 -0.31583512 -0.4751923
000250 d0 67 d8 be 34 0d 5d bf ae e2 16 bf 97 e2 40 bf
       -0.42266703 -0.8634827 -0.58939636 -0.7534575
000260 71 25 2c bf 79 f1 85 be bc c6 13 bf fd dd 39 bf
       -0.6724463 -0.26160792 -0.5772512 -0.7260435
000270 5c c5 31 bf 29 35 7f bf c9 a8 e4 3e 47 34 4c bf
       -0.6944177 -0.9969049 0.44660023 -0.7976727
000280 41 94 d4 be 37 7a 18 bf fa 03 f0 be 75 06 f2 be
       -0.4151936 -0.59561485 -0.46878034 -0.4727055
000290 f8 9a 71 bf 91 65 85 bf fa b8 46 bf 91 e5 57 bf
       -0.9437709 -1.0421621 -0.77626 -0.84334666
0002a0 c0 69 91 bf 36 48 ce be bb fc 84 bf e6 1e 7f be
       -1.1360397 -0.40289468 -1.0389627 -0.2491413
0002b0 a0 45 69 bf 78 b7 5d bf c4 cd 48 bf e6 de ed be
       -0.91121864 -0.86608076 -0.78438973 -0.4645912
0002c0 29 df b4 be 59 1a 3d bf f4 00 58 bf 99 93 2a bf
       -0.35326508 -0.7386833 -0.84376454 -0.66631466
0002d0 38 1e 34 bf 15 8c 4a bf 62 12 8a be 14 37 3c be
       -0.7035861 -0.7912 -0.2696715 -0.18380386
0002e0 28 f0 7b bf ab 9a 1a bf 32 d8 3a bf b1 08 a9 be
       -0.98413324 -0.60392255 -0.7298614 -0.33014444
0002f0 1a b9 bf be a7 b2 3e bf 34 f4 55 bf da df 91 bf
       -0.3744591 -0.7449135 -0.8357575 -1.1396439
000300 47 de 20 bf cb 53 20 bf f2 e1 bc be 66 19 41 bf
       -0.6283917 -0.6262786 -0.36891133 -0.7542938
000310 0d eb 51 bf d1 61 25 bf 53 27 2c bf 04 0a 31 bf
       -0.81999284 -0.6460238 -0.67247504 -0.6915591
000320 76 a5 ce ba 4b 3d 80 be 88 ce ca bd 7b 51 09 3e
       -0.0015765864 -0.25046763 -0.09902674 0.13409989
000330 98 1b 66 be fd 67 0b 3e 9b 6f 75 be 25 d9 02 bf
       -0.22471464 0.13613887 -0.23968355 -0.51112586
000340 3b fc d5 3c a1 5b ce 3d 75 48 f3 bd 07 f7 bb bd
       0.02612125 0.100760706 -0.118790545 -0.09177976
000350 18 d2 3c 3e 32 e4 95 3e 0e 76 56 3c 57 8a 72 3e
       0.1843952 0.29275662 0.01308967 0.23685585
000360 b3 db 17 be 63 21 20 3e 85 75 4f be 03 ce 0d 3e
       -0.14829902 0.15637736 -0.20259674 0.13848118
000370 9f ac 52 be 45 ba 50 3e ec 33 e3 bd ea 46 54 bd
       -0.20573662 0.20383556 -0.11093888 -0.05182544
000380 8a 83 6a 3e f2 e5 c8 3c db b2 0f 3e 33 5d 94 bd
       0.2290174 0.024523709 0.14033072 -0.07244339
000390 68 b7 33 be 7b 5b 84 be d2 e0 60 be fe db 48 be
       -0.17550433 -0.25851044 -0.21960762 -0.1961517
0003a0 da a5 c3 3e 26 b9 e0 3d 9f 1a 25 3e a9 e9 71 3e
       0.38212472 0.10972814 0.16123436 0.2362429
0003b0 c7 7c 8d 3d 0d ca 76 3e c9 7b 4e 3e a3 c9 07 3e
       0.06908565 0.24100514 0.20164408 0.13260512
0003c0 d4 9c 07 3e d7 62 f2 3d c3 0a e7 be 30 e9 9e bd
       0.13243419 0.118352585 -0.45125398 -0.07759321
0003d0 a9 5d 42 3e 95 3b 8d 3e 19 29 87 3e e4 6e cf be
       0.18981041 0.2758452 0.26398543 -0.4051429
0003e0 8e 1b 80 be a8 58 9f bd ce 87 a8 3e d2 38 40 be
       -0.25021023 -0.07780582 0.3291611 -0.18771675
0003f0 7d 97 ce 3d ed 3d ef 3d d2 bd e4 3e 04 24 87 be
       0.10087488 0.11681733 0.4467607 -0.26394665

linear.weight f4 [1, 100]
000000 7c f6 a9 bd 22 cc bc 3d 98 e0 7e 3c a4 1f fb bd
       -0.08298966 0.09218623 0.015556477 -0.12261894
000010 96 84 d7 3d 11 d8 8c 3c bb 08 aa 3c ad 76 ab 3e
       0.10523336 0.017192872 0.020756116 0.3348898
000020 8d e3 a8 3d 3f 19 ec 3d 31 fa 81 bd 2b 0b e0 3d
       0.08246527 0.11528253 -0.06346548 0.1093963
000030 9f 55 1c 3d a6 61 80 bd 13 ce af 3b 05 d3 b6 bc
       0.038167592 -0.06268625 0.005365142 -0.022317419
000040 f9 f6 85 3c 62 d6 22 3e fe 6b 9b be ae 41 09 3f
       0.016353117 0.15902093 -0.3035583 0.53615844
000050 7e 8a 80 3d 0f 04 b1 bd 4a ec 17 3a 7a 81 03 3e
       0.06276415 -0.08643352 0.00057954027 0.1284236
000060 63 7f 89 bb 5f f2 5c be ce b6 99 bc 4b dc a9 3b
       -0.004196094 -0.21576832 -0.018763926 0.0051837317
000070 e2 1e b7 3d a1 3e 06 3e f2 50 03 be dd 90 76 3c
       0.08941437 0.13109829 -0.12823847 0.015049187
000080 f3 d0 76 be 97 c7 94 bd 5b 88 f1 3e 3c db 34 be
       -0.24103145 -0.07264631 0.47174343 -0.17661756
000090 9e 1f 16 3c e6 9f ea bc 1f a2 26 3c 5a 01 be 3c
       0.009162812 -0.028640699 0.010170489 0.023194004
0000a0 b3 fe 6b be ca db c2 3d b1 c3 1f 3e c7 e9 22 bb
       -0.23046379 0.09514578 0.15601994 -0.002485858
0000b0 58 1d 00 3c 10 a8 86 3e 6e e2 c1 bc 03 02 eb bd
       0.007819496 0.26300097 -0.02366754 -0.11474993
0000c0 6d 60 ea 3d fb ac 81 3b 5f 7c 1b 3e d4 01 52 3e
       0.11444173 0.0039573885 0.15184163 0.2050851
0000d0 ce 9a 94 3b bc c2 49 3d f4 77 f8 3e ba 79 03 3e
       0.0045350557 0.04925798 0.48529017 0.12839404
0000e0 8a 24 05 3d 52 90 f1 bc 12 d0 ef bd c5 da 8a bd
       0.03250555 -0.029487763 -0.11709608 -0.06780008
0000f0 5b 69 98 be 20 e8 e3 bd 72 a0 90 be d0 ef ab 3d
       -0.2976788 -0.11128259 -0.2824741 0.0839535
000100 f3 a2 24 3d 28 23 15 be fb 2e 51 be 98 63 fc 3c
       0.040194463 -0.14564192 -0.20428078 0.030809209
000110 c3 2a 16 3d 7a 7f ba 3d a5 1a 3d 3e db e4 c3 3c
       0.036661875 0.091063455 0.18467195 0.023912838
000120 cd 07 e8 bb 44 fa 30 3c a6 66 12 be 80 1f 91 be
       -0.007081008 0.0108018555 -0.1429697 -0.28344345
000130 9f a2 d0 bd 66 59 3c be a0 53 ff 3d ed 23 1c 3c
       -0.101872675 -0.18393478 0.12467122 0.00953005
000140 ea f2 17 3d d2 61 6b 3e 43 f9 bf 3d dd 18 b7 bd
       0.037096895 0.22986534 0.09373715 -0.08940289
000150 25 78 01 3e cf be ba 3c b5 ef 54 3c 4c b8 1c be
       0.12643488 0.022796063 0.012996604 -0.15304679
000160 4d f6 85 be 84 ce 7e 3d f7 73 7b 3c c2 2f f0 3e
       -0.26164475 0.062208667 0.015347472 0.46911436
000170 36 2b 8c be 65 7a df 3e dd 2f 20 3e fd a1 8b bd
       -0.27376717 0.43648067 0.15643258 -0.06818006
000180 eb 55 9b be d9 6a d5 bc 8b 61 08 3c dd 05 f9 bc
       -0.30338988 -0.026051925 0.008324037 -0.030398304
