BodelLigging/Grave boven_bodemligging_V1.pt (torch, 661983 bytes, 5 tensors)

lstm.weight_ih_l0 f4 [400, 1]
00000000: b6a2 14bf 82d2 c6bd 97d6 adbe 3fd4 b6bd
00000010: 9e59 84be 66d9 913f 0bba e6bd 15fd 69be
00000020: dcf9 423d d3fd 123e f7e3 92be e83a 92bd
00000030: ff8a a63f f4a5 a63f 1b9d 1cbd 0187 423f
00000040: ab11 58be f4aa 77bf 4700 8dbf 7a91 f23e
00000050: 9eeb b13f da59 883e cf05 2fbf 7bcb 94be
00000060: cbd2 a83e 7270 9cbe 2aaf bf3e 5a60 32bd
00000070: 5672 143f dace 57be e9d1 173f 568b 02bf
00000080: 5352 21bf 9ea1 d1be 1f9a 853f 97bd 953e
00000090: d921 b8be 2171 6abe fe5d a3be b4af 2ebd
000000a0: e28e 1b3e 783e 52bf f6aa 07be 8dc1 603e
000000b0: 2267 68be 3190 c1be 475a e4be 0fc3 3ebf
000000c0: 78e9 cfbe 1aed a03c 4e54 b0bd 0537 3bbe
000000d0: 14b7 21be baf8 adbe 1b7a 12be e7ce 34be
000000e0: a733 08bf 2dff b73e 19e0 4a3e f8e8 253f
000000f0: e0d3 3c3f 8d7e f8be d1d7 30bf f699 8abe
00000100: 542d 703e 1d4b 683f e2a1 b2bd a956 933e
00000110: f557 6f3e c919 373f 52a0 3fbd ea73 86be
00000120: 83c7 45bf bb30 51bf 6175 013f be2f 38bf
00000130: e0c5 cf3e 14e9 9c3e 1ba5 583f 168d cabe
00000140: 4274 88be 29bb e13e 8fe0 2bbf de15 1d3d
00000150: 34ff 193e 5043 8cbe 1dde bdbe c785 43bf
00000160: 0dbd 47be bad0 8dbe 542a 603e 92ec d4be
00000170: 7c4b 7d3e 70a0 a03d 8eca 023f c68c 03bf
00000180: a010 8ebe 15c9 b6be 345b f6bd 2ecb 54be
00000190: 1206 053f 6914 b03e a28d f53e 710c 983e
000001a0: 2b21 b1be a01d 0fbf 046c f43e a5a7 903e
000001b0: de2f 92be cd88 dfbe 56ad 823e 0900 003d
000001c0: a2bc 203d 8d63 8b3f 0af2 ab3e 18d5 91bf
000001d0: dcc0 403f 6e03 54bf 0725 d3bd b84a 20bf
000001e0: fe9f 943f 4ad3 783f 946c 23bf baa6 e1bd
000001f0: 855b 103f 89c6 ba3f d6c6 2a3e 2862 43be
00000200: 8825 b53e 7983 24be 794e 963e e792 873e
00000210: d138 32bf 6694 e7be 71b1 693e b8d0 1fbc
00000220: 6fd7 4d3f c543 373f d34a ab3e 934a 0c3e
00000230: ec4f 783d 48e0 933b 4af9 ac3d 076d eb3f
00000240: 7485 bbbd 73d0 073f 5c47 84be 48c4 4fbf
00000250: 2ea3 463e 12f9 6b3f 4fba f63e 6378 81bd
00000260: 3fdf 583d b557 66be 03a3 4a3e afad a53e
00000270: 7b78 9f3e 6e27 393f b8de 5a3e 4d01 a83e
00000280: f0f6 b93c 183c b33e 62f5 91be 6ac8 96be
00000290: 3cd8 e1bd b3ea aa3e 2429 a73e 6035 b23e
000002a0: 0d75 343f 8e9d 973e 069c 1d3f 4f77 703e
000002b0: c5a2 c6be d9c6 643d bf19 7f3f 59c5 693e
000002c0: 37e8 8f3f 087d 153f 77d0 ffbd 913b 243f
000002d0: 490a 813e 88bb 1f3d 9b92 0e3f 371b 423f
000002e0: b06b a3be 79ab a63e 6c1d e63e 0826 c3be
000002f0: 4cac 343f b53b 1e3e 9b67 0a40 380d d8be
00000300: 5406 8b3e e6cf 3b3f 05c6 5d3d 55c8 f1bc
00000310: 7945 113f 1c8d f23e 548e ab3e 3dda 883e
00000320: b90e 8a3f 587d 64bf 7980 69bf 2147 73bf
00000330: 5d38 bc3f 928b 72bd d8f9 a6bf 1fc6 4dbf
00000340: ba4b 4ebf 6691 72bd ab6b 53bf ca1b 8bbf
00000350: 8a3e fc3f 4723 25c0 dda7 0abf 3fde 9e3e
00000360: 9f3d a83f 70dd 9a3e 32b3 383f 7a3a 4e3f
00000370: e5f1 40c0 eb73 7a3f 4697 7dbf 5e34 9ebd
00000380: 06f8 a8be 29ec 9abf 39d6 17bf 5d1e a0bf
00000390: e6ac d4bf 1724 99bf 4418 833f 7614 72bf
000003a0: e3a9 4dbf 4d60 143f 81e8 ef3f d0ca b93f
000003b0: 3fba 49bf 9ad7 1dbf caaa b5bf d871 523f
000003c0: b183 e73f df49 2f3f 2c66 55bf 7eec 66bf
000003d0: 873f bfbf 6785 ad3f f2a1 eb3e 294d 403d
000003e0: 1643 d43f 9b1f 843e 02f5 a63f fb51 85be
000003f0: d82e a1bf 92e8 993f 2b47 bb3f 38d7 be3f
-0.5806078 -0.0970812 -0.33952782 -0.089272015 -0.25849622 1.139447 -0.11265954 -0.2285045
0.047601566 0.14354639 -0.28689548 -0.07140142 1.3011168 1.3019395 -0.038235765 0.7598725
-0.2110049 -0.9674523 -1.101571 0.47376615 1.390003 0.2663105 -0.6836824 -0.29061493
0.32973322 -0.3055454 0.37438327 -0.04354892 0.5798696 -0.21075001 0.5930467 -0.5099386
-0.6301624 -0.40943617 1.0437659 0.29246208 -0.35963324 -0.22894718 -0.31907648 -0.042648032
0.15191224 -0.8212657 -0.1324881 0.21948834 -0.22695592 -0.37805322 -0.44600126 -0.74516386
-0.4060781 0.019644309 -0.0860983 -0.18282707 -0.15792495 -0.33978826 -0.14304392 -0.17657052
-0.53203815 0.3593687 0.19812049 0.6480861 0.73760796 -0.4853405 -0.6907931 -0.27070588
0.23454791 0.90739614 -0.08722283 0.28777054 0.23373397 0.7152372 -0.046783753 -0.2626031
-0.77257556 -0.8171498 0.5056973 -0.7194785 0.40580654 0.30646574 0.8462693 -0.39560765
-0.26651198 0.44088104 -0.67139524 0.038350932 0.15038759 -0.27395105 -0.3708352 -0.76376003
-0.19505711 -0.27698308 0.21891147 -0.4158674 0.24735826 0.07843101 0.51090324 -0.5138668
-0.2774706 -0.35700288 -0.12029114 -0.20780632 0.5196239 0.34390572 0.4795962 0.29696992
-0.34595618 -0.5590458 0.4773866 0.28252903 -0.28552145 -0.43659058 0.2552287 0.031250034
0.039242394 1.0889755 0.335831 -1.1393156 0.7529428 -0.82817733 -0.10309797 -0.6261401
1.1611326 0.971974 -0.6383755 -0.11018129 0.5638965 1.4591838 0.16677412 -0.19080412
0.35380197 -0.16065778 0.29356745 0.26479265 -0.69617945 -0.45230407 0.22821595 -0.009754352
0.8040685 0.71587783 0.33455524 0.13700323 0.060623094 0.0045128204 0.084459856 1.8392648
-0.091563135 0.53052443 -0.25835693 -0.81158876 0.19398186 0.92176926 0.48189017 -0.0632179
0.05294728 -0.22494395 0.19788747 0.32359073 0.31146607 0.7232579 0.21374023 0.32813492
0.022700757 0.35006785 -0.28507525 -0.2944978 -0.110275716 0.33382186 0.32648575 0.34806347
0.70491105 0.29612392 0.615662 0.23483013 -0.38796058 0.0558537 0.9964866 0.22829188
1.1242741 0.5839391 -0.124909334 0.6415339 0.2520316 0.038997203 0.5569245 0.75822777
-0.31918097 0.32552698 0.44944322 -0.38114953 0.70575404 0.15452464 2.1625736 -0.42197585
0.27153265 0.733641 0.054143924 -0.029514471 0.5674663 0.47373283 0.33507025 0.26729003
1.0785743 -0.8925376 -0.9121166 -0.9503041 1.4704701 -0.059215136 -1.3044996 -0.80380434
-0.805843 -0.059220694 -0.82586163 -1.0867856 1.9706585 -2.5802782 -0.5416239 0.31028935
1.3143805 0.30247068 0.7214843 0.8055798 -3.014764 0.97833127 -0.9905895 -0.07724832
-0.33001727 -1.210332 -0.5931125 -1.2509266 -1.6615264 -1.1964139 1.024178 -0.9456247
-0.8033735 0.57959443 1.874283 1.4515018 -0.78799814 -0.61657107 -1.4192746 0.8220496
1.8087064 0.68472093 -0.83359027 -0.9020461 -1.4941262 1.3556336 0.46021992 0.046948586
1.6582973 0.25805363 1.304352 -0.2603911 -1.259242 1.20241 1.4631094 1.490943

lstm.weight_hh_l0 f4 [400, 100]
00000000: f1b6 60bf 47a9 eabd b8cc c3bd 7f57 b33e
00000010: 9331 0bbf 96ca 3fbf b7a1 cc3e 567b 6bbf
00000020: 79da 1b3d 9dca 73bd 1a49 7d3e 2ba6 0bbf
00000030: fa2e 62bf 2a51 a03e 4078 2fbe 3a05 20bf
00000040: 083f a6be b925 3ec0 aa68 1cbf fd83 93bd
00000050: acd6 5e3f 31ee d7bf 0ccb 5fbf 7d42 383f
00000060: e33c f53c 699f 87be 3a8a 2f3f f206 323e
00000070: a4e5 063f 551c 38be e0a7 38bf 9f76 523e
00000080: d63d 87be 11fa f7be d885 88bf 2115 37be
00000090: efa0 2b3f 016f a2bd 1ca0 1a3f e6ad 03bf
000000a0: 3eda c0be ae3f e6bd 88ba 5e3f e703 90bd
000000b0: 3dbd 5c3e 428d c9bc 8aad 3f3e 9a9a 80bf
000000c0: 5c31 1e3f 0a63 d1bd cda9 b7bf 4e03 c0be
000000d0: fca4 b7be dcd0 df3e 7983 8abf c665 51bc
000000e0: 3997 6ebe 94a7 aabe ab75 38bf c2b2 d8bf
000000f0: 6dbf 1ebf b5ae 14bf 9314 7cbe bedd cdbf
00000100: c1bc 473e baec 013e 6e01 4ebf 084b c23e
00000110: 08ab 07bf 7bf7 b23e 40b1 85bf acc3 41bf
00000120: e71d 4ebf 4c8b aebe 75a9 00bf 48dd 873c
00000130: 9508 9dbc 925a a5be bbc5 fe3d 5eee f7be
00000140: b5da 05bd ce79 e2bf 320a 97bf 00a5 d2be
00000150: f60b 693f 127c 6abe 8751 a83e 3ed5 303f
00000160: d437 2ebf 475e 8fbe 08b7 c9bf 547e 0bbe
00000170: 96d9 96be 33d2 03bf 14e5 c3bf 4c16 9cbf
00000180: c3ee 16bf 59f6 54bf d93e ecbe 3dc7 443f
00000190: 1573 3abe 8e8e 60bf 492a db3e 8c5f 623e
000001a0: bbbd 53bf 62e5 00bf 5fc6 dbbd 13fe 20bf
000001b0: 5c60 fbbe 315d 4bbf 2100 a9bf d819 323f
000001c0: 37b9 12bf 9b45 8dbd c5d3 afbf 4463 4ebe
000001d0: 91aa 3bbf cb53 923f a063 99bf 9c01 b3be
000001e0: 7432 183e c246 e9be ce36 07bf ddc1 46bf
000001f0: 002b afbf c54d fe3d 712e aebf 83ef 50bf
00000200: f952 243f ef69 78bf 0bb1 743d fdf0 98be
00000210: feab 62bf 14a4 87bf 4807 0f3f 2787 923e
00000220: bb82 bcbd 24fb 50bf 118a 73bf 3696 dabe
00000230: f3ec b53e d15f d3be 9268 c63e e402 3fbf
00000240: f0c1 06bf 607b c4be d1ad 90be 44c5 c93e
00000250: f1aa 3bbd 9320 d5bf e3d7 bfbe 78ec 06c0
00000260: 93ad 1d3f 852d fcbf 6fa8 38be a817 b33e
00000270: 0467 17be 1d64 58be 1826 f1be ee21 9dbe
00000280: 5935 d0be 13d1 a5be 93a1 e2bf 633d 3b3d
00000290: 1c9a a0bf bdcc bebe d9e6 93bf 5723 a8bf
000002a0: 6682 b9be da5a d0bf d936 70bf 4153 ca3d
000002b0: 5f61 c8bf 9bc0 01c0 990f 0cbf 03ec 19bf
000002c0: c84c 2dbc 087f 6abf 0c12 09bf a1d3 bebf
000002d0: ed55 733d 8e88 58be 4adc 2ebf 22c9 f5bd
000002e0: 7ad0 a23d 1cbe 9fbf d680 21bf a583 5bbf
000002f0: 4c5f cbbe e77b eebf b90d ebbe 9635 f5bf
00000300: 8084 4dbe bb1d 84be 91e2 043f 87c4 31bf
00000310: 6e25 4cbf 4567 0cbe 66f1 683f 2c26 3b3e
00000320: 1bfc 06bf 1b4f 09bf 2bff cbbe 9a00 56be
00000330: 9ea9 b03d e6d3 33bf 3d06 1bbf a288 84bd
00000340: f547 9dbd b857 19be 4c1e 65bf 64b0 d6be
00000350: 0bfb ed3e a11d 28be d50a dcbe 057e 733d
00000360: b600 5bbf c12b 4dbd 0bc2 e8be 5afd 56be
00000370: 3bb1 41be 32f2 60bf 9e7c ccbe b297 723e
00000380: 88a0 27be cd49 6d3e 1788 81bc 5ba9 dabc
00000390: 74f7 95be a958 87bd ae3a 4ebe cf5b 32bf
000003a0: 07a9 02bf 2a89 613f 28be fb3e 33de fe3d
000003b0: 2435 343e d97c f4be b032 39bf 3472 ec3e
000003c0: 82bd 013e 3766 04be 331a 173e e440 2dbe
000003d0: 634a 0dbe d275 0c3e 1b3b 813f 1615 8d3d
000003e0: a8b1 e4bc 8cf3 afbe 7eae 25be 17ff 05bb
000003f0: 27b5 febc de0e 003e f5f0 de3c 4c45 263f
-0.87779146 -0.11458068 -0.095605314 0.35027692 -0.5437252 -0.74918497 0.3996713 -0.9198507
0.03805015 -0.0595194 0.24734917 -0.5455043 -0.8835293 0.31311923 -0.17135715 -0.62507975
-0.32469964 -2.9710524 -0.61097205 -0.07202909 0.87046313 -1.6869565 -0.874192 0.71976453
0.02993626 -0.26488808 0.6857029 0.17385462 0.52694154 -0.17979558 -0.72131157 0.20553063
-0.26414365 -0.48432973 -1.0665846 -0.17879154 0.6704244 -0.079313286 0.6040056 -0.5143722
-0.37666506 -0.11242615 0.87003374 -0.07031994 0.21556564 -0.02460349 0.18718544 -1.0047181
0.61794066 -0.10223968 -1.4348694 -0.3750252 -0.3586806 0.43714035 -1.0821372 -0.012780612
-0.23299874 -0.33330977 -0.7205455 -1.6929553 -0.6201084 -0.5807908 -0.24617223 -1.6083295
0.19505598 0.1268796 -0.8047093 0.3794787 -0.5299535 0.34954438 -1.0444717 -0.75689197
-0.8051438 -0.3409065 -0.5025857 0.016585007 -0.019169131 -0.32295662 0.12440058 -0.48424047
-0.03267928 -1.7693422 -1.1799986 -0.4114151 0.91033876 -0.22898892 0.328747 0.6907538
-0.68053937 -0.28001615 -1.5758982 -0.13622409 -0.2946288 -0.51492614 -1.5304284 -1.2194304
-0.5895807 -0.83188397 -0.461417 0.76866513 -0.18207963 -0.8771752 0.428057 0.2210676
-0.8271138 -0.5035001 -0.10731196 -0.62887686 -0.49096954 -0.79439074 -1.3203164 0.69570684
-0.57313865 -0.06898042 -1.3736502 -0.20155054 -0.7330714 1.1431822 -1.1983528 -0.34962165
0.14862996 -0.45561796 -0.52818 -0.7763956 -1.3684998 0.12417177 -1.3607923 -0.81615466
0.64189106 -0.9703664 0.059739154 -0.2987136 -0.8854369 -1.0596948 0.55870485 0.28618738
-0.09204622 -0.8163321 -0.9513255 -0.42692727 0.3553234 -0.4128404 0.38751656 -0.74613786
-0.52639675 -0.38375378 -0.2825761 0.39408314 -0.04581732 -1.6650566 -0.37469396 -2.108183
0.6159298 -1.9701391 -0.18033002 0.34978986 -0.14785391 -0.2113194 -0.47099376 -0.3068995
-0.406657 -0.32386073 -1.7705559 0.04571284 -1.254703 -0.37265578 -1.1554824 -1.3135785
-0.362323 -1.6277726 -0.9383369 0.09879161 -1.5654715 -2.0273807 -0.547113 -0.6012575
-0.010577388 -0.91600084 -0.5354316 -1.4908334 0.059408117 -0.21145841 -0.68304884 -0.12001254
0.0794992 -1.2479892 -0.63087213 -0.8574775 -0.39721143 -1.8631562 -0.45908907 -1.9156978
-0.20070076 -0.25803933 0.5190821 -0.694405 -0.79744613 -0.13711269 0.90993345 0.1827628
-0.5272843 -0.5363633 -0.39843115 -0.20898667 0.08626102 -0.70245206 -0.60556394 -0.06471373
-0.0767974 -0.14974868 -0.89499354 -0.4193145 0.46480593 -0.16417553 -0.42977014 0.059446353
-0.8554796 -0.050090555 -0.45460543 -0.20995083 -0.18915264 -0.8786956 -0.39938825 0.2369068
-0.16369832 0.23172684 -0.015811963 -0.026692083 -0.29290354 -0.066087075 -0.20139572 -0.6967134
-0.51039165 0.8809992 0.49168515 0.12444725 0.17598397 -0.477515 -0.7234297 0.4618088
0.12669948 -0.12929617 0.14756088 -0.16919285 -0.13797908 0.1371682 1.0096163 0.068887874
-0.027916744 -0.343655 -0.16179845 -0.0020446235 -0.03109224 0.12505671 0.027214507 0.6494949

lstm.bias_ih_l0 f4 [400]
00000000: 85db 25bf 01f5 86bf 0fb1 97bf e78c 9ebf
00000010: f426 b73d b84d 2fbf 0fcf 07bf 7050 87bf
00000020: 0ee6 8dbf 7d45 8fbf a064 71bf 2471 c3be
00000030: 2702 d13d ef08 223f 084d d1bf e6f9 2dbf
00000040: 9b8f 11bf 5c92 9cbf 4853 98bf a8b1 f1bf
00000050: e550 2a3f 3cfe 3b3c 04e7 bdbf 01ff d4bf
00000060: 50b1 c6bf 3fa7 e5be 5733 58bf acbb 70be
00000070: 1303 37bf 2e96 77bf 3f5b 91bf df8e 97bf
00000080: 0299 8bbf b2fe 4abf 10e1 df3e 8cc4 0dbf
00000090: fc72 89bf 55d4 f6bf d4ea cabe dd19 dcbf
000000a0: d494 66be a981 2bc0 69bd afbf 40a8 6e3e
000000b0: e774 5b3e fbbf 35bf bf0d cbbf f2c9 c5be
000000c0: 2b74 acbd 0f7f 4ebf cdf3 42be a7f6 91bf
000000d0: 29a4 0cbf 1f32 56bf c784 e83c db23 4ebe
000000e0: 3285 7abf 3020 c83b 8202 88bf d9de cdbe
000000f0: 7249 c6be 65ed 3fbf fafb b4bf 7078 a5bf
00000100: 4cef d4bf 019d 6abf e001 23be 3de2 7cbf
00000110: 923d e4be eb72 21bf bed6 90bf cb54 84be
00000120: 9036 8fbf 5918 8cbf dccf 903e 20bc 95bf
00000130: f39d 193e eb1d 323e 6eba 07bf 5fbf b3bf
00000140: 8b07 70bf 5278 d1bf 6523 85bf 540d 7fbe
00000150: 3a97 e9bf 9d92 a8bf 20ce dbbf fc6b c9bf
00000160: 3e61 a9bf ee26 a6bf ab8b 823e dd93 d4bf
00000170: 0007 cabf b21f 203d e969 3cbf ada6 bebf
00000180: a038 0fbf 019f 17bf 2455 a3bf 2a48 13bf
00000190: 5322 42bf 6dbe a1bf 6c7d 74bf c3c5 01bf
000001a0: fb33 16bf 5675 06bf 910b b0be fb42 acbf
000001b0: 51a1 29bf 3794 f0be d027 f2be 3120 45bf
000001c0: 08fb c8be bf52 4abf 1b32 c8bf 4b33 75be
000001d0: 9250 48bf 49a7 1fbf 6526 3abf 9d85 bebf
000001e0: baa1 afbf 0f9c 26bf 5621 6ebf f1dc b6bf
000001f0: a4d4 86bf b9f9 33be 1d60 79bf b193 dfbe
00000200: 96d9 8cbf 66df 9fbf 0956 0cbf 3c9a 89bf
00000210: 540b 9dbf fc93 e4be c2bc cfbe 3c3b e4be
00000220: a8fd 31bf 3234 99bf 9da3 ccbe e01c 65bf
00000230: e599 b7be 7006 8ebf a6c5 4ebf 9809 01bf
00000240: 8fe8 44bf 22fd 69bf d6e0 30bf a528 973e
00000250: 3f5b 93bf 1868 2cbf aca5 82bf ff8e 4dbf
00000260: 36d9 53bf c067 8dbf ad0b a5bf 031b adbe
00000270: 4ffe 29bf eb7c efbe c817 07bf d125 3dbf
00000280: 50ad 6dbe b64a 65bf 9fab e4be faf6 6fbf
00000290: 267f f3bf 6145 66bf 26ac d3be d43c 68bf
000002a0: 1061 2ebf 9826 7bbf f03a 8bbf 2f0b 63be
000002b0: 8a03 33bf ac78 cabe 5956 69bf 9f2b 18bf
000002c0: fcfe 18be e2e6 abbf bf9c 82bf c0ef 3dbf
000002d0: ebef 773c 9699 c2bf 042d 03bf 1806 03bf
000002e0: cded 84bf 693d b7bf 6126 88bf 82db a0bf
000002f0: 98ac 1fbf 25e2 9fbf 76bc 193e 5e67 30bf
00000300: b2ba 90bf b4a9 83bf 7a08 24bf a414 cabf
00000310: dc0f 5bbf d45a 62bf bff8 78bf 0521 66bf
00000320: c984 7c3d 8805 adbd 5b92 6cbd 448a 79bd
00000330: 5322 c3bc 12d0 9e3e 5b6f f9bd a794 d8bc
00000340: 747f cdbc 3252 70be 8fef 9ebd a699 6fbd
00000350: eb57 50be 1173 aabc abc9 8f3c 6c96 98be
00000360: d600 b83d 2b6e 50bd a058 d73d a76a eb3c
00000370: 3d86 fb3c 82eb 5cbd f5d7 c3bd 56b7 bebe
00000380: 2a84 22be 6d4b 1a3e af1a bbbc 992a 1abd
00000390: a791 9d3d 4fa4 e73d 2d90 8f3d 3a06 90bd
000003a0: aa01 59bd e012 a0bd ebb8 dc3d fc32 cabb
000003b0: d17b 1d3b 97e0 d8bc 25dd 46bc ce71 fb3d
000003c0: 2f36 f73d 07d8 173e 3cab e9bd c9ce 62be
000003d0: ccf8 d33d 3595 023d b66e e4bd 6c88 073c
000003e0: 5fa2 113e 5e05 95be ffb6 e93d 75e8 a6bd
000003f0: eeb6 6abe d0d8 8d3d 48b9 1e3d 8054 c23c
-0.64788085 -1.0543519 -1.1850909 -1.238675 0.089429766 -0.68477964 -0.5305032 -1.0571423
-1.1085832 -1.1193081 -0.94294167 -0.38172257 0.10205489 0.6329488 -1.6351633 -0.6795944
-0.5685975 -1.2232165 -1.1900415 -1.8882341 0.66529685 0.011474188 -1.4836125 -1.6640321
-1.5522861 -0.4485416 -0.8445334 -0.23509091 -0.71489066 -0.9671353 -1.1355971 -1.1840476
-1.0906069 -0.79294884 0.43726397 -0.5537803 -1.0738215 -1.9283549 -0.39632285 -1.7195393
-0.22517711 -2.6797888 -1.3729678 0.2330637 0.21431313 -0.70996064 -1.586357 -0.38630635
-0.08420595 -0.80662626 -0.19038315 -1.1403397 -0.5493799 -0.8367023 0.028383626 -0.20130865
-0.9785949 0.0061073527 -1.0625765 -0.40209082 -0.3872791 -0.7497161 -1.4139397 -1.292738
-1.6635528 -0.9164582 -0.15918684 -0.9878271 -0.44578224 -0.63065976 -1.1315534 -0.25845942
-1.1188526 -1.094493 0.28283584 -1.1698036 0.15001659 0.17394225 -0.53018844 -1.4042777
-0.9376151 -1.6364844 -1.0401427 -0.24907428 -1.8249276 -1.3169743 -1.7172279 -1.5736079
-1.3232801 -1.298063 0.25497183 -1.6607624 -1.5783386 0.039092727 -0.73599106 -1.4894615
-0.5594578 -0.59226996 -1.2760358 -0.5753199 -0.75833625 -1.2636238 -0.9550388 -0.50692385
-0.58673066 -0.5252279 -0.34383824 -1.3457941 -0.66261774 -0.4698808 -0.47296 -0.77002245
-0.39254022 -0.7903251 -1.5640291 -0.23945348 -0.7824794 -0.6236463 -0.72714835 -1.4884526
-1.372123 -0.65081877 -0.93019617 -1.4286176 -1.0533643 -0.1757573 -0.9741228 -0.43667367
-1.1003902 -1.2490051 -0.5481878 -1.0750194 -1.2269082 -0.44644153 -0.40573698 -0.44576442
-0.69527674 -1.1969054 -0.39968577 -0.89497185 -0.358596 -1.1095715 -0.8077034 -0.50405264
-0.76917356 -0.91401875 -0.6909307 0.29523197 -1.1512221 -0.67346334 -1.0206809 -0.8029632
-0.8275331 -1.1047287 -1.2894188 -0.3380967 -0.6640367 -0.46774992 -0.5277066 -0.7388583
-0.23210645 -0.89567125 -0.44662187 -0.9373623 -1.9023178 -0.89949614 -0.41342276 -0.90717816
-0.68116856 -0.98105764 -1.0877361 -0.22172235 -0.69927275 -0.3954519 -0.9114738 -0.5944156
-0.14941019 -1.3429835 -1.0204085 -0.74193954 0.0151328845 -1.5203121 -0.51240563 -0.51181173
-1.0385071 -1.4315616 -1.0636712 -1.2566988 -0.6237273 -1.2490889 0.15013298 -0.68907726
-1.1306975 -1.0286164 -0.64075434 -1.5787549 -0.85571074 -0.8841984 -0.97254556 -0.89894134
0.06165007 -0.084483206 -0.057756763 -0.060922876 -0.023820078 0.3101812 -0.121794425 -0.02643807
-0.025085188 -0.23468855 -0.07760536 -0.05849614 -0.20346038 -0.020806821 0.017552217 -0.29802263
0.089845344 -0.050886314 0.10514951 0.02873738 0.030703658 -0.053935535 -0.09562675 -0.3724925
-0.15870729 0.15067835 -0.022839872 -0.03763828 0.076937966 0.11310636 0.07009921 -0.070324376
-0.052980103 -0.078161 0.10777458 -0.0061706286 0.00240301 -0.02647428 -0.012137686 0.12277566
0.120708816 0.14828502 -0.114096135 -0.22149195 0.103501886 0.031880576 -0.11153929 0.008272272
0.14222096 -0.29105657 0.11411857 -0.081498064 -0.22921345 0.06926119 0.038750917 0.023721933

lstm.bias_hh_l0 f4 [400]
00000000: 5994 44bf ea17 65bf d6b1 82bf 1e64 98bf
00000010: 1a77 1d3e 5c26 2fbf dbc2 03bf d30c 8cbf
00000020: 520d 94bf 449b 8fbf 61fd 84bf 3922 03bf
00000030: 6025 ed3d 5d03 173f 8522 cebf 44c7 16bf
00000040: 3d16 00bf 3576 98bf 3468 9abf d297 fabf
00000050: e3e7 543f 2360 163e dfca acbf 5e24 e7bf
00000060: f616 c4bf 305a 19bf 67d4 4abf aaff 4abe
00000070: 2a10 28bf f842 77bf ff1b 9abf a8c7 97bf
00000080: 6c4d 6ebf 9c14 57bf 6f68 b23e 8eeb 03bf
00000090: 8fd7 8ebf 7560 e5bf 5bcd c4be 0ea6 e1bf
000000a0: 7e14 e9bd e233 2dc0 6947 a9bf 9321 343e
000000b0: 65ae 203e 024d 1bbf 29b7 bcbf 7ddf bbbe
000000c0: 9b43 a2bc 0f00 5ebf c9c1 3ebe 5f81 7bbf
000000d0: 4c86 0cbf 64d9 4bbf e5cf 6fbd 7e9a 5bbe
000000e0: b13d 7bbf c75f db3c 34fa 8bbf 6385 96be
000000f0: 3315 bbbe 57d7 28bf c5f3 b0bf 19a3 b6bf
00000100: 7283 bfbf 739f 4abf 11c7 02be 8d19 61bf
00000110: 6692 eebe e540 14bf f3cc 81bf cebb 71be
00000120: 66e7 90bf b1ff 91bf 1928 bb3e 40bd a5bf
00000130: f5ba c53d dccf 733d 5457 f7be dc0a c0bf
00000140: 2274 65bf b7de c0bf 2d2b 87bf 098a 7cbe
00000150: 7f27 d7bf 3a48 aabf 068b d7bf 0034 b8bf
00000160: 41f7 97bf 1bca b3bf f467 603e 7edc c9bf
00000170: 704e d3bf fa99 f43d c9a6 31bf 9adc b4bf
00000180: 21ee 0bbf 52cb 04bf 86a0 93bf 16d0 1cbf
00000190: 97db 33bf b82f 98bf 672e 79bf 8daf 0abf
000001a0: 96c1 28bf f90d 21bf 68cd a3be e5f2 bfbf
000001b0: defe 14bf ab41 d3be fe63 21bf 41eb 45bf
000001c0: ae57 05bf bef2 23bf a528 b2bf f783 a5be
000001d0: d29f 5dbf d95d 2cbf e653 5cbf 2cf9 b0bf
000001e0: 7d8a a8bf 1a1d 1abf 73cd 82bf fdcc b8bf
000001f0: 25a6 87bf 93f1 91be 9c63 79bf 929b b9be
00000200: c88d 84bf 095f a0bf afee 22bf b4a7 84bf
00000210: e859 94bf 4852 d3be c4f0 a8be bac0 f9be
00000220: dd24 2fbf a5ca 94bf 26c0 b1be 6def 4dbf
00000230: 5cdd d6be 8d88 96bf 64a2 54bf 3d77 d2be
00000240: eb75 5dbf ddda 7ebf 8298 1bbf 1ac8 863e
00000250: be64 98bf ae5e 1dbf ea53 75bf e5bb 51bf
00000260: c99b 36bf d4cf 92bf 0460 afbf caed a8be
00000270: 80af 09bf 2138 adbe ea10 0bbf 36dc 56bf
00000280: 5066 a3be acbe 6fbf fe07 1ebf cb61 7abf
00000290: 81ae f2bf db56 6cbf 49a2 bdbe 82be 70bf
000002a0: baee 47bf db80 78bf 0d86 81bf 268f 5cbe
000002b0: 666c 37bf 70ba d1be ef27 74bf 6ada f5be
000002c0: d2b6 0ebe 18f9 afbf f6e6 81bf d570 40bf
000002d0: aff0 73bd 066b b9bf d3e7 07bf 1188 11bf
000002e0: f9ca 91bf 15f7 c1bf 4ee0 88bf 8209 a4bf
000002f0: 28a2 14bf 8fe7 99bf cea6 763d 577b 1cbf
00000300: 5362 86bf f6d7 75bf d26b 1fbf eee8 cbbf
00000310: ec34 7fbf 2f83 4dbf a599 75bf e1d2 60bf
00000320: 8e20 7f3d fd17 173d 9aa4 11bd 8e83 fa3c
00000330: fe22 c33d 6e90 db3e 8ca8 0bbe 23b6 8abd
00000340: e34a c83d b564 69be 66a9 5abe 773d 18bd
00000350: 78e3 d9bd b83d c1bd baf3 c7bd 9347 70be
00000360: 0ace da3d f6d5 b03c 40d6 913d 1e30 163d
00000370: 37f4 f83d b148 6ab9 2d86 eebc 6387 c2be
00000380: 5068 20be 4823 823d 5fda 4dbe fdc0 bebc
00000390: 5ca4 f03b 7822 27bd 0c70 d53c f42b 32bd
000003a0: b318 f9bd e77b 79bd f1c0 5b3b 75cb 363d
000003b0: 1f9b 943d 9b7a a5bc 8fcb bdbb 4e0a 9cbc
000003c0: 373d ad3d 3eb7 873d 823a 1fbc a700 2dbe
000003d0: d126 5bbd 1018 8c3d 56b1 0ebe 5e5a 2ebb
000003e0: a690 933d f4de b4be bdc5 e2bc 9282 a7bd
000003f0: cb16 1fbe cd17 423b c91e 2c3d 6247 67bd
-0.7678886 -0.89489615 -1.0210521 -1.1905553 0.15377465 -0.68417907 -0.514692 -1.0941414
-1.1566565 -1.1219258 -1.0389825 -0.51224095 0.11579394 0.58989507 -1.6104285 -0.58897805
-0.5003393 -1.1911074 -1.206305 -1.9577582 0.8316633 0.14685111 -1.3499411 -1.8057973
-1.5319507 -0.5990324 -0.7923035 -0.1982409 -0.65649664 -0.9658656 -1.2039794 -1.1857805
-0.93086886 -0.8401582 0.34845302 -0.515313 -1.1159533 -1.7920061 -0.38437924 -1.7628801
-0.11380862 -2.7062917 -1.3224918 0.17590933 0.15691526 -0.6066438 -1.4743396 -0.36693946
-0.019807627 -0.8671884 -0.1862861 -0.9824428 -0.5489242 -0.79628587 -0.058547873 -0.21445653
-0.9814101 0.026779069 -1.0935731 -0.2939864 -0.3653961 -0.6595358 -1.3824393 -1.4268523
-1.4961989 -0.7914955 -0.1277125 -0.8792961 -0.46596068 -0.5791152 -1.014067 -0.23606798
-1.1320617 -1.1406156 0.3655403 -1.294838 0.096548 0.059524402 -0.48308814 -1.5003314
-0.8963033 -1.5067967 -1.0560051 -0.24662031 -1.6808928 -1.3303292 -1.6839302 -1.4390869
-1.1872331 -1.4046053 0.21914655 -1.5770414 -1.6508312 0.11943431 -0.6939512 -1.4129822
-0.5466023 -0.5187274 -1.1533363 -0.61255014 -0.7025694 -1.1889563 -0.9733643 -0.5417412
-0.6592039 -0.62911946 -0.3199265 -1.4996 -0.58201396 -0.41261038 -0.630432 -0.77312094
-0.52086914 -0.6404227 -1.3918654 -0.32327244 -0.8657199 -0.673307 -0.8606552 -1.3826041
-1.3167263 -0.60200655 -1.0218948 -1.4437557 -1.0597578 -0.2850462 -0.97417617 -0.36251503
-1.0355768 -1.2529002 -0.6364545 -1.0363679 -1.1589937 -0.41273713 -0.3299619 -0.4877985
-0.68415624 -1.1624342 -0.3471691 -0.8044346 -0.4196576 -1.1760422 -0.8306029 -0.41106597
-0.86508054 -0.9955271 -0.60779583 0.2632454 -1.1905744 -0.61472595 -0.9583117 -0.8192733
-0.7133146 -1.1469674 -1.3701177 -0.3299392 -0.53783417 -0.33831885 -0.54322684 -0.83929765
-0.31913996 -0.9365032 -0.61730945 -0.9780547 -1.8959504 -0.9232003 -0.37037876 -0.9404069
-0.7809864 -0.9707162 -1.0119034 -0.21538982 -0.7164978 -0.40962553 -0.95373434 -0.480182
-0.13936928 -1.3747892 -1.0148609 -0.7517217 -0.059555706 -1.4485786 -0.5308811 -0.56848246
-1.1390067 -1.5153528 -1.0693452 -1.2815402 -0.5805993 -1.2023791 0.06021767 -0.611257
-1.0498756 -0.96032655 -0.62273896 -1.593046 -0.9969013 -0.80278295 -0.9593757 -0.87821776
0.062286906 0.03688811 -0.035557367 0.030580308 0.095281586 0.4288363 -0.13638514 -0.06773021
0.097799085 -0.22792323 -0.21353683 -0.037167992 -0.10639089 -0.094356 -0.09763284 -0.23464803
0.1068383 0.0215864 0.07120943 0.036666982 0.12155955 -0.00022343059 -0.029116714 -0.37993917
-0.15664792 0.063543856 -0.20102833 -0.023285383 0.007343812 -0.040804356 0.026054405 -0.04349895
-0.12162914 -0.060909178 0.003353175 0.044627625 0.072561495 -0.020200064 -0.0057920883 -0.019047882
0.084589414 0.066267475 -0.009718539 -0.1689478 -0.053503815 0.06840527 -0.13934836 -0.0026604156
0.07205324 -0.3532635 -0.02768218 -0.08179201 -0.15536039 0.0029616237 0.042021547 -0.05646456

linear.weight f4 [1, 100]
00000000: 6b12 5a3d 3239 413d 44a0 1bbd 8d77 52bc
00000010: a57c 783d 4a19 b0bd 640b 96bd 278d e3bc
00000020: ef72 32bd 7a7b 8abd c07d 833b d92e 24be
00000030: 0bf4 883d 7d25 95be a3eb 6ebe 53b1 0ebd
00000040: 4724 0d3d 7f70 9e3d f404 323e 0c50 10bd
00000050: b4c3 abbe 89c4 113e cfab 08bf e585 ed3b
00000060: 13c8 b03c 3750 a1bd f072 143e 4444 0cbe
00000070: 47a5 febd 289d 9abe d702 ef3c c1fd 3a3e
00000080: c82f 313d f8d2 4f3c 49b1 af3e 66b1 e83d
00000090: 2325 31be 7d70 d23d 1e75 b6bd 18d5 8fbb
000000a0: 9a58 7f3e 0bc3 913c 3307 663c e9b5 0abe
000000b0: 05ba efbd d4a7 9d3d da40 d13c 4d2a ab3e
000000c0: f1df b53e 076e e43d 9e4c 1d3d a246 79be
000000d0: 822e 99bc a3a8 3fbe b934 023d 0419 fc3d
000000e0: 5c91 fe3b 1b3c 313e 8fc7 77b9 b2a9 86bc
000000f0: 4437 05be 0623 983d 708a 1d3d 5928 393d
00000100: df73 c8bd a5ed bf3d b742 d33d 9e0e 87bd
00000110: 5ba6 703d 4050 c5bd f5f9 debd 925e 083e
00000120: 57bc 49bc a80d 563c 21c7 483e 55a9 343e
00000130: 83f4 44be 6bb6 a53d 417f ca3d 5b16 613d
00000140: fb53 673e 1dff 9c3d 19bf d03d f3b1 cf3d
00000150: 2460 efbc e66a abbc 7dd8 773d a398 94bd
00000160: 08ca 313d 91d8 87bd 0694 6d3e 8d4a 09bd
00000170: d04d f23c 1de9 ea3d eefb 82bd 9d67 64be
00000180: be65 673d 7560 ba3c 55b1 6cbd c445 44bd
0.05324022 0.047173686 -0.037994638 -0.012845886 0.060665745 -0.085985735 -0.07326391 -0.027777268
-0.04356664 -0.067618325 0.0040127933 -0.16033496 0.066871725 -0.29130164 -0.23332076 -0.03483708
0.034458425 0.07736301 0.17384702 -0.03523259 -0.33547747 0.14235128 -0.5338716 0.0072486275
0.021579778 -0.07876628 0.1449697 -0.13697916 -0.12433868 -0.30198026 0.029176159 0.18260862
0.04325846 0.012684576 0.34314945 0.11361961 -0.17299323 0.10275362 -0.08909057 -0.0043894164
0.24936143 0.017793199 0.014039802 -0.13545956 -0.11705402 0.07698026 0.025543619 0.3343071
0.35522416 0.111537986 0.038403146 -0.2434335 -0.018698934 -0.18716674 0.03178856 0.12309459
0.007768793 0.17308085 -0.00023630097 -0.016438339 -0.13009363 0.07428555 0.038462102 0.045204494
-0.09787726 0.09371499 0.10315459 -0.06594585 0.0587524 -0.09634447 -0.10887519 0.13317326
-0.01231297 0.013064779 0.19607212 0.1764272 -0.19233899 0.08091434 0.09887553 0.05495296
0.2259063 0.076658465 0.10192699 0.10141363 -0.029220648 -0.020924997 0.060509194 -0.07255676
0.043405563 -0.06633104 0.23200998 -0.033518363 0.02957812 0.11470244 -0.06395708 -0.2230515
0.056493513 0.022751072 -0.057786305 -0.047918096
