BodelLigging/Grebbe_bodemligging_V1.pt (torch, 661983 bytes, 5 tensors)

lstm.weight_ih_l0 f4 [400, 1]
0	0xbf4e454c	-0.8057449
1	0xbfec9f5e	-1.8486135
2	0xbe955c59	-0.29172018
3	0x3f0c5e24	0.5483115
4	0x3f8ceb00	1.1009216
5	0x3f93c2e7	1.1543854
6	0xbf084840	-0.53235245
7	0xbf348599	-0.70516354
8	0x3f064b1b	0.5245835
9	0x3e7e6f9f	0.24847268
10	0x3f8fd72a	1.1237538
11	0xbe6eafb2	-0.2330921
12	0xbf02c246	-0.5107769
13	0x3ea78c44	0.32724202
14	0xbf49e896	-0.7887052
15	0x3f67f850	0.9061327
16	0xc0244e51	-2.56728
17	0xbd03a35e	-0.03213822
18	0x3e9c8765	0.30572048
19	0x3cb0db4a	0.02158894
20	0x3f56688a	0.83753264
21	0xbde66035	-0.11248819
22	0xbd9fe1c7	-0.078067355
23	0x3fae2f4b	1.3608183
24	0xbf057a22	-0.52139485
25	0x3fb52219	1.4151031
26	0xbe1ade96	-0.15123972
27	0x3fd0921f	1.6294593
28	0xbad35e31	-0.0016126094
29	0xbf70f0eb	-0.9411761
30	0x3f2519d1	0.6449252
31	0x3c86a835	0.01643763
32	0x3f61db2b	0.8822505
33	0xbfbf02d6	-1.492274
34	0xbe54dfa6	-0.2078844
35	0xbf97a075	-1.1845843
36	0xbeaa9819	-0.33319166
37	0x3eaa1da7	0.33225748
38	0x3fbaf34e	1.4605501
39	0xbe3289c4	-0.17435366
40	0x3f714cfe	0.94258106
41	0xbcb5debd	-0.022200936
42	0xbed0007c	-0.4062537
43	0x3e0e36dd	0.13888116
44	0x3f5eec36	0.8707918
45	0xbe19c5b1	-0.1501682
46	0xbe9197db	-0.2843617
47	0x3fa5b1ba	1.2944863
48	0xbee62537	-0.44950268
49	0x3f891759	1.071025
50	0x3e9307e8	0.2871697
51	0x3f60f142	0.8786813
52	0xbe2be18d	-0.1678526
53	0xbea0e72c	-0.3142637
54	0xbece9a22	-0.4035197
55	0xbea1f485	-0.31631866
56	0x3f6512b8	0.8948169
57	0x3e4e477c	0.20144457
58	0xbfd24b05	-1.6429144
59	0xbe9b9240	-0.30385017
60	0xbd2cbd67	-0.042172816
61	0x3f4be1a5	0.7964118
62	0x3fb2d974	1.3972611
63	0xbdce8cd1	-0.10085452
64	0xbf4d58e2	-0.8021375
65	0x3e9d5eab	0.30736288
66	0xbd320770	-0.043464124
67	0xbfb00bb5	-1.3753573
68	0xbeccfc8c	-0.40036428
69	0x3ddc2fa8	0.10751277
70	0xbccc0f19	-0.024909543
71	0xbf960116	-1.1719081
72	0xbf2a801c	-0.6660173
73	0x3eb2bb6d	0.3490862
74	0xbf012792	-0.50451005
75	0x3f322335	0.6958497
76	0x3f4f31b5	0.8093522
77	0x3e91cffa	0.28478986
78	0xbec2cf67	-0.3804886
79	0xbf8b8aa4	-1.0901685
80	0xbecf1f73	-0.4045368
81	0x3f5c9d2d	0.8617733
82	0xbfbde0e1	-1.4834253
83	0xbe989adb	-0.29805645
84	0x3f522320	0.82084846
85	0x3f1837b9	0.59460026
86	0xbf447da4	-0.7675421
87	0xbebd7ddd	-0.3701009
88	0x3fdaf99b	1.7107424
89	0xbf043996	-0.5165037
90	0x3f23bd78	0.6396098
91	0xbef341f8	-0.47511268
92	0xbea05e75	-0.31322065
93	0x3e95122e	0.29115433
94	0x3eade22f	0.33961627
95	0xbf6044cd	-0.8760498
96	0x3dd86347	0.10565811
97	0x3d0b9f42	0.034087427
98	0x3d981529	0.07425911
99	0xbf1d0684	-0.6133807
100	0xbe81e74c	-0.25371778
101	0x3cd6c667	0.026217652
102	0xbe02f78b	-0.12789743
103	0x3e00bdad	0.12572356
104	0x3d8a6c24	0.067589074
105	0xbdef3a77	-0.11681073
106	0x3f397f52	0.724599
107	0xbf1ea7eb	-0.6197497
108	0x3f7906b8	0.97275877
109	0x3f16aeb4	0.58860326
110	0xbf0ff3e5	-0.5623153
111	0xbee0aeda	-0.438834
112	0xbf3c9b7a	-0.7367474
113	0x3ebf0a61	0.37312606
114	0xbe842611	-0.25810292
115	0xbeb8bb98	-0.36080623
116	0xbe848708	-0.2588427
117	0x3f72f3de	0.9490336
118	0xbeda90ae	-0.42688507
119	0x3f816d25	1.0111433
120	0x3ed6413d	0.41846648
121	0xbe1e9eb9	-0.15490235
122	0xbe920581	-0.28519824
123	0xbef2fae2	-0.47457033
124	0x3f051f2a	0.5200068
125	0x3eddef0d	0.43346444
126	0x3f3aae06	0.7292179
127	0x3f9d1595	1.2272211
128	0xbe36b72d	-0.17843314
129	0x3f2adbf8	0.66741896
130	0x3d1906b4	0.03735991
131	0xbe715805	-0.23568733
132	0xbd4b2dd5	-0.049604256
133	0xbf373dc9	-0.7157865
134	0x3fa1f604	1.2653203
135	0xbf2ce91b	-0.6754319
136	0x3ea67b47	0.32515928
137	0xbe011170	-0.12604308
138	0xbe148dc7	-0.14507209
139	0x3e618e7e	0.22027013
140	0xbed9cba2	-0.42538172
141	0x3f290e03	0.66037005
142	0x3e54dc05	0.20787056
143	0xbdd440c7	-0.10363918
144	0xbde258e3	-0.1105211
145	0x3e1d5a2b	0.15366428
146	0x3f001eed	0.5004719
147	0xbd982a6c	-0.07429966
148	0x3ef2ad5c	0.47397888
149	0xbeca66c6	-0.39531535
150	0x3ecf02c2	0.40431792
151	0x3ea4566e	0.3209719
152	0xbeb3dcbb	-0.3512934
153	0x3ce8b085	0.028404484
154	0xbf4eb27e	-0.8074111
155	0x3d865f49	0.06561143
156	0xbd80ec1e	-0.06295036
157	0x3e49386d	0.19650431
158	0x3e11d717	0.14242207
159	0x3ecf73c4	0.4051801
160	0xbe967b01	-0.2939072
161	0xbea351f9	-0.31898478
162	0xbf6e7870	-0.93152523
163	0x3eab96e6	0.33513564
164	0xbe23230f	-0.15931343
165	0x3f5e69a6	0.86879957
166	0xbc9e2f1c	-0.019309573
167	0xbdae015f	-0.08496355
168	0xbf061e68	-0.52390146
169	0xbe96c5e2	-0.29447848
170	0xbeb7c2b6	-0.3589074
171	0xbe4ba93d	-0.19888778
172	0xbe4fd585	-0.20296295
173	0x3f251cdf	0.6449718
174	0xbe177452	-0.14790466
175	0xbf40fa85	-0.7538226
176	0x3dd69aab	0.10478719
177	0x3f61d736	0.8821901
178	0x3f02627d	0.5093153
179	0x3f92dff7	1.1474599
180	0x3f892e81	1.0717317
181	0xbc302634	-0.010751296
182	0xbf67ed9b	-0.9059693
183	0xbd3e978f	-0.046531256
184	0x3f695649	0.91147286
185	0x3f800abd	1.0003277
186	0x3e50b62a	0.2038199
187	0xbf6c983f	-0.9241981
188	0x3f2d863c	0.6778295
189	0x3eb93465	0.36172786
190	0x3f40284f	0.75061506
191	0x3f0b021e	0.54300106
192	0xbe6efa4c	-0.23337668
193	0x3d40d42c	0.047077343
194	0x3e8287bc	0.25494182
195	0xbf6454d0	-0.89191914
196	0xbce5497c	-0.027989142
197	0x3f1a82b4	0.6035569
198	0xbe9f6a7e	-0.31135935
199	0xbe8fcbc9	-0.28085163
200	0xbfb4020f	-1.4063128
201	0xbf295f2c	-0.66160846
202	0xbfe81eda	-1.8134415
203	0xbdfe12ac	-0.12405905
204	0xbfbb8484	-1.4649816
205	0x3fc4e439	1.5382148
206	0x3f95eb61	1.1712457
207	0x3fcb84b5	1.5899874
208	0x3f938ca0	1.152729
209	0xbf9aaa8a	-1.2083294
210	0x3ff2b040	1.8960037
211	0xc0041b44	-2.0641642
212	0xbf3aad73	-0.7292091
213	0xbec1020c	-0.37696874
214	0xbefc40b9	-0.4926813
215	0x3f95ae8d	1.1693894
216	0x3fb1d4e2	1.3893092
217	0xbfb8d3e1	-1.443966
218	0x3f3b7c90	0.7323694
219	0xbf011131	-0.50416857
220	0xbef25838	-0.4733293
221	0xc008fe56	-2.1405234
222	0xbf525f9c	-0.8217714
223	0xbfa8b359	-1.3179733
224	0xbec08a5a	-0.37605554
225	0x3ea9efd3	0.33190784
226	0x3f4c56fc	0.7982023
227	0x3fb07f61	1.3788873
228	0x3fd18c9d	1.6371037
229	0xbfc86178	-1.5654745
230	0xbeb293d7	-0.34878418
231	0xbf5dfae6	-0.86710966
232	0x3f9d80fb	1.2304987
233	0x3fa5c1fc	1.2949824
234	0x3fa69f99	1.3017455
235	0xbf5c84b0	-0.86139965
236	0xbf7a0cd5	-0.9767583
237	0x3ed32684	0.41240323
238	0xbf843432	-1.0328429
239	0x3f3fa66b	0.7486331
240	0x3fa43532	1.2828734
241	0x3f4da125	0.8032401
242	0x3fcde501	1.6085511
243	0x3f6029fe	0.87564075
244	0xbeb224e7	-0.3479378
245	0xbebe4019	-0.37158278
246	0xbfb6d845	-1.428475
247	0x3f478847	0.7794232
248	0xbf589d98	-0.8461547
249	0xbfdda3a2	-1.7315562
250	0x3f91d362	1.1392634
251	0xbfff3446	-1.9937828
252	0xbf925d6d	-1.1434761
253	0x3e78d34a	0.2429935
254	0xbf6911c4	-0.91042733
255	0xbfd872d9	-1.6910049

lstm.weight_hh_l0 f4 [400, 100]
0	0x3f3e26fd	0.7427824
1	0xbf23c78a	-0.6397635
2	0xbdb0c447	-0.08631187
3	0xbc35a499	-0.011086606
4	0xbb8a4f8b	-0.004220908
5	0xbf138f04	-0.576401
6	0xbed2a5fa	-0.41142255
7	0xbe03d4fd	-0.12874217
8	0x3e3bfdd2	0.18358544
9	0x3f58b46c	0.846503
10	0xbff3f1b2	-1.9058135
11	0x3ea861d4	0.32887137
12	0xbe4a8b18	-0.19779623
13	0x3ef5d59d	0.48014536
14	0xbf3904cc	-0.72272944
15	0xbfa935a7	-1.3219498
16	0x3e2108ac	0.15725964
17	0x3f0a6e3e	0.54074466
18	0xbf86f3cf	-1.0543154
19	0xbe380682	-0.17971233
20	0x3ecba956	0.3977763
21	0x3f1f390c	0.6219642
22	0xbe60db0c	-0.2195856
23	0xbe2ca5e8	-0.16860163
24	0xbf8c92b8	-1.0982275
25	0xbf9dcb1b	-1.2327608
26	0xbfa23b0f	-1.2674273
27	0xbf131e37	-0.5746798
28	0xbfd46a4f	-1.6594943
29	0x3ebb8265	0.3662292
30	0xbf10496e	-0.56362045
31	0x3ec8b66c	0.39201677
32	0x3e3bd2f1	0.18342187
33	0xbf5f2c06	-0.8717655
34	0x3e33e3a1	0.17567302
35	0x3f098088	0.5371175
36	0x3f056211	0.5210276
37	0xbf19ce2a	-0.60080206
38	0x3f01654a	0.5054518
39	0xbfb03737	-1.376685
40	0xbfca9609	-1.5827037
41	0x3eb8e75b	0.3611401
42	0xbf8c55aa	-1.0963643
43	0x3e57df5b	0.21081297
44	0xbf72f75a	-0.9490868
45	0xbddf35e4	-0.10898951
46	0x3ed66ff4	0.41882288
47	0xbf87851f	-1.05875
48	0xbe99852b	-0.29984412
49	0x3ef521ea	0.47877437
50	0xbf397c58	-0.7245536
51	0x3edd0f14	0.43175566
52	0xbe2c7a12	-0.16843441
53	0x3ebfcb02	0.3745957
54	0xbdfe36ae	-0.12412773
55	0x3e55f020	0.20892382
56	0xbfeed230	-1.8657894
57	0xbe8e05ba	-0.27738744
58	0xbf2fdd8f	-0.68697447
59	0x3f204b4b	0.6261489
60	0xbe40c6d3	-0.18825845
61	0xbda09909	-0.07841689
62	0xbf54fed8	-0.8320136
63	0xbe9f7444	-0.3114339
64	0x3e328726	0.17434368
65	0x3cc52c95	0.02406911
66	0xbe914312	-0.28371483
67	0x3eaddd28	0.3395779
68	0xbd68e2a0	-0.05685675
69	0xbf8c0f51	-1.0942174
70	0x3f855b16	1.0418422
71	0xbdc1db6a	-0.09465678
72	0xbf60b3c4	-0.877743
73	0x3d06213d	0.032746542
74	0xbd37c4de	-0.04486548
75	0xbde1e6be	-0.11030339
76	0x3ef9801e	0.48730558
77	0xbf28ed49	-0.6598707
78	0x3f449233	0.7678558
79	0xbee7afef	-0.45251414
80	0x3f5797e5	0.8421615
81	0xbf9d24de	-1.2276876
82	0xbf7b9eed	-0.98289376
83	0x3f361f1d	0.71141225
84	0xbf2289ab	-0.63491315
85	0x3f5ca63b	0.8619115
86	0xbf16c760	-0.5889797
87	0xbeb3be09	-0.35105923
88	0xbff61b60	-1.9227104
89	0xbe8710b3	-0.26379928
90	0xbfb272c8	-1.3941278
91	0x3eaa3d27	0.3324978
92	0x3e5bd442	0.21467689
93	0xbe96cb0f	-0.29451796
94	0xbf21c4f3	-0.63191146
95	0xbf1d1052	-0.6135303
96	0xbf30f4e0	-0.6912365
97	0xbebd04a4	-0.36917603
98	0x3fc017a4	1.5007215
99	0x3ecc4e25	0.3990337
100	0xbe7d7bea	-0.247543
101	0xbf30b83a	-0.6903111
102	0x3f28c6ba	0.6592823
103	0x3c3edc0d	0.011649144
104	0x3f712a4e	0.94205177
105	0xbf96410e	-1.1738603
106	0xbf495396	-0.78643167
107	0x3f3c0b5a	0.7345482
108	0xbf5aa93b	-0.85414475
109	0x3f480d04	0.7814486
110	0xbef20895	-0.47272173
111	0xbefa616d	-0.48902455
112	0xbe3de41d	-0.1854405
113	0x3e4a09ab	0.1973025
114	0xbf885a35	-1.0652529
115	0xbfb1ca03	-1.3889774
116	0xbf671caf	-0.9027814
117	0xbdb14a45	-0.08656744
118	0xbf5f835d	-0.8730982
119	0xbc2426c4	-0.010019008
120	0xbfa79eb4	-1.3095307
121	0x3f156868	0.58362436
122	0x3ef939f4	0.48677027
123	0xbf20d577	-0.6282572
124	0xbe6d491a	-0.23172417
125	0xc0137ad7	-2.3043725
126	0xbf802099	-1.0009948
127	0xbf5f8e6d	-0.873267
128	0xbf2d5c47	-0.6771893
129	0xbf07741a	-0.5291153
130	0xbe8bf2c2	-0.27333647
131	0x3f5d51f7	0.86453193
132	0xbf59362e	-0.84848297
133	0xbecc291b	-0.3987511
134	0xbf2d3af6	-0.6766809
135	0x3cc1feae	0.023681011
136	0x3f134fca	0.57543623
137	0xbf3bdcd6	-0.73383844
138	0x3ebab21b	0.3646401
139	0xbfd5dd93	-1.6708244
140	0xbf5f50c4	-0.87232614
141	0xbed11244	-0.40834248
142	0xbf49e911	-0.78871256
143	0xbf435519	-0.76301724
144	0xbec1f1d9	-0.37879828
145	0xbfd015d1	-1.6256658
146	0x3e5d371d	0.21603055
147	0xbfca4e1a	-1.5805085
148	0x3d8bf609	0.06834037
149	0x3f82a786	1.0207374
150	0xbf8f25a0	-1.1183357
151	0xbea21790	-0.31658602
152	0x3eb12df5	0.34605375
153	0xbdf50e45	-0.11965612
154	0xbe8466c0	-0.25859642
155	0xbf15b6aa	-0.5848185
156	0xbebdac59	-0.37045553
157	0x3e9842e1	0.29738525
158	0xbe1baa1d	-0.15201612
159	0x3e9a25d9	0.30107
160	0xbf61cc9c	-0.88202834
161	0xbf22b378	-0.635551
162	0x3ce0cbae	0.027440872
163	0xbf34e483	-0.7066118
164	0xbf8f59c1	-1.1199266
165	0xbfbf6b4a	-1.4954617
166	0xbdc6258e	-0.09675132
167	0xbe887890	-0.26654482
168	0xbe878aa0	-0.2647295
169	0xbf5e1639	-0.8675266
170	0x3f0f8c80	0.5607376
171	0xbf482f0f	-0.78196806
172	0xbf331779	-0.6995769
173	0xbf26489b	-0.6495454
174	0xbfa1d926	-1.2644393
175	0x3f0bef34	0.5466187
176	0x3f1a1e9d	0.6020296
177	0xc004c431	-2.0744746
178	0x3f179a53	0.59219855
179	0xbf954869	-1.1662723
180	0xbf2aa779	-0.66661793
181	0xbfbee21e	-1.4912755
182	0xbe37cc4b	-0.17949025
183	0xbedea545	-0.43485466
184	0xbfd26749	-1.643777
185	0xbf16c37c	-0.58892035
186	0x3f2233f0	0.633605
187	0xbf369642	-0.71323025
188	0xbe46c733	-0.19411926
189	0x3ec3f4ec	0.38272798
190	0xbf648805	-0.8927005
191	0xbf8c57da	-1.096431
192	0xbf9ad134	-1.2095094
193	0x3e921854	0.28534186
194	0xbf6735cb	-0.90316457
195	0xc003a24d	-2.056781
196	0x3d880984	0.0664244
197	0xbf29ab09	-0.66276604
198	0x3f6871b4	0.907985
199	0x3f327353	0.6970722
200	0x3f650b65	0.8947051
201	0xbf6bbfe7	-0.92089695
202	0x3f18fddb	0.5976235
203	0x3f1f8297	0.6230864
204	0x3f9a99b1	1.2078153
205	0xbfbd41eb	-1.4785742
206	0xbd007ba0	-0.031367898
207	0xbe9abf1b	-0.30223927
208	0x3d6ad6db	0.05733381
209	0x3e80205e	0.25024694
210	0xbea83cc7	-0.3285887
211	0x3f6f3fff	0.93457025
212	0x3fbc6287	1.4717568
213	0x3f1d1a55	0.61368304
214	0xbf5956a4	-0.8489783
215	0xbf1b7d64	-0.60738206
216	0x3ee20e90	0.44151735
217	0x3e2c9c35	0.16856463
218	0xbd612e7b	-0.054975968
219	0xbf69e91d	-0.9137133
220	0x3f210bb3	0.62908477
221	0x3ee68bdf	0.45028588
222	0xbe516a96	-0.20450816
223	0x3f863425	1.0484663
224	0xbfc01ae8	-1.5008211
225	0xbead53c3	-0.33852968
226	0x3f0984e9	0.5371843
227	0xbe826aad	-0.25472012
228	0x3aa93b07	0.0012911268
229	0x3ecaef55	0.3963572
230	0x3efb586a	0.49090892
231	0x3e1501f1	0.14551522
232	0x3e3d12f8	0.18464267
233	0x3f14bc67	0.5809998
234	0x3d4d6952	0.05014927
235	0xbf2300a3	-0.63672847
236	0x3e33e00c	0.17565936
237	0xbd8bba2e	-0.0682262
238	0x3f746041	0.9545937
239	0x3eab9a2d	0.33516064
240	0xbd6f02a7	-0.05835214
241	0x3e5f4974	0.21805364
242	0x3e8f55fd	0.2799529
243	0xbe229aec	-0.1587941
244	0x3f045d50	0.51704884
245	0x3e2a9956	0.16660056
246	0xbde0f2cc	-0.1098381
247	0xbec5eef0	-0.38658857
248	0x3f20d399	0.6282287
249	0x3f8bfa1d	1.0935704
250	0xbe5fd67f	-0.21859168
251	0x3f8c04db	1.0938982
252	0x3e3f3ffe	0.18676755
253	0x3eda8a63	0.42683706
254	0x3fcb15fd	1.5866085
255	0xbe19eb66	-0.15031204

lstm.bias_ih_l0 f4 [400]
0	0xbf1041d3	-0.5635044
1	0xbf202f25	-0.62571937
2	0x3d16639e	0.036716096
3	0xc05c571d	-3.442817
4	0xbf1319c7	-0.5746121
5	0xbecbc8cc	-0.39801633
6	0xbe74df9b	-0.23913424
7	0xbe43cb9c	-0.1912064
8	0x3d1e096d	0.038583208
9	0xbf21119e	-0.62917507
10	0xbdf00e55	-0.117214836
11	0x3b70451c	0.0036662286
12	0xbf3ddcdf	-0.7416515
13	0xbfafff7e	-1.3749845
14	0xbf2d3a9e	-0.6766757
15	0xbf94e14c	-1.1631255
16	0xbf91d154	-1.1392007
17	0xbf6286fb	-0.88487214
18	0xbfe72469	-1.8057986
19	0xbf90bb13	-1.130709
20	0xc00bfd99	-2.1873534
21	0x3e6f8771	0.2339151
22	0xbfe8c977	-1.8186482
23	0xbf1847f8	-0.59484816
24	0xbf790322	-0.97270405
25	0xbef3dc3c	-0.47628963
26	0xbf8790cb	-1.0591062
27	0xbee79c79	-0.45236567
28	0xbf019ef8	-0.5063319
29	0xbe5f9887	-0.21835528
30	0xc03aa017	-2.916021
31	0x3eabaa69	0.3352845
32	0xbf867285	-1.0503699
33	0xbf8dc569	-1.107587
34	0xbf9c7f8e	-1.2226427
35	0xbf4098de	-0.75233257
36	0xbf7f3602	-0.99691784
37	0xc0200713	-2.5004318
38	0xbf1c82a2	-0.6113683
39	0xbfabe48d	-1.3429123
40	0xbfa5ad9d	-1.2943608
41	0xbf92fe8d	-1.1483933
42	0xbf235388	-0.63799334
43	0xbe57882e	-0.21048042
44	0xbfd58886	-1.6682289
45	0xc00f955b	-2.243491
46	0xbeb96db8	-0.3621652
47	0xbff88053	-1.9414161
48	0xbf0685f0	-0.5254812
49	0xbf05902d	-0.5217312
50	0xbf605c82	-0.87641156
51	0xbec3aec4	-0.38219273
52	0xbf3ab14c	-0.72926784
53	0xc00b3112	-2.17487
54	0xbf182c4b	-0.59442586
55	0xbe97a9ae	-0.29621643
56	0xbf3d39f9	-0.73916584
57	0xc003e85a	-2.0610566
58	0xbfa3eda4	-1.2806897
59	0xbf302271	-0.68802553
60	0xbfdfe191	-1.7490712
61	0xbf9a453b	-1.2052377
62	0xbebefe7a	-0.37303525
63	0xc01f93fc	-2.4934072
64	0xbf2b1933	-0.66835326
65	0xbef8cc3b	-0.48593315
66	0xbf742051	-0.9536181
67	0xbf608e5d	-0.8771723
68	0xbedc4e0e	-0.430283
69	0xbf90764d	-1.1286103
70	0x3eb0d4ad	0.3453726
71	0x3ed02d7b	0.406597
72	0xbfa13190	-1.259325
73	0xc0065544	-2.0989542
74	0x3f1ff21f	0.6247882
75	0xbf774556	-0.96590173
76	0xbdd64b20	-0.10463548
77	0xbfc013ea	-1.5006077
78	0x3e5906e6	0.21194038
79	0xbf821b85	-1.0164648
80	0xbf63a4f1	-0.88923556
81	0xbf1dcaf2	-0.61637795
82	0xbf6092e3	-0.8772413
83	0xbf736ec2	-0.9509088
84	0xbe2051a1	-0.15656139
85	0xbe8576db	-0.26067242
86	0x3e48cb01	0.1960869
87	0xbfa48a21	-1.2854654
88	0xbeed3922	-0.4633265
89	0xbf0f0411	-0.5586558
90	0xbfa4fcb6	-1.2889621
91	0xbfb73c15	-1.431521
92	0xbf8b04bf	-1.0860823
93	0xc05af4f6	-3.4212012
94	0xbfe8c9e2	-1.818661
95	0xbf85a119	-1.0439788
96	0xbfafbbe9	-1.3729221
97	0xbe67190f	-0.22568153
98	0xbf98561a	-1.1901276
99	0x3f60810c	0.8769691
100	0xbf244ff2	-0.64184487
101	0xbf18f2d7	-0.59745544
102	0xbeeeac0b	-0.46615633
103	0xbf58d989	-0.8470693
104	0xbf7d36fb	-0.9891202
105	0xbf16dffd	-0.5893553
106	0xbf1965d8	-0.59921026
107	0xbc507eda	-0.012725556
108	0xbee1a68b	-0.44072375
109	0xbf4375cb	-0.7635161
110	0xbf1fee96	-0.6247343
111	0xbed807de	-0.42193502
112	0xbbc00057	-0.0058594155
113	0xbfd008d9	-1.62527
114	0xbf8b74f3	-1.0895065
115	0xbf764378	-0.961967
116	0xbf77a01c	-0.9672868
117	0xbf574ecf	-0.8410463
118	0xbed8a6b0	-0.42314672
119	0xbf66e1b3	-0.9018814
120	0xbf8fdbc6	-1.1238945
121	0xbf157dfd	-0.5839537
122	0xbf86ec7b	-1.0540918
123	0xbf8fa4c8	-1.1222162
124	0xbf06390a	-0.52430785
125	0x3e73ee24	0.23821312
126	0xbf3b37c0	-0.7313194
127	0xbeae035c	-0.33986938
128	0xbf2230ac	-0.6335552
129	0xbf64a903	-0.8932039
130	0xbfa8b3b1	-1.3179837
131	0xbf3dd02f	-0.7414579
132	0xbec6d939	-0.38837603
133	0xbf67b3fe	-0.9050902
134	0xbe9537bb	-0.2914408
135	0xbf146fa8	-0.57982874
136	0xbf85c042	-1.0449297
137	0xbfa22b36	-1.2669437
138	0xbf3f6762	-0.74767125
139	0xbfa0f7bd	-1.2575604
140	0xbf8075ea	-1.0035985
141	0xbf51ccf1	-0.8195334
142	0xbf3e3423	-0.74298304
143	0xbcedea78	-0.029042467
144	0xbf896b9a	-1.0735962
145	0xbfb5947e	-1.4185941
146	0xbf63766d	-0.8885258
147	0xbf937fd2	-1.1523383
148	0xbf37dcc5	-0.7182124
149	0xbf42d11d	-0.7610033
150	0xbf30acff	-0.6901397
151	0xbfa8218a	-1.3135235
152	0xbf90061c	-1.1251864
153	0xbf96295b	-1.1731371
154	0xbe4fada5	-0.20281084
155	0x3dca782b	0.098862015
156	0xbf7db483	-0.99103564
157	0xbfa7cd4a	-1.3109524
158	0xbf88b6e1	-1.068081
159	0xbf8451e5	-1.0337492
160	0xbf45530f	-0.7707986
161	0xbf2f480c	-0.6846931
162	0x3c84865c	0.016177349
163	0xbfbea16c	-1.4893012
164	0xbf5b4c6c	-0.85663486
165	0xbec1ac4f	-0.37826774
166	0xbf038326	-0.5137199
167	0xbf130054	-0.57422376
168	0xbf2e414e	-0.680684
169	0xbf51990d	-0.8187416
170	0xbf30fb3d	-0.6913336
171	0x3dc8eaf6	0.0981044
172	0xbf8bb926	-1.0915878
173	0xbfb55d00	-1.4169006
174	0xbf58e2ad	-0.8472088
175	0xbf692fb4	-0.91088414
176	0xbed7f412	-0.42178398
177	0xbf8ccf58	-1.1000776
178	0xbf169ec6	-0.5883602
179	0xbf27cc6c	-0.655463
180	0xbf269fe3	-0.6508772
181	0xbf5e6083	-0.86866015
182	0xbf75df4a	-0.9604384
183	0xbf773226	-0.96560895
184	0xbf713f9b	-0.9423768
185	0xbf8715a7	-1.0553483
186	0xbf00a433	-0.5025055
187	0xbf4b5204	-0.7942202
188	0xbf5062b3	-0.81400603
189	0xbf82a057	-1.0205182
190	0xbf322abf	-0.69596475
191	0xbfa0d8a8	-1.2566118
192	0xbe94b728	-0.29045987
193	0xbf80efcd	-1.0073181
194	0xbf758138	-0.959003
195	0xbf460059	-0.7734428
196	0xbf941d5c	-1.157146
197	0xbf0a1e81	-0.53952795
198	0xbf1b87d4	-0.6075413
199	0xbf239c8a	-0.63910735
200	0x3e74686e	0.23867962
201	0xbe434abb	-0.19071476
202	0xbdbbb73c	-0.091658086
203	0xbc9d98ca	-0.019237895
204	0xbdf019d8	-0.11723679
205	0x3db35c46	0.08757834
206	0xbd6e29a2	-0.058145173
207	0xbdbee27a	-0.09320541
208	0x3e558f75	0.20855506
209	0xbe105610	-0.1409533
210	0x3e242670	0.16030288
211	0xbe3728e2	-0.1788669
212	0x3e981152	0.29700714
213	0x3e3f0ddb	0.18657629
214	0xbd80e5ab	-0.06293806
215	0x3db2bf35	0.08727876
216	0x3ec55e83	0.3854867
217	0xbe024eda	-0.12725392
218	0xbd9aebd9	-0.075645156
219	0xbdbce94f	-0.092241876
220	0x3c0fa038	0.0087662265
221	0xbe1b2060	-0.15149069
222	0xbde57560	-0.11204028
223	0xbbb9e5a7	-0.0056731286
224	0x3ddcc48c	0.10779676
225	0x3de1ac12	0.11019148
226	0xbd41ac99	-0.047283743
227	0x3e876fce	0.26452488
228	0x3d957cff	0.07299232
229	0xbe45899f	-0.1929078
230	0xbcd4f957	-0.0259978
231	0xbd0b9ace	-0.03408318
232	0xbdfa8d00	-0.12233925
233	0x3e450e6a	0.1924378
234	0xbd629b24	-0.055323735
235	0xbebaa4b4	-0.36453784
236	0xbd0801ac	-0.03320472
237	0x3df6fadf	0.120595686
238	0xbd92ac22	-0.07161738
239	0xbc761a6c	-0.015020948
240	0x3e2149f6	0.1575087
241	0xbdab580b	-0.08366402
242	0x3de57649	0.11204202
243	0x3e05206e	0.13000652
244	0x3e10a77a	0.14126387
245	0xbb68c697	-0.003551876
246	0xbe06312f	-0.131047
247	0x3d9b751a	0.07590695
248	0x3e3579f5	0.17722304
249	0x3ac375cb	0.0014912424
250	0x3daa7869	0.08323748
251	0xbda4da78	-0.08049482
252	0xbe41fe57	-0.18944679
253	0x3e7089af	0.23490022
254	0x3e4b896f	0.19876646
255	0xbdd2eb1e	-0.10298751

lstm.bias_hh_l0 f4 [400]
0	0xbf23c05b	-0.63965386
1	0xbf24e472	-0.6441108
2	0x3d516d76	0.05112978
3	0xc060e247	-3.5138109
4	0xbf241fd6	-0.6411108
5	0xbee0b08c	-0.43884695
6	0xbdd51eb3	-0.10406246
7	0xbe68eb7d	-0.22746082
8	0x3df9aa34	0.12190667
9	0xbf2c0e14	-0.6720898
10	0x3d003e25	0.031309266
11	0xbdc22dae	-0.09481369
12	0xbf3aa4f6	-0.7290796
13	0xbfb08d32	-1.3793089
14	0xbf29bb97	-0.66301864
15	0xbf8d2bd9	-1.1029006
16	0xbf89b1ec	-1.0757422
17	0xbf75ce78	-0.9601817
18	0xbfd6ad2d	-1.6771599
19	0xbf85341e	-1.040653
20	0xc010e82d	-2.264171
21	0x3e5bbe70	0.21459365
22	0xbff25465	-1.8932005
23	0xbf35f37e	-0.71074665
24	0xbf6adbc1	-0.9174157
25	0xbeb4db1f	-0.35323426
26	0xbf872057	-1.0556744
27	0xbeb4e571	-0.353313
28	0xbf178a4d	-0.59195405
29	0xbe27abfa	-0.16374198
30	0xc038938b	-2.8840053
31	0x3ed39e2f	0.41331622
32	0xbf672835	-0.90295726
33	0xbfa1699e	-1.2610357
34	0xbfa5de31	-1.2958432
35	0xbf4da6e5	-0.80332786
36	0xbf86a519	-1.0519134
37	0xc0196a43	-2.3971107
38	0xbf111be0	-0.5668316
39	0xbfa5352a	-1.2906849
40	0xbfa428b3	-1.282492
41	0xbf9a22b5	-1.2041842
42	0xbf47675d	-0.77892095
43	0xbe8927f5	-0.26788297
44	0xbfe28cbf	-1.7699202
45	0xc017e92d	-2.373607
46	0xbf05c565	-0.52254325
47	0xbff3549f	-1.9010199
48	0xbf0ef485	-0.5584186
49	0xbf31a823	-0.6939718
50	0xbf788fa7	-0.97094196
51	0xbe6196e0	-0.2203021
52	0xbf4e871c	-0.8067491
53	0xc011add3	-2.2762344
54	0xbf3a9fbf	-0.72900003
55	0xbe4a6cbd	-0.19768043
56	0xbf365b2e	-0.7123288
57	0xc009b6ac	-2.1517744
58	0xbf9aa6e2	-1.2082179
59	0xbf35ab58	-0.70964575
60	0xbfd2bfe9	-1.6464816
61	0xbfa17a6b	-1.2615484
62	0xbeed8261	-0.46388534
63	0xc0214c03	-2.5202644
64	0xbf13a67a	-0.576759
65	0xbf13dd4d	-0.57759553
66	0xbf85c818	-1.0451689
67	0xbf4a04f9	-0.7891384
68	0xbef9c097	-0.48779747
69	0xbf99843d	-1.1993481
70	0x3e86593e	0.2623996
71	0x3ee1e1ec	0.44117677
72	0xbfaf63a4	-1.3702283
73	0xc010c4a0	-2.262001
74	0x3f1f45f5	0.6221612
75	0xbf909f3d	-1.1298596
76	0x3c1a3694	0.0094124265
77	0xbfc549de	-1.5413167
78	0x3e2e7fae	0.17040893
79	0xbf771a35	-0.96524364
80	0xbf5bbec9	-0.8583799
81	0xbf20ffd9	-0.6289039
82	0xbf7995de	-0.97494304
83	0xbf71c497	-0.944406
84	0xbe847218	-0.25868297
85	0xbe52e1af	-0.20593904
86	0x3e53b3b4	0.2067402
87	0xbfadb599	-1.3571044
88	0xbef9bb80	-0.48775864
89	0xbf17f5ba	-0.59359324
90	0xbf9d307b	-1.228042
91	0xbfb8061e	-1.4376867
92	0xbf7712a4	-0.9651282
93	0xc05bbc94	-3.433385
94	0xbfe81b9f	-1.8133429
95	0xbf88e760	-1.069561
96	0xbfa54883	-1.2912754
97	0xbe2fdfc6	-0.17175207
98	0xbf9cb936	-1.2244022
99	0x3f47958f	0.77962583
100	0xbf10f466	-0.5662292
101	0xbf1dec16	-0.61688364
102	0xbee8c930	-0.45465994
103	0xbf3863c5	-0.72027236
104	0xbf7c9907	-0.98671
105	0xbeea5039	-0.4576433
106	0xbf1b5916	-0.6068281
107	0xbe231f64	-0.15929943
108	0xbeff316e	-0.498424
109	0xbf4d762c	-0.8025844
110	0xbf1de8dc	-0.6168344
111	0xbee1507c	-0.44006717
112	0x3dca2327	0.09869986
113	0xbfc1056a	-1.5079777
114	0xbf8f9865	-1.1218382
115	0xbf5c5985	-0.86074096
116	0xbf856904	-1.0422673
117	0xbf5c525d	-0.86063176
118	0xbed553b7	-0.41665432
119	0xbf4ec1f2	-0.8076469
120	0xbf9c64b2	-1.221823
121	0xbf1a05d5	-0.6016515
122	0xbf6e574a	-0.9310194
123	0xbf8cc7da	-1.099849
124	0xbf0cf325	-0.5505851
125	0x3ea65d65	0.3249313
126	0xbf48855b	-0.78328484
127	0xbf07fceb	-0.531203
128	0xbf3d38a8	-0.73914576
129	0xbf5ec43d	-0.87018186
130	0xbfa28fdc	-1.2700152
131	0xbf546b5b	-0.8297631
132	0xbeccf7b1	-0.40032724
133	0xbf5c8a91	-0.86148936
134	0xbe505d4a	-0.20348087
135	0xbed54303	-0.41652688
136	0xbf83af94	-1.0287957
137	0xbfa4985b	-1.2858995
138	0xbf1d231d	-0.61381704
139	0xbfa789fb	-1.3088983
140	0xbf77f13c	-0.9685247
141	0xbf443ac2	-0.7665216
142	0xbf0cdc10	-0.5502329
143	0x3e038cb6	0.12846646
144	0xbf754f13	-0.9582378
145	0xbfaa8d40	-1.3324356
146	0xbf696c50	-0.91180897
147	0xbf92e108	-1.1474924
148	0xbf2dc5c3	-0.67879885
149	0xbf3c85e9	-0.7364183
150	0xbf227c2d	-0.6347073
151	0xbf97f27d	-1.1870877
152	0xbf8abfb8	-1.0839758
153	0xbf99835f	-1.1993216
154	0xbe28ab06	-0.1647149
155	0x3cdebac0	0.027188659
156	0xbf8479c4	-1.034966
157	0xbf9c10cf	-1.219263
158	0xbf8261a6	-1.018605
159	0xbf814838	-1.0100164
160	0xbf3c9648	-0.7366681
161	0xbf32a96e	-0.6978978
162	0xbd3a6850	-0.045509636
163	0xbfc10afb	-1.5081476
164	0xbf794690	-0.97373295
165	0xbec0a909	-0.37628964
166	0xbf287d9b	-0.6581666
167	0xbeedb586	-0.46427554
168	0xbf1bf02d	-0.60913354
169	0xbf55f16d	-0.8357151
170	0xbf0bd395	-0.54619724
171	0xbc5de67f	-0.013543724
172	0xbf7b99a2	-0.982813
173	0xbfb9d460	-1.4517937
174	0xbf7051d9	-0.9387489
175	0xbf639de8	-0.8891282
176	0xbeec4b03	-0.4615098
177	0xbf97cb6d	-1.1858956
178	0xbf2f6752	-0.6851703
179	0xbf2b9f62	-0.67040074
180	0xbf109b4d	-0.5648697
181	0xbf4b25eb	-0.79354733
182	0xbf6b8f45	-0.92015487
183	0xbf686127	-0.9077324
184	0xbf71fa39	-0.94522434
185	0xbf639e29	-0.8891321
186	0xbef66564	-0.4812423
187	0xbf4ff057	-0.81226104
188	0xbf2c36c6	-0.6727108
189	0xbf8ce69a	-1.1007874
190	0xbf568200	-0.83792114
191	0xbfa4e949	-1.2883693
192	0xbea2b87d	-0.31781378
193	0xbf753be2	-0.957945
194	0xbf81cc5c	-1.014049
195	0xbf28f47a	-0.6599804
196	0xbf955dd3	-1.1669258
197	0xbf069431	-0.5256987
198	0xbf4dc731	-0.80382067
199	0xbf18c35e	-0.59673107
200	0x3dc7ac46	0.097496554
201	0xbdd9a8c1	-0.106278904
202	0xbdb66924	-0.08906773
203	0x3ded1e24	0.115780145
204	0xbd8bbf34	-0.068235785
205	0x3e07b3eb	0.13252227
206	0x3dc84286	0.09778313
207	0xbddb86dc	-0.10719082
208	0x3e57aed5	0.21062787
209	0xbddbd5e5	-0.107341565
210	0x3e3baed8	0.18328416
211	0xbdc9ca1a	-0.09853001
212	0x3e36008c	0.17773646
213	0x3def58c0	0.116868496
214	0x3ca3d571	0.019999238
215	0x3e1b34b9	0.15156831
216	0x3e50efa8	0.20403922
217	0xbe127299	-0.14301528
218	0xbd239c4d	-0.039943982
219	0xbca3f9a3	-0.020016497
220	0xbcd601b2	-0.026123855
221	0xbe122e8b	-0.14275567
222	0x39ed6455	0.00045278916
223	0x3de7df31	0.11321867
224	0x3ceab20d	0.028649354
225	0x3e080bc7	0.13285743
226	0xbd149336	-0.036273204
227	0x3dfe77e1	0.12425209
228	0x3e5606b1	0.2090099
229	0xbe07d4b6	-0.13264737
230	0x3d96355f	0.073343985
231	0xbd766e6e	-0.060163908
232	0xbe0adf0b	-0.13561647
233	0x3e678bdb	0.22611944
234	0x3c4bc2c4	0.012436572
235	0xbed11f88	-0.4084437
236	0xbd1e5e49	-0.038664136
237	0x3d9be507	0.07612043
238	0xbda8058a	-0.082041815
239	0x3e0bbb55	0.1364568
240	0x3d76e197	0.060273733
241	0xbd9c6e79	-0.076382585
242	0x3e4b31e4	0.1984325
243	0x3dcf916f	0.10135161
244	0xbc1643ce	-0.009171439
245	0x3be87665	0.007094192
246	0xbe265cdc	-0.1624636
247	0x3e111de5	0.1417156
248	0x3d847d99	0.06469268
249	0xbe137514	-0.1440013
250	0x3e0243c1	0.12721159
251	0xbddb65c9	-0.10712773
252	0xbd85641f	-0.06513237
253	0x3dc53ded	0.09630952
254	0x3e139a13	0.14414243
255	0xbe079749	-0.13241304

linear.weight f4 [1, 100]
0	0xbd33c935	-0.043893058
1	0x3bf88996	0.007584761
2	0xbe067599	-0.13130797
3	0xbd6d3922	-0.057915814
4	0xbdac4a1e	-0.08412574
5	0x3e28c4bf	0.16481303
6	0x3dc8cff8	0.09805292
7	0x3cce4a5b	0.02518194
8	0x3e91bad4	0.2846285
9	0xbca2e674	-0.01988528
10	0x3e210acd	0.15726776
11	0xbde6d0a6	-0.11270265
12	0xbd33eb29	-0.043925438
13	0xbda6f366	-0.08151893
14	0xbdeea654	-0.11652818
15	0x3d61a3e1	0.055087928
16	0xbf420d77	-0.75801796
17	0xbd759166	-0.059953116
18	0xbc4f6fc3	-0.012660923
19	0xbe62d04b	-0.2214977
20	0xbe180f26	-0.14849529
21	0xbdca3af8	-0.09874529
22	0xbd75f5f5	-0.060049016
23	0xbc3fa150	-0.011696175
24	0xbd9223d0	-0.07135737
25	0xbe812b66	-0.25228423
26	0x3dbc52b8	0.09195465
27	0x3d9bc191	0.07605279
28	0x3dd14a16	0.10219209
29	0xbcb9b4f9	-0.022669302
30	0xbdcf9e80	-0.10137653
31	0xbb965053	-0.004587212
32	0xbe0079a7	-0.12546407
33	0xbe20ff10	-0.15722299
34	0xbd4721c5	-0.04861619
35	0xbd6f90eb	-0.058487814
36	0xbe85635d	-0.2605237
37	0xbc52b0a5	-0.012859498
38	0xbd830215	-0.063968815
39	0x3c2e1be2	0.010626765
40	0x3dd2d004	0.10293582
41	0x3e8981bf	0.268568
42	0x3d2ec490	0.042667925
43	0x3db3a656	0.087719604
44	0xbe812a14	-0.25227416
45	0xbe4da15b	-0.20081083
46	0xbd9df64b	-0.07712992
47	0x3d843532	0.06455459
48	0xbe2766bf	-0.16347788
49	0xbe5b8026	-0.21435603
50	0x3e24314f	0.16034435
51	0xbec94d41	-0.39316753
52	0xbe1e86db	-0.15481131
53	0xbd102913	-0.03519542
54	0xbddd62eb	-0.10809883
55	0xbe8863fd	-0.26638785
56	0x3d5fdd1d	0.05465423
57	0x3d6f1d95	0.05837782
58	0xbe4d0c07	-0.2002412
59	0xbe002183	-0.12512784
60	0x3d9bf1c4	0.076144725
61	0x3c4ccdbb	0.012500222
62	0xbce846ec	-0.02835413
63	0xbd9bd512	-0.07608999
64	0xbd99d836	-0.07511942
65	0x3ca3242b	0.019914707
66	0x3e5e7f92	0.21728352
67	0xbe2bbfaa	-0.16772333
68	0x3d4d8ac1	0.050181154
69	0xbe2597c8	-0.16171181
70	0xbde50faa	-0.11184628
71	0xbe9ce362	-0.3064223
72	0xbdaa0297	-0.08301275
73	0xbe0215ab	-0.12703578
74	0x3ee4849d	0.44632426
75	0xbe2957df	-0.16537426
76	0xbe424c88	-0.18974507
77	0xbcdb6268	-0.026780322
78	0xbe1055fd	-0.14095302
79	0xbe87f326	-0.26552695
80	0x3e0e410b	0.13892
81	0xbccd13c8	-0.025033846
82	0x3e202572	0.15639284
83	0xbd97c9e5	-0.07411555
84	0x3e037f7a	0.12841597
85	0x3e7a40cf	0.24438785
86	0x3dc4d8a1	0.09611631
87	0x3dc85d32	0.097834006
88	0x3c91f00a	0.017814655
89	0xbe02fe77	-0.12792383
90	0xbc90164f	-0.017588763
91	0x3e451d7f	0.19249533
92	0xbdc3e9d8	-0.095660865
93	0xbe34ceaa	-0.17656961
94	0xbd41e47c	-0.04733704
95	0xbd9ef30d	-0.07761202
96	0x3c25440a	0.010087023
97	0x3e3ad106	0.18243799
98	0xbd466427	-0.048435356
99	0xbe9d6a1c	-0.30745018
