BodelLigging/Groene Rivier pan boven_bodemligging_V1.pt (torch, 661983 bytes, 5 tensors)

lstm.weight_ih_l0 f4 [400, 1]
0	0xbd9a5ae7	-0.075368695
1	0x3e907345	0.28212944
2	0x3d8dc1c1	0.06921721
3	0x3c78e0f2	0.01519035
4	0xbe90fa8b	-0.2831615
5	0xbe2e4012	-0.17016628
6	0xbe12e2a7	-0.14344274
7	0xbe52d897	-0.20590435
8	0xbe3df50e	-0.18550512
9	0x3db81b16	0.08989541
10	0xbe95d0fa	-0.29261
11	0xbe073c84	-0.13206679
12	0x3e17f4e6	0.14839515
13	0x3f224329	0.6338373
14	0xbea12833	-0.31475982
15	0xbe2315e3	-0.15926318
16	0xbe3bd371	-0.18342377
17	0xbf176fcc	-0.59154963
18	0xbe929b2d	-0.28634015
19	0xbe1c3edb	-0.15258352
20	0xbef5e413	-0.4802557
21	0x3e69a29b	0.22815935
22	0xbe5d8c37	-0.21635519
23	0xbdc369dd	-0.09541676
24	0xbe182795	-0.1485885
25	0xbecc7bfc	-0.39938343
26	0xbf045824	-0.5169699
27	0xbc72f1de	-0.014828173
28	0xbee6e08f	-0.450932
29	0xbe9f9d86	-0.31174868
30	0xbdb17263	-0.08664396
31	0x3e711155	0.23541768
32	0x3e03c3c0	0.12867641
33	0x3f588830	0.84582806
34	0xbea8bf04	-0.32958233
35	0xbe2f210c	-0.1710245
36	0xbd226198	-0.039643854
37	0x3f35d6d9	0.71030957
38	0x3d263d2e	0.04058569
39	0xbcb28585	-0.021792183
40	0x3ee61a7b	0.44942078
41	0x3f06214c	0.52394557
42	0xbdda931e	-0.106725916
43	0x3f0cc48f	0.54987425
44	0xbe88b042	-0.26696974
45	0xbf00c709	-0.50303704
46	0x3f18ffc9	0.597653
47	0x3d5639ac	0.052301094
48	0x3e19bf9c	0.150145
49	0x3f46ba49	0.77628
50	0xbe805895	-0.25067583
51	0xbe78f0a3	-0.24310546
52	0x3d45d535	0.048299033
53	0xbe059b9d	-0.13047643
54	0xbdaa5962	-0.0831783
55	0xbd065f29	-0.032805596
56	0xbe94b8b1	-0.29047158
57	0xbe923c9a	-0.2856186
58	0xbf0eb832	-0.5574981
59	0x3c3fa271	0.011696444
60	0xbecbecc3	-0.39829072
61	0xbdb37f59	-0.08764524
62	0xbf0658ab	-0.52479047
63	0xbf0685c7	-0.5254788
64	0xbe84a170	-0.25904417
65	0xbdfcc9a9	-0.12343151
66	0x3e8723e6	0.26394576
67	0x3e8ef4fc	0.27921283
68	0x3b7711f0	0.00376999
69	0xbed74bf3	-0.42050132
70	0xbea4abbf	-0.32162282
71	0x3e99eb05	0.30062118
72	0xbec8c8f1	-0.39215806
73	0xbd980a18	-0.074238
74	0x3ebf3ab2	0.37349468
75	0xbd8d69cc	-0.06904945
76	0xbe3e49e1	-0.1858287
77	0x3cf05528	0.02933748
78	0x3d274a96	0.040842615
79	0x3e961db6	0.29319543
80	0x3dd7c457	0.10535496
81	0xbf01d2a7	-0.50712055
82	0xbe4767b9	-0.19473161
83	0xbec72e1d	-0.3890237
84	0x3e2c2144	0.16809565
85	0x3dd360e2	0.10321213
86	0x3e9ce068	0.30639958
87	0x3f860861	1.0471307
88	0xbf2f6182	-0.6850816
89	0xbe2b0efa	-0.16704932
90	0xbed22995	-0.4104735
91	0xbeccafaf	-0.39977786
92	0xbead4a13	-0.33845577
93	0xbe0238a9	-0.12716927
94	0xbe21d32a	-0.15803209
95	0xbc72daaa	-0.014822641
96	0xbd7027a5	-0.058631558
97	0xbebc3d7f	-0.36765668
98	0xbea939b3	-0.33051834
99	0xbe3aabc8	-0.18229592
100	0x3da7c9db	0.08192798
101	0x3eaf92ec	0.3429178
102	0xbd1cb982	-0.03826285
103	0xbf701f9e	-0.93798244
104	0x3c2d2a76	0.0105692055
105	0xbe218c05	-0.1577607
106	0xbe67a866	-0.22622833
107	0x3c7174c6	0.014737314
108	0x3dbb9e13	0.0916101
109	0x3f4e948c	0.80695415
110	0x3e8b0707	0.271538
111	0xbdbadf3a	-0.09124608
112	0x3eb240d7	0.34815094
113	0x3e40077b	0.18752854
114	0xbcdd578d	-0.027019287
115	0xbc28f02c	-0.010311168
116	0xbdf2f836	-0.11863749
117	0xbef63220	-0.48085117
118	0xbebe3a2e	-0.37153763
119	0x3e2d84a8	0.16945136
120	0xbecfb8ae	-0.40570587
121	0x3eb58d21	0.35459235
122	0x3d3543ea	0.04425422
123	0x3d0c8179	0.034303162
124	0x3b922545	0.0044600093
125	0xbf822c6a	-1.0169804
126	0xbf4ddd81	-0.80416113
127	0x3f125c31	0.5717192
128	0xbe326224	-0.1742025
129	0xbce35cdd	-0.027754242
130	0x3e9bf973	0.30463752
131	0xbcb63f34	-0.022246934
132	0x3e2ed4b5	0.17073329
133	0x3eabb8c8	0.33539414
134	0xbde258c0	-0.11052084
135	0x3c87e99b	0.016590884
136	0xbe056041	-0.13024999
137	0x3cc695f3	0.024241423
138	0x3e372de6	0.17888603
139	0x3de8cc00	0.11367035
140	0x3d9b4ed5	0.075833954
141	0xbdd39c47	-0.10332542
142	0x3e23c72e	0.1599395
143	0xbe2993f6	-0.16560349
144	0x3dab581f	0.08366417
145	0xbe340f63	-0.17583995
146	0xbe33d12e	-0.17560264
147	0x3e4eec77	0.20207392
148	0x3dc759f9	0.09733958
149	0x3e3403ca	0.1757957
150	0x3bb3f0ba	0.0054913433
151	0x3e081d19	0.1329235
152	0x3e753ed2	0.23949745
153	0x3dc646b2	0.09681453
154	0x3e5107e7	0.20413171
155	0xbe36c482	-0.178484
156	0xbd19b782	-0.037528522
157	0x3da309a4	0.07960823
158	0xbe872d2f	-0.2640166
159	0x3eec1228	0.46107602
160	0xbd052570	-0.032506406
161	0xbe69c9c2	-0.22830871
162	0x3e69a8f5	0.22818358
163	0xbd30700c	-0.043075606
164	0xbdab9340	-0.08377695
165	0x3cee7f9b	0.029113581
166	0x3ea404d2	0.32034928
167	0xbe0ed528	-0.139485
168	0x3f0d8e3b	0.5529515
169	0xbe35da1a	-0.1775898
170	0xbda88a56	-0.082295105
171	0x3d4c3076	0.049850903
172	0xbe8e678e	-0.2781338
173	0x3e8d0026	0.27539176
174	0x3d8975e7	0.06711941
175	0x3cb2fc4a	0.021848816
176	0x3d8d2fb6	0.06893866
177	0x3e8b6aaf	0.2722983
178	0x3f48fe6f	0.78513235
179	0x3e6a7b0a	0.22898498
180	0x3e341a58	0.17588174
181	0x3e8ced4e	0.275248
182	0xbc931def	-0.01795861
183	0xbe958d41	-0.2920933
184	0xbdcb6a31	-0.09932364
185	0x3dfa0554	0.122080475
186	0xbdc865de	-0.097850546
187	0x3d430005	0.04760744
188	0xbef7c775	-0.4839436
189	0x3e3e5e91	0.18590762
190	0xbe7f7238	-0.24945915
191	0xbe10f967	-0.1415764
192	0xbe970654	-0.29497015
193	0x3e535bce	0.2064049
194	0xbdc8c55c	-0.09803268
195	0xbe36baa8	-0.17844641
196	0x3f47fee6	0.7812332
197	0x3ce450c4	0.027870543
198	0xbd8b5b51	-0.068045266
199	0xbe3d4432	-0.18483046
200	0x3f8c6245	1.096749
201	0xbf95f8ea	-1.1716588
202	0x3f963b65	1.1736876
203	0x3f4d06a2	0.80088246
204	0x3f81aec2	1.0131457
205	0x3ebab11f	0.36463258
206	0x3f0160be	0.5053824
207	0xbf61bcd5	-0.8817876
208	0x3f494edf	0.7863597
209	0x3f1520bb	0.5825307
210	0x3ef7fc9b	0.4843491
211	0x3f7e7e02	0.9941102
212	0xbf6d13e8	-0.926085
213	0xbf8f26cb	-1.1183714
214	0x3f7465cb	0.95467824
215	0x3f8147df	1.0100058
216	0x3f80b2e0	1.0054588
217	0xbc78b780	-0.015180469
218	0xbf6b7485	-0.9197467
219	0xbf6be4f7	-0.9214625
220	0xbcf09509	-0.02936794
221	0xbf74a7e5	-0.95568687
222	0x3f5b3c1b	0.8563859
223	0x3f2a8fe6	0.6662582
224	0xbf4a7e80	-0.79099274
225	0xbfa7462f	-1.3068293
226	0xbe1035d4	-0.14083034
227	0xbf3e86fc	-0.7442472
228	0xbf2b8b4a	-0.67009413
229	0x3f1ff752	0.62486756
230	0x3ee739f4	0.45161402
231	0x3f8930c8	1.0718012
232	0x3f8c93c6	1.0982597
233	0xbfaaf541	-1.3356096
234	0xbe2a673c	-0.16640943
235	0x3f341c16	0.70355356
236	0x3f8a47fd	1.0803219
237	0x3fa7ab5f	1.3099173
238	0xbf8f17f7	-1.1179188
239	0x3f874a14	1.0569482
240	0x3fb554be	1.4166486
241	0x3fa20b95	1.2659785
242	0xbf049107	-0.51783794
243	0x3f94af24	1.1615949
244	0x3f8bc42b	1.0919241
245	0xbec7f4d2	-0.3905397
246	0x3fa7deb5	1.311484
247	0xbf35f1d4	-0.71072125
248	0x3f171d59	0.59029156
249	0x3fa870fc	1.315948
250	0xbf2f306d	-0.68433267
251	0xbf4a4723	-0.79014796
252	0xbf4feaa3	-0.812174
253	0xbf3a654f	-0.72810835
254	0xbf63a80f	-0.8892831
255	0x3f8e8234	1.1133485

lstm.weight_hh_l0 f4 [400, 100]
0	0xbf2c513d	-0.6731146
1	0x3f510530	0.8164854
2	0xbf319423	-0.69366664
3	0xbf2d05c0	-0.675869
4	0xbebd5958	-0.36982226
5	0xbeb588d8	-0.35455966
6	0xbe7d00b4	-0.247073
7	0x3da96870	0.08271873
8	0xbf108af2	-0.56462014
9	0xbdb68964	-0.08912924
10	0xbe876cb6	-0.26450127
11	0xbef3ca5f	-0.47615334
12	0x3e54103c	0.20709318
13	0x3e31a331	0.17347409
14	0xbe973a12	-0.29536492
15	0xbf157322	-0.58378804
16	0xbf25590a	-0.6458899
17	0xbe51062b	-0.20412509
18	0x3e25a362	0.16175607
19	0x3eb5d79b	0.35516056
20	0xbe8f0ae3	-0.27937993
21	0x3e1da082	0.1539326
22	0xbeabfd67	-0.33591768
23	0xbea54e73	-0.32286415
24	0x3e94b84d	0.2904686
25	0x3d37763a	0.044790484
26	0xbd1dd7b2	-0.03853578
27	0x3e1019a6	0.14072284
28	0x3e0f9f4a	0.14025608
29	0xbe7e45a6	-0.24831256
30	0xbeaae618	-0.33378673
31	0xbf859802	-1.0437014
32	0xbf3b435e	-0.7314967
33	0x3db99389	0.09061343
34	0xbe30690a	-0.17227569
35	0xbe651793	-0.22372274
36	0xbee857dc	-0.4537953
37	0xbecc13e3	-0.39858922
38	0x3f168fa7	0.58812946
39	0xbf37aaf0	-0.71745205
40	0xbdc18ff7	-0.09451287
41	0xbf9b47d7	-1.2131299
42	0x3e2e2f0c	0.17010134
43	0xbf8dcc0e	-1.1077898
44	0xbf020652	-0.50790894
45	0x3dc7415d	0.09729264
46	0xbfadb409	-1.3570567
47	0x3e7956c0	0.24349499
48	0xbe7a1b21	-0.24424411
49	0x3e00aa7f	0.12565039
50	0x3dba6183	0.0910063
51	0x3ed61d20	0.41819096
52	0x3e8ae15c	0.2712506
53	0x3ea2036b	0.31643233
54	0x3e1d4d29	0.15361466
55	0xbf6f2d8b	-0.9342887
56	0xbef5e955	-0.4802958
57	0xbeb47b59	-0.35250357
58	0xbe04e449	-0.12977709
59	0x3e785a6a	0.2425324
60	0xbf0ef4d4	-0.5584233
61	0xbe980aeb	-0.2969583
62	0x3e0e71a2	0.13910535
63	0x3e12d478	0.14338863
64	0x3d51967b	0.0511689
65	0xbe9b348e	-0.30313534
66	0x3ee1f9e0	0.44135952
67	0x3f872cd4	1.0560555
68	0x3ea968d9	0.33087805
69	0x3eb3e2d8	0.35134006
70	0xbe7b55b3	-0.2454441
71	0xbdbc1348	-0.09183365
72	0xbe454174	-0.1926325
73	0xbe97dc5c	-0.29660308
74	0xbf522d3d	-0.8210028
75	0xbeb2f9a1	-0.34956077
76	0xbcaff40f	-0.02147868
77	0x3e6e48f8	0.23270023
78	0x3ebb72cd	0.36611024
79	0xbe523704	-0.205288
80	0xbf14a1fb	-0.5805966
81	0xbec86e0a	-0.39146453
82	0x3da0a7d3	0.0784451
83	0xbd6a6304	-0.057223335
84	0xbbba45a4	-0.0056845713
85	0xbdee136c	-0.11624798
86	0xbf0f0faf	-0.55883306
87	0xbfc06989	-1.5032207
88	0xbe0e83bf	-0.13917445
89	0xbe687e55	-0.22704442
90	0x3dd5ebe9	0.10445387
91	0xbbc698f9	-0.006060716
92	0xbd1c0f82	-0.038100727
93	0x3d59e88b	0.053200286
94	0xbe6eb081	-0.23309518
95	0xbf3a118d	-0.7268303
96	0xbedb1d93	-0.42796
97	0xbc191a01	-0.009344579
98	0xbf90f0c8	-1.1323481
99	0xbf351a90	-0.70743656
100	0xbe0d07d1	-0.13772513
101	0x3ebac29c	0.364766
102	0xbe04d326	-0.12971172
103	0x3d1c49ac	0.038156196
104	0xbe3d96af	-0.18514512
105	0xbf042f5a	-0.5163475
106	0xbe4bb4f5	-0.19893248
107	0xbe8d493b	-0.27594933
108	0xbe04e5f8	-0.12978351
109	0x3e4c696d	0.19962092
110	0xbe0895b8	-0.13338363
111	0x3b97762b	0.004622241
112	0x3e8417ca	0.257994
113	0xbbdf7da2	-0.0068203965
114	0xbe049a78	-0.1294955
115	0xbe8da2a0	-0.27663136
116	0xbc8f8100	-0.017517567
117	0xbf0ba910	-0.54554844
118	0xbe74a23d	-0.23890014
119	0x3e645e02	0.22301486
120	0xbef583bd	-0.4795207
121	0x3e89d702	0.2692185
122	0x3cad4de8	0.021155313
123	0xbed6a3c9	-0.41921833
124	0xbe1ca5f7	-0.15297686
125	0xbe855164	-0.2603866
126	0xbedbe136	-0.4294526
127	0x3d8fa569	0.07013971
128	0xbe08ec27	-0.13371335
129	0xbe944f84	-0.28966916
130	0xbeefb65b	-0.46818814
131	0xbf2cdda8	-0.6752572
132	0xbe2fd1d3	-0.17169885
133	0x3eaab86c	0.33343828
134	0xbf1d246e	-0.6138371
135	0xbee85841	-0.45379832
136	0xbe80627d	-0.2507514
137	0xbe952014	-0.29126036
138	0x3e85ac02	0.26107794
139	0xbe3d0432	-0.18458632
140	0x3d92f1da	0.07175036
141	0xbf57b9f3	-0.8426811
142	0x3e116b8d	0.14201184
143	0xbf073d52	-0.5282794
144	0xbe829ac0	-0.2550869
145	0xbec9959b	-0.39371952
146	0xbf36dc56	-0.71429956
147	0xbe5d8c24	-0.2163549
148	0xbf13d8de	-0.5775279
149	0xbe15c453	-0.14625673
150	0xbe7381fd	-0.23780055
151	0xbdceb09d	-0.1009228
152	0x3e6c0d54	0.2305196
153	0x3e51da60	0.2049346
154	0xbd92ac96	-0.071618244
155	0xbec86e8f	-0.3914685
156	0xbd29d5b1	-0.041463558
157	0xbe693688	-0.22774708
158	0xbf02428a	-0.5088278
159	0x3d3f77b0	0.046745002
160	0x3de40b30	0.11134946
161	0xbea16dd9	-0.3152912
162	0xbecb30c3	-0.3968564
163	0xbec63027	-0.38708612
164	0xbf1c347a	-0.6101757
165	0xbf010ec7	-0.50413173
166	0x3ea123d7	0.31472656
167	0x3f35031f	0.7070789
168	0x3eaa86bd	0.33305922
169	0xbe9109b7	-0.28327724
170	0x3dd4fc15	0.10399643
171	0xbeb9f562	-0.36320025
172	0xbec07290	-0.37587404
173	0xbf0e03fc	-0.5547483
174	0xbe9012e9	-0.28139427
175	0xbec6cf56	-0.3883006
176	0x3dea750d	0.11448107
177	0x3e5ffedf	0.2187457
178	0x3e11eb6f	0.14249967
179	0xbef7ec29	-0.48422363
180	0xbec80120	-0.39063358
181	0xbe0dba38	-0.13840568
182	0xbdb98e2f	-0.090603225
183	0xbea64c9d	-0.32480326
184	0x3c9c8517	0.019106431
185	0xbf094a3b	-0.5362889
186	0xbf1dfd53	-0.6171467
187	0xbf647ba4	-0.8925116
188	0xbea9f48f	-0.33194396
189	0xbe69868f	-0.22805236
190	0xbe5b8f56	-0.21441397
191	0xbdd3d551	-0.10343421
192	0xbead893e	-0.3389377
193	0x3d58234e	0.052768044
194	0xbf060541	-0.52351767
195	0xbe35a877	-0.17740045
196	0xbe849d31	-0.25901178
197	0xbe7d9085	-0.24762161
198	0xbf6e7962	-0.93153965
199	0xbe4e80b3	-0.20166282
200	0xbee97272	-0.45595127
201	0x3f50d1c0	0.81570053
202	0xbef06e04	-0.46958935
203	0xbf719946	-0.943745
204	0xbedd88ed	-0.4326853
205	0xbe91b714	-0.2845999
206	0xbe8edf4d	-0.2790474
207	0x3e911ec0	0.28343773
208	0xbeba458c	-0.36381185
209	0xbe190910	-0.14944863
210	0xbedafbd6	-0.4277026
211	0xbed59d2a	-0.4172147
212	0x3e7d9c59	0.24766673
213	0xbe99355f	-0.2992353
214	0xbecef35f	-0.40420052
215	0xbe845d4a	-0.25852424
216	0xbea16928	-0.3152554
217	0xbe597b67	-0.2123848
218	0xbd04b76e	-0.032401495
219	0x3ed662de	0.41872305
220	0xbd8d11fc	-0.06888196
221	0x3e2e46f7	0.17019258
222	0xbefed555	-0.49772134
223	0xbe87fe52	-0.26561219
224	0x3eb695d6	0.3566119
225	0xbf4d23ed	-0.80132943
226	0xbe397399	-0.18110503
227	0x3ed875a0	0.4227724
228	0xbd3a18d9	-0.045433853
229	0xbe9d1d74	-0.30686533
230	0xbe6ad383	-0.22932248
231	0xbf9d001a	-1.2265656
232	0xbf3a2078	-0.72705793
233	0x3d12d2ee	0.03584569
234	0xbe84ec87	-0.25961706
235	0xbeb42d89	-0.3519099
236	0xbf62d2fe	-0.886032
237	0xbe673b0b	-0.22581117
238	0x3dc1fc84	0.09471992
239	0xbf242c32	-0.64129937
240	0xbd6887de	-0.056770198
241	0xbf879c78	-1.0594625
242	0xbc5bf32a	-0.013424674
243	0xbf7be961	-0.9840298
244	0xbf8dc17a	-1.1074669
245	0xbd9c0693	-0.076184414
246	0xbf759cc0	-0.95942307
247	0x3ed125fa	0.40849286
248	0xbe9d7dc7	-0.30760023
249	0xbc858a5a	-0.016301323
250	0x3e4a56e3	0.19759707
251	0x3ea16686	0.31523532
252	0x3e3242c5	0.17408283
253	0x3e585c39	0.2112893
254	0x3f101fa3	0.56298274
255	0xbfc8719e	-1.5659673

lstm.bias_ih_l0 f4 [400]
0	0xbf5151db	-0.81765527
1	0xbf28df54	-0.6596577
2	0xbf56a29f	-0.8384189
3	0xbfa4daa1	-1.287922
4	0xbfbf42a3	-1.4942211
5	0xc02e0c52	-2.719502
6	0xc0211257	-2.5167444
7	0xc00864d1	-2.1311533
8	0xbfd902aa	-1.6953938
9	0xbf665106	-0.8996738
10	0xc013e3b3	-2.3107727
11	0xbf87d089	-1.0610515
12	0xbf9826b3	-1.188681
13	0xbf2c3066	-0.6726135
14	0xbfc77c08	-1.5584726
15	0xbfc4f40e	-1.538698
16	0xbfab5fbf	-1.3388594
17	0xc03cf739	-2.9525893
18	0xbfe7aaf1	-1.8099042
19	0xbfb0cee3	-1.3813137
20	0xc0318cd1	-2.7742198
21	0xbfa8796f	-1.3162059
22	0xbfac1cea	-1.3446324
23	0xc00f6ddb	-2.24108
24	0xbffa104b	-1.9536222
25	0xbf04b470	-0.51837826
26	0xc0388e2f	-2.8836782
27	0xbf8e8afc	-1.1136165
28	0xc017cd30	-2.3718987
29	0xc0151c7c	-2.3298635
30	0xc01dd5ec	-2.4661818
31	0xbfaa493d	-1.33036
32	0xbf0b87a6	-0.5450386
33	0xbedc9996	-0.43085927
34	0xc02b91e0	-2.6807785
35	0xc01529f0	-2.3306847
36	0xbf4798cb	-0.7796752
37	0xbdb49291	-0.08817018
38	0xbf5ac356	-0.8545431
39	0xbf91fe1f	-1.1405677
40	0xbe0e344d	-0.13887139
41	0xbefda340	-0.49538612
42	0xbfdd0093	-1.72658
43	0xbf191ffc	-0.5981443
44	0xbf319fa1	-0.693842
45	0xc03116d8	-2.7670193
46	0xbe35225f	-0.17688893
47	0xbff2cf23	-1.8969463
48	0xc01e7b60	-2.4762802
49	0xbe17a60c	-0.14809436
50	0xc00c8565	-2.1956418
51	0xbfdcf68f	-1.7262744
52	0xbfb4ecdc	-1.4134784
53	0xbfbb8739	-1.4650642
54	0xbfd8ee33	-1.6947693
55	0xbf263142	-0.6491891
56	0xbfc5d716	-1.5456264
57	0xbfdb2808	-1.7121592
58	0xc0316636	-2.7718635
59	0xbf8c0489	-1.0938884
60	0xbf3e3d75	-0.74312526
61	0xc030b044	-2.7607584
62	0xc014ce27	-2.3250825
63	0xc00d9a74	-2.212552
64	0xc0318c9f	-2.7742078
65	0xc0187dbc	-2.3826742
66	0xbf9b52b1	-1.213461
67	0x3e3f2e88	0.18670094
68	0xbe40d15c	-0.18829864
69	0xbfdd789e	-1.7302434
70	0xbfc0e569	-1.507001
71	0xc01c7902	-2.4448857
72	0xc02c2af7	-2.6901224
73	0xc01a4736	-2.4105964
74	0xbf2ec250	-0.6826525
75	0xc0162084	-2.3457346
76	0xbff0ce86	-1.8813026
77	0xbfc17fdf	-1.5117148
78	0xbf985bf6	-1.1903064
79	0xbfaa8db4	-1.3324494
80	0xbfe5f23f	-1.7964553
81	0xbfa8c966	-1.3186462
82	0xc006c276	-2.105619
83	0xc0145502	-2.3176885
84	0xbfbfe147	-1.4990624
85	0xc027c0ce	-2.6211429
86	0xbff3da83	-1.905106
87	0x3ebe7413	0.37197933
88	0xc01797c0	-2.368637
89	0xc006646b	-2.099879
90	0xbff745ae	-1.931814
91	0xc0157ddf	-2.3358076
92	0xc02d3b67	-2.7067506
93	0xbfc79e39	-1.5595161
94	0xc025ba4c	-2.5894957
95	0xbf3de82f	-0.7418241
96	0xbedf6b1e	-0.4363641
97	0xc0115cb7	-2.2712839
98	0xbfcf505b	-1.6196398
99	0xbf34ce3f	-0.70627207
100	0xbf4d6e6d	-0.8024662
101	0xbf26d3f2	-0.6516715
102	0xbf3ab20e	-0.7292794
103	0xbf6da2be	-0.9282645
104	0xbf702808	-0.9381108
105	0xbfaec057	-1.3652447
106	0xbf7e72cf	-0.99393934
107	0xbf11203b	-0.56689805
108	0xbf8f67f1	-1.1203595
109	0x3d00ebfb	0.03147505
110	0xbf621352	-0.8831073
111	0xbf4e877f	-0.806755
112	0xbefb794c	-0.4911598
113	0xbf061fe7	-0.5239243
114	0xbf728ec8	-0.94749117
115	0xbf85f074	-1.0464005
116	0xbf53ed34	-0.8278382
117	0xbf8da91e	-1.1067235
118	0xbf4c6642	-0.79843533
119	0xbf63330f	-0.88749784
120	0xbf99552a	-1.1979115
121	0xbf4da2ca	-0.8032652
122	0xbef2bc92	-0.47409493
123	0xbf93ebb6	-1.1556308
124	0xbf2ddcdd	-0.67915136
125	0xbe336416	-0.17518649
126	0xbf1f0d50	-0.6212969
127	0xbed539cc	-0.41645658
128	0xbf174cba	-0.5910145
129	0xbf37488e	-0.71595085
130	0xbf3507d2	-0.7071506
131	0xbf185a94	-0.5951321
132	0xbee5437b	-0.44778046
133	0xbeb0e734	-0.34551394
134	0xbf92e1be	-1.1475141
135	0xbf5fda93	-0.8744289
136	0xbec40ab6	-0.38289422
137	0xbe33e23b	-0.17566769
138	0xbf2a199d	-0.6644533
139	0xbf3c5b58	-0.7357688
140	0xbf334d0e	-0.7003945
141	0xbf24eb8c	-0.64421916
142	0xbf6e4aaf	-0.9308271
143	0xbf145219	-0.5793777
144	0xbe662c23	-0.22477774
145	0xbf783fdf	-0.9697246
146	0xbf20a5ba	-0.6275288
147	0xbf6fecab	-0.937205
148	0xbf8a3940	-1.0798721
149	0x3eada9b6	0.33918542
150	0xbf566656	-0.837499
151	0xbf97f250	-1.1870823
152	0xbf3aae32	-0.7292205
153	0xbf34bc62	-0.7059995
154	0xbf703bb3	-0.93841094
155	0xbf23e990	-0.64028263
156	0xbf637d6e	-0.88863266
157	0xbf0e9937	-0.5570254
158	0xbf8fe85a	-1.1242783
159	0xbf6beac2	-0.92155087
160	0xbf11a0f9	-0.5688625
161	0xbf7fba8d	-0.9989403
162	0xbf959c35	-1.1688296
163	0xbfb03a60	-1.3767815
164	0xbf947f10	-1.1601276
165	0xbf5243dd	-0.821348
166	0xbf10a03c	-0.564945
167	0xbea928ae	-0.3303885
168	0xbf478e6b	-0.7795169
169	0xbee8175c	-0.45330322
170	0xbf1491a0	-0.58034706
171	0xbf86ff5f	-1.0546683
172	0xbf7fde5c	-0.9994867
173	0xbf5bd74b	-0.85875386
174	0xbf7d161d	-0.9886187
175	0xbfa862e5	-1.315518
176	0xbf5bef2d	-0.8591183
177	0xbf842776	-1.0324543
178	0xbf0eaad0	-0.5572939
179	0xbf5cde0a	-0.86276305
180	0xbf44e656	-0.76913965
181	0xbe9df30e	-0.308495
182	0xbfa1225b	-1.258861
183	0xbf985336	-1.1900394
184	0xbf4ba30f	-0.7954568
185	0xbf75e97f	-0.9605941
186	0xbf4f26c9	-0.80918556
187	0xbec80f09	-0.3907397
188	0xbf36c041	-0.71387106
189	0xbf0e800f	-0.5566415
190	0xbf99fe93	-1.2030815
191	0xbf9a20ec	-1.2041297
192	0xbf981aac	-1.188314
193	0xbf32d984	-0.6986315
194	0xbf785479	-0.97003895
195	0xbf5be3dd	-0.85894567
196	0xbd7b8ef3	-0.061415624
197	0xbf3ee96e	-0.74574935
198	0xbef48c2a	-0.47763187
199	0xbf3e25ab	-0.74276227
200	0xbde1295d	-0.109942175
201	0x3cadfd93	0.021239078
202	0xbc434ef0	-0.011920676
203	0xbbb0637b	-0.0053829527
204	0xbda8c560	-0.08240771
205	0xbd1d526a	-0.038408674
206	0x3b9b0f9f	0.004732087
207	0x3d2c03c6	0.041995786
208	0x3cbf87a9	0.023380117
209	0x3e1fa637	0.1559075
210	0x3cb2172e	0.021739569
211	0xbd7ff9a0	-0.06249392
212	0x3c9fae3b	0.01949226
213	0x3e48603f	0.19567965
214	0xbd9cba90	-0.076527715
215	0xbd666386	-0.056247257
216	0xbd81b75a	-0.063338
217	0x3b285a0f	0.0025688445
218	0x3d587cfd	0.052853573
219	0x3e0445de	0.12917277
220	0xbc8bdf3a	-0.017074216
221	0x3d05ec90	0.032696307
222	0xbc69f64c	-0.014279913
223	0x3b84f3c2	0.0040573785
224	0xbbfbb8aa	-0.007681926
225	0xbe4b1ce0	-0.19835234
226	0x3ae8c608	0.0017759213
227	0xb9f9ab94	-0.00047620817
228	0x3da7655e	0.08173631
229	0xbd83f780	-0.06443691
230	0xbcfb1b07	-0.030652536
231	0xbc678419	-0.014130616
232	0x3c8e2dee	0.017355885
233	0x3e4d864d	0.20070763
234	0x3c94709d	0.018120104
235	0xbd7ecda0	-0.062207818
236	0xbbb89ab6	-0.0056336774
237	0xbdf7aba1	-0.120932825
238	0x3d0fc209	0.035097156
239	0xbddb9cee	-0.10723291
240	0xbda9de5f	-0.08294367
241	0xbd429927	-0.04750934
242	0xbbe854dc	-0.007090194
243	0xbd68e90f	-0.056862887
244	0xbdcb4cf6	-0.099267885
245	0xbd50baad	-0.050959278
246	0xbdb3849e	-0.08765529
247	0x3d08d4de	0.03340613
248	0xbd807dd2	-0.06273998
249	0xbdc75673	-0.09733286
250	0x3d525881	0.051353935
251	0xbc5c8371	-0.013459072
252	0x3ceb2cd8	0.028707907
253	0x3d26d682	0.040731914
254	0x3d1f1fe4	0.038848773
255	0xbc97dd9c	-0.018538289

lstm.bias_hh_l0 f4 [400]
0	0xbf489a0e	-0.7836007
1	0xbf4ad1ad	-0.7922619
2	0xbf554f06	-0.83323705
3	0xbfb258ff	-1.393341
4	0xbfb83b68	-1.4393129
5	0xc028387b	-2.6284473
6	0xc01f7e7f	-2.4920957
7	0xc0096a37	-2.1471078
8	0xbfd5c4ad	-1.6700646
9	0xbf61865d	-0.8809565
10	0xc0153871	-2.33157
11	0xbf9284af	-1.1446742
12	0xbf8a8c13	-1.0823997
13	0xbefc59e4	-0.4928733
14	0xbfd9ecb1	-1.7025357
15	0xbfc6bfd6	-1.5527294
16	0xbfa5ca18	-1.2952299
17	0xc03ad5de	-2.9193034
18	0xbfde0ab2	-1.7347014
19	0xbfbf6841	-1.4953691
20	0xc037309c	-2.862342
21	0xbf95250b	-1.165193
22	0xbfb68c54	-1.4261575
23	0xc013c70c	-2.3090239
24	0xc002ce9d	-2.0438607
25	0xbf05778f	-0.52135557
26	0xc03312b0	-2.7980156
27	0xbf915307	-1.1353463
28	0xc01a575d	-2.4115822
29	0xc01eb36c	-2.479701
30	0xc01ac0b2	-2.4180112
31	0xbfa111ee	-1.2583597
32	0xbeeb0f1c	-0.45909965
33	0xbeb28706	-0.3486864
34	0xc02e92b9	-2.7277052
35	0xc01b2f96	-2.4247794
36	0xbf4d392e	-0.80165374
37	0xbdea1311	-0.11429418
38	0xbf749d01	-0.9555207
39	0xbf967579	-1.17546
40	0xbcf9601f	-0.030441342
41	0xbeeccee0	-0.46251583
42	0xbfeefdda	-1.8671219
43	0xbf26587e	-0.6497878
44	0xbf4ba402	-0.7954713
45	0xc02b5123	-2.6768272
46	0xbe284d00	-0.16435623
47	0xbfed49a0	-1.8538094
48	0xc01fa101	-2.494202
49	0xbe087fb3	-0.13329963
50	0xc00e5fbd	-2.2245934
51	0xbfdc1738	-1.7194586
52	0xbfb0439d	-1.3770634
53	0xbfba8ba9	-1.4573871
54	0xbfc8bea2	-1.5683177
55	0xbf23f0ab	-0.64039105
56	0xbfcbaf26	-1.5912826
57	0xbfe3522d	-1.7759453
58	0xc030982e	-2.7592883
59	0xbf84059a	-1.031421
60	0xbf2515a6	-0.6448616
61	0xc02b47e0	-2.676262
62	0xc01949f6	-2.3951392
63	0xc014cc03	-2.324952
64	0xc02f82ef	-2.7423666
65	0xc0151d99	-2.3299315
66	0xbfa52a6b	-1.290357
67	0x3e245552	0.16048172
68	0xbe05c46e	-0.13063213
69	0xbfee78a2	-1.8630564
70	0xbfc98a81	-1.5745393
71	0xc0192f6e	-2.3935199
72	0xc0298faa	-2.6493936
73	0xc01f710b	-2.4912746
74	0xbf2da43c	-0.67828727
75	0xc01e156d	-2.4700577
76	0xbfef7f6b	-1.871076
77	0xbfba9689	-1.457719
78	0xbfabda4f	-1.3425997
79	0xbfbb4e2a	-1.4633229
80	0xbff5ec98	-1.9212828
81	0xbfa13e14	-1.259707
82	0xc0065ca6	-2.0994048
83	0xc00b94f0	-2.1809654
84	0xbfc1bb8e	-1.5135362
85	0xc02620ad	-2.5957444
86	0xbffbd98e	-1.9675767
87	0x3ed55aa5	0.4167072
88	0xc0162c4b	-2.3464534
89	0xbfffa99b	-1.9973634
90	0xc0023d1e	-2.0349803
91	0xc018ed35	-2.389478
92	0xc0302d0b	-2.7527492
93	0xbfc2851a	-1.5196869
94	0xc02e896f	-2.7271383
95	0xbf595415	-0.84893924
96	0xbeed677d	-0.46368018
97	0xc0139592	-2.306004
98	0xbfc1ce1a	-1.5141022
99	0xbf075844	-0.5286906
100	0xbf43da9a	-0.76505435
101	0xbf31d0f5	-0.6945947
102	0xbf5ccc90	-0.8624964
103	0xbf582158	-0.8442588
104	0xbf824e0b	-1.0180067
105	0xbf9eb2ef	-1.2398356
106	0xbf6a898c	-0.9161613
107	0xbf040df0	-0.51583767
108	0xbf84aa1f	-1.0364417
109	0x3b21035b	0.002456865
110	0xbf520521	-0.82039076
111	0xbf5394da	-0.82649004
112	0xbf2514bd	-0.6448477
113	0xbef58592	-0.4795347
114	0xbf7dcc24	-0.9913962
115	0xbf855f25	-1.0419661
116	0xbf5cb3c1	-0.8621178
117	0xbf9c3a39	-1.2205268
118	0xbf5935fc	-0.84848
119	0xbf6fc74b	-0.9366347
120	0xbf89ca16	-1.0764797
121	0xbf54c512	-0.83113205
122	0xbf038c3c	-0.51385856
123	0xbf83d1e2	-1.0298426
124	0xbefe0d1f	-0.49619386
125	0xbe0eaee4	-0.13933903
126	0xbf19ae42	-0.6003152
127	0xbefd997b	-0.4953116
128	0xbf1eb75a	-0.6199852
129	0xbf316a7b	-0.693031
130	0xbf48ffb0	-0.7851515
131	0xbf210711	-0.6290141
132	0xbef2b595	-0.4740416
133	0xbeb93495	-0.3617293
134	0xbf8ee29d	-1.1162907
135	0xbf858aaf	-1.0432948
136	0xbec5899d	-0.38581553
137	0xbd26575b	-0.040610652
138	0xbf416770	-0.7554846
139	0xbf505c16	-0.8139051
140	0xbf42f90a	-0.76161253
141	0xbf3325ed	-0.69979745
142	0xbf67fec7	-0.90623134
143	0xbf279678	-0.6546397
144	0xbe897752	-0.26848847
145	0xbf86e97d	-1.0540005
146	0xbf181018	-0.5939956
147	0xbf7309d9	-0.949369
148	0xbf85ddd5	-1.0458323
149	0x3eb5db06	0.35518664
150	0xbf60bb4c	-0.8778579
151	0xbf8d6945	-1.1047751
152	0xbf5769e0	-0.8414593
153	0xbf369b2d	-0.7133053
154	0xbf5c9133	-0.86159056
155	0xbf371a7b	-0.7152478
156	0xbf71a837	-0.943973
157	0xbed6cbef	-0.41952464
158	0xbf9d088d	-1.2268234
159	0xbf5ace59	-0.8547111
160	0xbf0a8c8a	-0.54120696
161	0xbf615786	-0.88024175
162	0xbf81944e	-1.0123384
163	0xbf9b3414	-1.2125268
164	0xbf833879	-1.0251609
165	0xbf518911	-0.8184977
166	0xbf3c23f7	-0.7349238
167	0xbee9ef74	-0.456905
168	0xbf4d17ef	-0.80114645
169	0xbeb7d8a9	-0.35907486
170	0xbeec9e35	-0.46214452
171	0xbf9685fc	-1.1759639
172	0xbf757052	-0.9587451
173	0xbf5f9a88	-0.8734517
174	0xbf845fb8	-1.0341711
175	0xbf9e333b	-1.2359384
176	0xbf4316f9	-0.7620693
177	0xbf605b41	-0.8763924
178	0xbee8276d	-0.4534258
179	0xbf606d50	-0.876668
180	0xbf3bc5ba	-0.7334858
181	0xbe5070ff	-0.20355605
182	0xbfa873c1	-1.3160325
183	0xbf9d2d39	-1.2279426
184	0xbf70cdb4	-0.9406388
185	0xbf82cca5	-1.0218703
186	0xbf596457	-0.8491873
187	0xbed7a951	-0.42121366
188	0xbf3ce787	-0.7379078
189	0xbf19a147	-0.60011715
190	0xbf8b928c	-1.0904098
191	0xbf8e317f	-1.1108855
192	0xbf986438	-1.1905584
193	0xbf215125	-0.6301444
194	0xbf62ad2b	-0.88545483
195	0xbf474d50	-0.77852345
196	0xbd83dadf	-0.06438231
197	0xbf4a5222	-0.79031575
198	0xbf086218	-0.5327468
199	0xbf5084f6	-0.8145288
200	0x3d48592a	0.04891316
201	0x3d7fae45	0.062422056
202	0xbdc727c1	-0.09724379
203	0x3b57d7ad	0.003293495
204	0xbcc60bd0	-0.024175555
205	0x3c1882c9	0.009308525
206	0xbd529daf	-0.05141991
207	0x3d18ed94	0.037335947
208	0xbdc3c4fb	-0.095590554
209	0x3d5535e3	0.052053344
210	0xbda0a0dd	-0.07843182
211	0xbd51ed96	-0.05125197
212	0x3db69ac6	0.089162394
213	0x3d835147	0.06411987
214	0xbd0bd3b3	-0.03413744
215	0xbd09bf4f	-0.03362971
216	0xbd09d0cc	-0.03364639
217	0xbba082b8	-0.0048983954
218	0x3cb2d908	0.021832004
219	0xbd6d071e	-0.057868116
220	0x3c977ed2	0.01849309
221	0x3d9087eb	0.07057174
222	0xbdbe7a8d	-0.093007185
223	0xbdc4b401	-0.096046455
224	0x3d47deb8	0.048796386
225	0xbeb6323e	-0.35585207
226	0x3cf169ce	0.029469397
227	0x3d3e28b0	0.04642552
228	0xbb474b06	-0.0030409708
229	0xba1478e6	-0.0005663767
230	0x3a5c8a93	0.0008412983
231	0xbd6abcc6	-0.057308935
232	0xbdbd6668	-0.09248048
233	0x3e4e661d	0.2015614
234	0xbce13118	-0.02748923
235	0xbcc1537d	-0.02359938
236	0xbdec081d	-0.11524985
237	0xbe1507eb	-0.14553802
238	0x3dbeb124	0.09311131
239	0xbd3dae0a	-0.046308555
240	0xbdfec49c	-0.12439844
241	0xbd384035	-0.044983108
242	0x3d640204	0.055665985
243	0xbd1d6473	-0.038425874
244	0xba68b061	-0.000887638
245	0x3d932253	0.07184281
246	0xbc851e25	-0.016249726
247	0x3d0d06e2	0.034430392
248	0x3c8ded39	0.01732503
249	0xbcaba9f4	-0.020955063
250	0xbc355137	-0.011066726
251	0x3c8e543b	0.017374149
252	0x3d19fad8	0.03759274
253	0x3ca8636c	0.02055522
254	0x3cabc07e	0.02096581
255	0xbc8d8c90	-0.01727894

linear.weight f4 [1, 100]
0	0x3edb1598	0.42789912
1	0xbee625fb	-0.44950852
2	0x3f1d0f86	0.6135181
3	0x3da32784	0.079665214
4	0x3ebd5397	0.36977836
5	0x3dd9a93b	0.10627981
6	0x3ccc69a1	0.024952712
7	0xbe53f0be	-0.20697305
8	0x3e8b639e	0.2722444
9	0x3eb0609e	0.34448713
10	0x3dabf9f2	0.08397283
11	0x3ed1ac44	0.4095174
12	0xbec2ac12	-0.38021904
13	0xbeeceb8e	-0.46273464
14	0x3e8f4673	0.27983436
15	0x3eae8bc1	0.34091
16	0x3eb072e3	0.34462652
17	0x3e020f74	0.12701207
18	0xbe6474bb	-0.22310154
19	0xbea18871	-0.3154941
20	0x3dc4781a	0.0959322
21	0xbea536a4	-0.3226825
22	0x3e38fda8	0.18065512
23	0x3dc4dbd3	0.09612241
24	0xbe0aa563	-0.13539653
25	0xbe8fbc52	-0.28073364
26	0xbcb0f768	-0.021602347
27	0xbe86cf6e	-0.2633013
28	0xbd4b1203	-0.049577724
29	0x3d651f52	0.055938073
30	0x3df792f7	0.12088578
31	0x3e9e9aa1	0.30977347
32	0x3ef44806	0.477112
33	0xbf070e6d	-0.52756387
34	0x3e009df2	0.12560251
35	0x3dcc9942	0.09990169
36	0x3ef05eb1	0.46947244
37	0x3f0e5813	0.5560314
38	0xbed9dbbe	-0.42550462
39	0x3ec115d8	0.37711978
40	0x3f0375ee	0.5135182
41	0x3f215eda	0.63035357
42	0xbe47a002	-0.19494632
43	0x3edd52b6	0.43227166
44	0x3ed3c65a	0.41362268
45	0x3d9aff19	0.07568187
46	0x3f48f578	0.78499556
47	0xbe63c8ca	-0.22244564
48	0x3e4c148a	0.1992971
49	0x3f193023	0.59839076
50	0xbe12b5fe	-0.14327237
51	0xbe60ed1e	-0.21965453
52	0xbe934280	-0.28761673
53	0xbe806c99	-0.25082853
54	0xbe45ab77	-0.1930369
55	0x3e863e8b	0.26219591
56	0x3e89a7f3	0.26885948
57	0x3e3de860	0.18545675
58	0x3c13052f	0.008973404
59	0xbeac99dc	-0.33711135
60	0x3f0d4dea	0.5519701
61	0x3e0b9ea9	0.13634743
62	0xbd411945	-0.04714324
63	0xbdc9776c	-0.09837231
64	0x3e42924d	0.19001122
65	0x3d950105	0.07275585
66	0xbeb501d5	-0.3535296
67	0xbf215b6d	-0.6303013
68	0xbeed379b	-0.46331486
69	0xbd19cca6	-0.037548684
70	0x3e8d2bcb	0.27572474
71	0x3e276020	0.16345263
72	0x3d2c0c89	0.042004142
73	0x3e0b785d	0.13620134
74	0x3f04b17d	0.51833326
75	0x3d939cf7	0.07207673
76	0xbe3fb842	-0.18722633
77	0xbe8c3dfb	-0.27391037
78	0xbe8b13cc	-0.2716354
79	0x3ebf1c0a	0.3732608
80	0x3e693d20	0.22777224
81	0x3e326f44	0.17425257
82	0xbe2a5b5b	-0.16636412
83	0xbe028a9a	-0.12748185
84	0xbe80a394	-0.251248
85	0x3e6217ce	0.22079393
86	0x3e985910	0.2975545
87	0x3f08b2ef	0.5339803
88	0xb9488cea	-0.00019125981
89	0x3dfbe3aa	0.12299283
90	0xbe31827c	-0.17334932
91	0xbe2b4a59	-0.1672758
92	0x3ccd8851	0.025089415
93	0xbe996d50	-0.2996621
94	0x3e64dcbb	0.22349827
95	0x3ef303ce	0.4746384
96	0x3ef2b899	0.47406462
97	0xbe09b6f1	-0.13448693
98	0xbdb11488	-0.08646494
99	0x3f0543e3	0.5205671
