BodelLigging/Groene Rivier pan beneden_bodemligging_V1.pt (torch, 661983 bytes, 5 tensors)

lstm.weight_ih_l0 f4 [400, 1]
000000 bf 15 2e bd a0 96 e3 bd 63 97 2e 3e 07 3c cc bd
       -0.042501207 -0.11112714 0.17049937 -0.09972387
000010 e7 9b 34 bd e0 8e 0e be 23 89 d8 bd bb 98 ea bc
       -0.044093993 -0.1392169 -0.10573032 -0.02863728
000020 ab d1 3b be bc 86 b2 3e ce 90 e6 bc ce 64 8d bd
       -0.183417 0.3486842 -0.02814522 -0.069039926
000030 15 e8 14 be ad ed 0b 3d fd 47 c6 bd fa 7f d2 39
       -0.14541657 0.034162212 -0.096816994 0.0004014967
000040 f9 41 23 be 62 15 1b be 84 70 15 be 31 67 26 be
       -0.15943135 -0.15144876 -0.14593703 -0.16250302
000050 ed 94 a8 bd c4 35 32 be 5a 15 df bd 0a f0 44 be
       -0.0823153 -0.17403322 -0.10892744 -0.19232193
000060 22 3d 11 be 4e 3b 23 3e b7 60 42 be 9a 3d c7 bd
       -0.14183477 0.15940592 -0.18982206 -0.097285464
000070 7a 1a a5 bc 37 56 9d 3d 8c 45 2d bd a0 a8 1a be
       -0.020154227 0.0768246 -0.042302653 -0.15103388
000080 76 62 ba 3d a2 e6 84 be 87 3e b2 bd 69 fd 25 be
       0.09100811 -0.2595721 -0.087033324 -0.1620995
000090 50 a9 c5 bd a8 ba 43 be 21 6d 52 bd 30 f0 a6 3e
       -0.096514344 -0.19114172 -0.051373605 0.32605124
0000a0 85 0a cf bc 5c f9 e3 bd b9 0c 27 bd da cb 30 bd
       -0.02527357 -0.11131546 -0.040783618 -0.043163158
0000b0 c3 54 91 be 58 63 51 be 69 0e 52 be 88 68 67 bd
       -0.2838498 -0.20448053 -0.2051331 -0.056496173
0000c0 c6 f3 4e bd 5e c3 1f be c7 9a 89 be fb 57 5f 3d
       -0.05052545 -0.1560187 -0.26875898 0.054527264
0000d0 13 d8 15 be 9f 81 55 bd 53 9a cd bb ae c4 c3 bd
       -0.14633207 -0.05212557 -0.0062745004 -0.09558998
0000e0 42 f1 a0 bd c0 5e e7 bc 36 f7 3d bd df a5 f2 3c
       -0.07858516 -0.028243423 -0.046378337 0.02962011
0000f0 c3 d3 37 be 7f e8 2e be 5e 48 5e 3b 7c bb 8c bc
       -0.17951874 -0.17080878 0.0033917646 -0.017179243
000100 99 c7 1e 3e 40 f8 7c bd 19 51 7d bd 83 99 1f be
       0.15505828 -0.061760187 -0.06184492 -0.15585904
000110 bc e3 c9 bd c4 8b e7 bd 9d 67 99 be ad 54 2a be
       -0.0985789 -0.11305955 -0.29961863 -0.16633864
000120 6c 52 ad ba 84 fa 26 bd c5 65 98 3e 9a 5e 2b be
       -0.0013223416 -0.040766254 0.29765144 -0.16735306
000130 b8 8f 92 be 4b fb 79 3d f5 26 28 3e df a6 79 bd
       -0.28625274 0.061030667 0.16421111 -0.060950156
000140 9f 27 87 bc 9c 0d d4 bb d7 51 62 bd 16 15 75 bd
       -0.016498385 -0.006471349 -0.05525383 -0.059834562
000150 98 6b ef bd a9 e2 cc 3e fd e3 aa 3d 9e 6b 04 be
       -0.11690444 0.40016678 0.083442666 -0.12931678
000160 16 cc 69 bd e9 6c 83 bc 8c 43 18 be a6 60 c6 bd
       -0.057079397 -0.016043143 -0.14869517 -0.09686403
000170 fb fc 87 bd 17 80 ec bd 4f af af bb 6e 4f 4a be
       -0.06640049 -0.11547869 -0.0053614746 -0.19756863
000180 92 eb 26 be 19 6c fc bd c8 10 d5 3e f2 cf 80 be
       -0.163008 -0.123253055 0.41614366 -0.2515865
000190 2d 55 cb bd 70 56 02 be 63 36 88 bd 5b dc 90 bd
       -0.09928355 -0.12728286 -0.066509984 -0.070732795
0001a0 23 a3 fc bc 3d 2b c9 3c 9e e1 3d be 7b 18 ba bb
       -0.030839508 0.02455675 -0.18543097 -0.005679188
0001b0 6d 0f c3 bd 54 1c b1 3d 4a c4 0b be 4e d3 e3 bd
       -0.095244266 0.08647981 -0.13649097 -0.111242875
0001c0 91 a3 24 be 61 19 c5 bc b4 b6 8c bd bd 1c 90 3c
       -0.1607802 -0.024059953 -0.06870785 0.017591828
0001d0 f3 74 44 be d3 53 f5 bd 0c 68 8a be dd e6 16 be
       -0.19185238 -0.11978879 -0.27032506 -0.14736505
0001e0 af a5 12 be 8e a1 94 bd 35 02 12 be a1 b8 08 be
       -0.14321016 -0.072573766 -0.14258654 -0.1335168
0001f0 d2 a0 06 be 28 c5 e6 3d f2 6d 5b bd d5 48 ea bb
       -0.13147286 0.11268073 -0.05357165 -0.0071497955
000200 9c 34 fd bd d0 d0 76 bd e6 80 0d be 49 a0 23 be
       -0.1236355 -0.060257733 -0.13818702 -0.15979113
000210 b4 69 a3 bb e7 09 52 be 08 1f ff bd 86 b6 23 be
       -0.004986966 -0.2051159 -0.124570906 -0.15987596
000220 02 bd 14 bd b8 76 21 be 75 29 88 3c 39 d5 03 3e
       -0.036313064 -0.15767944 0.01662133 0.12874307
000230 9a a8 de bd 3b 26 34 bc 03 ba 9d bc 69 20 e7 bd
       -0.10872002 -0.010995443 -0.019253736 -0.112854786
000240 b8 ed 5e bd 3f 02 46 be db 56 91 bd fd ee f9 bd
       -0.054425925 -0.19336794 -0.070966445 -0.122037865
000250 7d c4 7b bd 6d fc 7f bd 35 f0 47 3c 46 91 0e be
       -0.061466683 -0.06249659 0.012203266 -0.13922605
000260 7c be 1b be 98 e6 bc bd 50 28 e2 bc 19 9d ee bc
       -0.15209383 -0.0922367 -0.027607113 -0.029127644
000270 21 42 34 be a2 e6 d6 bd 51 93 80 bd 5f 09 af bc
       -0.17603351 -0.104932085 -0.062780984 -0.021366773
000280 1e c7 38 be 63 74 26 be e5 be 47 bd ee 05 17 be
       -0.18044707 -0.16255336 -0.048766036 -0.14748356
000290 3b 85 15 3d f2 7c 54 3d ec 68 10 bd 33 22 19 be
       0.03650401 0.05187697 -0.03525631 -0.14954452
0002a0 c7 84 53 bc b9 b1 02 3c c7 39 29 be 71 b7 b3 bd
       -0.012910075 0.007976943 -0.16525947 -0.08775223
0002b0 33 07 74 bd b5 7d b4 bd 7a 31 7d 3e b7 42 2a be
       -0.05957718 -0.08813039 0.24725905 -0.16627012
0002c0 2a 96 aa bd c5 71 1d be 24 ae 22 3e cc 7b 81 3d
       -0.08329423 -0.15375431 0.15886742 0.063224405
0002d0 ae 9d 1c bd 2e d2 11 be 66 49 17 bd bd 04 62 be
       -0.038236313 -0.14240333 -0.036935233 -0.2207212
0002e0 cc 1a 13 bd 5b 8e a7 3e 15 71 2c 3c 77 ba a2 bd
       -0.035914227 0.32725796 0.010525008 -0.079457216
0002f0 b2 9e 09 be 62 1f e1 bc 78 3e 50 be 88 05 97 3c
       -0.13439444 -0.027480785 -0.2033633 0.018435255
000300 3f 3c e7 bc 42 4d 93 bd 6e e3 67 3c 75 40 19 bd
       -0.02822697 -0.0719247 0.014153345 -0.037414987
000310 f0 c3 29 3b 1f aa 26 be 29 af cf 3e 06 c7 ec bd
       0.0025904141 -0.16275834 0.40563324 -0.11561398
000320 17 84 32 3e 72 dc 95 3d 84 a2 cb be 7b 0b 07 bd
       0.17433201 0.07317437 -0.39772427 -0.032969933
000330 2d 3d 42 3e 18 f2 41 3e b6 66 5b 3c 8a 8e 62 be
       0.18968649 0.18940008 0.013391187 -0.22124687
000340 26 11 c7 bc 67 75 eb be 71 82 11 be c4 42 df 3c
       -0.02430017 -0.45988008 -0.14209916 0.027253516
000350 88 bf 9e 3d da 4d c8 be 51 f2 eb 3c 38 89 44 be
       0.077513754 -0.39121896 0.028802069 -0.1919297
000360 57 99 aa bd 0c 4c 8e bd 0b 8d 48 3e 59 38 1a 3e
       -0.083300285 -0.069480985 0.19585054 0.15060557
000370 fe 09 c9 bd a3 54 34 bc 99 a4 17 be 8e d1 62 bd
       -0.09816359 -0.011006507 -0.14808883 -0.05537563
000380 90 69 e7 bd c6 96 ac 3e 23 28 07 be a4 da d3 bc
       -0.11299431 0.3370878 -0.13198905 -0.025861092
000390 8a a4 08 3e 81 47 8a be 86 38 11 bd 19 8a e1 bd
       0.13344017 -0.27007678 -0.035454296 -0.11012668
0003a0 3d 83 80 3e 63 c8 91 3d 25 0d 9b bc 75 d6 57 bd
       0.25100127 0.07118299 -0.018927166 -0.052694757
0003b0 f0 bc 31 3e 3f 66 78 ba 7f 6b ec bd 34 67 ec be
       0.1735723 -0.0009475685 -0.11543941 -0.46172488
0003c0 85 cc 7b bd b3 d0 3b bd 89 0c 8b 3d 89 5f 94 bd
       -0.061474342 -0.045853328 0.067895 -0.072447844
0003d0 8a 0b 12 3e bc e1 bf 3d f7 43 d4 bd f0 f3 8d bd
       0.14262214 0.09369227 -0.10364526 -0.06931293
0003e0 2c e7 84 be c1 ce cd 3d 1a 8a cd 3d 4f 0d 41 be
       -0.2595762 0.10049201 0.100361064 -0.18852733
0003f0 39 29 03 bd c7 d6 97 be 56 80 c5 be 2a 48 65 be
       -0.032021735 -0.2965605 -0.38574475 -0.2239081

lstm.weight_hh_l0 f4 [400, 100]
000000 4d 40 6a be 8f d3 28 be e1 fc 14 3e 28 4b bc bd
       -0.22876091 -0.16486953 0.1454959 -0.091940224
000010 0b e0 0c bd 4c 74 59 bc 1a 1f 3a bb 6e 39 2f 3e
       -0.03439335 -0.013272356 -0.0028399886 0.17111751
000020 39 79 a3 bd d3 98 06 3e 3a 9d ea 3d 25 f1 e3 bc
       -0.07982106 0.13144235 0.1145577 -0.027824948
000030 3f 0d dc bd 5a 7e 0b 3e c5 d1 01 be 21 82 43 3d
       -0.10744714 0.13622418 -0.12677677 0.047731522
000040 71 3f d9 bd 5a 31 aa bd 6f b2 84 3d 1d 26 ed bd
       -0.106078036 -0.08310194 0.06479346 -0.11579535
000050 a7 1e 81 3d 8f e0 b4 bd b6 ef 18 bd 0a 43 0e 3d
       0.063046746 -0.08831894 -0.03733798 0.034731902
000060 46 1c 14 3e 9f cf 5b bd a7 4f 9b bc f7 28 80 bc
       0.1446391 -0.0536648 -0.01895888 -0.015644534
000070 29 2a 54 bc a9 b5 4a 3e a0 bf 95 bc 06 6f 8e bd
       -0.012949505 0.1979586 -0.01827985 -0.0695477
000080 77 8a 1c be 73 c5 e6 bc 5b 93 9e 3d e5 6e b6 3d
       -0.15287195 -0.028170323 0.077429496 0.0890787
000090 79 83 e3 bd 6d 61 c6 bd ca 8b 67 bd f5 fd 0b 3e
       -0.11109061 -0.09686551 -0.056529798 0.13671096
0000a0 c1 6d 19 3e 1b a1 4d be 9e 1f bc 3c 20 60 af 3d
       0.14983274 -0.20080988 0.022964295 0.08563256
0000b0 82 a4 3d bd d5 5f b2 bd 2a d0 32 3c 42 fb 31 3d
       -0.046299465 -0.08709685 0.010913888 0.04345251
0000c0 2c 5c 26 3e 04 58 f4 bd a3 ac 8b bd 95 45 9e bb
       0.16246098 -0.1193085 -0.06820037 -0.004830072
0000d0 8d 6a 56 3d 66 47 bd 3d 6a 62 c3 3d 16 fd 67 3e
       0.05234771 0.09242134 0.09540255 0.22655138
0000e0 5f 92 7d 3c 75 d1 7f 3d 9b 85 49 be 83 57 a0 3d
       0.015476792 0.062455613 -0.19679873 0.078291915
0000f0 73 97 a6 bd 18 5d 26 3e 48 c8 04 3e 37 7f 2c be
       -0.081343554 0.1624645 0.12967026 -0.16845404
000100 0d ef 3d be be 19 86 3b 0f cd 08 be 72 5e 1e be
       -0.18548222 0.004092424 -0.13359474 -0.15465716
000110 49 b4 bd 3d 66 cf b6 3c a5 16 f1 bd 36 24 c1 3d
       0.09262902 0.022315692 -0.11771897 0.09430735
000120 eb cd 09 3e 85 9c 9b bc 4d 8c 87 bd 1f 90 2b 3d
       0.13457458 -0.018995533 -0.06618557 0.04188549
000130 10 62 e4 ba 35 3d 4a 3e 11 d6 4f 3e 12 2f ee 3d
       -0.0017424244 0.19749911 0.20296504 0.11630072
000140 4c d6 50 bd 95 78 66 3e 6a 88 33 be dc 16 04 be
       -0.05098562 0.22506936 -0.17532507 -0.12899345
000150 3d 24 d0 bd 02 1a eb bb 4d 61 26 be a6 5d 9d bd
       -0.10163162 -0.007174731 -0.16248055 -0.07683878
000160 66 9e 7d bd 49 4f 4d bd d5 41 7e 3d 73 3e 25 bd
       -0.06191864 -0.05012444 0.0620745 -0.04034276
000170 04 1b 2b 3e 69 62 d4 bb 64 3b 2b be 91 05 d0 bc
       0.16709524 -0.006481458 -0.16721874 -0.02539328
000180 8b a3 01 bd c6 db 9d 3d 2b fe ca bd 86 3e 46 bd
       -0.031650107 0.07707934 -0.0991176 -0.04839947
000190 75 40 19 be 04 85 26 be d1 76 5e 3e 2a 6c bd bd
       -0.14965995 -0.16261679 0.21725012 -0.09249146
0001a0 f9 31 37 3d ec b7 e4 3d ef ce 99 bd c7 9b 93 3e
       0.044725392 0.11167893 -0.075101726 0.28829786
0001b0 ca 37 98 bd b4 28 15 3e 1a 69 14 3e 0c 93 37 be
       -0.07432516 0.14566308 0.14493218 -0.17927188
0001c0 54 87 cf bd b1 41 56 3e 60 4c bb bd b6 06 54 3e
       -0.10133234 0.20923497 -0.09145427 0.20705685
0001d0 bd 9b 9f bd f6 f7 9f 3d 6a db 03 3e 08 69 17 be
       -0.077933766 0.07810967 0.12876669 -0.1478616
0001e0 58 e7 c3 3d af ff 23 be 20 e6 db 3c fe 94 07 3e
       0.0956561 -0.16015504 0.02684313 0.1324043
0001f0 64 96 28 3d 54 97 90 be b3 dc 99 bd 3a 86 e2 bd
       0.04115905 -0.28240454 -0.07512798 -0.11060758
000200 41 dc 8e bb 6a 84 1d 3e d7 e4 d4 bd 6f 47 b0 bd
       -0.0043597524 0.15382543 -0.1039521 -0.08607375
000210 d4 2e 7f be 6a 3e cb 3b 34 c7 d2 3c 31 6d cf 3d
       -0.24920207 0.0062025087 0.025729753 0.101282485
000220 82 ad 29 be c8 8e 07 3d c6 81 29 3d 70 66 16 3e
       -0.16570094 0.03309515 0.041383527 0.14687514
000230 62 50 64 3e 57 70 42 be 35 0b e7 bd 8e d4 25 3e
       0.22296289 -0.18988167 -0.112814344 0.16194364
000240 a3 59 1a be 86 53 31 be 02 c3 bc 3d 9b 0d 37 3e
       -0.15073256 -0.17317018 0.09216882 0.17876284
000250 23 3c d5 3d a8 a7 3a bb 74 74 22 be 82 ff 70 3d
       0.10411861 -0.0028481279 -0.15864736 0.05883742
000260 9c 27 92 3c d6 3c 87 3e fa ea 81 3e 0a 5e 89 3e
       0.017841153 0.26413602 0.25374585 0.2682956
000270 02 79 2e 3d 56 14 ef 3d 61 83 74 be 4f 62 01 3e
       0.04259587 0.11673801 -0.23878242 0.12635158
000280 b2 e9 ab bd 94 22 cd 3d 88 f7 8a 3e 2f 97 06 be
       -0.08394183 0.10016361 0.27141976 -0.1314361
000290 78 15 0f be 43 9b ce bd e4 7d 0e be 38 a6 f7 bd
       -0.13973033 -0.100882076 -0.13915211 -0.120922506
0002a0 7b f5 7b 3e c1 5f 9d 3d 97 39 03 be b2 7f ee 3d
       0.24605362 0.07684279 -0.12814938 0.1164545
0002b0 4e 16 57 3e 40 48 90 bc 24 84 08 be 66 df 2a bd
       0.21004602 -0.017612576 -0.13331658 -0.041716956
0002c0 95 42 7e 3d ab cb 8b 3e d1 9e 1e 3e b8 e7 65 3e
       0.062075216 0.27303824 0.15490271 0.22451675
0002d0 2c 63 f1 bd 6d d7 71 3e 1e 82 2b be b7 60 0b be
       -0.11786494 0.23617335 -0.16748855 -0.13611113
0002e0 4c 74 3d bd fe 8c 84 be c8 30 2f be 77 39 b9 bc
       -0.046253487 -0.25888819 -0.17108452 -0.02261041
0002f0 22 ea 72 bd 83 0f 3a be 3b 97 18 3d 1e d5 82 bd
       -0.059305318 -0.1816998 0.0372536 -0.06388305
000300 83 c3 38 3e d2 7c 6d 3c f2 d6 6e be 7d fe 5b be
       0.18043332 0.0144950915 -0.23324183 -0.21483798
000310 a8 46 73 3d 11 99 a1 3d 36 c2 54 be 1a f6 25 3d
       0.059393555 0.07890523 -0.2077721 0.040517904
000320 0c f1 3a 3d 50 29 29 3d 41 e1 9e 3a 17 c6 84 3d
       0.045640036 0.041299164 0.0012121574 0.06483095
000330 2d f5 8e 3d 5c 40 76 3d 1d 30 df bd 4f 43 bc bb
       0.06980357 0.06011997 -0.10897849 -0.0057453285
000340 82 9a 85 bd 0f 97 8a bd 18 44 26 bd 13 ea 2d bd
       -0.06523611 -0.067670934 -0.040592283 -0.04245956
000350 22 e6 50 3b fd 8b 47 3d 6f b7 89 bd 91 3b 67 3d
       0.003187545 0.048717488 -0.0672444 0.05645329
000360 66 93 78 bd 61 fb bf bd 63 1d 24 bc 07 d5 02 be
       -0.060687445 -0.093741186 -0.010016772 -0.12776576
000370 22 87 8b bd 02 d0 ef 3c 2f 6d 84 bc 88 ca 97 3d
       -0.06812884 0.02927399 -0.016165344 0.07411677
000380 c0 35 ad bd a5 8e b2 3d 87 2a 0a be 8a e0 bc bc
       -0.084575176 0.087186135 -0.13492785 -0.023056287
000390 4e 04 6a bd 4d bf 9b 3d 5c 05 5b 3c e6 df e8 bd
       -0.05713301 0.07604847 0.013367977 -0.1137083
0003a0 b6 54 3f bd a8 b1 d5 bd 13 0a 39 3d 05 dd 07 3e
       -0.046711646 -0.10434276 0.045175623 0.13267906
0003b0 74 91 5a 3c c1 7b 14 be 19 c6 ff 3c 2f 86 d2 bc
       0.013340343 -0.14500333 0.03122239 -0.02569875
0003c0 2f cf eb 3d df 3e ae ba 02 82 26 3d da 4e c0 bd
       0.115141265 -0.0013293884 0.04065133 -0.0939004
0003d0 d2 65 51 bd e0 ce 45 bd 62 f8 63 bd b1 01 d7 bb
       -0.051122494 -0.048292994 -0.0556568 -0.006561481
0003e0 33 27 54 bd 5b 20 98 bd a5 36 ef 3a 2c 7a 3f be
       -0.051795196 -0.07428046 0.0018250538 -0.18698949
0003f0 08 54 cf bd 1d 6f 9e bc 64 e5 b3 3d d2 6a 27 3c
       -0.101234496 -0.019340092 0.08783987 0.010218339

lstm.bias_ih_l0 f4 [400]
000000 54 3e 0f bd f4 22 05 be 6b da 92 3d 7b 84 8c bd
       -0.03497155 -0.13001615 0.07170566 -0.06861206
000010 aa 9f 1b be 60 8b 09 be 9b b0 b2 bd fb b4 6e 3c
       -0.15197626 -0.13432074 -0.08725091 0.014569516
000020 06 ef d4 bd cc ce 4e 3e ae 1e 17 be b9 5d 07 be
       -0.103971526 0.20196074 -0.14757797 -0.13219346
000030 de 0f ea bd d7 b6 d2 3c 25 bd 00 be 6d f9 0d bd
       -0.11428808 0.02572195 -0.12572153 -0.0346617
000040 6b dc ed bd 23 aa 0d be 7b 92 41 be 7c b8 46 bd
       -0.11614307 -0.13834433 -0.18903534 -0.04851578
000050 18 87 52 be cf 91 1e be 0a 0d a4 bd 81 e0 27 bd
       -0.20559347 -0.15485309 -0.080102995 -0.040985588
000060 39 6e 53 bd 42 9e c7 3d b7 e5 13 be 66 09 d8 bd
       -0.05161879 0.09746982 -0.14443098 -0.105486676
000070 12 af 16 be 4b 11 b4 3d 57 72 6c bd c7 ba 8d bd
       -0.14715222 0.08792361 -0.05772623 -0.069203906
000080 0f e2 64 bd 3d 0c e7 bd 5c 2e 86 bc 30 2a 4a be
       -0.05587965 -0.11281631 -0.016379528 -0.19742656
000090 13 0a 08 3d 59 ce 65 be e6 f7 50 bc e4 72 a6 3e
       0.033212733 -0.22441997 -0.012754416 0.3250953
0000a0 52 8d 21 bc 03 33 3b bd 00 83 43 bd ea d4 9e bc
       -0.009860354 -0.045702945 -0.047732353 -0.019388635
0000b0 31 46 25 be b0 21 33 be b3 68 09 bd 82 36 db bd
       -0.16140057 -0.1749332 -0.033547115 -0.10703756
0000c0 8f 37 e2 3d 50 6a bb bd 63 67 1f be 95 2f 89 bc
       0.11045753 -0.09151137 -0.15566783 -0.016746322
0000d0 c8 b4 be bd 10 f8 e0 3d a5 d6 47 3d cb 41 51 ba
       -0.09311825 0.10984814 0.048788685 -0.0007982521
0000e0 55 2c 10 be 59 a8 58 be 23 eb 82 3d 84 d6 34 3c
       -0.14079411 -0.2115797 0.06392505 0.011037473
0000f0 3e c8 ee bc 2f 3e 2b be 32 ea 81 3a 3c 9c d8 bd
       -0.029148217 -0.1672294 0.0009911715 -0.10576674
000100 36 8a a4 3d 04 66 16 be 43 54 d3 bd ab 34 3e bd
       0.08034174 -0.14687353 -0.10318806 -0.046436947
000110 43 3e e2 bd 54 4f 28 be f9 c3 59 be 58 93 1f bd
       -0.11047032 -0.16436511 -0.21266164 -0.038958877
000120 81 b3 10 bd 9a 57 5f bc 37 01 89 3e 67 4e 3c be
       -0.03532744 -0.013631726 0.2675874 -0.18389283
000130 df d2 a4 be b3 ad 0c 3d 16 d4 3e 3e 69 6f 55 bd
       -0.32192132 0.03434534 0.18635592 -0.052108202
000140 c3 16 08 bd 84 55 84 bd 00 ce de bd 87 fe 3e 3c
       -0.033224832 -0.06461623 -0.10879135 0.011657364
000150 9d c5 10 bd 7e 30 a5 3e 4d 38 1f 3e 45 5e 33 bd
       -0.03534471 0.3226356 0.15548821 -0.043791074
000160 76 35 38 be 35 e0 fe bc c7 3d 2c be 33 86 81 be
       -0.17989144 -0.03111277 -0.16820441 -0.25297698
000170 c0 44 16 bd 95 37 ae bd 3f 1b 80 3d e7 1c 90 bd
       -0.03668666 -0.08506695 0.06255197 -0.07036763
000180 5d 56 2f be db 0d 8d bd 30 7b 98 3e 99 7b 38 be
       -0.17122789 -0.06887408 0.29781485 -0.18015899
000190 b7 20 10 be 83 34 b5 bd 74 70 04 bd c4 94 86 bd
       -0.1407498 -0.088479064 -0.032333806 -0.065713435
0001a0 44 ac 2b 3d 70 97 2e bd 38 86 c2 bd 48 73 a2 3d
       0.041912332 -0.04262489 -0.094982564 0.079321444
0001b0 7b 70 71 bd 25 91 2f 3e a2 35 34 3c ae ed 9b bd
       -0.05894516 0.17145212 0.010999115 -0.07613693
0001c0 c9 b5 1a be d0 c0 cf 3d cc 4c 8b 3c c0 58 bd 3c
       -0.15108408 0.10144198 0.017004393 0.023113608
0001d0 a6 4e 4e bd b3 71 25 be 86 0f 0d be 58 eb 2e bd
       -0.050367974 -0.16156654 -0.13775453 -0.04270491
0001e0 0a 32 f3 bd 92 8e be bd eb fa 1a bd 13 49 08 bd
       -0.118747786 -0.09304537 -0.03783695 -0.033272814
0001f0 05 aa db bd 60 e3 3e 3c 8b 63 22 be ca 9e 24 3d
       -0.10725788 0.01165089 -0.15858285 0.040190496
000200 1f 54 d7 bd 9f da d8 bd 6e 84 76 bd bf f0 46 be
       -0.10514092 -0.10588574 -0.06018489 -0.19427775
000210 99 6d 2c bd 87 77 2d be f6 11 18 bd b5 9c e4 bd
       -0.042096708 -0.16940127 -0.037126504 -0.11162702
000220 06 97 d6 bd 1d 82 42 be 8c b4 f3 3b 90 56 84 3e
       -0.10478024 -0.18994947 0.0074372943 0.25847292
000230 0b 98 03 be 82 41 22 be 12 29 9c bd d8 9c 1c be
       -0.12850969 -0.15845302 -0.07625021 -0.15294206
000240 d0 7c 52 be 87 76 1c be ec 8c 3c bb a3 2e 09 bd
       -0.20555425 -0.1527959 -0.002877052 -0.033491742
000250 2f 7a 84 bd 6a f0 7a bd 5f c9 68 bd d5 d8 25 bd
       -0.06468617 -0.061264433 -0.056832667 -0.04048999
000260 5e f8 e5 bd b1 a2 8d bc 94 29 3b 3d d0 59 24 3d
       -0.11229013 -0.017289491 0.04569395 0.040124714
000270 45 e0 69 be 41 2b c9 bd 6d 78 aa bd f9 bb f6 bd
       -0.22839458 -0.09822703 -0.08323751 -0.12047572
000280 27 8b 3d be 27 b2 0b be 14 fd 23 bd 9b 23 2c be
       -0.18510114 -0.13642178 -0.040036276 -0.16810457
000290 24 90 48 bd 02 f0 62 bd 13 4a 9d bd 5f 61 32 be
       -0.04896559 -0.05540467 -0.07680144 -0.17419957
0002a0 c2 d9 1b be f4 2a b1 bd cb 97 17 be e3 8e c5 bd
       -0.15219787 -0.08650771 -0.14803998 -0.09646394
0002b0 6b 54 0b be 46 10 3a bd e6 18 4c 3e 53 51 90 bd
       -0.13606422 -0.045425676 0.19931373 -0.07046761
0002c0 16 b8 dc bd 99 6f 18 be c1 ef 4c 3e cb 53 9c 3d
       -0.10777299 -0.14886321 0.20013334 0.0763317
0002d0 83 6f 2d bb 0f ae bf bd 36 dc df bc cb 99 35 be
       -0.0026464171 -0.09359371 -0.027326684 -0.17734449
0002e0 b3 41 8e bc 48 ab c1 3e 63 e4 9d bd c9 09 8c bd
       -0.017365312 0.3782599 -0.07709577 -0.06837804
0002f0 ee 6b 65 bd 07 f2 11 be 8f bc 37 be 59 73 cf bd
       -0.056011133 -0.14252482 -0.17943023 -0.10129423
000300 20 47 9f bd a8 14 d5 bb 8c 91 f0 bd c4 c3 29 bb
       -0.07777238 -0.0065027066 -0.11746511 -0.002590404
000310 eb d8 ed bc 1c ad ef bd 4b 7b c0 3e 9a 49 54 3d
       -0.029034099 -0.1170294 0.37594065 0.051828004
000320 73 bb d3 3d ca be a2 3d 4d 3f b3 be c3 63 4d bb
       0.103384875 0.079465464 -0.35009232 -0.003133998
000330 3e c0 d4 3d 44 6a 81 3e f8 0a 96 bd 30 b1 af be
       0.1038823 0.25276387 -0.07326311 -0.3431487
000340 a5 a1 a1 bd e7 2c bf be 33 56 1f be 03 c6 56 bd
       -0.078921594 -0.37338945 -0.15560226 -0.052434932
000350 59 3f ef 3d 0a 60 e4 be f5 e4 77 3d dc 04 bf be
       0.116820045 -0.44604522 0.060521085 -0.37308395
000360 a4 ea f4 bd cd df 00 bb fd 64 82 3e 91 6a c5 3d
       -0.11958817 -0.0019664646 0.25467673 0.096394666
000370 b5 37 b1 bb 98 6d ee 3d 7c 4f d4 bd 49 d5 4b 3d
       -0.005408252 0.11641997 -0.10366723 0.04976395
000380 6e 76 46 3b 85 06 af 3e 1b f0 96 3c d3 f4 14 3e
       0.0030282992 0.34184662 0.018425038 0.14546518
000390 78 f1 af 3c 40 04 9d be 7a 4b c7 3d 2e 03 32 bd
       0.021477446 -0.30667305 0.09731193 -0.043460064
0003a0 8c c6 88 3e a3 a0 a0 3d 4c b1 8a bb d9 f5 66 3d
       0.2671398 0.07843139 -0.004232561 0.056386802
0003b0 56 cb 54 3e f7 c3 d7 3b a9 71 7d bd ab 7d b4 be
       0.20780692 0.00658464 -0.061875973 -0.35252127
0003c0 d1 11 49 bd f0 7c 35 bc 9a a5 36 bd 1f 8e f0 bd
       -0.049089257 -0.011077151 -0.044591524 -0.117458574
0003d0 f7 2d 72 bc a1 52 f7 39 0a 4f 94 3d ea 40 e3 bd
       -0.014781467 0.00047173075 0.07241638 -0.11096366
0003e0 eb da 0b be 5a c9 37 3d d3 85 43 3d d2 2a 47 be
       -0.1365773 0.04486976 0.047735047 -0.19449928
0003f0 40 85 19 be 88 e9 b8 be ee ac 7a be 6a 41 71 be
       -0.14992237 -0.3611567 -0.2448003 -0.2356011

lstm.bias_hh_l0 f4 [400]
000000 21 ac d5 bd 34 60 34 be 29 5a d1 3d 2b 80 13 be
       -0.104332216 -0.17614824 0.10222275 -0.14404361
000010 ff b7 0d be 55 27 b5 bd 5f 2d 74 be 11 91 ef 3c
       -0.1383972 -0.088453926 -0.23845433 0.029243978
000020 02 4b 0d be dc 82 5f 3e 2b 95 91 bc fb 3f eb bd
       -0.13798144 0.21827263 -0.017771324 -0.11486813
000030 18 7e ed bd b4 10 4e 3d 52 c2 23 be 33 43 07 3c
       -0.11596316 0.050308898 -0.15992096 0.008255768
000040 ce 5c 8c bd 07 10 1d be 16 23 3f be 6a 32 4b be
       -0.068536386 -0.15338145 -0.18665728 -0.1984345
000050 f4 a8 2c be 0f be 52 be 73 9f ec bd 97 e6 e5 bd
       -0.16861326 -0.20580314 -0.1155385 -0.11225622
000060 29 9d 26 be 4d 1f fb 3d 9a 1f dd bd 19 43 40 be
       -0.1627089 0.122618295 -0.10797043 -0.18775596
000070 3f 93 91 bc 77 45 0a 3e a2 1d 95 bd 21 72 fa bd
       -0.017770408 0.13503061 -0.07281043 -0.122287996
000080 bf 4d dd bc 5d 47 62 be 0a c5 01 be fd 95 36 be
       -0.027014611 -0.22097535 -0.1267282 -0.17830653
000090 6d 5a 9f bc 22 b9 07 be 28 42 02 be 62 ac ad 3e
       -0.019452298 -0.13254216 -0.12720549 0.3392058
0000a0 b2 5c ef bd a3 e4 d8 bd 5e 00 fc bd 47 33 31 bd
       -0.11687602 -0.10590484 -0.123047575 -0.043261793
0000b0 ba f2 59 be d1 d9 3f be f9 57 2b be cb ae 2e bd
       -0.21283999 -0.18735434 -0.16732778 -0.042647164
0000c0 04 6f 63 3d d4 14 9f bd ef 2c 83 be 62 f2 64 bc
       0.055525795 -0.077676445 -0.2562022 -0.013973804
0000d0 d1 8c e6 bd d0 92 1d 3d ba d4 aa 3c 74 f0 1f 3c
       -0.11257327 0.03847009 0.020853389 0.009761918
0000e0 61 5e 9f bd 94 eb 01 be 3d 22 f7 bb 2d 72 9c 3d
       -0.07781673 -0.12687522 -0.0075419233 0.07638965
0000f0 0c a4 c8 bd 84 ed f7 bd d0 01 1b be 3b 3c c6 bd
       -0.097969145 -0.121058494 -0.1513741 -0.09679457
000100 b1 b2 d6 3d fa 8b bd 3c 9d c9 39 bd 20 ac 42 be
       0.104833014 0.023138035 -0.04535829 -0.19010973
000110 f5 86 07 bd d8 cb b3 bd b0 65 1d be 33 6b c9 bd
       -0.03308769 -0.087791145 -0.15370822 -0.098349
000120 a0 3b db bc c2 79 dc bc 6b 05 71 3e 92 35 15 be
       -0.02676183 -0.026913527 0.23537223 -0.14571217
000130 2a 82 88 be 15 27 00 bd 81 79 80 3e 50 1a 4a bd
       -0.26661807 -0.03128727 0.250927 -0.0493415
000140 ce 58 7a bd 3a 72 77 bc fe 8b 12 ba 04 64 c2 bc
       -0.061119847 -0.015102917 -0.00055903185 -0.023729332
000150 86 1d 3d be d1 15 c6 3e b4 ed 45 3d 9b b7 4b be
       -0.18468294 0.3868852 0.048322394 -0.19894259
000160 35 e5 94 bd 65 f7 bf bd 87 7b 26 be 70 54 bf bd
       -0.0727028 -0.09373359 -0.1625806 -0.09342277
000170 70 12 10 be 2e 02 37 be 1b d2 25 3c 00 53 88 bc
       -0.14069533 -0.17871925 0.010120894 -0.01664114
000180 0f 34 45 be 52 f5 08 be 54 28 84 3e 07 e8 4c be
       -0.1925814 -0.13374832 0.25812018 -0.20010386
000190 b1 b1 2e be f0 89 c9 bd ef 7c 83 3d 00 a7 07 be
       -0.17059971 -0.098407626 0.064203136 -0.13247299
0001a0 b7 f5 0e be dc 6e 0b be 9d 4a 5a be b8 37 07 3d
       -0.1396092 -0.13616508 -0.21317525 0.033012122
0001b0 a8 aa 5d bd d3 0f db 3d cd 7f ce bd cf 0e e0 bc
       -0.05411783 0.106963776 -0.1008297 -0.027350811
0001c0 b4 cc 0e bc 04 32 8f 3d 41 08 94 3c be 16 3d 3d
       -0.008715797 0.069919616 0.018070342 0.046164267
0001d0 a2 b1 2b be 9e 90 ca 3b ed 6b 82 be 62 d3 94 bd
       -0.1676698 0.0061817905 -0.25472966 -0.072668806
0001e0 6e 69 3a be f3 3e d0 bd 1d 0f 04 be 7f 34 c0 bd
       -0.1820428 -0.101682566 -0.1289639 -0.09385013
0001f0 3f c3 f1 bd 41 b6 3e 3d e3 95 0e bd 52 f7 01 3c
       -0.11804818 0.04656053 -0.034810912 0.007932501
000200 64 2b 0a be d5 7a 87 3d 69 a1 53 bd 79 7e 39 bd
       -0.13493115 0.06615225 -0.051667605 -0.04528663
000210 c9 d9 92 bd 84 21 1c be 9d 4b f4 bd c8 6d 1a be
       -0.071704455 -0.1524716 -0.119284846 -0.1508094
000220 ff 02 eb bb 40 76 0d be fd c2 c6 bc d6 07 0e 3e
       -0.007171988 -0.1381464 -0.0242629 0.13870177
000230 ed 1b 45 be 63 cc 23 be 65 cc c1 3a ee fc 03 be
       -0.19248934 -0.15995936 0.0014785646 -0.12889454
000240 da 51 eb bd 4d 26 e2 bd 26 b0 01 be 26 56 9e bd
       -0.11490221 -0.110424615 -0.12664852 -0.07731275
000250 80 fb 20 3b 19 2c e3 3b d2 06 ff bd c2 59 00 bd
       0.0024563968 0.006932747 -0.12452473 -0.0313356
000260 63 e4 02 be 1f 27 76 3d 1c 68 bc 3d 8f 31 2b b9
       -0.12782435 0.060095903 0.09199545 -0.00016326293
000270 5d 0f ca bd 1b 62 76 bd 05 90 48 bd 8b 85 ca bc
       -0.098662116 -0.060152154 -0.048965473 -0.024721881
000280 bf 28 08 be 11 3f c0 bd 3c c7 00 be 09 26 b1 3b
       -0.13296793 -0.09387029 -0.12576002 0.0054061455
000290 dd fb 8b 3d 19 21 83 3d a4 0f f1 bc a3 81 fb bd
       0.068351485 0.06402797 -0.029426403 -0.122805856
0002a0 ba d2 7f bd f4 24 b5 bd 72 e3 5e be 19 ae bb bd
       -0.062456824 -0.08844939 -0.21766451 -0.09164066
0002b0 99 b2 f4 bd 87 7e d5 bd f2 ce a8 3d 8c 47 31 be
       -0.11948127 -0.10424524 0.08242597 -0.17312449
0002c0 0d dc fb bd d3 98 8f 3a 74 fd dc 3d 50 b0 c0 bd
       -0.12297831 0.0010955579 0.1079053 -0.09408629
0002d0 3a ff 9e bd 31 68 0e be 02 d5 ba bd 58 b8 93 be
       -0.07763524 -0.13906933 -0.09122659 -0.2885158
0002e0 58 cf 23 3d 7f bb 8e 3e 16 b2 47 bd a0 9c 0c be
       0.03999266 0.27877423 -0.04875382 -0.13731623
0002f0 3c e4 45 be 8a c8 1c bd 71 29 46 be 13 36 cb bd
       -0.19325346 -0.038277186 -0.19351746 -0.09922423
000300 69 bc 1a be 4a da 68 bc 29 38 19 3d 18 f4 55 bd
       -0.15110935 -0.0142122 0.037407074 -0.05223474
000310 35 d8 17 be e2 c8 fe bd 1b 33 ba 3e 7d df 00 be
       -0.1482857 -0.12440659 0.36367115 -0.12585254
000320 79 f2 3d 3e e5 3a 5f bd 05 d4 89 be 44 70 ba bc
       0.18549527 -0.054499526 -0.2691957 -0.02275861
000330 de e5 0d 3d 3f 8a 70 3e 47 a1 94 bd 66 c0 44 be
       0.034643047 0.23490237 -0.07257324 -0.19214019
000340 5b 71 83 3d 76 5f e9 be c2 88 7b bd 84 c1 4f 3d
       0.06418105 -0.45580643 -0.06140972 0.05072166
000350 a0 cf 0c bd 51 2c 9d be 31 c5 af 3a 9f c1 99 be
       -0.034377694 -0.30697873 0.0013410208 -0.30030534
000360 32 e1 de bd 94 fc a9 bd 22 aa 7a 3e 85 48 22 3e
       -0.10882796 -0.083001286 0.24478963 0.15847977
000370 c8 11 ab bd 81 d5 9b bc f1 59 27 be e5 55 e4 3c
       -0.08353001 -0.019022705 -0.16342904 0.027872989
000380 10 55 c2 bd 09 51 a1 3e 86 7b 8b bd e1 19 e1 bb
       -0.09488881 0.31507137 -0.068106696 -0.00686954
000390 45 ba ef 3d 0f 58 a9 be 96 64 5c bd 15 e1 ab ba
       0.1170545 -0.33074996 -0.053806864 -0.0013113344
0003a0 24 cb 3f 3e 67 90 31 bd 71 dc 99 bd 02 0b bf bd
       0.18729836 -0.043350603 -0.07512749 -0.093282714
0003b0 61 96 95 3e 08 7c e7 bc e6 ec 13 be ab 9f f6 be
       0.29216293 -0.028257385 -0.14445838 -0.48168692
0003c0 4b f4 0f bd 80 1c dd 3d ae c6 e5 3d 13 a5 55 3d
       -0.035145085 0.107964516 0.11219536 0.05215938
0003d0 22 a7 d3 3d fa 61 68 bd e0 3a d5 bd 1a a3 b9 bd
       0.103346124 -0.056734063 -0.1041162 -0.09064312
0003e0 12 95 88 be 8d ef e4 3d d3 14 b0 bc cf 7f 47 be
       -0.26676232 0.11178503 -0.021494305 -0.19482349
0003f0 b7 b2 a2 bd 08 53 6e be cb a9 c2 be 25 c4 52 be
       -0.079442434 -0.23273861 -0.38020167 -0.20582636

linear.weight f4 [1, 100]
000000 f2 a1 af 3d f1 38 6a 3d 25 53 0e be e7 17 7a 3c
       0.085758105 0.05718321 -0.13898905 0.015264488
000010 84 80 52 bd 96 d7 72 bd 68 10 7a bb 25 89 e2 bd
       -0.051392093 -0.05928763 -0.0038156752 -0.110613145
000020 aa 6b a7 3b 05 86 0c be 5b 87 b1 bd af 47 32 3d
       0.00510927 -0.13723 -0.08668395 0.043525394
000030 0d e8 bf bb 9d f5 11 be 52 ea 1d 3d b8 08 05 be
       -0.00585652 -0.1425385 0.038553543 -0.12991607
000040 63 f1 9c 3c 67 22 08 bc b2 b4 66 bd e0 ee 0e bd
       0.01915807 -0.008308983 -0.05632467 -0.034895778
000050 f8 46 25 bd 41 89 f9 3c 5d b3 6f 3c 01 50 80 bd
       -0.040350884 0.030460956 0.014630166 -0.062652595
000060 b9 55 20 bd 94 4b 08 3e 75 cc 1e 3d b9 92 bb bc
       -0.03914425 0.13310081 0.038769204 -0.022897111
000070 a4 c9 a7 bc 61 fe e5 bd 1f 7a ab 3c 08 7e 2b 3d
       -0.020481892 -0.112301596 0.020932255 0.04186824
000080 25 6b bf 3d d3 f5 09 bd a1 0c 36 bd 6c 8b 64 bd
       0.09346608 -0.033681702 -0.044445638 -0.055797026
000090 b1 bb d2 3d c6 0c 66 bc 89 c0 8a 3c 33 fa 19 be
       0.102897055 -0.014041131 0.016937511 -0.1503685
0000a0 af 7b 25 bd b5 45 5d 3d bc 9a c7 bc 28 1c af bc
       -0.040401157 0.054021556 -0.024365775 -0.02137573
0000b0 09 c9 2c bc bd a6 73 3d ff 92 fd bb 3d 68 0d bd
       -0.010545977 0.059485186 -0.0077384706 -0.034523237
0000c0 b8 7b aa bd f2 06 86 b8 d3 4a e9 bc b4 eb 12 3d
       -0.08324379 -6.3909116e-05 -0.028478062 0.035869315
0000d0 b5 89 3e 3c 19 5f d6 bd 16 22 10 be 74 95 db bd
       0.011629512 -0.10467357 -0.14075503 -0.10721865
0000e0 b6 ab 93 3c 21 8a 1b bd 80 a2 e5 3d 29 2a de bd
       0.018026214 -0.037973527 0.11212635 -0.10847885
0000f0 47 13 19 3d 93 ef 9e bd da bf b4 bd f4 2c b3 3d
       0.0373719 -0.07760539 -0.08825655 0.087488085
000100 ae 76 0d 3e 56 81 09 bd 35 57 67 3d 57 fd 32 3d
       0.13814804 -0.03357061 0.05647965 0.043698635
000110 54 f1 8e bd 88 ef c8 3b bc 3a d5 bb 58 e5 4d bd
       -0.069796234 0.00613207 -0.006507246 -0.050267547
000120 a5 c9 ea bd d4 9e 5b bd 5d cd 13 3e 36 bf b5 bc
       -0.11464242 -0.053618267 0.14433809 -0.022185903
000130 63 b3 4f bc 80 25 9f bd ef c2 22 be b1 8c 01 be
       -0.0126770465 -0.077708244 -0.15894674 -0.12651326
000140 2e aa 08 bd af 34 ad bd 95 15 f3 3b fe 64 90 3d
       -0.03336542 -0.08457314 0.0074183443 0.07050513
000150 16 19 1e bd 5d d9 31 3e aa b9 0a 3e b8 be 1d bd
       -0.038598143 0.17368074 0.13547388 -0.03851196
000160 eb 57 a2 3c 6d c0 e6 3c 05 25 4a bd 16 a7 07 bb
       0.019817313 0.028167928 -0.04935171 -0.0020698956
000170 ce 9d 6a bd 1c 36 2c bd 00 04 c0 3d c8 94 1a 3d
       -0.0572794 -0.04204379 0.09375763 0.037739545
000180 c8 0f 3d bd ed c6 4c bd d2 ea 27 3e 39 55 27 bd
       -0.04615763 -0.049994398 0.1639817 -0.04085276
