BodelLigging/Hagestein boven_bodemligging_V1.pt (torch, 661983 bytes, 5 tensors)

lstm.weight_ih_l0 f4 [400, 1]
00000000: 785f 103e 0d78 ab3f c11a 9d3f 6b0d 863f
00000010: 7be4 763e 53a5 513f b474 763f cf1c 043d
00000020: 3551 3c3d 0bde 53be e33e 1cbe aedb a63f
00000030: 22ef 8a3e 0547 523e b63b d63f 89eb 61bd
00000040: 3810 17bf 252a 65bf c9e8 5d3f 4450 0d3f
00000050: b561 3c3f e1e7 c6bf d3f1 74ba 3c8e d4bf
00000060: 5781 ea3d 4e6a 5e3d 961d 1dbf b653 1cbf
00000070: e006 923f 5f5c 70bd 6d96 373f 96d0 d13e
00000080: ec01 413f 1586 bc3c 48cd e73e d531 44bf
00000090: 72ba a83e c50b e4be c664 f5bf 0785 373f
000000a0: 3d07 3bbf c09f ed3d 85d6 aa3d 2c44 a0bf
000000b0: 41b4 92be e120 c53f 7ca4 89be b381 0e3f
000000c0: 6801 6f3e f86d b4bd a034 b03e 0aa8 eabf
000000d0: a034 3fbf 38c1 eebe bf1a 88bf 560a 113f
000000e0: 19f9 c73d abaa 483e 4871 86be 3792 febe
000000f0: 612c 0b3f 365d 013e 197d 74bf bdd4 a6be
00000100: ab50 623f 4372 96bf 9c3c c7be 392a 99bf
00000110: d268 4e3e e39d 29bf aa1b 613f a756 013e
00000120: a464 813f 87ad a13f 948d dbbe 5c6e 83bf
00000130: cc0b 9cbe d10e e1be 6726 26be 7fe5 753f
00000140: f702 86bf 78cd 90bf bb76 0ebf 7935 35bf
00000150: a61d 973e 3b4d 7abe 32ec 7abf 552f 88bf
00000160: 105d 313f 8a11 6e3f d471 efbe 976d 303d
00000170: 6512 07bf a227 03be 632a eebe bf22 b8be
00000180: 7c20 323f c388 a3bf 97ff d5bf 077e 5bbd
00000190: 89be 9e3d fa18 9dbe da54 723e 4564 6ebe
000001a0: b9b0 f93e acbb 123f ba73 dabe 310e 513e
000001b0: c8d0 503e 7bf9 a83d 59e9 243f ff07 aebe
000001c0: 8a17 07bf 89e5 11bf 7ba8 cebe f852 223e
000001d0: 68be 573f e741 ec3e cfac 473f d85a b5bd
000001e0: cee9 b1bc b5e6 023f 5ee1 1bbf 47f7 ad3e
000001f0: c679 09bf eb87 1f3f c3fa f03e 95b5 573f
00000200: 254f 6ebd 9122 73bc a645 0d3e 83dd 41be
00000210: 53d0 2b3e d015 1a3f 89b4 66bf f5a5 b2bd
00000220: 4d2f 223f f02a 763f fd83 b4be 8ab5 0abf
00000230: 5968 da3e 0e7b 2bbe f3c0 bcbd c9fa a4bf
00000240: 7b95 953e 22ce 0fbd f824 a33e a3d3 513f
00000250: 6e52 e03d a856 483f e641 a7be ee8e 86be
00000260: 4f30 433f f49f 723f 73ca 393f d37f 283d
00000270: bfee ad3e a473 efbd bf2e 1e3f 2110 343f
00000280: 0478 813d 76e0 88be b2ee a53e f6b6 e4be
00000290: f375 3dbf a92f 6dbf 5c66 893f 3754 b53f
000002a0: d202 10be 7818 1cbf ec55 f9be 8dc8 81be
000002b0: 94cc 823e 3fff 653f efd5 0d3f 9231 013f
000002c0: 7408 2a3f b718 4c3f 1a21 503e dfdd 81bc
000002d0: 6e3d 1abf 3d9d 733f 5c2e 083f 6d60 4d3e
000002e0: ea54 c1be b841 fa3c 7d8a 6f3e 82b9 993e
000002f0: 4036 90be 64a2 21bf fe59 e13e b1c9 8b3f
00000300: 4f7e ca3e 5ee2 5abc 9b75 163f abac 1b3e
00000310: 42a2 5e3f 853e a03d e445 9bbf fdeb c3bd
00000320: cd7d 6a3d 3173 843f 3f53 af3e 5959 363d
00000330: db1b 94be baaf ac3f 4884 96bf 60ec 0c3f
00000340: ccd7 80bf 9b85 503f 248b 8fbf 9169 6a3f
00000350: 3697 a8bf 2223 7a3f 83af b33f 7d80 483f
00000360: 0094 7ebe efc7 43bf c472 793f 3cf1 863f
00000370: fc74 0f3f 0851 82bf 2384 813f 99b8 99bf
00000380: 23f1 173f 2054 b83f 294b eb3d d93e acbd
00000390: 84d4 ae3f 25f4 363d d1a5 8a3f 147b 603f
000003a0: 4735 b2bf eea4 813f 6f89 0340 1c41 243f
000003b0: 46b0 9f3f f98c a13e 53e6 6fbf 2211 3f3e
000003c0: 581a 76be 4e41 80bf 294c 763e 629f 3240
000003d0: 625b c53d 8d10 b43f a8d4 7d3e 1a10 81bf
000003e0: 54f7 713e ac25 883f eb21 8b3f 7892 92bf
000003f0: f3c4 0b3f e505 fe3e 7509 5b3f f284 333f
0.14098918 1.3396012 1.227379 1.0472845 0.24110596 0.8189289 0.96271825 0.032254037
0.045975883 -0.20690171 -0.15258364 1.3035791 0.2713557 0.20534904 1.6736972 -0.055156264
-0.5900912 -0.8951743 0.86683327 0.552006 0.7358659 -1.5539514 -0.0009343896 -1.6605906
0.11450451 0.0543006 -0.6137327 -0.6106523 1.1408348 -0.058681842 0.71713907 0.4097945
0.7539356 0.023013154 0.45273805 -0.7663854 0.32954746 -0.4454023 -1.9171379 0.7168736
-0.7305792 0.116027355 0.083416976 -1.2520804 -0.28653148 1.5400659 -0.26883304 0.55666655
0.2334038 -0.088100374 0.3441515 -1.8332531 -0.74689674 -0.4663179 -1.0633162 0.56656396
0.097643085 0.19596355 -0.26258302 -0.49720928 0.5436459 0.12633213 -0.95503384 -0.3258418
0.8840434 -1.175362 -0.3891343 -1.196601 0.20157173 -0.6625654 0.87932837 0.12630711
1.0108838 1.2631081 -0.42881453 -1.0268054 -0.3047775 -0.43956617 -0.16225587 0.9605331
-1.0469655 -1.1312704 -0.5564992 -0.7078472 0.29514807 -0.24443524 -0.98016655 -1.0639445
0.6928263 0.9299551 -0.4676653 0.043073263 -0.5276244 -0.12808087 -0.46516714 -0.3596401
0.6958082 -1.2776111 -1.6718625 -0.053586986 0.077511854 -0.30683118 0.23665181 -0.23280437
0.4876764 0.57317615 -0.42666417 0.2041557 0.20392144 0.082507096 0.6441856 -0.33990476
-0.5277029 -0.5699087 -0.40362915 0.15851963 0.8427491 0.4614403 0.7799806 -0.08855218
-0.021717932 0.5113328 -0.6089076 0.3397772 -0.53701437 0.6231677 0.47066316 0.8426145
-0.058180947 -0.014839784 0.137961 -0.18932156 0.16778688 0.60189533 -0.90119225 -0.0872306
0.63353425 0.9615927 -0.3525695 -0.54183257 0.42657736 -0.1674616 -0.0921649 -1.2889034
0.29215607 -0.035108693 0.31864142 0.81963557 0.10953222 0.78257227 -0.32667464 -0.26280922
0.7624559 0.9477532 0.7257454 0.041137528 0.3397121 -0.116919786 0.6179008 0.7033711
0.06321719 -0.2673375 0.32408673 -0.44670838 -0.740081 -0.9265085 1.0734363 1.4166325
-0.14063576 -0.60974836 -0.48698366 -0.2534832 0.25546706 0.898426 0.5540456 0.50466263
0.6641915 0.7972521 0.20325127 -0.015852867 -0.60249984 0.951618 0.5319574 0.20056315
-0.37760097 0.030548915 0.23392673 0.30024344 -0.2816639 -0.63138413 0.4401397 1.0920926
0.3954949 -0.013359634 0.587732 0.15202586 0.86966336 0.07824425 -1.2130704 -0.095664956
0.05724888 1.0347654 0.342432 0.044518802 -0.28927502 1.3491127 -1.1759119 0.5504818
-1.0065856 0.81453866 -1.1214337 0.9156733 -1.3171146 0.9770986 1.4037937 0.7832106
-0.24861145 -0.7647695 0.97440743 1.0542369 0.5603788 -1.0180979 1.011845 -1.200946
0.5935232 1.4400673 0.11488945 -0.08410425 1.3658605 0.044666428 1.0831853 0.876878
-1.3922509 1.0128458 2.0552633 0.6416185 1.2475669 0.31552866 -0.9371082 0.1865888
-0.24033487 -1.001993 0.2405249 2.790978 0.096365705 1.4067551 0.24788153 -1.0083039
0.23629504 1.0636497 1.0869726 -1.1450949 0.54597396 0.49613872 0.85561305 0.70124733

lstm.weight_hh_l0 f4 [400, 100]
00000000: a025 80bd 6a18 573e 5d1c eebd ffd4 3d3e
00000010: 28e8 b33c ce36 f0be 7bcb 23be cfb3 28bf
00000020: 5814 16bf c13a 76bd 4013 bd3c 63a5 ab3d
00000030: 4da5 7dbe 52e5 013e 1bc4 ef3e 4c77 dbbc
00000040: 03ac dbbd d84e bfbe 9136 6f3e 37ab 09be
00000050: 1920 c8bd 7c5d f3be f17e 65be 0ea6 93be
00000060: 8504 a7bd e51c a9bd 22a5 28bf 1a31 c63d
00000070: 8d42 a03e 6071 e23d 0dea ad3c 312d fbbc
00000080: 5f7d 05bf 8937 b7be d10a e63e 52af 53bb
00000090: 3d8c 01bf e138 3bbe 8c7f 5ebe 13a7 8cbe
000000a0: fff6 58be 9b78 2ebd b0c8 81be 9913 d5be
000000b0: 27f4 df3b 2dbe 9b3e 68df 21be 0fae 11bd
000000c0: 38c4 8bbe 4585 3dbd 03b7 023c 9227 f1bd
000000d0: 4b5f 853d 759d 00bf 415e 9dbc 0b9f 313c
000000e0: c5d1 a13c 0554 7d3d fa59 a5be c30d 12be
000000f0: 0e89 1dbe 856f 1dbe 3354 89be 5c09 a8be
00000100: d89c 9fbe 515f 333e 0da0 bf3d 5162 4bbe
00000110: 0b85 413d 31b1 a6be e494 c6be 2ae6 9bbe
00000120: ea9e a2bd 3961 dd3d f30f 76be 329e a8be
00000130: 9307 1cbe 6e33 e8be 2099 debd aa6d ae3d
00000140: 323b 83be 47a0 98bd a530 7dbe dff5 0bbd
00000150: c4d1 6cbd a80f 6a3d fbb1 03be eb7f 67be
00000160: 6fa4 16be 06f7 993e 555d 93bd 3d3c 05bd
00000170: cd10 7bbc 6529 dcbb 1904 11bf 1b7e d8bc
00000180: a65e 45bf 6753 01bd 10b0 073d d841 3bbe
00000190: 76df 23bf 3731 343f d1d3 65be e26c 833d
000001a0: f5ff 533d a7cf 403f 0e90 4abf 7f8c e23d
000001b0: c284 babe 735e 823c e756 a9be 1b09 183f
000001c0: 5b6a 9abf 5a07 bc3d b834 3f3f 81f3 1fbd
000001d0: 9e28 67bf e2d5 7bbe 1b25 f2bc 91b9 1b3f
000001e0: 231d 7a3d 508b 5ebf ab6a 613e acf8 a3be
000001f0: 26d9 fa3d 2746 82bd b922 f6be 4eed 73bf
00000200: 196a 3c3f b4f9 21bf 371e ce3e a372 613e
00000210: 2cf8 81bf a21b 173d 4920 3e3f cc7d fcbd
00000220: 3a42 2c3e 8f3e b0be ce00 27be d451 e9bc
00000230: 7873 28bf c084 3abf ff91 b7bd c7fb 31bd
00000240: 3591 3abf 2a8a 1b3f 9bf6 27bf d9c3 91bf
00000250: 477e 34be d764 1b3f 80b2 823d 127e 1fbf
00000260: b0e6 d73d c9c0 4d3e 79ad 6f3e 64e3 f3bd
00000270: 6073 67bf 86ea a13d f034 e4be dde7 ec3b
00000280: 5602 86bf 9df7 17bf 9222 33be d0d7 66bf
00000290: 4494 26be e755 93be 164b b2bc 176f 2cbf
000002a0: f6d7 63bd a1ed 4b3e dd3b 0ebf be5b bc3e
000002b0: b4f1 8abe ae20 39bf a695 27bf b905 c3be
000002c0: b975 3dbe e05f 34bf a0eb d7be 9607 3bbd
000002d0: 7209 b2bd 5afa 51bf afc4 a7be ef2b 57bd
000002e0: 15e5 1d3e 1bc1 42bf 513e 21bf 8dd6 dcbe
000002f0: 776b 22bf 15c4 783c 32e2 e2be bcb3 fbbe
00000300: 97f0 fbbe 1fe3 bcbd 3b6b 20bf 20a2 c5be
00000310: 4767 a03e bbbd 7dbf 527e b93d 4aa1 5abf
00000320: 4740 6ebe 2caf de3e 73fd b63f 13ea bd3c
00000330: 034b 60be 5a1c 363f b84f 1cbf 1989 05bc
00000340: 33b7 0cbe 687b 553d 6ba4 5ebe 9cec d8bd
00000350: 4612 20bf 1638 26be 6e24 203e 4d08 25bd
00000360: 4f06 0ebf 16a8 00bf 7c99 7dbe c063 443f
00000370: d585 83be 4222 f0be 6aea 903e 40a7 8bbf
00000380: e29f 8abe 1a52 dc3d e08a 85be c4b9 81bf
00000390: 309a 873e 47a4 1dbf 895d c23e c9d7 30be
000003a0: 6abc 0bbf 0266 593e 0640 ccbe 4f4f d33d
000003b0: e315 ac3e 8b56 cebd 6576 463f e240 fe3e
000003c0: a387 4bbf f5e8 423c 0744 3dbf 7a18 4ebe
000003d0: 7c80 f1be f0d4 573f 290b 48bf 82c2 8ebe
000003e0: 8ef1 bfbf 7aa4 913e b92c 1dbe d7c3 763e
000003f0: b9ea cabe f769 ff3e 6376 33be ec98 abbd
-0.062571764 0.21005407 -0.116265036 0.18538283 0.021961287 -0.46916813 -0.1599559 -0.65899366
-0.5862479 -0.060114626 0.023080468 0.083811544 -0.24770088 0.12685135 0.46829304 -0.026790284
-0.10726168 -0.3736484 0.23360659 -0.1344422 -0.09771747 -0.4753226 -0.22411706 -0.28837627
-0.08155159 -0.08257464 -0.6587697 0.09677334 0.31300774 0.11056781 0.021229768 -0.030661197
-0.52144426 -0.35784557 0.44930127 -0.0032300544 -0.5060461 -0.18283416 -0.21728343 -0.27471218
-0.21187972 -0.042595487 -0.25348425 -0.41616514 0.006834525 0.3041853 -0.15807879 -0.035566386
-0.2729814 -0.046269674 0.007978204 -0.117751256 0.06512316 -0.5024026 -0.019209983 0.010841141
0.019753346 0.061847705 -0.3229521 -0.14263062 -0.15384313 -0.15374573 -0.2682205 -0.3281964
-0.3117435 0.17516829 0.09356699 -0.19861723 0.04724602 -0.3255706 -0.3878547 -0.3044904
-0.07940467 0.108095594 -0.24029522 -0.32933193 -0.15237264 -0.45351738 -0.1086905 0.085170105
-0.256311 -0.074524455 -0.24725588 -0.034170028 -0.057817236 0.057143837 -0.12860863 -0.2260739
-0.14711164 0.30071276 -0.07195536 -0.03252815 -0.01532383 -0.006718802 -0.5664688 -0.02642732
-0.7709755 -0.03157368 0.03312689 -0.18286836 -0.6401285 0.70387596 -0.22444083 0.06417252
0.05175777 0.7531685 -0.7912606 0.11061954 -0.3642941 0.015914178 -0.33074114 0.59388894
-1.2063707 0.0918109 0.7468982 -0.039050583 -0.9029635 -0.24593309 -0.029558709 0.60830027
0.061062943 -0.86931324 0.22013347 -0.3202566 0.12248449 -0.06361037 -0.48073366 -0.95283973
0.7359939 -0.6327164 0.40257427 0.22016387 -1.0153861 0.036891587 0.74268013 -0.12328681
0.16822138 -0.34422728 -0.163089 -0.028481402 -0.6580119 -0.7285881 -0.089633934 -0.043453004
-0.7287782 0.60757697 -0.65610665 -1.1387893 -0.17626296 0.60700744 0.063817024 -0.62301743
0.10542047 0.20093073 0.23406018 -0.11908606 -0.90410423 0.0790606 -0.44571638 0.0072297887
-1.0469463 -0.593622 -0.17493656 -0.90173054 -0.16267496 -0.28776476 -0.02176432 -0.6735701
-0.05562588 0.19914867 -0.55560094 0.36788744 -0.2713753 -0.7231549 -0.6546272 -0.38090304
-0.18501939 -0.70458794 -0.42171955 -0.04566153 -0.08693208 -0.8202263 -0.32767245 -0.052532133
0.15419419 -0.76075906 -0.6298571 -0.4313244 -0.6344523 0.015183468 -0.44313198 -0.49160564
-0.49206993 -0.092230074 -0.6266362 -0.38600254 0.31328794 -0.9911763 0.09057297 -0.8540236
-0.23266707 0.4349302 1.4296097 0.023182904 -0.21903615 0.7113701 -0.6105914 -0.008150362
-0.1374176 0.052119642 -0.21742408 -0.10592005 -0.62527883 -0.16232333 0.15638897 -0.04029112
-0.55478376 -0.5025648 -0.24765581 0.76714706 -0.25688043 -0.46901137 0.28303844 -1.0910416
-0.27075106 0.10757847 -0.26082516 -1.0134816 0.26484823 -0.6157879 0.37961987 -0.17269816
-0.5458437 0.21230319 -0.39892596 0.10317861 0.33610448 -0.100751005 0.77524406 0.49658877
-0.7950384 0.011896362 -0.73931926 -0.20126525 -0.47168338 0.8430929 -0.7814203 -0.27882773
-1.4995592 0.28445798 -0.15349092 0.24098144 -0.39632204 0.49885532 -0.1752563 -0.08378777

lstm.bias_ih_l0 f4 [400]
00000000: 94f6 41c0 b037 07bf dcf5 67bf 2122 78bf
00000010: 6c7a 8fbf be5c 3bbe 397f 0dbe 2515 dbbe
00000020: ab4a 4abf 30de a8bf 48ee 9f3c 0852 e6be
00000030: 4273 d9bc a8e5 e73d 2af8 d1be e1ef c9bf
00000040: b4e8 1ac0 c695 45bf 8805 3ebf 061f 23bf
00000050: c997 c7bf fe37 9abe 0dd1 54bf 4b7e 0abf
00000060: 26cb 70bf 22e5 c83d 4de4 51bf b0ac 0ac0
00000070: 302a 01bf ab7c 2ac0 7b5d 19be a2f5 45bf
00000080: 9512 3e3e 57d4 c9be b002 423f fe01 62bf
00000090: ccda 02bf cc41 bcbf ebaa 88bf 89c6 70bf
000000a0: bc57 aebf f7c4 21bf afcd c1bf 3aa4 243f
000000b0: 923d 4ec0 d570 adbd c86b 8fbf ad79 43be
000000c0: 2f9f 70bf 6949 38bf 2218 9ebe fd98 40bf
000000d0: a982 08bf 4a52 0dbf d99b 84bf bff9 a0bf
000000e0: a956 16c0 78ec 19be c865 84bf 5081 d5bf
000000f0: b069 0d3e b103 10c0 b7e2 76bf e093 773e
00000100: 793b 9ebe 4f33 cfbd 8d3c 7abf 16fa a0be
00000110: cd2d 07bf f876 9bbf 81a0 13bf 87b6 20bf
00000120: 6fba b2bf cfae 34bf 1cd0 0ac0 2e37 49bf
00000130: da95 d3be 95a8 b7bd ae75 42c0 9f03 31bf
00000140: 8296 47bf d598 43bf 6dec c4bf 9484 2cbf
00000150: cc33 52bf 258c 3ec0 8fd2 84bf 1233 b4bf
00000160: 3f5e 0dbf bccd 71bf 59da d5bf 7a33 8abf
00000170: ef1a 34c0 a4fc 00bf e255 0fbf e95e 87bf
00000180: a70c aebe 9477 eabf 7060 f7be ffae 23c0
00000190: 578f 98bf 9dfa e6be 4243 ecbe 5dd4 1ebf
000001a0: 834d 64bf 13da aebe b088 9ebe 53ef bdbe
000001b0: 122b bfbe e949 c6be 8bf4 eebe 5588 d7be
000001c0: 7d0c 9ebe 1c4e 1bbf a623 43bf 4ff9 9dbe
000001d0: 3efa 8ebf 31e7 23bf 0997 edbe 160b 07bf
000001e0: 8bc9 52bf f7f1 93be ba35 68bf 7785 1fbf
000001f0: ea93 22bf 7b5a 38bf 9aaf 40bf 2854 65bf
00000200: e4c8 a0be a505 96bf 330e cabe 2707 44bf
00000210: 0644 f5be 6270 5e3e 7118 2cbe 7d7b 4bbf
00000220: 3667 eebe b2d1 68bf 84d9 1cbf ebc1 dcbe
00000230: a5e3 82bf 0ffa a1be 16af 19bf 9acf 83bf
00000240: 2b9b 99bf f0cc d3be e4ad 35bf 455c 21bf
00000250: 38c3 f9be 47b5 03bf 013b afbe 0dc9 96bc
00000260: ab0f 78bf ce12 11bf d24e 10bf d1c9 bfbe
00000270: 565a 80bf 8f25 b8be 929b 70bf 662e 21bf
00000280: 4fcb a9be a227 9cbf 83a1 5dbf 8f1b 04be
00000290: c0eb bfbe c2f7 01bf 0fa2 13bf 4c4a eabe
000002a0: a26c febe 0022 36bf 353f 34bf 4251 9bbf
000002b0: f865 abbe 9d08 2bbe 31dc 44bf 3e81 6dbf
000002c0: 64b0 5cbf 7ead c5be 136c 9ebf 3fde dbbd
000002d0: 4a93 0fbf 25a1 c8be a77f 9abf acf0 67bf
000002e0: 4091 d6be 1ddf 9fbf 04dd 19bf 005e 6ebf
000002f0: ac9d 45be 1abb d3be daca aabf 41c0 55bf
00000300: c177 8dbf 462f f0bf d2b0 0cbf 5813 b4bf
00000310: 43d9 ebbe c0a0 81bf bb21 42bf 31ca 8fbf
00000320: add0 7e3d 33e2 c4bc 33c7 70bd 2b12 663e
00000330: 77a5 bd3c 24d7 99be 9f52 143e fc3f 1abe
00000340: 53a7 7b3e 2723 bebd 9836 2c3e 0537 fcbb
00000350: f5fc 513e d1f4 a1bd 4918 9cbe 037a d4bd
00000360: 6e62 5c3d 6030 5b3d 067d 2fbe 2ea8 25be
00000370: 4c09 32bc 6435 3a3e 5a99 43be 6e32 52bd
00000380: 3fe0 83bd e3bf dabd 2dd2 163e 5031 95bd
00000390: e9af a6be cada e93d 7169 0dbe c48f 94bd
000003a0: f26e 933e 104f 85be d499 cfbe a07f 82bd
000003b0: bd93 2fbe 9e7b 0b3e f3b9 afbb cba3 ea3d
000003c0: 3fa4 353e baff 933d f8bd 45bc 35d7 a23d
000003d0: 99dc e93d dce6 10be d711 773d 4fa6 ab3e
000003e0: bc18 e43d 1c44 7dbe 0c56 46be 4596 5f3d
000003f0: 1f74 1dbe 5e63 1dbe e23a 2abe 867d 883c
-3.030675 -0.5281935 -0.90609527 -0.96927077 -1.1209235 -0.18297097 -0.13818063 -0.4278957
-0.79020184 -1.3192806 0.019522801 -0.4498446 -0.026544217 0.113231 -0.41009647 -1.577633
-2.420453 -0.7718166 -0.7422719 -0.63719213 -1.5593196 -0.30120844 -0.83131486 -0.5409896
-0.9405998 0.098093286 -0.81988984 -2.16679 -0.50455 -2.6638591 -0.14977066 -0.7732793
0.18561776 -0.39419815 0.7578535 -0.8828429 -0.5111511 -1.470758 -1.067716 -0.9405294
-1.3620524 -0.6319117 -1.5140895 0.6431309 -3.222508 -0.084687866 -1.1204767 -0.19089384
-0.93992895 -0.71987015 -0.30877787 -0.7523344 -0.5332437 -0.5520369 -1.0360061 -1.2576216
-2.3490393 -0.15031612 -1.0343561 -1.6680088 0.13809848 -2.2502253 -0.9643969 0.24177504
-0.3090475 -0.10117208 -0.97748643 -0.314408 -0.5280426 -1.2145681 -0.57666785 -0.62778515
-1.3963145 -0.70579237 -2.168952 -0.7859982 -0.41325265 -0.08967701 -3.0384326 -0.6914615
-0.7796403 -0.7640508 -1.5384651 -0.673898 -0.82110286 -2.9773037 -1.0376757 -1.4078085
-0.55221933 -0.9445455 -1.670726 -1.0796959 -2.814144 -0.503855 -0.5599042 -1.0575839
-0.33994028 -1.8317742 -0.48315763 -2.557556 -1.1918744 -0.45113078 -0.46145064 -0.6204279
-0.89180773 -0.34150752 -0.3096366 -0.37096652 -0.37337548 -0.38728264 -0.46670946 -0.420962
-0.30868903 -0.6066606 -0.7622627 -0.3085427 -1.1170118 -0.64024645 -0.46404293 -0.5275129
-0.8233878 -0.28895542 -0.9070698 -0.62313026 -0.6350695 -0.7201306 -0.75267947 -0.8958154
-0.31403267 -1.1720473 -0.39463958 -0.76573414 -0.4790346 0.21722558 -0.16806199 -0.79485303
-0.4656312 -0.9094497 -0.612694 -0.43116698 -1.0225722 -0.31636092 -0.60032785 -1.029773
-1.2000479 -0.41367292 -0.7096846 -0.6303142 -0.48781753 -0.5144848 -0.34224704 -0.018406415
-0.9689891 -0.5666932 -0.5637027 -0.3745866 -1.0027568 -0.35966155 -0.9398738 -0.62961423
-0.33162925 -1.2199595 -0.8657457 -0.12901138 -0.3748455 -0.50768673 -0.57669157 -0.4575981
-0.49692255 -0.7114563 -0.70408946 -1.2134173 -0.33476233 -0.16702504 -0.76898485 -0.9277533
-0.8620665 -0.38608927 -1.2376732 -0.107357495 -0.5608412 -0.39185444 -1.2070206 -0.9060161
-0.41907692 -1.2489964 -0.6010287 -0.9311218 -0.19298428 -0.41353685 -1.3343155 -0.8349648
-1.1052171 -1.8764427 -0.54957306 -1.4068403 -0.46064195 -1.0127182 -0.7583272 -1.1233579
0.062210727 -0.024033641 -0.05878372 0.22467868 0.023150189 -0.30046952 0.14484642 -0.1506347
0.24575548 -0.092840485 0.16817701 -0.0076969885 0.20506652 -0.07908023 -0.30487278 -0.103748344
0.053804807 0.05351293 -0.17137536 -0.16177437 -0.010866474 0.1818443 -0.19101468 -0.051317625
-0.06439256 -0.10681131 0.14728613 -0.07284796 -0.32556084 0.11418684 -0.13809754 -0.072539836
0.28795582 -0.26036882 -0.4054705 -0.06371999 -0.17146201 0.13621375 -0.005362743 0.11457022
0.17738436 0.0722651 -0.012069218 0.07951204 0.11419029 -0.14150566 0.060319748 0.3352532
0.1113753 -0.24733013 -0.19368762 0.054586668 -0.15376328 -0.15369937 -0.16624025 0.016661417

lstm.bias_hh_l0 f4 [400]
00000000: e486 44c0 34ce 19bf a7da 80bf de1e 5cbf
00000010: 2b80 8abf 8e66 41be 212e 6dbe bc5c cbbe
00000020: 77ea 54bf d78a b6bf 8090 ed3d 4b2e b2be
00000030: ba20 92bd cbee 103e 6de9 b4be dd21 d2bf
00000040: 80fd 1fc0 85ce 30bf 2ef5 42bf 3ef1 24bf
00000050: b7b9 c2bf 1480 b8be 2dac 67bf 9299 04bf
00000060: 0930 6bbf d468 fe3d ad7c 44bf 8458 0cc0
00000070: 3838 0cbf be9b 31c0 fd97 00be d53e 25bf
00000080: 271c ad3d f1b9 59be 8187 4e3f b023 41bf
00000090: e740 01bf 90e9 aabf c05e 89bf 43ee 89bf
000000a0: 0752 bcbf bee8 24bf 6571 bdbf e85b 133f
000000b0: 166a 44c0 355e adbd 57b0 91bf a4c1 3ebd
000000c0: 91cb 70bf 2c12 0cbf dab2 d3be cb31 35bf
000000d0: 76ba d3be eba6 2abf c9ac 8ebf 921f 98bf
000000e0: ed49 12c0 a4f6 a9bd 8554 7bbf f8c3 c4bf
000000f0: e332 473e 00d1 09c0 40cd 52bf 5727 763e
00000100: 1bdc b4be 443b d3bd 6472 82bf 8d83 45be
00000110: 90d4 05bf e6e5 a9bf 40cf 1fbf 5754 3abf
00000120: 32e1 b1bf aebd 3dbf f998 05c0 78f7 4cbf
00000130: 6a13 cabe 979a 34bd 861c 42c0 80f2 07bf
00000140: 858c 54bf ad2e 32bf 3c60 c6bf b497 26bf
00000150: 5b1b 55bf d949 46c0 97d7 65bf 736e acbf
00000160: f3c0 dfbe 538d 80bf dc3b e5bf 91d8 9bbf
00000170: 7119 37c0 5886 ccbe f498 34bf 98a0 78bf
00000180: 8156 a9be 9467 f0bf 4adc dabe a788 26c0
00000190: 8051 9cbf 2974 bfbe 6b5e 06bf ccd0 36bf
000001a0: 41f0 5cbf 22a2 9cbe 8fe4 86be e2bd f9be
000001b0: 1840 b4be 12e8 d3be 4058 e1be 6f1a 91be
000001c0: c45f a8be d7ba 1abf f747 48bf b9db acbe
000001d0: 4f30 93bf 15ea 14bf b61e 05bf d12d 01bf
000001e0: 353a 4cbf 7409 ddbe 0a0b 4cbf 59c1 0bbf
000001f0: b826 1bbf 44bb 19bf 593b 50bf fd87 57bf
00000200: 10b3 c1be 8983 9dbf cd3c d2be f55b 5cbf
00000210: eeac 06bf 6ca5 b03e cd9a 28be 2371 5bbf
00000220: 3904 e9be 31cf 7abf b7be 3cbf d9cb e8be
00000230: 4e87 7cbf 966f 5ebe 8d93 3cbf 6253 5dbf
00000240: e5bd 90bf fbf6 c9be 6509 52bf 21d3 23bf
00000250: 5626 afbe 116e 19bf 524c 64be 48bd 27be
00000260: 3592 57bf ed14 f2be 8775 0abf 2e1d aebe
00000270: 516a 8dbf 059e f2be 2171 70bf 5c09 37bf
00000280: 8451 adbe 2fb8 8abf 6eb1 80bf 46fe 50be
00000290: f97f a7be f512 1fbf 5648 09bf 0c4e 99be
000002a0: eccb e1be b3d2 3fbf c266 2dbf e589 a2bf
000002b0: 5c05 babe ae99 c7bd d1eb 60bf 2786 60bf
000002c0: 7744 5dbf e4e0 03bf 0e04 a0bf 377e 4fbe
000002d0: b7e8 c2be 73f6 9fbe 50ef 8bbf 23a1 49bf
000002e0: bb15 e1be 18d5 96bf b097 26bf 0ac0 6fbf
000002f0: 5631 d9bd ad2f d7be d9cf a8bf 4523 65bf
00000300: 5d2b 80bf 0ded f4bf e737 ebbe 23c0 b4bf
00000310: 593f e7be 20df 81bf 1baa 53bf 8a33 8dbf
00000320: afd2 43bc 7f15 01be 761f 8f3d 061b f23d
00000330: 8ec3 813d 0c0c f7bd ece7 383e a768 31be
00000340: 7d47 503e 9a06 48be 4490 dd3d 0680 8cbd
00000350: e1fd 913e f0ce 6bbd ef03 97be 3266 03bd
00000360: f036 043e f980 663d 8f86 54be ad39 0fbe
00000370: 40f9 a83d 3b33 433e c2a4 3dbe 04e9 b73c
00000380: afb0 d7bd ac5e 83be a84a 303e 1ee1 9d3d
00000390: 4566 6bbe 9169 ad3d f9d4 29be ce9b 3abe
000003a0: fc5c 373e 5e7a 73be 9e88 e2be 34fa 11be
000003b0: 1445 0ebe 3619 89bc baa5 9e3c 3294 693e
000003c0: 74dd e43d 067a 283e 8b6f 27bd a287 433d
000003d0: 5f86 383d ba97 8fbe 8d5d 983d d2b3 813e
000003e0: 5402 0d3e b26f 0dbe 2429 e3bd e33f a43a
000003f0: b61b febb 8e82 27be 6616 5abe 0cd4 33bd
-3.070733 -0.60080266 -1.0066727 -0.859846 -1.0820364 -0.18886778 -0.23162128 -0.39719188
-0.83170265 -1.426112 0.11599827 -0.34800944 -0.07135148 0.14153592 -0.3533434 -1.6416584
-2.4998474 -0.69065124 -0.76155365 -0.64430606 -1.5212926 -0.36035216 -0.90497094 -0.5179683
-0.9187017 0.12422338 -0.7675274 -2.1929026 -0.54773283 -2.7751307 -0.12557979 -0.64549
0.08452635 -0.21262337 0.8067551 -0.7544508 -0.5048966 -1.3352528 -1.073204 -1.0775837
-1.4712533 -0.64417636 -1.480023 0.5756211 -3.068975 -0.08465234 -1.138194 -0.04657139
-0.9406062 -0.5471523 -0.4134739 -0.70779103 -0.41353196 -0.66660947 -1.114648 -1.1884634
-2.285762 -0.08298996 -0.9817584 -1.5372305 0.19453005 -2.1533813 -0.82344437 0.24038444
-0.35324177 -0.103140384 -1.0191159 -0.19288464 -0.5227747 -1.3273284 -0.62425613 -0.7278494
-1.3896849 -0.74117553 -2.0874617 -0.8006511 -0.39467937 -0.04409274 -3.032991 -0.531044
-0.83026916 -0.6960247 -1.5498118 -0.6507523 -0.83244866 -3.0982573 -0.8978209 -1.3471206
-0.43701896 -1.0043129 -1.7908893 -1.2175466 -2.8609278 -0.39946246 -0.7054589 -0.97120047
-0.3307381 -1.878161 -0.42746192 -2.6020906 -1.2212372 -0.3739331 -0.5248782 -0.7141235
-0.863041 -0.30592448 -0.2634625 -0.48777682 -0.3520515 -0.41387993 -0.44012642 -0.2834048
-0.32885563 -0.60441345 -0.7823481 -0.33761385 -1.1499118 -0.5816968 -0.51999986 -0.50460535
-0.79776317 -0.43171275 -0.79704344 -0.545919 -0.60605955 -0.6005137 -0.8134056 -0.84191877
-0.37831926 -1.2305766 -0.41062012 -0.86077815 -0.5260762 0.34501207 -0.16465302 -0.8571951
-0.45511034 -0.979724 -0.7372851 -0.45468023 -0.9864396 -0.21722254 -0.73662645 -0.8645536
-1.1307951 -0.39446244 -0.82045585 -0.6399403 -0.34208935 -0.59933573 -0.22294739 -0.16380799
-0.8420747 -0.4728159 -0.5408558 -0.34006637 -1.104807 -0.47386184 -0.9392262 -0.71498656
-0.33851254 -1.0837458 -1.0054147 -0.20409498 -0.32714823 -0.621383 -0.53626 -0.29942358
-0.44100893 -0.74930876 -0.6773492 -1.2698332 -0.36332214 -0.09746109 -0.8785983 -0.877047
-0.86432594 -0.5151503 -1.2501237 -0.20262991 -0.38068172 -0.31242713 -1.0932407 -0.787615
-0.43961892 -1.1783781 -0.65075207 -0.93652403 -0.10605113 -0.4202856 -1.318843 -0.8950694
-1.0013233 -1.9134842 -0.45941088 -1.4121135 -0.45165518 -1.0146217 -0.82681435 -1.1031353
-0.011952086 -0.12605856 0.069884226 0.118215606 0.06336127 -0.12062845 0.18057221 -0.17325078
0.2033977 -0.19533768 0.10818532 -0.06860356 0.28514007 -0.057570398 -0.2949519 -0.032079883
0.12911582 0.05627534 -0.20754455 -0.13986845 0.08250666 0.19062512 -0.18519881 0.022449978
-0.105317466 -0.25658166 0.17215979 0.07708953 -0.22988231 0.08467401 -0.16585149 -0.18223497
0.17906564 -0.23777148 -0.44244856 -0.14255601 -0.13893539 -0.016735654 0.019366134 0.22810438
0.11175051 0.16452798 -0.04087786 0.04773677 0.04505002 -0.28045446 0.074397184 0.25332505
0.1377042 -0.1381214 -0.11091831 0.0012531247 -0.0077547682 -0.16358396 -0.21297607 -0.043903396

linear.weight f4 [1, 100]
00000000: a65a 0ebd 388c 713e 3d71 7e3d 1e96 c93d
00000010: c813 f8bc ca48 fb3d 081f 503c 32a5 35be
00000020: 6d8e 453c c3b0 863c 4159 d0bd 7dcb 2d3e
00000030: 68ad adbc 5e3f e33b 5639 753e aa16 953d
00000040: f70e 91bd 0c46 a4bb bdd4 5c3d 47ad 093d
00000050: f549 e13c 19e1 7dbc 02e4 a33c a4f5 c93d
00000060: d195 0fbd 6ab6 193d b6ae eeba c413 403c
00000070: e173 493e d315 e9bd 1a9b a13c fca9 e7bc
00000080: ea66 31be c6af 613c d317 aa3e ba66 37be
00000090: 61cb df3c d491 17bd a6b8 a03e 3613 333a
000000a0: f893 fcbd 73f8 b5bc 0a59 773d c4df e13e
000000b0: c923 d7bd 9a0b 643e f3ef 0a3e 3a51 04be
000000c0: d881 883d 6c1e d13d 6986 6f3e 25eb 013e
000000d0: f561 f93d caee f4bb 636a 4bbd 0b29 dd3c
000000e0: 6c79 2c3d 249a b03e fbad 30be f342 973c
000000f0: 125a 14be 0578 4fbc a387 57be 8667 b2be
00000100: be79 13be 1d91 7ebe d3e0 293e ba18 a33d
00000110: 7b88 463d ba45 923d b3f6 abbd fcd7 e5bc
00000120: 6bc8 95bd 2f56 bebe 744d 6d3c b992 f43c
00000130: e097 7e3c f406 ddbd d761 dbbc 41ae 49be
00000140: 28da 503e cdf7 773d 91a9 673c c534 523c
00000150: e8de cab8 143f 7dbd 5c9a 013c 5aa7 383d
00000160: baca 2ebd fa8e 10bc aeb5 91bd b89a 8b3d
00000170: 2178 11bd bb94 983e e114 4e3c 69c8 063c
00000180: 4dd8 77be d7af a2bc a5ad 573e 2427 5d3c
-0.034754418 0.23588645 0.06211971 0.09843086 -0.03028287 0.12269743 0.012702711 -0.17738798
0.012057883 0.016441708 -0.10173274 0.16972156 -0.02120085 0.006935044 0.23947653 0.072797135
-0.070829324 -0.005013233 0.05391382 0.033612516 0.027501086 -0.015495562 0.020006184 0.09861305
-0.035054985 0.03752748 -0.0018210027 0.0117234625 0.1967311 -0.11381116 0.019727279 -0.028279297
-0.17324415 0.013774818 0.332213 -0.17910281 0.027318658 -0.037004307 0.31390876 0.0006831171
-0.1233291 -0.022213196 0.06038765 0.44116032 -0.10504872 0.2227005 0.13568096 -0.1292161
0.06665391 0.10210881 0.23391117 0.12687357 0.12176887 -0.007474755 -0.049662005 0.02699711
0.042107984 0.344926 -0.17253868 0.018464541 -0.14487484 -0.012662892 -0.21047835 -0.34844607
-0.1440191 -0.24860044 0.1658967 0.079637006 0.04847 0.071422055 -0.083966635 -0.028057091
-0.07313617 -0.37175128 0.014483798 0.029855119 0.0155391395 -0.10792342 -0.026780052 -0.19695379
0.2039572 0.060539056 0.014139549 0.012829964 -9.67363e-05 -0.061827734 0.007910337 0.045081474
-0.042673804 -0.008823151 -0.07114731 0.0681662 -0.035514954 0.29800972 0.01257822 0.008226492
-0.24203606 -0.019859238 0.21062334 0.013498101
