BodelLigging/Hondsbroekse Pleij Oost_bodemligging_V1.pt (torch, 661983 bytes, 5 tensors)

lstm.weight_ih_l0 f4 [400, 1]
000000 73 a5 b7 3f 7e 25 71 3f 06 07 20 bf ca 34 09 bf
       1.4347366 0.94197834 -0.62510717 -0.53596175
000010 bc 0b 24 3f 49 77 1d 3f 4d 62 5d 3e 67 3d af 3f
       0.64080405 0.6151014 0.2161953 1.3690614
000020 41 4e a1 bf ed 40 df 3f 1a 25 f9 3e e0 ca 0f 40
       -1.2602006 1.7441689 0.4866112 2.2467575
000030 90 99 86 3f 14 5a 78 be 04 7d a9 bf d6 d0 96 3f
       1.0515614 -0.24253112 -1.3241277 1.1782482
000040 b7 0d f3 3f 39 57 64 3d 6e b4 d3 3f 74 e2 04 40
       1.898856 0.055747245 1.6539438 2.0763216
000050 d0 97 22 bf 2f 68 d9 3e 26 d1 bf 3e dc 64 89 3f
       -0.635129 0.42462298 0.37464255 1.0733905
000060 ce 7d d8 3f fd d1 01 be dd c4 c2 3e c0 15 ba 3f
       1.6913393 -0.1267776 0.3804082 1.4537888
000070 26 9e ad 3e 76 a0 bd bf dd e5 ea 3f 7f ec 8d bd
       0.3390972 -1.4814594 1.8351399 -0.06929874
000080 67 15 f7 be 21 19 61 3d 91 d1 ac 3f 7a 44 a6 be
       -0.48258516 0.054955605 1.3501455 -0.32474118
000090 38 25 9d be 72 a6 9d be bc 81 ac 3f 51 b6 b4 bf
       -0.30692458 -0.3079105 1.3477092 -1.4118139
0000a0 f8 8d 12 bf 19 b8 15 40 57 49 1c 3f 82 22 c9 be
       -0.5724788 2.3393614 0.6104941 -0.3928414
0000b0 b6 2f ee 3e 92 23 ae 3f 13 fc 60 bf 71 79 02 3f
       0.46520776 1.3604605 -0.87884635 0.50966555
0000c0 51 8c 3f 3d e0 35 0d 40 84 9e bc 3f b6 d6 ca 3f
       0.046764676 2.2064133 1.4735875 1.5846775
0000d0 c4 4f ab 3f a4 76 10 3f e2 b9 e3 be 2e 59 95 3f
       1.3383718 0.5643103 -0.44477755 1.166784
0000e0 d7 89 bd 3f 72 b3 0b 3e b0 d4 c8 bf e6 e5 82 3f
       1.480769 0.13642672 -1.5689907 1.022641
0000f0 34 b8 f8 3e 4a 29 79 3f 7c a3 34 be 38 99 82 3e
       0.48578036 0.9732863 -0.1764049 0.25507522
000100 06 24 91 3f 67 9a 94 bf c2 89 4f bf 97 98 9c 3f
       1.1339118 -1.160962 -0.81069577 1.2234067
000110 23 69 d0 3e 4a e6 e6 be a8 f5 df bd 34 df 78 bf
       0.40705213 -0.45097572 -0.10935527 -0.9721558
000120 4f f4 d8 be 75 1a c2 3f 93 6b c0 be 4c fc 59 3d
       -0.42373893 1.5164324 -0.37582073 0.053219125
000130 f0 7b c8 3f 6a d7 c2 bf 60 c7 9e bf a8 c2 d5 3e
       1.5662823 -1.5221989 -1.2404594 0.41750073
000140 41 1e 01 40 67 de aa be 46 f9 9f bf 93 f7 74 bf
       2.0174716 -0.33372805 -1.2497947 -0.9569027
000150 8c 5f bc bf d2 50 98 3f 7c 83 9c be a8 86 3c bf
       -1.4716659 1.1899664 -0.30569065 -0.7364297
000160 84 f8 d9 bf 30 c5 93 3f 5a cd eb 3f 57 d0 b0 3f
       -1.7028966 1.1544552 1.8422043 1.381358
000170 34 bc 8d bd 7e 3e 91 3f 0b 01 c4 bf 59 2b 7e 3f
       -0.069206625 1.1347196 -1.5312818 0.99284893
000180 2a b7 65 bf a4 eb 89 3f d4 49 05 be 92 a2 06 40
       -0.8973261 1.0775037 -0.13016444 2.1036725
000190 cb 5c 1f 3f 65 f5 12 3f 6a 4e 28 bf 48 45 d7 3e
       0.62250966 0.5740569 -0.6574465 0.42045045
0001a0 91 53 03 3f 6d 46 03 3f fd 59 17 3e e2 a8 e1 3e
       0.5129939 0.51279336 0.14780422 0.4407416
0001b0 1f 81 4a 3f 2b 4d 77 3f 43 95 90 3f ba 58 a9 3f
       0.79103273 0.96602124 1.1295551 1.3230202
0001c0 a0 0b 7d 3f 55 5a cd 3e 70 29 70 3f 8d 5d 31 3f
       0.98845863 0.4010798 0.9381323 0.6928337
0001d0 c2 08 a1 3e ef 5a 47 be 18 f5 e5 3e 90 24 76 3f
       0.31451994 -0.19468282 0.44913554 0.9614954
0001e0 26 22 1c 3f f8 3e 21 3f a9 35 5a 3f 94 4a c8 3e
       0.60989606 0.6298671 0.8523813 0.391194
0001f0 ca b8 25 3f 45 78 b4 3e a3 00 6d 3f f0 f6 64 3f
       0.6473509 0.35248008 0.92579097 0.89439297
000200 19 a8 8d 3f 59 9c b6 bf 41 2e 89 3f 3c 82 9a 3f
       1.1066924 -1.4266464 1.071724 1.2070994
000210 20 7d 30 3f 54 35 62 3f c8 5b 5d 3f 23 cd 05 bf
       0.68940926 0.8836262 0.8646817 -0.5226614
000220 80 ad 35 3e c8 6c 18 3f 65 59 10 3f a5 e1 f2 3e
       0.17741966 0.59540987 0.56386405 0.47437778
000230 73 14 16 be 1c 0e 85 3f e8 35 83 3f e7 64 79 3f
       -0.14656238 1.0394931 1.0250826 0.9741959
000240 b3 e0 ae 3f 32 09 5c 3f 61 db 59 3e 4d ca fd 3e
       1.3662323 0.8595153 0.21275093 0.49568406
000250 fb 3b 27 3e 03 56 85 3f 9a 48 91 3f 05 c2 37 3e
       0.16331474 1.0416874 1.1350281 0.17945106
000260 f2 34 e9 3e 82 4f 1e 3f 07 34 ec be 1b 3d 08 3f
       0.45548207 0.6184007 -0.46133444 0.5321824
000270 90 bb 93 3f 7a 4e a9 3f 83 37 07 bf ca d1 3b 3f
       1.1541615 1.3227074 -0.5281908 0.7336699
000280 d6 a1 a4 3e 2c 0c 00 3f aa fa 64 3e 48 2f 1b 3f
       0.3215472 0.5001857 0.22361246 0.6061902
000290 db 25 71 3f 1c f5 8f bd 44 16 ac 3f 55 05 b8 3f
       0.9419839 -0.07029173 1.3444295 1.4376627
0002a0 38 01 83 3f c6 67 84 3f 55 5d c7 3e 14 14 e2 3e
       1.0234747 1.0344169 0.38938394 0.44155943
0002b0 ba 82 5d 3f 65 de 30 3f a0 cd 80 3e 95 3a 8d 3e
       0.865276 0.6908935 0.2515688 0.27583757
0002c0 b6 8f 04 3f 61 21 74 3c 6c e7 11 3f 8c a0 20 3f
       0.51781785 0.014900536 0.56993747 0.62744975
0002d0 39 fa 66 3f c7 05 2c 3e 6e 06 03 3d 55 94 83 bb
       0.9022556 0.16799079 0.031988554 -0.0040154853
0002e0 1b 07 0f 3e 76 6c 34 3f d9 d6 83 3e 94 6d 08 3e
       0.13967554 0.70478 0.25749853 0.1332305
0002f0 ef 41 6e 3e 0e 83 3b 3f 5a 30 48 3f 54 c4 41 3f
       0.23267339 0.7324685 0.7819878 0.756902
000300 26 8f 29 be 1e 18 58 3f 25 38 54 bf 1e bd 7f 3f
       -0.16558513 0.844118 -0.8289817 0.99897945
000310 ef bd 8c 3d 8a 9c 2b 3f 93 27 83 3f df 08 c3 3e
       0.068721645 0.67035735 1.0246452 0.38092706
000320 fd 63 d7 3e 4a fd 28 bf dc c4 74 3f 41 80 93 bf
       0.42068473 -0.6601149 0.95612884 -1.1523515
000330 f1 fd 45 3f 23 35 83 3f 18 8d 80 3f 4e af e1 bd
       0.7734061 1.0250591 1.0043058 -0.11019765
000340 ae 08 9d 3f 23 ad 6e bf a7 cc 81 bf 21 09 86 bf
       1.2268274 -0.93232936 -1.014058 -1.0471536
000350 fd 1b 24 3f e3 8b 8f 3f b1 b6 bf 3f 8d fc ad be
       0.64105207 1.1214565 1.4977628 -0.33981743
000360 ed d3 9d 3f 7e 6c 91 bf 96 e0 43 3f 5b 78 04 3f
       1.23303 -1.1361234 0.76514566 0.5174615
000370 a2 67 a4 3f bd 53 98 3f 54 37 3a 3f 49 bb 3a be
       1.2844126 1.1900555 0.72740674 -0.18235506
000380 ac 49 d9 be 28 15 82 3f ae e8 64 3f 03 bd 34 bf
       -0.4243902 1.0162706 0.8941754 -0.7060091
000390 40 0a 51 bf a8 12 cd bf d1 d6 4d 3f 2f ee 6f 3f
       -0.81656265 -1.6021318 0.8040591 0.93722814
0003a0 77 c6 9c bf c2 bf 81 bf 83 af 6e bc 81 a5 94 bf
       -1.2248067 -1.0136645 -0.014568212 -1.1613008
0003b0 e6 b6 9a 3f cf c6 96 3f e7 cd b8 bd ca bc 9c 3f
       1.2087066 1.1779422 -0.09023648 1.2245114
0003c0 9b 8a 63 bf a7 ea 5f bf 41 20 24 3f 3d dd 86 3f
       -0.8888337 -0.87467426 0.64111716 1.0536267
0003d0 21 05 31 bf 32 99 5c be df 52 98 3f cf f2 66 bf
       -0.6914845 -0.21542814 1.190029 -0.90214247
0003e0 3f 7a 98 3f 69 89 a7 3f 3d 3d 8d bf 97 15 c6 3e
       1.1912307 1.3088809 -1.1034313 0.38688347
0003f0 9c 83 bb bd 8d 92 34 3f c3 de a4 3f 53 8f b2 be
       -0.09155962 0.7053612 1.2880481 -0.34874973

lstm.weight_hh_l0 f4 [400, 100]
000000 36 63 27 be 82 de 1a be 01 5f 6f 3f c1 1d e2 be
       -0.1634644 -0.15123942 0.9350434 -0.44163325
000010 1d 85 85 be 36 69 3f 3d fb df dc 3e 17 6c 14 be
       -0.2607812 0.046731196 0.43139634 -0.14494358
000020 5b bf 96 be 32 15 87 3c 66 ae 80 be a4 81 27 3e
       -0.29442868 0.016489599 -0.25133055 0.16358048
000030 d1 5c 07 bf 2c 27 d3 3e a6 ca ec bd 28 12 22 be
       -0.52876 0.41240823 -0.115620896 -0.15827239
000040 7d 32 29 be ba 3f 12 bf 86 3d 03 bf 8e 7b 20 be
       -0.16523166 -0.5712849 -0.5126575 -0.15672132
000050 c2 fb aa bd 81 5e 99 bd 08 9b bb be 1d 5a 32 3e
       -0.083488 -0.07488728 -0.36641717 0.17417188
000060 1a c2 8d be b3 61 16 be e5 0b 90 3d 47 e2 ad 3e
       -0.2768715 -0.14685707 0.07033519 0.33961698
000070 3a 7d ba be a1 86 e9 bf 81 6a 93 be 2c 87 33 be
       -0.36423665 -1.824421 -0.28792194 -0.17532033
000080 d8 98 54 3e 21 0d cb be 29 9f 3c be 8f f4 41 be
       0.2076143 -0.39658454 -0.1842009 -0.18940948
000090 8d f6 c8 3e e4 71 6a be 81 cc 5d be 3b 8e cd be
       0.39250603 -0.22895008 -0.21660043 -0.40147576
0000a0 85 9f f2 be 16 c7 b3 be 05 66 fa 3e 91 42 bc bd
       -0.4738733 -0.35112828 0.4890596 -0.09192384
0000b0 e4 c5 0c bf 43 cd a9 3d de 0b f4 3e d1 e4 96 3d
       -0.5498946 0.08291104 0.47665304 0.07367862
0000c0 e6 e8 57 bd 6c 0d a5 bd fe 97 85 3d 1f f0 cc be
       -0.052712344 -0.08059201 0.06523131 -0.40026948
0000d0 f7 65 25 bd ed dc ad 3e 07 af e2 3e 66 9a 17 be
       -0.040380444 0.33957615 0.4427416 -0.14804992
0000e0 e2 99 1e 3b 23 51 3b 3e 62 f7 3b bf e7 11 1f 3e
       0.0024200608 0.1829267 -0.7342435 0.15534173
0000f0 24 d0 1f be 19 dc c8 3e 54 68 f1 3d 6c 1f 12 be
       -0.15606743 0.3923042 0.11787477 -0.14269799
000100 d2 fd 04 be a1 a6 54 bf 21 e9 ad 3e c8 40 74 3d
       -0.1298745 -0.83066756 0.33966926 0.059632093
000110 3b e0 80 bc b1 e9 40 3c 04 3a d6 3e b5 b8 39 3e
       -0.015731921 0.011774466 0.41841137 0.18136866
000120 ba db 3e 3e b6 32 66 bd c6 3a d7 bd 91 b8 4f be
       0.18638507 -0.056200705 -0.10509257 -0.2028525
000130 95 c3 85 be 9c 6f 25 3f bd 82 15 be fa fd 94 be
       -0.2612578 0.6462343 -0.14600654 -0.2910002
000140 fe af 7a 3d 68 9d 85 be d8 bc 74 be a3 6e 99 be
       0.061202995 -0.26096654 -0.23900163 -0.29967222
000150 d2 fc 39 be 1e ea 1f be 05 67 44 3f 78 57 c3 be
       -0.1816285 -0.15616652 0.76719695 -0.3815267
000160 d2 da 30 3e a8 66 be be 90 82 d9 3d 81 65 84 be
       0.17270973 -0.37187696 0.10620606 -0.2585869
000170 12 6f ba be e2 1e d2 be e2 9a 80 3e 49 b3 90 3e
       -0.36412865 -0.41039187 0.25118166 0.28261784
000180 81 56 40 bf ef c1 be 3b 04 45 c4 3e 1f e2 7e be
       -0.75131994 0.0058214585 0.38333905 -0.24890946
000190 0e 7f 46 3e 96 97 c6 bd e2 56 11 3f 4d 4e bd be
       0.19384405 -0.096968815 0.567732 -0.369738
0001a0 09 3f f6 bd f2 32 83 be 58 9e 37 be 24 45 5c be
       -0.12023742 -0.25624806 -0.17931497 -0.2151075
0001b0 a5 18 5a be 90 ae 1b 3d e1 e5 9d 3e 06 36 d7 3d
       -0.21298464 0.038008273 0.30839446 0.10508351
0001c0 75 0b d5 3d 7f 48 6b be dd 77 cc 3c 39 ee 22 be
       0.10402576 -0.22976874 0.024959499 -0.15911187
0001d0 03 34 5f 3e 0f 9a ed 3d 08 96 74 be eb ab 21 3e
       0.21797185 0.1160165 -0.23885357 0.15788238
0001e0 60 87 0b 3e 9b 94 ec bd ef f3 a0 bd 88 aa b8 bd
       0.1362586 -0.11551782 -0.07859027 -0.09016901
0001f0 db 10 3e 3e 60 f5 0f be b1 f7 15 be 06 fb be ba
       0.18561117 -0.14058447 -0.14645268 -0.001457066
000200 da da a0 3c 50 52 bd bf bd 56 cf 3e f9 f1 80 bd
       0.019635607 -1.4790745 0.40495864 -0.062961526
000210 7a 49 84 3d 04 a4 55 bc 57 9f e5 bc b0 fd 7d be
       0.06459327 -0.013039593 -0.02803008 -0.24803805
000220 f7 1a a9 3e 23 05 f8 be c7 52 11 3e 8a c4 36 bf
       0.33028385 -0.4844142 0.14191733 -0.71393645
000230 6f e2 c5 be 3a 84 5e be b8 02 a7 3e f8 8e 30 bd
       -0.38649318 -0.21730128 0.32619262 -0.043105096
000240 e4 fe 0a be 7f 52 fe 3d 8e 02 07 3f 5f 08 33 be
       -0.13573796 0.12418079 0.52738273 -0.17483662
000250 65 97 67 bd 0c 41 ae bb 45 00 fa bd 8f aa ca bc
       -0.056540865 -0.005317813 -0.12207083 -0.024739532
000260 3e 38 b3 3d 3b a0 f3 3c 32 40 eb 3d aa 34 9f 3e
       0.08750962 0.02973949 0.11486854 0.31094867
000270 d7 4a 95 bd 38 51 c1 be 5d 7b 35 bf a9 9f b5 3e
       -0.07289665 -0.37757277 -0.7089136 0.35473374
000280 71 9c fb bd f4 e8 94 3e c1 5e 0f bf 5f 1e 43 3d
       -0.12285698 0.2908398 -0.5600396 0.047636386
000290 83 8d 9e 3e 08 ad a3 be c7 f4 f5 3d 55 58 af 3e
       0.3096734 -0.3196795 0.12009578 0.3424708
0002a0 33 1f b8 bd 2a 73 22 3e 17 0d d5 3e b2 3c dd be
       -0.08990326 0.15864244 0.4161155 -0.4321037
0002b0 68 93 21 3d 67 b4 6f 3d 4e 1d c4 be 68 90 7c be
       0.03944722 0.058521654 -0.38303608 -0.24664462
0002c0 b9 5c d3 3c 80 8d 25 3f 11 f2 b8 be a1 f5 a3 3d
       0.02580105 0.64669037 -0.36122182 0.08005834
0002d0 d3 c1 f5 3d 43 1d 24 bf ce cd 4c 3d f9 3a 41 3d
       0.1199986 -0.6410715 0.05000096 0.04717538
0002e0 dc d3 f1 be f6 ac 1a 3e a8 be 8c 3e 72 24 c8 bd
       -0.47231948 0.15105042 0.2748921 -0.097725764
0002f0 50 4d 33 be f5 a8 a6 3d 5e 03 52 3d dd 22 a1 3e
       -0.17509961 0.08137695 0.051272742 0.3147191
000300 c5 f9 d1 bd ee 4c a0 bb c1 75 95 3e 7c 2b 9c 3e
       -0.10252718 -0.0048919832 0.29191402 0.30501926
000310 7d 93 d0 bd 01 0d 8a 3d 8c 24 44 3e 23 9e 4e be
       -0.10184381 0.067407615 0.19154567 -0.20177512
000320 e8 71 0c bf 1b 35 03 c0 2e 24 de 3f a2 be 0e c0
       -0.5486131 -2.0501163 1.7354791 -2.2303853
000330 20 6c 3d be df ad c9 3f 1f 9f c6 3f db 18 a4 bf
       -0.18498278 1.5756186 1.551731 -1.2820085
000340 ae dd 11 40 7f 2c 8d be 38 54 fb bf fd 9c 1f bf
       2.2791553 -0.2757301 -1.9635077 -0.6234892
000350 e1 9d 8e be 9e 7c df 3f 05 ed 1f 40 59 9d ca bf
       -0.27854827 1.7459905 2.4988415 -1.5829269
000360 22 d7 d3 3f 1d b6 01 c0 ca 4b 98 be ad ac 79 be
       1.6550028 -2.0267403 -0.29745322 -0.24382277
000370 86 91 f7 3f 73 2e df 3f 48 5b 0c 3f 7f 07 5c bf
       1.9341285 1.743605 0.54826784 -0.8594894
000380 ef 97 9b bf f5 1f d3 3f d8 4b 83 3f 26 55 06 bd
       -1.2155741 1.6494128 1.0257521 -0.032796048
000390 c0 1c 13 c0 2e 84 1a c0 e6 c0 77 bc d6 55 bb 3f
       -2.2986298 -2.4143176 -0.015121674 1.463557
0003a0 20 6b f6 bf c9 67 00 c0 0d 6f 8d bf e0 f0 03 c0
       -1.9251442 -2.0063345 -1.1049515 -2.0615768
0003b0 1f 51 cd 3f 27 ef da 3f 17 00 ce bf 27 cf 35 40
       1.6040381 1.7104234 -1.6093777 2.8407686
0003c0 63 15 eb bf 08 1b b1 bf 4c 29 8b 3f 79 13 ea 3f
       -1.8365902 -1.3836374 1.0871978 1.8287193
0003d0 b3 bf 06 c0 c4 f3 3a bf 15 f5 3d 40 80 9f ac bf
       -2.1054504 -0.73028207 2.9680836 -1.3486176
0003e0 fc 2a d3 3f 95 2d 84 3f b3 3b 02 c0 22 02 13 bf
       1.6497493 1.032641 -2.0348938 -0.5742513
0003f0 51 5b 93 bf ee 90 71 3f 38 60 e9 3f 80 00 ab bf
       -1.1512243 0.9436177 1.8232489 -1.3359528

lstm.bias_ih_l0 f4 [400]
000000 c2 c3 cf bf 15 08 c3 bf 13 f8 a1 be 45 e8 33 bf
       -1.6231616 -1.5236841 -0.31634578 -0.7027629
000010 99 78 3e bf 01 ce 4b bf be a8 75 bf 76 6b 06 c0
       -0.7440277 -0.7961121 -0.95960605 -2.100309
000020 39 19 0b bf 50 1b 36 bf b1 17 ea be 92 4b b0 be
       -0.5433536 -0.71135426 -0.457212 -0.34432656
000030 e2 b7 18 bf 65 c0 56 bf eb 28 c7 bd 69 af 0b c0
       -0.5965558 -0.8388732 -0.09724601 -2.1825812
000040 9a f2 71 be 1d 25 92 bf 4a 22 8a bf 51 9c a6 bf
       -0.23627701 -1.1417576 -1.0791714 -1.3016454
000050 dd 02 18 bf 29 4c cb bd da 7f 2d bf ba 82 c3 bf
       -0.5937937 -0.09926636 -0.6777321 -1.527427
000060 9b 49 14 c0 8a 70 5b bf dd ed 97 bf 0f c4 10 bf
       -2.3169925 -0.85718596 -1.1869465 -0.5654916
000070 9e 22 b9 bf a2 ee 66 be 52 32 93 bf 7c 08 85 bf
       -1.4463689 -0.22551969 -1.1499732 -1.0393214
000080 85 8b 04 bf 37 2b d1 bf e9 61 05 c0 78 7d 87 bf
       -0.5177539 -1.6341313 -2.084101 -1.0585165
000090 70 31 08 bf 03 3c f9 be 80 91 0d c0 da 2f 17 bf
       -0.53200436 -0.48678598 -2.2120056 -0.5905739
0000a0 77 52 55 be b2 3e ce be 39 df c9 bf 3a 57 6d bf
       -0.20832239 -0.40282208 -1.5771247 -0.9271122
0000b0 b2 38 c6 bf e9 ff 86 bf ec 06 d8 be 90 8f 91 bf
       -1.5486052 -1.0546848 -0.4219278 -1.1371937
0000c0 b3 e6 05 bf 8a 66 c5 bd f3 e2 49 bf 65 7c 4e bf
       -0.52305144 -0.096386984 -0.7886192 -0.8065856
0000d0 68 80 0b c0 8d 19 ac bf da 1c b7 be 3e 49 14 c0
       -2.1797123 -1.3445297 -0.357642 -2.3169703
0000e0 02 1a 84 bf 71 36 ee be 6f af b3 be c5 ff bc bf
       -1.0320437 -0.4652591 -0.35094783 -1.4765555
0000f0 c5 f7 24 bf 53 36 ac bf 03 d0 12 be 22 41 1e be
       -0.64440566 -1.3454078 -0.14337163 -0.15454534
000100 35 45 11 c0 c8 de 1d be 43 57 a0 3d 05 3f 92 bf
       -2.269849 -0.15417016 0.07829144 -1.1425482
000110 c4 9d 7d bf 76 d1 a6 bd d8 1b 08 bf b0 d7 3a bd
       -0.99068856 -0.0814542 -0.53167486 -0.045615852
000120 cd a8 f0 be aa 21 20 c0 46 bf a2 be 94 b6 03 bf
       -0.47003785 -2.5020547 -0.31786555 -0.5145047
000130 37 1a 07 c0 a8 8b 56 be 9e ff 4c be ea e0 85 bf
       -2.110975 -0.20951712 -0.20019385 -1.0459263
000140 24 cc 40 bf 45 c4 77 bf 1b 51 38 bf d2 b9 84 bf
       -0.75311494 -0.9678386 -0.7199876 -1.0369208
000150 f5 26 b0 be c2 c6 a1 bf 5e 6c 0f bf 1c f2 1a bf
       -0.34404722 -1.2638781 -0.5602473 -0.6052568
000160 38 3a 2e be 45 7c a4 bf 21 c3 d8 bf ff 5d e1 bf
       -0.17014396 -1.2850424 -1.6934549 -1.760681
000170 27 3f c6 bf 1a 8f 10 c0 08 bc 57 be dd 7e 2e be
       -1.5488023 -2.2587342 -0.21067822 -0.17040582
000180 4b 5b 6f bf 65 7a 8f bf ce 70 98 3e 30 5e 82 3d
       -0.93498677 -1.1209227 0.29773563 0.06365621
000190 51 7e 89 bf a5 90 4d bf 78 e0 b1 bd b6 47 50 bf
       -1.0741674 -0.80298835 -0.08685392 -0.8135942
0001a0 18 c2 b6 3c d0 21 50 bf d6 19 30 bf 90 3b 8c bf
       0.022309348 -0.81301594 -0.6878942 -1.0955677
0001b0 4c b6 96 bf a3 b6 94 bf 1b 7f 87 bf ef 42 84 bf
       -1.1774383 -1.1618236 -1.0585665 -1.0332927
0001c0 ee 6f ec 3d 14 d5 67 bf 0f b3 4b bf fa f7 7c bf
       0.115447864 -0.90559506 -0.79570097 -0.9881588
0001d0 99 cd 4e bf da f2 1b bf 4b 51 5a bf 1a 23 94 bf
       -0.8078247 -0.6091744 -0.85280293 -1.1573212
0001e0 5f a7 6a bf cd ce 0e bf 07 b8 c3 be 9f b9 67 bf
       -0.9166164 -0.557843 -0.3822634 -0.9051761
0001f0 44 67 7f bf cd 04 4b bf 9b b2 99 bf 83 10 13 bf
       -0.99766946 -0.793042 -1.2007631 -0.5744707
000200 5d 4d b2 bf 35 1a 18 be f8 7a 80 bf f8 cc 58 bf
       -1.3929859 -0.14853747 -1.0037527 -0.8468776
000210 f5 d0 58 bf 3b 2c ac bf df 30 81 bf f0 81 85 be
       -0.84693843 -1.3450998 -1.0093039 -0.26075697
000220 0b d5 39 bf ce 31 68 bf 4c 8d 50 bf df e5 74 bf
       -0.725907 -0.90700996 -0.814656 -0.95663255
000230 36 6b ee be 88 ae be bf 63 e1 af bf fc 0a 95 bf
       -0.4656617 -1.4897013 -1.3740658 -1.1643977
000240 f8 d2 89 bf 98 7c 4f bf 9b fa 61 bf 25 a3 9b be
       -1.0767508 -0.8104949 -0.8827302 -0.30397907
000250 ee 00 d8 be af 81 a5 bf 7d d9 d7 bf 90 55 db be
       -0.4218821 -1.2930201 -1.6863247 -0.42838717
000260 0a 50 ae bf 0c 06 78 bf e4 48 fd be 7e 72 8d bf
       -1.3618176 -0.96884227 -0.49469674 -1.1050565
000270 d0 f2 b4 bf 0f bb a4 bf 87 2a 5f be 89 70 04 bf
       -1.41366 -1.2869586 -0.21793567 -0.51734215
000280 5b ec 2d bf 7b 99 35 bf db 8c fb be 82 d8 84 bf
       -0.67938775 -0.7093732 -0.49130902 -1.0378573
000290 e0 80 8a bf 49 5b f2 be a4 eb 99 bf e3 30 5a bf
       -1.082058 -0.4733527 -1.2025037 -0.85230845
0002a0 2f 3e a7 bf d3 5e 04 bf 90 7c 7b bf 1c 42 74 bf
       -1.3065852 -0.5170719 -0.9823694 -0.95413375
0002b0 c6 4b 37 bf 9d d2 b0 bf 83 eb a5 3c 6d a3 15 bf
       -0.71599996 -1.3814274 0.020253902 -0.5845249
0002c0 82 80 48 bf 50 5d 58 bf 50 3f 95 bf 27 f3 cf be
       -0.7832109 -0.84517384 -1.1659946 -0.40615198
0002d0 c9 e4 28 bf 1c a5 29 bf ec 62 5d bf e9 20 84 bf
       -0.659741 -0.6626756 -0.8647907 -1.0322543
0002e0 80 9c 36 bf 6c 1e 52 be ad 05 70 bf fd 13 5b bf
       -0.7133255 -0.20519418 -0.9375866 -0.85577375
0002f0 78 9e 18 bf f5 ff 39 bf 3a de ae bf 7f 9f 8e bf
       -0.59616804 -0.72656184 -1.3661568 -1.1142424
000300 ec 4a 06 bf fc 4f 92 bf 93 01 93 bd b7 e3 4f bf
       -0.5245807 -1.1430659 -0.07178035 -0.8120684
000310 e9 a4 6e bf 1f 5e 6a bf 20 34 8c bf 0a 1f 37 bf
       -0.9322038 -0.9154987 -1.0953407 -0.71531737
000320 4f 36 a0 3e 96 4e 00 bc 5a 5d b0 3e 09 0f ed bd
       0.31291434 -0.007831236 0.34446222 -0.11575133
000330 17 93 09 3e f3 f9 37 3e de 74 51 3e cd 3f 10 3e
       0.13435017 0.17966442 0.20454738 0.14086838
000340 12 65 35 3e 74 5b 5c be f3 02 38 be ce a6 75 be
       0.17714337 -0.21519262 -0.17969875 -0.23989412
000350 7e 7a 80 bd 0d 39 3e 3e 43 f8 92 3e 2e 79 fb 3d
       -0.062733635 0.1857645 0.28705034 0.122789726
000360 c7 27 df 3e 14 f8 8a be a9 6b 3d 3e 69 67 81 3e
       0.43585035 -0.27142394 0.184981 0.25274208
000370 36 af a5 3e 7a a8 17 3e e1 ef 0c 3e e3 16 01 3e
       0.32360238 0.14810362 0.13763382 0.12606387
000380 b8 43 c7 3d ab 62 1a 3e 37 0b 81 3e 9c 62 04 3d
       0.09729713 0.15076701 0.2520387 0.032320604
000390 57 b4 cd bd b4 86 ce bd 6e c2 2c 3e 8f 63 12 3e
       -0.10044163 -0.10084286 0.16871044 0.14295791
0003a0 bd 80 5c be 49 c6 1b be ea d8 be 3d 6c 3e 78 be
       -0.21533485 -0.15212359 0.09318717 -0.24242562
0003b0 4d 9b 7c 3e 68 ec 75 3e 47 aa 8d 3d 02 4d 98 3e
       0.24668618 0.24015963 0.069172435 0.29746252
0003c0 8a 8d 8e be 74 96 9d be d4 e1 b5 3d b1 f9 38 3e
       -0.2784236 -0.3077885 0.08880964 0.18064
0003d0 1c 1b 39 bd 99 83 79 3d e0 f5 91 3e 62 31 8e bd
       -0.04519187 0.060916517 0.285079 -0.06943013
0003e0 dc 80 9d 3e 75 90 92 3e e1 f6 10 be 9b c3 0b be
       0.30762374 0.28625837 -0.14156677 -0.13648836
0003f0 cf 34 c1 3c 22 8a 13 3e d3 08 7a 3e d9 64 a9 3d
       0.023584751 0.14408162 0.24417429 0.08271188

lstm.bias_hh_l0 f4 [400]
000000 bf bc c5 bf 19 49 c3 bf d4 51 96 be 0d 39 19 bf
       -1.5448226 -1.5256683 -0.29359305 -0.5985268
000010 87 10 6c bf 89 1a 53 bf 4a c9 7d bf 1b 2d 0b c0
       -0.9221272 -0.82462364 -0.9913527 -2.174628
000020 28 ea 0c bf ca 1a 32 bf 29 ac 22 bf 4c 1c 60 be
       -0.55044794 -0.69572127 -0.63543946 -0.21885794
000030 28 06 27 bf 70 f5 47 bf d1 22 e0 bd d9 7c 09 c0
       -0.6524377 -0.7810888 -0.10944141 -2.148245
000040 1e 23 81 be 16 7c 88 bf 20 c4 93 bf 39 f7 9a bf
       -0.25222105 -1.0662868 -1.1544228 -1.2106696
000050 fd 38 f1 be 67 7a 0b bd d0 95 2c bf b6 a3 c3 bf
       -0.4711379 -0.03405228 -0.67416096 -1.5284336
000060 86 aa 0f c0 c2 02 49 bf dd eb a4 bf 6a 49 00 bf
       -2.244783 -0.78519833 -1.288448 -0.5011202
000070 02 8d ac bf d5 97 92 be ad 73 9a bf e7 9b 65 bf
       -1.3480532 -0.28631464 -1.2066551 -0.89691013
000080 af f9 02 bf 11 83 c3 bf 79 3a 0e c0 d9 21 73 bf
       -0.51162237 -1.5274373 -2.222319 -0.9497352
000090 a3 c2 f9 be 1a 76 ba be 51 86 11 c0 06 9f 21 bf
       -0.4878131 -0.3641823 -2.273823 -0.63133276
0000a0 99 60 9f be 0d ee e6 be cc 36 ba bf e0 06 73 bf
       -0.31128386 -0.45103493 -1.4547973 -0.94932365
0000b0 cb 9d c1 bf df 4e 8b bf 77 05 bd be 87 4c a0 bf
       -1.512628 -1.0883445 -0.36918232 -1.2523354
0000c0 be 81 eb be 9c d5 5d be 2c 90 52 bf 11 61 50 bf
       -0.45997423 -0.21663517 -0.8225124 -0.8139811
0000d0 21 07 0c c0 af 5e a5 bf 73 a6 ab be 51 12 14 c0
       -2.187935 -1.291952 -0.33525428 -2.313618
0000e0 1d c6 7d bf b5 c2 a7 be 96 0b 9f be 50 44 cb bf
       -0.9913042 -0.32765737 -0.31063527 -1.5880222
0000f0 f8 5a 4a bf 9b df a2 bf 22 d9 05 be bd 6e 8d be
       -0.7904506 -1.2724489 -0.13071111 -0.2762355
000100 59 42 10 c0 7d ab 2e be 49 c6 af 3d 4b f6 91 bf
       -2.2540495 -0.17057605 0.08582742 -1.1403288
000110 fd a6 91 bf bf d7 26 3c 27 dd e0 be dc f0 72 bd
       -1.1379086 0.010183274 -0.43918726 -0.059311733
000120 03 60 f9 be 31 f2 18 c0 3a 7e af be ec a8 20 bf
       -0.48706064 -2.3897822 -0.3427599 -0.62757754
000130 0b db fc bf 40 84 88 be b0 c1 96 be 58 78 87 bf
       -1.9754347 -0.266634 -0.29444647 -1.0583601
000140 4a e2 39 bf 39 4d 5f bf 88 69 26 bf ef cc 7f bf
       -0.72610915 -0.8722721 -0.6500478 -0.9992208
000150 a8 00 b1 be e5 db 8f bf 5e 4b 00 bf e9 21 32 bf
       -0.34570813 -1.1238981 -0.50115 -0.6958299
000160 92 b6 db bd e0 41 8b bf f2 34 e7 bf f4 97 e6 bf
       -0.10728182 -1.0879478 -1.8063033 -1.8015122
000170 1b 61 df bf 65 ee 09 c0 3c 6c 85 bd 71 42 c8 bc
       -1.7451509 -2.1551754 -0.06514785 -0.024445744
000180 33 9e 6d bf ee ca 87 bf cc 3f 92 3e b5 c9 63 3d
       -0.9281952 -1.0608804 0.28564298 0.055612285
000190 d7 3f 7d bf c1 69 75 bf 6c 7f aa bc c8 c3 2e bf
       -0.98925537 -0.9586449 -0.020812713 -0.6826749
0001a0 32 87 e9 3d eb 6e 53 bf df 25 38 bf c8 e0 73 bf
       0.114027396 -0.8259112 -0.71932787 -0.95264864
0001b0 ba a8 90 bf 54 fc 9c bf 3c 95 81 bf d5 6f 8b bf
       -1.1301491 -1.2264504 -1.0123668 -1.0893503
0001c0 39 a7 0f 3e 27 d5 6a bf 65 34 50 bf b8 3f 7d bf
       0.14028634 -0.91731495 -0.8132995 -0.9892535
0001d0 10 89 3d bf 23 e0 30 bf 1d 85 66 bf 19 ae 93 bf
       -0.74037266 -0.69092005 -0.90046865 -1.1537505
0001e0 f6 88 6d bf d4 15 19 bf 37 5e 92 be 2e 86 6b bf
       -0.9278711 -0.5979893 -0.28587505 -0.92001617
0001f0 4a 6d 79 bf d6 79 20 bf 42 7f 93 bf 37 24 0d bf
       -0.97432387 -0.62685907 -1.1523211 -0.55133384
000200 92 2d b8 bf 9b b6 04 be 01 1b 87 bf bb b4 5a bf
       -1.4388907 -0.12960283 -1.0555116 -0.8543202
000210 2b 7a 67 bf df 6b a4 bf 97 e9 6a bf 4e 4d 4c be
       -0.9042079 -1.284542 -0.9176268 -0.19951364
000220 9b 20 22 bf fa 4c 80 bf 6a 3f 3e bf 44 fe 83 bf
       -0.63331 -1.0023491 -0.7431551 -1.0311971
000230 ba 7c 07 bf ef c2 c1 bf 84 a7 a6 bf 24 a4 9e bf
       -0.5292469 -1.5137614 -1.3019872 -1.2393842
000240 5f c4 88 bf 52 50 39 bf c6 b7 5b bf bc 81 a6 be
       -1.0684928 -0.72388184 -0.8582729 -0.32520854
000250 64 ab d6 be 97 ee a4 bf 23 b7 dc bf 7d 6d 03 bf
       -0.41927636 -1.2885312 -1.7243389 -0.5133894
000260 fc ba b2 bf cb 15 69 bf c6 bc d5 be b4 14 92 bf
       -1.3963313 -0.9104888 -0.41745585 -1.1412568
000270 f5 12 bc bf 9a ee a2 bf c7 4f 80 be f4 41 03 bf
       -1.4693285 -1.2729065 -0.25060865 -0.5127251
000280 ec 65 2b bf 18 e7 13 bf 76 9c 18 bf ca aa 83 bf
       -0.66952395 -0.57774496 -0.5961374 -1.0286496
000290 98 69 8c bf d9 ce 1a bf 16 67 8e bf a4 a4 83 bf
       -1.0969725 -0.60471874 -1.1125209 -1.0284619
0002a0 f0 4a ab bf 15 f3 13 bf 21 94 6d bf 80 77 7b bf
       -1.3382244 -0.5779279 -0.9280415 -0.9822922
0002b0 a4 05 2f bf 95 b4 b9 bf 9b 6b 1a bc 67 40 34 bf
       -0.6836798 -1.4508234 -0.009425069 -0.7041077
0002c0 06 cf 59 bf 27 12 6e bf 8c 2d 7a bf a8 8a d1 be
       -0.8508152 -0.9299645 -0.9772575 -0.409261
0002d0 06 89 1f bf 2d dc 1f bf 65 71 6c bf 94 78 79 bf
       -0.62318456 -0.62445337 -0.92360526 -0.9744961
0002e0 46 2c 4f bf 03 b8 3a be 39 0f 5b bf af 03 39 bf
       -0.8092693 -0.18234257 -0.855701 -0.72271246
0002f0 8f 62 2d bf 0d 58 40 bf 98 69 99 bf 78 e8 8e bf
       -0.67728513 -0.75134355 -1.198535 -1.1164694
000300 08 8f 05 bf c4 f9 90 bf 12 09 18 be bb ac 50 bf
       -0.52171373 -1.1326222 -0.1484721 -0.81513566
000310 71 f9 5d bf 0a ac 77 bf fc 14 6f bf eb a6 56 bf
       -0.8670874 -0.96746886 -0.93391395 -0.83848447
000320 d8 cf 3f 3e 41 f7 cf bd b5 18 3e 3e cb 47 4a be
       0.1873163 -0.10154582 0.18564112 -0.1975395
000330 eb 4e 97 3d 17 dd 60 3e 9f 96 3d 3e d1 00 98 ba
       0.07388099 0.21959339 0.18514489 -0.0011596923
000340 a2 66 75 3e 3c 09 00 be 81 51 64 be 36 07 95 be
       0.23964933 -0.12503523 -0.22296716 -0.29107064
000350 84 c9 21 3d 06 43 80 3e a8 3a 64 3e e7 6a 83 3d
       0.03949882 0.25051135 0.22288 0.064168744
000360 cf 11 b9 3e 36 4a 3b be fd fa 72 3e b7 c9 36 3e
       0.361464 -0.18290028 0.23728557 0.17850386
000370 a3 d7 15 3e f3 d2 9d 3e 4f 19 ae 3d c3 53 e5 3d
       0.1463304 0.30825004 0.08500921 0.11197617
000380 42 56 fb 3b 99 e0 9e 3e 77 58 2d 3e 5a 6c 5d bb
       0.007670195 0.3103073 0.16928278 -0.0033786506
000390 ea 39 cd bd 3f af 19 bc a9 1c 13 3e cb 67 0b 3e
       -0.10020812 -0.009380161 0.14366402 0.13613813
0003a0 5e 64 8b be 7e 1e 57 be d7 e7 da 3d c6 9e 4d be
       -0.27225012 -0.21007726 0.10688751 -0.20080099
0003b0 75 bb 49 3e ea 7b 38 3e ad ba 8f 3d 48 fc 9e 3e
       0.19700415 0.1801602 0.070180275 0.3105185
0003c0 2d 4a 98 be c5 09 a4 be b0 ce 00 3e c3 89 20 3e
       -0.29744092 -0.32038704 0.12578845 0.15677552
0003d0 3c 2d 65 bd 84 22 0e 3e 5f 86 54 3e d0 6f 56 be
       -0.055951342 0.13880354 0.20754384 -0.2094109
0003e0 58 c2 37 3e 53 d9 a9 3e ea 06 12 be 3d 7c 02 be
       0.1794523 0.33173618 -0.1426045 -0.12742706
0003f0 7b b6 03 3e 7a fa 5a 3e 77 5e 90 3e 29 b8 15 3e
       0.1286258 0.21384612 0.2819707 0.14621033

linear.weight f4 [1, 100]
000000 34 96 a2 bd e0 21 dc 3b fb 15 84 3e 47 57 9c be
       -0.07938805 0.0067179054 0.2579802 -0.30535337
000010 7a 24 84 3e b9 b4 5f be 47 b1 b4 3b 81 87 99 3d
       0.2580908 -0.21846284 0.005514297 0.074965484
000020 4e 22 bc 3d 17 ae 49 3e 3f 41 7f 3e 57 52 c7 3e
       0.091862306 0.19695316 0.24927233 0.38930008
000030 57 c2 73 3e 46 9a 84 3d 8a 14 7c 3e 56 28 ca 3d
       0.23804604 0.06474738 0.2461721 0.09870975
000040 49 ea 59 be d3 9e 9a 3c 71 d9 43 be cc 0b 06 be
       -0.21280779 0.018874561 -0.19125916 -0.13090438
000050 8f 0c 10 3e a1 92 72 be 96 bb 88 3e 65 4e fa bc
       0.1406729 -0.23688747 0.26705617 -0.03055496
000060 19 7f a4 3d 1b 23 8a be ad c4 b3 be 43 6a b3 3c
       0.080320545 -0.26979908 -0.3511099 0.021901255
000070 c4 4a 1f 3e 33 02 92 be 61 a2 a6 bd 26 7d 63 bd
       0.15555865 -0.28517303 -0.0813644 -0.055539273
000080 f5 04 ee 3d eb 30 ba 3b 91 28 c9 3d 67 4f 67 be
       0.11622039 0.005682101 0.098221906 -0.22588883
000090 3a f8 83 3c ef d6 96 be b3 9f f5 3d 5c 86 39 3e
       0.016109575 -0.29460856 0.11993351 0.1811766
0000a0 6d f7 c8 be 1f 23 ba 3e 88 15 87 bd 1f 92 89 3e
       -0.3925127 0.3635492 -0.06595904 0.26869294
0000b0 ed 48 a2 3e 3d ca 4d 3b cd 0a cf 3e dc e2 3d be
       0.31696263 0.003140106 0.40437928 -0.18543571
0000c0 5a bb 0d be 76 ad b1 be d2 e9 9b 3d 64 c5 eb 3b
       -0.13841 -0.34702653 0.07612957 0.0071951617
0000d0 ef 0d 33 3d c0 af aa be b2 87 44 bd 91 0d d4 3d
       0.04371446 -0.33337212 -0.04798097 0.1035415
0000e0 9a d6 29 3c 42 87 7a bd 38 54 87 be 29 4a c0 bd
       0.010366106 -0.06116415 -0.2643144 -0.09389145
0000f0 a9 b0 7e be cd d3 18 3e 79 8a 8f be 5b bb 68 be
       -0.24872078 0.14924546 -0.28035334 -0.2272772
000100 79 df 48 3d e3 02 50 be c6 9d 85 bd 42 c2 be 3d
       0.049041245 -0.20313601 -0.065242335 0.093143955
000110 be 49 c3 be a7 c8 37 be 77 d1 8d 3c 55 6e c6 bc
       -0.38142198 -0.17947637 0.017311795 -0.024222532
000120 66 0a f8 bc 27 b4 2b 3e 32 4d 2a bd 02 6f bb be
       -0.030278396 0.16767941 -0.041577525 -0.3660813
000130 c9 be a8 bc 57 29 fd 3e 8d 47 96 bd b9 f1 5c 3e
       -0.020598786 0.49445602 -0.07337866 0.21576585
000140 80 42 7d be fd dd 8b be f9 db 8d be 60 9c 81 be
       -0.24732399 -0.273178 -0.27706888 -0.25314617
000150 4d 38 6b be 80 a8 22 3e 01 30 a4 3c 91 d5 8a bd
       -0.22970696 0.1588459 0.020042421 -0.06779016
000160 e8 32 8f be e9 fb f8 3c 11 9d 1d bd 68 e9 81 bd
       -0.27968526 0.030393558 -0.03847987 -0.06343347
000170 0d 3f 07 be 2a b2 7a 3e 31 2a fc 3e 01 f1 11 3e
       -0.13207646 0.24482027 0.4925094 0.14252092
000180 b0 13 74 be 6c 08 4e bd f7 09 2f 3d 69 e9 b7 be
       -0.23835635 -0.050301 0.042734113 -0.35920265
