BodelLigging/Hondsbroekse Pleij West_bodemligging_V1.pt (torch, 661983 bytes, 5 tensors)

lstm.weight_ih_l0 f4 [400, 1]
000000 8a 6f e3 bd 1b d3 33 3d 88 ad d8 be 1b 09 f7 bc
       -0.11105259 0.043902498 -0.42319894 -0.030155709
000010 e6 cb e8 3e 6f e9 f8 bd 07 de 5f bf d4 37 be 3e
       0.45468062 -0.12153899 -0.8744816 0.37151968
000020 39 5e ad bf 14 86 e1 be 03 db 29 be 61 98 a2 bf
       -1.354438 -0.44047606 -0.16587453 -1.2702752
000030 c9 e2 0a 40 1f e0 4c bf 7d 87 f6 be b1 a7 b1 3f
       2.1700919 -0.8002948 -0.48150244 1.38793
000040 14 7a 06 c0 96 98 53 3f 6a 7e 1f 40 0c 58 58 3f
       -2.101201 0.826547 2.4920907 0.8450935
000050 17 1f 09 40 47 01 d4 be 3b c9 1c c0 0c 89 fb bd
       2.1425226 -0.41407225 -2.4497821 -0.12281999
000060 0a 16 39 be 37 6f 64 bf e2 e2 0d bf da d6 e7 3d
       -0.18074813 -0.892322 -0.5542432 0.113202766
000070 b1 94 68 bd 03 59 00 bf eb 3e 3a c0 c1 ce 04 be
       -0.05678243 -0.5013582 -2.9100902 -0.12969495
000080 2b 97 42 bf 8f e0 65 bf d4 d6 65 be 0f c2 2d bf
       -0.76011914 -0.89795774 -0.22445232 -0.67874235
000090 dc 0e ef 3e ed e1 3c bf a6 93 b1 3e d5 c0 65 be
       0.46691024 -0.73782235 0.3468296 -0.22436841
0000a0 39 c6 f5 3f b4 0d 8c be d0 64 1a bf 81 bb 3f bf
       1.9201118 -0.27354205 -0.6031008 -0.74895483
0000b0 4f 8a 44 3f db 46 38 3f 42 e7 72 bf ff a7 c3 bf
       0.7677354 0.71983117 -0.9488412 -1.5285643
0000c0 a2 e8 c4 3b a1 3a 31 3f a6 0a f4 3e 76 a9 67 bf
       0.0060091773 0.69230086 0.47664374 -0.9049295
0000d0 58 71 0a bf 4d 21 44 bf 94 fc 06 3f dc aa 89 be
       -0.540792 -0.7661331 0.52729154 -0.26888168
0000e0 b1 8d 48 3d 0b e1 af be 25 9c 17 be ba 7d 19 c0
       0.048963252 -0.34351382 -0.14805658 -2.3982987
0000f0 45 b0 ad bf c1 33 0c bf e2 4d 2d bd 4e d7 a8 3e
       -1.3569418 -0.5476647 -0.042310603 0.32976764
000100 2d 87 12 bf 29 47 ff be 28 08 64 bf b1 48 70 bf
       -0.5723751 -0.49858978 -0.89074945 -0.9386092
000110 a5 8c 55 3e 34 86 88 3f 4e e7 82 3e 27 bb 39 bd
       0.20854433 1.0665956 0.25567096 -0.045344498
000120 c8 15 fa be 1e 31 32 bf 16 51 3a bf 29 14 43 be
       -0.48844743 -0.69606197 -0.7277998 -0.19050659
000130 10 92 8a bf 74 cb 3c c0 88 47 8a bd be 70 7a 3d
       -1.0825825 -2.9499178 -0.06751925 0.061142676
000140 64 e0 fa bc a1 cb b3 3e b0 2a a8 be 95 dd b0 bd
       -0.030624576 0.35116294 -0.32845068 -0.086360134
000150 63 59 16 be a5 17 da be b3 cc 8a 3f 20 ee f5 3e
       -0.14682536 -0.42596164 1.0843719 0.48033237
000160 3e fe 90 bf 21 34 23 bf 95 ad 85 3c 9b 16 91 bf
       -1.1327589 -0.6375142 0.016318122 -1.1335024
000170 b4 34 be be 30 a0 c6 3f 9b 94 30 bf 5f 8b 09 bf
       -0.37149584 1.5517635 -0.68976754 -0.5372829
000180 b1 44 2a 40 8a ca 04 3f e5 4a a8 be 2f 8a 5a c0
       2.6604426 0.5187155 -0.3286964 -3.414684
000190 68 5d e6 be 55 10 47 be 6a 64 46 bf 8b f8 14 bf
       -0.44993138 -0.19439824 -0.7749697 -0.58191746
0001a0 f9 9c 08 b9 07 83 1f bf 35 06 52 3e c8 ed b1 3c
       -0.00013028448 -0.62309307 0.2051018 0.021719828
0001b0 82 3c 03 3d ef 18 85 3e 02 a6 16 bf 77 8b eb 3e
       0.032040127 0.25995585 -0.5884706 0.4600484
0001c0 5b c8 85 bf 05 db 02 be 72 7a e8 be b2 de 31 be
       -1.0451769 -0.12778862 -0.45405918 -0.17370108
0001d0 07 f3 7b be ca c0 14 3e 08 a3 39 be 70 33 dc 3d
       -0.24604426 0.14526668 -0.18128598 0.107519984
0001e0 fb 17 46 bf ee 15 4d 3f c9 de 68 3f d7 cb 1c bf
       -0.7738034 0.8011159 0.90964943 -0.61248535
0001f0 14 7b 92 bf af cd 7d bf 27 ba a0 3d 2c 00 c8 be
       -1.144381 -0.99141973 0.07848006 -0.3906263
000200 01 ee 81 3e 92 3a ef be 0f c7 01 bf 4b 96 76 bd
       0.25376895 -0.46724373 -0.50694364 -0.060201924
000210 98 a9 ba be 24 54 d3 3e 66 a2 b3 be 24 aa 5f be
       -0.36457515 0.41275132 -0.35084838 -0.21842247
000220 a9 d9 31 bb 20 f8 d1 be 83 a6 05 be cf 57 17 be
       -0.0027137792 -0.41009617 -0.130518 -0.1477959
000230 30 24 99 3f 9f ea 95 3d 82 f0 70 3d 49 2e 4e bd
       1.1964169 0.07320141 0.058823116 -0.05033711
000240 60 cd 89 3d 5e 75 30 bf 03 fd b6 bd 6c b9 ac bd
       0.06728625 -0.6892909 -0.08934977 -0.08433804
000250 91 1a 93 3e 99 c7 e3 3d e5 e1 37 3f 92 c9 43 bc
       0.28731206 0.111220546 0.7182906 -0.011949914
000260 6d 60 ac be 3b 33 21 be db 6f 08 bf c9 2a 3a be
       -0.33667317 -0.15742199 -0.5329568 -0.18180384
000270 e7 65 48 bf 8e 52 02 3e b9 59 08 be 60 a6 1b bf
       -0.7828049 0.12726805 -0.13315476 -0.60800743
000280 89 99 e9 be d9 20 98 be 79 dd 0f 3f 75 d7 ae 3a
       -0.4562495 -0.2971256 0.56197315 0.0013339358
000290 94 d7 f2 be 35 1c f5 3e a6 c7 c9 bf 77 92 17 be
       -0.47430098 0.47873083 -1.5764053 -0.14801966
0002a0 59 13 c1 be 55 e6 2c bf e1 22 97 bf 1f e2 e1 be
       -0.37710074 -0.6753896 -1.1807519 -0.4411783
0002b0 9e 2e 5e be 65 0c d7 3e ef 12 30 bd 8c 46 a6 3f
       -0.2169747 0.42001644 -0.042986806 1.2990279
0002c0 c9 a4 54 3f 76 0a 85 b9 86 85 8f 3f fe 41 62 bf
       0.8306394 -0.0002537553 1.1212623 -0.88381946
0002d0 03 81 91 be 30 c6 eb 3c 83 f9 bf 3f 37 22 6f 3c
       -0.2841874 0.028781027 1.499802 0.01459556
0002e0 4d b3 0c bc e5 41 39 be 9a 1a 78 3f 0a 95 88 be
       -0.0085876705 -0.18091543 0.9691559 -0.26676208
0002f0 82 3c 22 bf 6b a1 4d be cb e9 93 bf 41 3a c1 bf
       -0.6337358 -0.20081107 -1.1555723 -1.5095903
000300 ed 39 80 3d 75 90 c0 bd 70 68 dd be 26 9c 7e be
       0.062610485 -0.09402553 -0.43243742 -0.24864253
000310 a0 1f d6 bf 27 e8 59 be 1b 9f 96 be b0 7a a9 be
       -1.6728401 -0.21279965 -0.29418263 -0.33101416
000320 eb 53 df bf 50 ca 3b 3d 81 e5 05 3e cb 17 84 3d
       -1.7447485 0.045847237 0.1307583 0.06449851
000330 e3 5d 96 bf 08 f2 b2 40 c1 bf a4 bf e3 03 8a 3f
       -1.1747402 5.592045 -1.2871019 1.0782436
000340 ba f4 78 3f 4d 3c 8f bf 8c 2e da bf f1 21 e0 bf
       0.97248423 -1.1190277 -1.7045455 -1.7510358
000350 01 5b a4 3f e6 98 09 3f b5 4a fb 3f e0 f9 fe 3e
       1.2840272 0.5374893 1.9632174 0.49800014
000360 2e 1d c3 3f 25 53 bf 3f ca 05 ff bf 4a 99 b7 3f
       1.524328 1.4947249 -1.9923642 1.4343655
000370 3a 95 be 3f 5e 4e c2 3f 36 92 c4 bf 3d b2 b6 bf
       1.488929 1.5180166 -1.535712 -1.4273144
000380 c6 f2 8e bf e9 b6 75 bf 2f be 87 3f 9e a6 ec bd
       -1.1167839 -0.95982224 1.0604914 -0.11555217
000390 74 26 4d bf a3 05 97 3e e9 2e b3 bf 47 0a c8 bf
       -0.801368 0.29496488 -1.3998691 -1.5628136
0003a0 bb 66 a5 3f c2 01 b0 bf 08 ab fb be af e0 82 bf
       1.2921976 -1.3750536 -0.49153924 -1.0224818
0003b0 a9 4f f1 3f 3c 90 68 bf 15 01 ce 3c 3f d6 65 be
       1.8852435 -0.90845084 0.025147 -0.2244501
0003c0 ff 74 a9 3f 35 88 95 bd fc 07 37 3f ff 60 d1 3e
       1.3238829 -0.0730137 0.7149656 0.40894315
0003d0 a8 52 c7 3f 40 e8 61 3f b2 4c 24 bf 01 84 7f bf
       1.55721 0.8824501 -0.6417953 -0.99810797
0003e0 2a f8 2b 3e b1 c4 11 3f 0d b0 71 3f 64 26 40 3d
       0.16793886 0.5694075 0.9440926 0.046911612
0003f0 0f b5 d0 be 4b f1 32 c0 e2 c6 75 3f f3 f0 09 3f
       -0.40763137 -2.7959774 0.96006596 0.53883284

lstm.weight_hh_l0 f4 [400, 100]
000000 74 95 4a 3e 99 98 34 bf 29 26 db 3e e3 8d d2 bd
       0.19783574 -0.70545346 0.4280255 -0.10280969
000010 55 f1 e4 be fc 4f ad 3e 85 f1 99 3f 45 53 57 bf
       -0.44715372 0.33850086 1.2026831 -0.84111434
000020 64 9d 88 bf 61 42 d5 3e 9c 82 fc 3f 9a 62 c7 be
       -1.0673032 0.41652206 1.9727359 -0.38942415
000030 48 bf 3f bf 55 38 b7 3e 3d 09 d1 bf e4 87 8b 3d
       -0.7490125 0.35785165 -1.6330944 0.068130285
000040 ab 6a 9d bf a5 ca 12 c0 6e 73 0f be 7c 1a c4 bf
       -1.2298177 -2.2936184 -0.14008877 -1.5320582
000050 31 c4 c6 bf f1 c1 33 bf ec fc 0c 3f c0 a6 26 3f
       -1.5528623 -0.70217806 0.5507343 0.6509819
000060 f3 db df be ab 0c 0a bf b3 ed 42 c0 95 d6 b9 3d
       -0.43722495 -0.5392558 -3.045758 0.090741314
000070 f4 d9 10 be 0a 2e d4 be ee d7 8d be ab df ab 3e
       -0.14145643 -0.41441375 -0.27703804 0.33569083
000080 8f e1 99 bf 08 8a da 3f cc 6a 80 bd 8e 9d 2d bf
       -1.202196 1.7073374 -0.0627037 -0.67818534
000090 39 1c c5 bf 65 48 16 3f c6 f5 be 3d 70 c1 c1 bd
       -1.5399238 0.58704215 0.09324221 -0.094607234
0000a0 c4 3f 52 3f 22 66 2d be 20 c3 97 3e a3 5b a5 bf
       0.8212855 -0.16933492 0.29641056 -1.291859
0000b0 b6 ff c8 be bd 62 b2 be f7 c6 2a 3e 2d 24 52 bf
       -0.39257592 -0.34840956 0.16677462 -0.8208645
0000c0 c4 83 6b 3e f2 a7 01 3f 2b 44 be be bf f9 1e bf
       0.22999483 0.5064689 -0.37161383 -0.6209983
0000d0 69 4f 01 be 44 a3 80 bd 33 5f a2 be c8 0d 3c bf
       -0.12627949 -0.062811404 -0.31713256 -0.7345853
0000e0 04 06 11 3e 18 65 a0 3f 42 51 87 be 29 2f 3a bf
       0.14162451 1.2530851 -0.26429182 -0.7272821
0000f0 61 c5 bd bc bc eb d1 bd b1 db 8a bf f9 fb d8 be
       -0.023165407 -0.10250041 -1.0848294 -0.4237974
000100 f9 8b 18 bf 71 67 a6 3e ef d8 49 3f 06 8c 3f 3f
       -0.5958858 0.32500795 0.7884664 0.74823034
000110 ee 96 97 bc 4d 55 36 c0 7b 37 68 bf 31 57 8e bd
       -0.018504586 -2.8489563 -0.90709656 -0.06950224
000120 23 e6 32 3f ec f4 96 3f a4 4c 8f bf 62 95 be bf
       0.6988241 1.1793494 -1.1195264 -1.4889338
000130 15 e2 0e bf 55 5c e8 be 8a c5 2e bf 5d f2 eb be
       -0.55813724 -0.45382944 -0.6827017 -0.46083346
000140 39 40 99 bd fd 34 14 3e f2 3c c0 bf 44 19 84 be
       -0.074829526 0.14473338 -1.5018599 -0.25800526
000150 d6 b9 61 be 89 6c 68 be 71 1b 68 bf e4 bc 1b 3f
       -0.22043547 -0.22697653 -0.9066687 0.608351
000160 f9 26 d2 3e 91 5d 80 bf 26 8c eb bd 90 f6 98 bf
       0.4104536 -1.0028554 -0.115013406 -1.1950245
000170 10 71 3f 40 cb 43 08 bf 92 1e 2c bf b6 35 70 be
       2.9912758 -0.53228444 -0.67234147 -0.23457989
000180 15 a0 96 bf ba bf 4a 40 72 34 da be c0 93 50 3f
       -1.1767603 3.167952 -0.42618138 0.8147545
000190 29 8a 5d 3d 34 37 a5 be c1 44 7a be de ec f5 bd
       0.054086838 -0.3226868 -0.2444029 -0.120080695
0001a0 38 02 1f 3f 3d 73 03 bf aa 80 62 be de 82 79 bf
       0.6211276 -0.51347715 -0.22119394 -0.9746531
0001b0 d2 f2 8f bf f2 3d 13 3e 3e 07 8a bc 29 86 57 be
       -1.1245978 0.14379099 -0.016849156 -0.21047272
0001c0 b0 9f 45 bf 46 e5 2b bf c0 76 03 bc 9e 88 fa be
       -0.7719679 -0.6714672 -0.008023918 -0.48932356
0001d0 a4 90 51 3e ed ea 02 be b3 68 d1 3d ef 70 ff be
       0.20465332 -0.1278493 0.10225048 -0.4989085
0001e0 5b b3 eb bd 4d 44 0f 3c 1a 6b d1 3e 02 d7 0e be
       -0.11508819 0.0087443115 0.40902025 -0.13949206
0001f0 8e 92 12 3c d9 40 44 3e 5d 5a a4 be af 96 14 bd
       0.008946074 0.19165362 -0.32100192 -0.036276516
000200 aa 39 bd 3d c3 f6 3a be 2a 3d bd b9 1f 80 50 3e
       0.09239514 -0.18258195 -0.0003609446 0.20361374
000210 cf fb 1f bd fe e4 87 be f5 fc 9d be eb 12 14 3f
       -0.039058503 -0.26541895 -0.30857053 0.57841367
000220 c7 32 64 be 09 22 31 bd d9 d1 07 3e 67 a8 03 bf
       -0.22284995 -0.04324535 0.13263644 -0.51428837
000230 1f 92 93 be 71 76 9e be 16 c8 29 be 4d a2 06 bf
       -0.2882242 -0.3094974 -0.16580233 -0.525914
000240 3c ef 9f be 53 97 e5 be cb eb 0b be b0 cc 17 3e
       -0.3123721 -0.44842014 -0.13664167 0.14824176
000250 e0 be ea bd 18 f0 88 be 8d 26 65 be ee d2 35 bf
       -0.11462188 -0.26745677 -0.22377987 -0.7102498
000260 01 70 82 3e 85 f4 a0 bd 50 87 d0 be f9 ae 08 bf
       0.25476077 -0.078591384 -0.40728235 -0.5339199
000270 d1 f4 d6 3e da 70 5f 3e 14 12 30 be 44 32 32 bf
       0.41983655 0.21820393 -0.17194396 -0.6960795
000280 c2 6c f3 3e 17 48 06 3e 59 3b 66 bf 04 ba 31 bf
       0.47543913 0.13113438 -0.8993431 -0.6942446
000290 cf 48 bd bd fd 17 ec bd 77 67 17 3f 55 cc a4 3e
       -0.09242403 -0.11528013 0.5914225 0.32187143
0002a0 88 9a 3a 3d 3d 2b 46 3e 81 ad b4 3e 93 00 cf be
       0.04555753 0.19352432 0.35288623 -0.40430126
0002b0 dc 8d 8a be b2 62 ae be a8 07 f7 bd fb 84 ac bb
       -0.27061355 -0.34059674 -0.12062007 -0.005264876
0002c0 71 63 e7 be 15 9e a2 be 4c cd ae 3d ee 24 56 be
       -0.45193055 -0.31761232 0.08535251 -0.20912525
0002d0 29 e0 71 be eb a2 94 3e 2e c5 e8 3e d4 2f 4d bd
       -0.23620667 0.29030547 0.45462936 -0.05009444
0002e0 04 2f f2 3e 8d 9d fd 3e 46 2e 69 3d f1 67 d1 3d
       0.47301495 0.49534264 0.056928895 0.102249034
0002f0 83 1f 56 3e 19 96 32 bf 0b cb f0 3e 72 ba 52 3e
       0.20910458 -0.6976028 0.4702991 0.20578936
000300 d1 07 d1 3e 1f 5b 00 3e a8 e5 cd be 51 17 17 3f
       0.40826276 0.1253476 -0.40214276 0.59019953
000310 8d d8 a4 3d 16 c8 a0 be e7 25 14 bf 99 8e 0c 3e
       0.08049116 -0.31402653 -0.57870334 0.13726272
000320 9d 47 9e be de fb f3 3d f5 7b e0 bd c3 6f c3 be
       -0.30914012 0.11913274 -0.10961143 -0.38171205
000330 51 0c 8f be e5 62 7e bd 43 4e 82 be ec 8e 07 3e
       -0.27939084 -0.062106032 -0.25450334 0.13238114
000340 df db cb ba 79 38 cb bf 13 ab 7b 3e 44 53 2a be
       -0.0015553198 -1.5876609 0.24576978 -0.16633326
000350 4c 9b 0e 3e f8 9e 4f bc ea 8b f3 be 90 f1 88 bf
       0.13926429 -0.012672178 -0.47567683 -1.0698719
000360 60 51 9c be c5 c5 00 bf 97 f2 be be a1 c3 57 bf
       -0.30530834 -0.5030177 -0.37294456 -0.8428288
000370 82 55 2f bf 1b 43 e1 3d b0 ab 34 bf f2 96 2f bf
       -0.6848985 0.109991275 -0.70574474 -0.685897
000380 f8 ec 14 3e cc 7f ab be 26 10 53 bf f1 a5 1b be
       0.14543521 -0.3349594 -0.82446516 -0.1520002
000390 d0 5b 83 bd 18 08 3c be 79 b8 4e bf ee fb 46 bf
       -0.06413996 -0.18362463 -0.8075023 -0.77728164
0003a0 45 86 ef be 9b 1b c8 3e 46 9d e5 bc 29 23 7e bc
       -0.46782127 0.3908356 -0.028029095 -0.0155113125
0003b0 f8 5b a4 be 17 23 de 3e 49 e0 72 be 97 da 91 bc
       -0.32101417 0.43386146 -0.2371837 -0.017804427
0003c0 9b 33 48 3e b1 e5 f9 bd 2d d0 b6 be 39 61 22 bf
       0.19550936 -0.12202013 -0.357057 -0.634296
0003d0 68 17 91 3d a6 1d 7a be 8c 46 30 3d 19 18 d3 3b
       0.070845425 -0.24425372 0.04303603 0.0064420816
0003e0 ed 4b 17 bf 32 63 b5 3e fa e8 8e bf 1e 0f 35 bd
       -0.5910023 0.35427243 -1.1164849 -0.04420387
0003f0 11 78 0b bf 0b f2 4f 3e 7b 25 e3 bd a4 c1 8c 3e
       -0.5448008 0.20307176 -0.11091133 0.27491486

lstm.bias_ih_l0 f4 [400]
000000 49 43 90 be 39 30 15 c0 ae 7c b9 bf f7 76 28 c0
       -0.28176335 -2.3310683 -1.4491174 -2.632261
000010 c7 c2 ba be 1e f5 a9 3f b6 be c9 bf d1 d5 40 bf
       -0.36476728 1.3277929 -1.5761325 -0.7532626
000020 43 60 83 bf f9 79 28 bf 68 c2 c8 be 69 3d 96 bf
       -1.0263752 -0.65811116 -0.3921082 -1.1737491
000030 5f cc 31 bf 5b 7b 96 bf 86 26 f3 bd fe bf 50 bf
       -0.6945247 -1.1756395 -0.11872582 -0.81542957
000040 b0 9d 69 bf 68 18 87 be 73 24 9b be 21 99 f7 be
       -0.9125624 -0.26385808 -0.30301246 -0.48359016
000050 a8 ba 50 bf 3b 7b a4 be fe d6 41 bf 70 b2 2a bf
       -0.81534815 -0.32125267 -0.7571868 -0.66678524
000060 f1 1f bd bf 46 aa 8a bf 95 b7 1b be c2 27 14 c0
       -1.4775373 -1.0833213 -0.1520675 -2.3149266
000070 0e 7d ff bf 03 96 f5 bf 67 d3 50 bf 40 06 ab be
       -1.9960039 -1.9186405 -0.81572574 -0.33403206
000080 a0 5b 1f be ef 2b e4 be 0f 0e 2d c0 79 9d 91 bf
       -0.15562296 -0.4456477 -2.703983 -1.1376182
000090 3b 62 57 be c1 3d 00 bf 4c aa 27 c0 db 7c 16 c0
       -0.21033566 -0.5009423 -2.619769 -2.3513706
0000a0 6a 53 8d 3d db 88 2c c0 c2 49 a9 be 9f e5 45 be
       0.069006756 -2.695853 -0.33064085 -0.19325875
0000b0 60 e5 6a be ef 01 9e bf 5c 8e b7 bf a0 2c 03 bf
       -0.22939062 -1.234434 -1.434032 -0.5123997
0000c0 54 11 ba bf 0e de 23 bf b9 b8 1c bf 8a 0e 93 bf
       -1.4536538 -0.64010704 -0.61219364 -1.1488812
0000d0 70 23 c6 bf 7d aa 54 3e 00 77 c4 bf 9b a1 e1 bf
       -1.5479565 0.20768161 -1.5348816 -1.7627443
0000e0 f1 f2 42 bf 3a 11 aa be a7 e5 32 c0 4b 01 fc be
       -0.7615195 -0.33216268 -2.7952669 -0.49219736
0000f0 3b 9f f7 be f8 98 29 c0 e6 d5 6b bf 0d 2a 8f bf
       -0.4836367 -2.6499615 -0.9212326 -1.1184708
000100 30 4e 0c 3f 6a 27 74 bf 50 99 8c 3f 98 ec fc bd
       0.54806805 -0.9537264 1.0984287 -0.12349814
000110 47 24 28 bf 09 25 36 be 7c 01 5b bf 59 6f a1 be
       -0.65680355 -0.17787565 -0.8554914 -0.31530264
000120 bb 99 c2 bf c4 de 1a be a2 ed 8a bf 98 b4 db be
       -1.5203165 -0.15124041 -1.085377 -0.4291122
000130 9c 6e 02 bf 5c b9 10 bf f4 2e bf bc 48 16 54 bf
       -0.50950027 -0.56532836 -0.023337819 -0.828465
000140 9d 4f 36 c0 42 90 78 bf 61 04 23 3e 34 3f 33 c0
       -2.8486092 -0.9709512 0.15919639 -2.8007326
000150 b7 c3 6c bf 60 31 a1 bf e8 a0 5d 3e cd ca 33 bf
       -0.9248614 -1.2593193 0.21643412 -0.70231324
000160 9d 42 c1 bf df d0 9d bf 2f b0 1f c0 f9 43 2d bf
       -1.5098454 -1.2329367 -2.4951284 -0.67681843
000170 fb 07 2e 3e b5 2f a4 bf 5a 81 c2 be f3 12 9d bf
       0.16995232 -1.2827059 -0.37989312 -1.2271408
000180 b1 26 4f bf db 7e 06 3f 62 0b 3e bf a0 ea db be
       -0.80918413 0.52537316 -0.7423612 -0.42952442
000190 08 0b 80 bf 92 b8 bd bf 83 89 56 bf 43 bb 8f bf
       -1.0003366 -1.4821951 -0.83803576 -1.1229023
0001a0 2e 22 7c 3d e4 b7 22 bf 96 bc 4f bf c1 66 03 bf
       0.061556034 -0.63561845 -0.81147134 -0.51328665
0001b0 2a 3c aa bf 70 2b 58 bf 94 2c 45 bf 7d 26 ec be
       -1.3299611 -0.8444128 -0.77021146 -0.46123114
0001c0 83 df e4 be 35 29 4f bf 7d 78 6e be 8b ac 10 bf
       -0.44701776 -0.8092225 -0.2328815 -0.5651328
0001d0 c7 38 7a bf a8 10 49 bf 6a 2f 4c bf ca ca 58 bf
       -0.97742885 -0.7854104 -0.7975985 -0.8468443
0001e0 5c cd 68 bf 34 61 3b bf 4a f2 79 bf c1 d0 7c bf
       -0.90938354 -0.73195195 -0.9763533 -0.98756033
0001f0 c3 b5 54 bf 1e 69 25 bf ca 56 4f be e0 8b 8f bf
       -0.83089846 -0.6461352 -0.20247951 -1.1214561
000200 ff 7b 04 bf 92 4d 9f bf bd aa 84 be fb 08 6a bf
       -0.51751703 -1.2445548 -0.25911513 -0.91419953
000210 7e ab 3f bf 21 43 70 bf 9b 78 af bf 7d f4 e1 be
       -0.7487105 -0.9385243 -1.3708681 -0.44131842
000220 39 3d 7d bf ac 30 b1 3e 9f 5e cc bf 78 5f dc bf
       -0.98921543 0.34607446 -1.5966376 -1.7216635
000230 6a c2 9c bd 51 ac b4 bf 88 b6 2e bf 81 2f 22 bf
       -0.07654269 -1.4115087 -0.6824727 -0.63353735
000240 62 2b 2f bf 85 e8 61 bf eb a2 98 bf 3b 6a 53 bf
       -0.6842557 -0.8824542 -1.1924719 -0.8258397
000250 98 05 9e bf f9 9e 25 bf 85 30 67 bf 39 2f 22 bf
       -1.2345457 -0.646957 -0.9030841 -0.63353306
000260 4b e7 81 bf 29 24 f3 be f5 75 55 bf e5 5b 95 bf
       -1.014871 -0.47488526 -0.83383113 -1.1668669
000270 d6 c0 5f bf 1e cc 80 bf b1 2d cd bf 9d de 9a 3c
       -0.8740362 -1.0062292 -1.6029569 0.018904978
000280 26 fc 02 be ba 76 c2 bf c5 73 cd bd 80 21 88 bf
       -0.127915 -1.5192482 -0.10031847 -1.0635223
000290 f1 50 3d bf 34 ee e9 be 08 ec 8c bf f1 e6 44 bf
       -0.7395163 -0.45689547 -1.1009531 -0.7691489
0002a0 59 6f 58 bf 08 29 76 bf 41 64 4c bf 67 21 6a bf
       -0.84544903 -0.9615636 -0.79840475 -0.9145722
0002b0 28 67 9f bf 36 08 a0 be ec 5a 7f bf 0a bb 42 bf
       -1.2453356 -0.31256264 -0.9974811 -0.7606665
0002c0 81 92 e3 be e6 5a e0 bd a1 9e 09 bf 17 f3 5f bf
       -0.4444771 -0.109548375 -0.53757674 -0.874803
0002d0 b3 0a ab bf 9e bd 75 bf 81 fd 35 bf cf 64 b1 bf
       -1.336264 -0.9599246 -0.7108994 -1.3858889
0002e0 69 c3 11 bf cf 12 71 bf 27 24 a8 3d 0e 2d 4a bf
       -0.569388 -0.94169325 0.082100205 -0.78975
0002f0 02 38 c0 bf e1 35 bc be b2 8d 3f bf 57 6f 0f bf
       -1.5017092 -0.36759856 -0.74825585 -0.56029266
000300 78 65 25 bf e8 01 91 bf b9 37 82 bf 9b ba 12 bf
       -0.64607954 -1.1328707 -1.0173255 -0.5731599
000310 25 fe d8 be 35 66 01 bf e6 65 13 bf 4e 66 77 bf
       -0.42381397 -0.5054658 -0.5757736 -0.9664048
000320 8e 40 29 3e 29 7a 6e 3c 3d 7e 67 3d 56 7c 06 3d
       0.16528532 0.014555492 0.056516875 0.03283342
000330 8a 93 26 3e 4c 1c bc 3d 62 29 71 3c 87 ff 80 be
       0.16267219 0.09185085 0.014719339 -0.25194952
000340 bd 04 a2 3e 4c b6 36 bc 50 5a 28 3e 8a 6d ae bc
       0.3164424 -0.011151861 0.16440701 -0.021292467
000350 31 cb 9c bd 7f 11 45 be 5d 54 51 be ef 5d b0 be
       -0.07655943 -0.19244955 -0.20442338 -0.34446666
000360 29 0a 90 bd 80 42 b1 bd 0c 12 d1 3d bf c5 8c bd
       -0.07033188 -0.08655262 0.1020852 -0.068736546
000370 73 fa d0 bc b1 01 93 be 19 22 66 be 10 42 aa 3d
       -0.025510048 -0.28712228 -0.22473945 0.08313382
000380 b4 da ce 3d 18 af 9a 3d 04 2c 9b bd fa b7 25 3c
       0.10100308 0.07552928 -0.07576755 0.010114664
000390 e8 55 64 bd aa d6 00 3e 97 41 25 3e b0 a1 92 3d
       -0.05574599 0.12581888 0.16138302 0.07159746
0003a0 99 9f 51 bd e0 bf ec 3c 3e 59 92 3d a4 56 1f 3c
       -0.051177595 0.028900087 0.07145928 0.009725247
0003b0 1e 46 55 be 2c 31 85 3e 51 f2 3d 3d 8b c2 85 3c
       -0.20827529 0.26014078 0.04637367 0.016328117
0003c0 b1 32 46 be fd 56 5e bb c8 46 33 be 33 78 5e bc
       -0.19355275 -0.003392636 -0.1750747 -0.013578462
0003d0 d7 ad 31 be 8c f7 ba bd d0 d9 4d 3d b6 22 10 3e
       -0.17351471 -0.09129247 0.05025655 0.14075741
0003e0 9e eb e8 3c 7a 3f f4 bd 0a 11 25 39 d5 1a 12 3e
       0.028432664 -0.1192617 0.00015741974 0.14268048
0003f0 fd e1 12 bc c4 69 be 3b fc 73 a1 3d 05 24 77 3d
       -0.008965013 0.005810948 0.078834504 0.060337085

lstm.bias_hh_l0 f4 [400]
000000 eb e2 8e be b6 cd 12 c0 59 07 ad bf 42 6f 23 c0
       -0.279075 -2.2938056 -1.3517867 -2.5536656
000010 b0 7b e1 be 2d ac 95 3f 58 55 bf bf 2a c2 36 bf
       -0.4403968 1.1693169 -1.494792 -0.7139002
000020 e2 d4 89 bf 26 59 3a bf fd 5e f1 be 18 df 81 bf
       -1.0768092 -0.7279228 -0.47142783 -1.0146208
000030 fd 75 43 bf 15 ff 92 bf 5b b5 4a be cf ed 37 bf
       -0.7635191 -1.1484095 -0.19795744 -0.7184724
000040 02 7d 48 bf 35 09 6e be b9 94 dd be b4 a9 c2 be
       -0.78315747 -0.232457 -0.4327753 -0.38020098
000050 41 30 58 bf 46 b1 8f be 08 0a 3a bf 29 f2 0e bf
       -0.8444863 -0.28064936 -0.72671556 -0.5583826
000060 fd 81 b1 bf 6c 80 9b bf 13 7e bd bd 1b af 16 c0
       -1.3867794 -1.2148566 -0.092525624 -2.3544376
000070 59 35 f5 bf 96 74 00 c0 7b d7 2c bf e9 be c3 be
       -1.9156905 -2.0071158 -0.675163 -0.3823159
000080 c2 11 05 be 86 2b 10 bf 5f 67 27 c0 09 d6 92 bf
       -0.12995055 -0.5631641 -2.6156843 -1.1471568
000090 79 8c b7 be 65 23 f1 be 9a 25 28 c0 78 8b 14 c0
       -0.3584936 -0.47097316 -2.627295 -2.3210125
0000a0 8d 87 4a 3e 90 49 27 c0 ee 80 b6 be f9 cf 60 bd
       0.19778271 -2.613865 -0.3564524 -0.05488584
0000b0 a7 91 c7 be 6d 31 ac bf 4f 3e c4 bf 6b 28 10 bf
       -0.3897831 -1.3452584 -1.5331515 -0.5631167
0000c0 1c c9 c5 bf be cf 21 bf bf ce 19 bf ea df 98 bf
       -1.5451999 -0.63207614 -0.60081095 -1.1943333
0000d0 22 46 cf bf a0 e0 6e 3e af 30 c9 bf 43 92 d6 bf
       -1.6193278 0.23327875 -1.5717982 -1.6763386
0000e0 d2 df 37 bf 4f bd dd be a2 49 2d c0 e3 80 14 bf
       -0.718259 -0.43308493 -2.7076192 -0.58009166
0000f0 cc ff 02 bf 8a 7c 35 c0 6c 69 4c bf 01 71 86 bf
       -0.51171565 -2.8357263 -0.7984836 -1.0503236
000100 3f b6 d7 3e a9 63 4e bf 4c 78 99 3f 71 52 0a bd
       0.4213123 -0.8062082 1.1989837 -0.03377003
000110 14 5f 3e bf ea 70 19 be bf 56 4b bf 63 fa 9b be
       -0.7436383 -0.1498448 -0.7942924 -0.30464467
000120 f9 5b c3 bf ce 9f 0c be 73 79 90 bf 38 89 9e be
       -1.5262443 -0.13732836 -1.1287063 -0.30964065
000130 89 ab 0d bf 10 3a 01 bf 98 6e a4 bc aa 6a 44 bf
       -0.55339867 -0.5047922 -0.020072266 -0.76725256
000140 14 05 2a c0 ca 78 67 bf 07 13 9b 3d 6d 88 30 c0
       -2.65656 -0.90418684 0.075719886 -2.7583268
000150 84 69 76 bf aa b3 99 bf bd 96 81 3e f5 6d 52 bf
       -0.96254754 -1.2007954 0.25310317 -0.8219903
000160 2e 8b b0 bf 44 65 9a bf 3c 7f 28 c0 42 88 21 bf
       -1.3792474 -1.2062154 -2.6327658 -0.6309854
000170 98 b6 1b 3e 43 07 96 bf f8 58 da be 3d d5 96 bf
       0.15206373 -1.1720966 -0.42646003 -1.1783825
000180 95 2d 74 bf f9 e8 14 3f 8a 21 4f bf 28 83 d5 be
       -0.9538205 0.5816799 -0.8091055 -0.41701627
000190 18 b4 77 bf e8 fb c1 bf c3 ea 81 bf 54 4b 98 bf
       -0.96759176 -1.5155001 -1.0149769 -1.1897988
0001a0 71 e0 f0 3d 3b 05 08 bf 5b a4 2e bf d6 fe ef be
       0.11761559 -0.5313298 -0.68219537 -0.46874112
0001b0 bd ab ae bf dc 75 3e bf bb 75 63 bf a0 25 df be
       -1.364616 -0.7439859 -0.8885152 -0.43583393
0001c0 a2 43 ba be dc 37 6f bf d8 fd 63 be 06 a6 1c bf
       -0.36379725 -0.9344461 -0.22264802 -0.6119083
0001d0 dd e2 83 bf 19 c4 77 bf d6 38 45 bf 9a 6b 60 bf
       -1.0303608 -0.96783596 -0.7703985 -0.87664187
0001e0 41 50 52 bf 30 a1 30 bf 74 b8 87 bf 24 10 8d bf
       -0.8215371 -0.6899595 -1.0603166 -1.1020551
0001f0 ac b8 52 bf c6 60 39 bf 76 52 56 be 56 ad 87 bf
       -0.82313037 -0.7241329 -0.20929894 -1.0599773
000200 b3 fa 07 bf 76 c6 a6 bf 90 44 55 be 6d bd 5b bf
       -0.5311691 -1.3029315 -0.20826936 -0.85835916
000210 2b fa 32 bf 4f c8 6f bf b8 22 bc bf c2 39 db be
       -0.69912976 -0.9366502 -1.4698095 -0.42817503
000220 dd f5 5e bf f3 78 d1 3e a4 14 c4 bf bd 52 d2 bf
       -0.8709391 0.4091259 -1.5318799 -1.64315
000230 89 78 95 bd 2f 70 c2 bf b0 ec 30 bf ca 1b 34 bf
       -0.07298381 -1.5190486 -0.69111156 -0.703549
000240 ae 54 33 bf 71 1d 76 bf 43 b2 8a bf 8a 49 55 bf
       -0.70051086 -0.96138674 -1.0835651 -0.83315337
000250 77 bd a0 bf 62 fd 24 bf 80 ad 51 bf 08 25 3a bf
       -1.255782 -0.6444913 -0.81905365 -0.72712755
000260 2d 41 90 bf 6f 65 05 bf 66 dd 2e bf 63 74 8f bf
       -1.126989 -0.521079 -0.6830658 -1.1207393
000270 c3 0c 78 bf 4b 5e 63 bf dd b7 cb bf e6 87 63 bd
       -0.9689447 -0.88815755 -1.5915486 -0.055549525
000280 2a 9f a8 bd 80 53 bb bf a1 03 61 be f6 68 88 bf
       -0.08233483 -1.4634857 -0.2197404 -1.0657032
000290 9d 70 2c bf bb ce dc be 00 44 8d bf 72 05 4e bf
       -0.67359334 -0.43126473 -1.1036377 -0.8047706
0002a0 2c d0 64 bf 1a 43 72 bf 0a 03 3f bf 7b 75 54 bf
       -0.89380145 -0.9463364 -0.7461401 -0.8299176
0002b0 fb 9c 9e bf a9 4a 5e be 76 df 87 bf 6b 25 33 bf
       -1.2391657 -0.21708168 -1.061507 -0.6997897
0002c0 d9 d4 ba be 59 5f 0a be 92 4e 33 bf f3 bd 4b bf
       -0.36490515 -0.13512935 -0.70041764 -0.79586715
0002d0 a3 e4 b9 bf 68 f2 84 bf 27 16 4c bf 17 04 ac bf
       -1.4522899 -1.0386477 -0.797213 -1.3438748
0002e0 50 46 22 bf 8c 43 89 bf 78 ae 9c 3d 42 cc 4f bf
       -0.6338854 -1.0723739 0.07650465 -0.8117105
0002f0 c7 3c c7 bf 06 61 b5 be 8b c5 19 bf 1b 39 16 bf
       -1.5565423 -0.35425586 -0.6006705 -0.58680886
000300 89 90 22 bf c1 6e 9c bf 57 71 98 bf 63 10 15 bf
       -0.63501793 -1.22213 -1.1909589 -0.5822813
000310 27 cf b6 be 0f 93 e7 be dd b6 12 bf 90 f6 81 bf
       -0.3570492 -0.45229384 -0.5731028 -1.015337
000320 5c 09 ab 3d 0b 4f af 3c 6c ae fc bc f1 53 49 3e
       0.083513945 0.021399995 -0.03084489 0.19660927
000330 4a d2 df 3d 11 b5 f9 bc cb ce 6b bd 52 0d c3 be
       0.10928781 -0.030481847 -0.05757026 -0.380961
000340 37 cd 59 3e 48 83 77 3d e8 8e a2 3e 22 22 8b 3d
       0.2126969 0.060427934 0.31749654 0.0679362
000350 ab 50 4e be b4 63 35 be 9f f8 3c bd 4f 78 8c be
       -0.2014796 -0.17713815 -0.04613554 -0.27435538
000360 b0 ad ea bb c1 38 2c bc a1 cd ca 3d 44 fd 50 ba
       -0.0071618184 -0.010511578 0.09902502 -0.000797231
000370 a3 3f fe bd 68 56 98 be 50 0c 80 be c3 4a f0 3b
       -0.124144815 -0.29753423 -0.25009394 0.007333131
000380 75 29 9e 3c dc 28 c9 3d 16 af f5 bd c9 ac 59 3c
       0.019306878 0.098222464 -0.119962856 0.013285824
000390 99 16 97 3c bd 9e 77 3e 53 9e 61 3d 11 25 1d 3e
       0.018443393 0.24181648 0.05508263 0.15346171
0003a0 00 94 d5 bd b4 2b 3b 3d 82 c2 1b 3e 8b 2d 03 be
       -0.104286194 0.045695975 0.15210918 -0.12810342
0003b0 e0 c4 05 be 50 c6 95 3e 1b 30 28 3d a8 da 47 3c
       -0.13063383 0.29252863 0.041061502 0.012198128
0003c0 27 84 bc be 5a 2a a8 3d eb 2e a3 bc 0b ea 87 bd
       -0.36819574 0.08211203 -0.019919833 -0.06636437
0003d0 7a 61 70 be 03 e0 7a bd 10 21 31 3d 45 99 97 3e
       -0.23474684 -0.06124879 0.04324442 0.29609123
0003e0 b1 b4 fd 3d fa 1b 19 be 53 47 c5 bc 1b 05 07 3d
       0.1238798 -0.14952078 -0.024081862 0.032963853
0003f0 63 ec 97 bd 64 8e b2 3d c3 21 84 bd 7c e4 1c bd
       -0.07418134 0.08718565 -0.06451752 -0.038303837

linear.weight f4 [1, 100]
000000 22 4a 9d be 21 28 c5 bc f1 ce 14 bc 02 fc cc bc
       -0.3072062 -0.024066987 -0.009082542 -0.02502251
000010 a0 c7 12 3d e0 9a e4 3e ed 58 e4 3b 75 fc 33 3e
       0.03583491 0.4464941 0.0069686086 0.17576773
000020 60 20 5b bd 53 af 5c 3d 35 52 94 3c 96 f0 05 3e
       -0.053497672 0.05387814 0.018105606 0.13080058
000030 0b 88 d1 bd 22 e8 9f bc 06 08 b5 3d 69 2b 96 bd
       -0.10231026 -0.01951987 0.08839421 -0.073324986
000040 98 61 c0 be 20 d2 0f bd b6 c7 9e 3e 01 43 c9 bd
       -0.37574458 -0.0351125 0.31011742 -0.09827233
000050 15 d0 72 be 9a 76 27 bd f0 41 d2 3e 69 bd 96 3e
       -0.2371219 -0.04088459 0.4106593 0.29441383
000060 dd ab 0e bc da 2e 77 3c b5 2f 94 bd c3 23 38 3d
       -0.008707968 0.015086854 -0.07235662 0.04495598
000070 e3 82 d5 bc c5 1a ae 3d 47 1d 10 3c c8 ba 54 3e
       -0.026063388 0.085012 0.008796043 0.20774376
000080 f6 7f 8c 3b 43 dd f5 3d f9 8e f0 bb 4e fd 9b 3b
       0.004287715 0.12005093 -0.0073412624 0.004760421
000090 1e 04 9b bd b8 65 8f be b1 4f ca 3c 49 55 dc bb
       -0.07569145 -0.28007293 0.024696203 -0.006724034
0000a0 0c c7 a8 3e d8 51 20 3c ed ed 4a 3d 2b f5 7e be
       0.3296436 0.009785138 0.04954331 -0.24898212
0000b0 f0 ca 1c bd 5e 95 ab 3d 64 9f 69 3c 36 44 e6 3b
       -0.038279474 0.08378099 0.014259193 0.0070271743
0000c0 0d c8 1d 3e 13 ec 26 be 16 41 00 3d 2e d3 8a 3c
       0.15408345 -0.16300993 0.03131207 0.016946401
0000d0 48 a9 d4 3c a4 67 c6 be aa 18 e5 3c 81 76 6a bd
       0.025959626 -0.38750947 0.027965862 -0.05724192
0000e0 0b 76 17 bc 13 e5 ce 3d 64 4c b4 3c 79 f4 e2 3c
       -0.009244452 0.10102286 0.022009082 0.027704464
0000f0 0d 2f 92 bc ce ba 67 bb 20 57 6b be a0 a5 7c bd
       -0.017844701 -0.0035359147 -0.22982454 -0.06168139
000100 55 9e 97 be 1c 1e 8a 3d ef cc 4f be 14 42 02 be
       -0.29612985 0.06744024 -0.2029302 -0.1272052
000110 9f 58 34 bc 99 41 8b 3d 0c b4 98 39 22 3e 0d be
       -0.011007457 0.06799621 0.00029125845 -0.13793233
000120 46 46 09 3f 8b ec 44 be 4e 44 3d be 24 b0 24 3d
       0.53622854 -0.19230859 -0.18483087 0.040207043
000130 7c c8 b8 bb f6 70 8d bd 9d 71 f8 3c 60 15 29 3b
       -0.005639134 -0.06906311 0.030327613 0.0025800094
000140 ef 6d 3f bc ca c0 02 3e 96 1c 92 3d e8 be 07 3c
       -0.011683925 0.12768856 0.071343586 0.008285262
000150 a0 c4 13 3d e7 3a 89 3d 24 86 99 bc 90 f5 22 3d
       0.036076188 0.06700688 -0.018740721 0.039784968
000160 2a d1 8c bc 8b 35 05 3d d3 d7 20 bc 58 81 87 be
       -0.017189581 0.032521766 -0.0098170815 -0.2646587
000170 d0 c8 03 3d 1c 78 7f 3e 8c 9b 67 bd fc b9 1d 3d
       0.03217393 0.24948162 -0.056544825 0.038507447
000180 f6 e8 18 bf fa 85 b9 be 6b cd f5 bb 09 31 fe 3d
       -0.5973047 -0.36235029 -0.0075012944 0.124116965
