BodelLigging/Huissen, Looveer_bodemligging_V1.pt (torch, 661983 bytes, 5 tensors)

lstm.weight_ih_l0 f4 [400, 1]
000000 69 c5 d4 3f 9e 48 b3 bf 10 6f 7d 3f eb 4b a5 3f
       1.6622745 -1.4006536 0.9899759 1.2913793
000010 0b 30 53 bf 5e bb 1d bf a5 14 44 c0 08 1b cd 3f
       -0.8249518 -0.61614025 -3.06376 1.6023874
000020 e1 bc 0c 3e 75 30 89 3f b4 c9 e7 be 64 5c 86 be
       0.13743927 1.0717913 -0.45271075 -0.26242363
000030 c1 0e 82 bf 84 18 90 bf 30 98 28 3f 33 63 86 3f
       -1.0160753 -1.1257482 0.6585722 1.0499023
000040 6f b8 c4 be cb da 63 be 44 8b 06 40 44 82 1a 40
       -0.38421962 -0.22251432 2.10225 2.4142008
000050 27 cd 4f c0 38 5a 93 3f ba 30 12 bf 62 00 4c 3f
       -3.2468965 1.1511908 -0.571056 0.79688084
000060 44 5c cf bc 59 81 19 bf 65 8a d6 3e d2 0b dd be
       -0.02531255 -0.59962994 0.41902462 -0.4317308
000070 80 45 1e c0 7b 3f bf 3f 1d 4a 2f bf 98 d6 2a 3f
       -2.472992 1.4941248 -0.6847246 0.66733694
000080 b7 38 29 3f 62 a4 4d bf a1 ff 92 bf eb 63 e3 bf
       0.66102165 -0.80328953 -1.1484262 -1.7764868
000090 25 0e ca bf 0c 63 af bf 26 a2 0c 40 eb 13 c0 3f
       -1.5785567 -1.3702102 2.1973968 1.5006078
0000a0 4f 15 9b 3d e7 18 0d c0 12 76 9f bf 61 bb 99 3c
       0.07572424 -2.204645 -1.2457907 0.018766107
0000b0 8c 0d 71 3f e5 17 e6 bf 60 33 b1 bf 18 98 aa bf
       0.94161296 -1.7976042 -1.3843803 -1.3327665
0000c0 bb 90 df be df 63 71 3f 32 1b c0 3f 22 ef d3 3d
       -0.43665108 0.94293016 1.5008299 0.10348345
0000d0 dd 74 a7 3f 1e fb 28 3e 30 79 17 c0 09 4a 13 be
       1.3082539 0.16502044 -2.3667717 -0.14383711
0000e0 32 0d 0f 40 15 f6 01 bf 14 6f 8b bf 8b 63 47 3f
       2.2351804 -0.50766116 -1.0893273 0.77886266
0000f0 15 c0 a1 3f ee 28 e6 3f f4 7b 45 3f 9e 7c 02 40
       1.2636744 1.7981241 0.7714226 2.038856
000100 79 c4 f1 bf e2 79 2a be ff a0 be bf b7 69 42 bb
       -1.8888084 -0.16648057 -1.4892882 -0.0029665062
000110 c6 c6 94 3f 83 f7 02 40 c7 9b 7c 3f 41 98 fa 3f
       1.1623161 2.046357 0.986752 1.9577714
000120 1d e3 e6 bf b7 57 e5 be e5 31 e0 bf 0a eb 6b bf
       -1.803806 -0.44793484 -1.7515227 -0.92155516
000130 b6 4d fc be f9 a1 7b 3f 49 1f f8 bf 88 16 ac bf
       -0.4927804 0.98294026 -1.9384547 -1.3444376
000140 d5 2e f1 bf 78 bc 65 bf f3 b9 af 3f 65 cf 8b bf
       -1.8842417 -0.89740705 1.3728622 -1.0922667
000150 51 b2 36 40 0d 70 e8 bf ba c6 8e bf 22 bb 8a 3f
       2.8546336 -1.8159195 -1.1154397 1.0838358
000160 69 d0 b7 bf 2d 93 16 bf e2 53 fc 3f 7f 6d 99 3f
       -1.4360477 -0.5881832 1.9713099 1.198654
000170 b2 19 c2 be 0a a6 cb 3e fd 5c d3 be 5b b3 63 bf
       -0.3791023 0.39775115 -0.41281882 -0.8894555
000180 bd 46 41 3f cd ff ba be 7a 8d 60 bf fa fb 05 bf
       0.75498563 -0.36523286 -0.87715876 -0.5233761
000190 5c 95 31 bf f6 99 c6 bf ba 02 11 bf c0 00 d7 3f
       -0.6936853 -1.5515735 -0.56644785 1.6797104
0001a0 95 d6 56 bf da 8d d6 be dc 37 52 bf 1e 8f ce 3e
       -0.83921176 -0.419051 -0.82116485 0.40343565
0001b0 ad d9 af be e3 fe 6a bf a2 33 0f c0 f0 21 e8 3e
       -0.3434576 -0.91795176 -2.2375264 0.45338392
0001c0 2d b0 1b bf 8f c3 5e bd 3a ab 19 bf 58 68 33 bf
       -0.608157 -0.054385718 -0.60026896 -0.7008109
0001d0 23 f5 f5 be bd 86 c4 3b 8d 90 86 bf 1a 49 f3 bf
       -0.48038587 0.0059975074 -1.0512863 -1.9006684
0001e0 5f 99 a6 bf 5b 50 4e 3f 2f 26 9b bf ef 54 bd 3f
       -1.3015555 0.8059136 -1.2121028 1.4791545
0001f0 dd 3e aa be 64 87 f9 3e 86 c6 8d 3e 55 55 d8 bd
       -0.33251086 0.48736107 0.27690524 -0.10563151
000200 ab e4 cf be 46 d8 8a 3e 71 80 58 3e 40 6f a4 bf
       -0.40604147 0.2711813 0.21142747 -1.2846451
000210 1d 8d 81 bf 10 39 f0 bf 09 f6 99 be 11 94 65 bf
       -1.0121189 -1.8767414 -0.30070522 -0.89679056
000220 c7 3d 19 3f 2a 25 43 be ea ef d3 bf 58 9f 39 3c
       0.5985989 -0.19057146 -1.6557591 0.011329494
000230 1c a6 17 bf 1e a1 87 bf 74 13 02 bf 99 ff d5 3d
       -0.5923784 -1.0596044 -0.50810933 0.10449142
000240 c2 6c 2a be e6 78 41 3e b2 de 65 bf 79 ad 35 be
       -0.1664305 0.18893775 -0.8979293 -0.17741956
000250 ea d3 c2 be a0 7b 26 bf 3d aa d0 be e4 1f 87 3f
       -0.38052303 -0.65032387 -0.40754882 1.0556607
000260 b1 63 4f bf 09 e7 80 bf fd 93 92 bf 6a d8 99 be
       -0.8101149 -1.0070506 -1.1451412 -0.30047923
000270 75 c7 45 bf 01 e9 a6 3e 45 06 fe be d6 7e 85 bf
       -0.7725747 0.32599643 -0.49614158 -1.0429332
000280 0e 8a 28 3c 0c 0e 62 3f b7 8a b8 3e 19 7e 90 3e
       0.010286821 0.88302684 0.3604333 0.28221205
000290 4c d6 84 bf 24 e0 22 3f f1 a0 54 bf 58 c0 39 be
       -1.0377898 0.6362326 -0.8305808 -0.1813978
0002a0 89 44 e6 3e ce b3 d6 3e 01 91 28 be f5 20 c4 3f
       0.44974163 0.41934055 -0.16461565 1.5322558
0002b0 23 26 7a bf ca 61 1e be 30 cf ff be 62 4d 11 bf
       -0.9771444 -0.15466991 -0.4996276 -0.567587
0002c0 89 5b e0 be 93 a6 c4 3e 5a 8d 72 bf 6a ec bc bf
       -0.43819836 0.38408336 -0.94746935 -1.4759648
0002d0 e6 36 33 3e c9 e6 60 bf e5 85 72 3f af 1a dc bf
       0.17501411 -0.8785215 0.94735557 -1.7195643
0002e0 b5 bb 9a be 10 3f 7c bf 5c 81 d5 bf 24 4b 07 3e
       -0.30221334 -0.98533726 -1.6680102 0.13212258
0002f0 ba ef 95 bf 3e b8 9d 3f 5b e6 bf bd 33 c7 61 3f
       -1.1713784 1.2321851 -0.09370109 0.8819458
000300 05 0b 12 be 1f 1e cb be c0 d2 b7 bd 7f 6e 0d bf
       -0.14262016 -0.39671418 -0.08975744 -0.5524673
000310 a4 5f 50 3e 97 03 5e bf 55 6d b0 bd 6b 62 37 bf
       0.20348984 -0.8672423 -0.086146034 -0.7163455
000320 a0 49 c7 bf 40 46 aa bf f8 b3 94 bf 08 11 03 c0
       -1.5569344 -1.3302689 -1.1617422 -2.0479145
000330 55 b3 5a 3f b4 b1 62 3f 99 4f b2 3f 3c da 3d 3f
       0.8542989 0.88552403 1.3930541 0.74161124
000340 75 3c 86 be 22 f3 03 c0 34 43 81 3f 86 00 d5 bf
       -0.26218 -2.0617146 1.0098634 -1.6640785
000350 eb 94 a1 bf fd a1 8c 3f a9 e2 20 3f 1e 49 f9 3f
       -1.2623571 1.0986935 0.62845856 1.9475439
000360 ac b3 4a bf a1 cb 30 be 4c cd a1 be 0e ad 9f 3f
       -0.7918041 -0.17265178 -0.31601942 1.2474687
000370 f8 c0 ce 3d b8 af f4 bf af b1 57 bf df 0c b4 3f
       0.100953996 -1.9116125 -0.842555 1.4066428
000380 60 20 2c 3f ce 63 02 bd 0a 00 d9 be 62 66 37 3e
       0.672369 -0.031833462 -0.42382842 0.1791015
000390 69 b1 d3 3e b4 d9 20 c0 f6 17 e5 be ac 57 80 3e
       0.4134629 -2.5132875 -0.44744843 0.25066888
0003a0 e6 49 10 c0 21 a8 b3 bf 76 cb 9e 3f d0 9d a6 bf
       -2.2545104 -1.4035684 1.2405841 -1.301691
0003b0 6b 14 08 40 7c 70 81 3f 01 0a 07 40 52 cf 4f 3e
       2.1262462 1.0112453 2.1099856 0.2029393
0003c0 90 af dd bf a2 0a fe bf b3 e8 cc bf c0 25 2d 3c
       -1.7319202 -1.9846995 -1.6008514 0.010568082
0003d0 6b ee d3 be d2 4b db bd 5f 4d 44 bf df 2c 75 bf
       -0.41392836 -0.10707821 -0.7668056 -0.9577159
0003e0 0b 08 15 bf b8 09 6e 3f fd c7 05 40 58 03 44 c0
       -0.582154 0.9298358 2.0903313 -3.062704
0003f0 ef 43 16 40 e9 a3 e3 bf 09 f0 a9 3e d8 28 51 bf
       2.3478963 -1.7784396 0.33190945 -0.8170295

lstm.weight_hh_l0 f4 [400, 100]
000000 b4 3c 13 3e 03 7a 55 bd cb 50 40 3f 30 42 85 3d
       0.14378625 -0.052118313 0.7512328 0.06506765
000010 98 e8 e8 bd db 67 a1 be 7f d5 b3 bf 8e cb cf be
       -0.11372489 -0.31524548 -1.4049529 -0.40584987
000020 76 47 2e bf 6a f2 18 40 ec 53 08 bf a8 b8 2b be
       -0.6807779 2.3897958 -0.53253055 -0.1676966
000030 a8 2a 21 bf b6 b1 9f bf b3 07 03 bf 6d 0a fa be
       -0.62955713 -1.2476108 -0.51183623 -0.4883608
000040 d8 01 de 3d 27 0f 6b bf 7c 97 81 3f a8 1c ac bf
       0.108401954 -0.91819996 1.0124354 -1.3446245
000050 00 e7 5c bf 71 11 da be 23 dd ad 3e 52 58 5b 3e
       -0.8628998 -0.42591432 0.33957776 0.2142041
000060 bf e1 86 bf d6 c9 42 3f 29 6a fa 3f 40 2f 9f 3d
       -1.0537642 0.7608923 1.9563648 0.07772684
000070 fc 76 82 3f 00 dd 2e 3f 4f aa 42 bf af 27 58 bf
       1.0192561 0.6830597 -0.7604112 -0.8443555
000080 3d c8 39 3b 01 3d 9a 3e b1 e4 1c be 4c da 35 bf
       0.002834811 0.30124667 -0.15321614 -0.7103622
000090 cc 8c 2e bf 99 47 3b 3e 18 40 2a c0 6c 35 41 3f
       -0.6818359 0.18289031 -2.660162 0.7547214
0000a0 e8 0b 71 be 2a da e1 3e ce 68 ea 3d 6c ea d4 bf
       -0.23539698 0.44111758 0.11445771 -1.663404
0000b0 63 a6 02 bf ba 15 03 bf 0d 18 31 bf a8 f4 e8 be
       -0.51035136 -0.5120503 -0.69177324 -0.45499158
0000c0 78 94 2e bf 32 13 c0 bf 9d 35 bc bf fb 34 76 be
       -0.68195295 -1.5005858 -1.4703861 -0.24043648
0000d0 7c 02 06 c0 55 3b 1b 3f c3 52 8f be dc 5a 13 bf
       -2.0939016 0.6063741 -0.2799283 -0.57560515
0000e0 4a cf 07 c0 7e d6 01 bd ca c4 fc be c9 b3 35 bf
       -2.122027 -0.031698696 -0.49368888 -0.70977455
0000f0 22 5a 84 bf 0d 22 aa 3f 08 44 67 3f 0d a0 b7 3f
       -1.0340006 1.3291641 0.9033818 1.4345719
000100 dc 04 2b bf 26 35 b9 be 95 1a e1 3d 18 f0 ea be
       -0.6680429 -0.36173362 0.10991398 -0.45886302
000110 82 f4 b3 3f 40 69 57 bf c7 5a d6 be 12 61 e9 bf
       1.4058993 -0.84144974 -0.41866133 -1.8232749
000120 bf 32 3d 3e 51 81 eb 3e 2b 72 02 be 48 ba 74 be
       0.1847639 0.45997098 -0.12738864 -0.23899186
000130 e2 e8 ff be 10 e1 44 3e a3 39 4d bc f4 b9 4e 3e
       -0.49982363 0.1922648 -0.012525949 0.20188123
000140 fe 6f b3 be 6b 08 a5 bf 6b 4d e4 3e 84 f6 49 bf
       -0.3504638 -1.2893194 0.44590315 -0.7889178
000150 df b4 9e 3f 67 76 b6 bf 07 9e 42 3e 09 23 bb be
       1.2398947 -1.4254884 0.19005595 -0.36550167
000160 cd 37 2f 3f 39 a5 9b bf ff 91 fa be 01 8e f0 3e
       0.6844452 -1.2159797 -0.4893951 0.4698334
000170 48 5e 92 be e9 3c 03 3f ca 8d b4 3e 8a d1 71 bf
       -0.28587556 0.51264817 0.35264426 -0.94460356
000180 2b 3d e8 3e d2 85 13 3e 68 b9 4b 3f bc 2e e9 3e
       0.45359167 0.14406517 0.7957978 0.45543468
000190 f7 f0 52 3f 7a 46 23 3f 20 64 0f 3f ee c8 d7 3d
       0.82398933 0.63779414 0.56012154 0.10536371
0001a0 8c dc ae be 7a e8 51 bf 8e e3 53 be 01 d2 35 bf
       -0.3415264 -0.81995356 -0.20692274 -0.71023566
0001b0 1c e1 26 be 8f 53 a4 3e 05 52 d7 3e 70 5a 9d be
       -0.1629681 0.32095 0.42054763 -0.3073306
0001c0 99 af ef 3e 52 31 39 bf c4 6a 89 be 9a 4c 0b be
       0.46813658 -0.7234088 -0.26839268 -0.1360344
0001d0 d2 7b a8 bf 93 00 46 be 67 41 9b 3d a0 56 11 bf
       -1.3162787 -0.19336157 0.07580834 -0.56772804
0001e0 23 19 82 be 78 43 12 3f c0 aa 57 be f9 42 60 be
       -0.25409803 0.571342 -0.2106123 -0.21900548
0001f0 e7 1f 8b bf 8b b0 30 bf 83 1b e6 be dd 68 9c be
       -1.0869111 -0.69019383 -0.44942865 -0.30548754
000200 63 11 56 3e 78 67 06 bc bf 79 f0 bd 13 01 27 bf
       0.2090507 -0.00820338 -0.11741971 -0.65236014
000210 25 83 66 bc 21 56 cb be 60 7f 56 bf f9 b2 ce 3e
       -0.014069353 -0.3971415 -0.8378811 0.4037092
000220 6e 50 2a bf 99 8d 15 bf 8f 69 cd be c1 df 8f bc
       -0.66528976 -0.58419186 -0.40119597 -0.017562749
000230 1b 9d 2e bc a0 7e fc be 7a 3a 5c 3e 0d 8b 0a bf
       -0.010657574 -0.49315357 0.21506682 -0.54118425
000240 a1 80 6f be 48 5e fd be e4 19 04 3f 27 4e 95 3d
       -0.23388912 -0.49485993 0.51602006 0.07290297
000250 0c 3a bf be 22 37 05 bf 68 c0 b4 bf 7b 72 00 3f
       -0.37348974 -0.5203725 -1.4121218 0.50174683
000260 c5 0e c3 be ce 31 60 be 44 13 2e 3d d0 cd e0 bd
       -0.38097206 -0.21893999 0.042498842 -0.109767556
000270 d5 ce d5 be 2e c9 15 3f 8f 5b 53 be 40 76 2a bf
       -0.41759363 0.585101 -0.20640396 -0.66586685
000280 ff d7 68 bf 36 21 12 bf 3b 48 1c 3f a4 66 2d be
       -0.90954584 -0.57081926 0.61047715 -0.16933686
000290 d2 b6 ea 3e d0 20 a5 be 19 32 8d bf 57 39 66 bf
       0.45842606 -0.32251596 -1.1030914 -0.89931244
0002a0 5d 19 12 3f 1d 80 eb bd ee bc 9a bd b5 f6 be bf
       0.5706995 -0.11499045 -0.07555567 -1.4919039
0002b0 7b 7a a1 be b7 8a a8 be 70 80 8c 3e ae 6c 4c bf
       -0.31538758 -0.3291833 0.2744174 -0.7985333
0002c0 64 7e 18 3f b3 0f d3 be 9c b6 40 bf 56 a9 8d be
       0.59567857 -0.41222915 -0.7527864 -0.27668256
0002d0 dd f2 8b 3e 15 c3 5a bf a7 b9 72 3e 13 ff 29 3f
       0.27333727 -0.8545392 0.23703633 0.6640484
0002e0 4c 84 70 be ee a7 cd be a9 9b 69 bf f1 38 2d bf
       -0.23487967 -0.40167183 -0.91253144 -0.6766501
0002f0 95 9d f6 bc 5c cf f0 be f3 ab 54 3e ca 08 87 3f
       -0.030104438 -0.47033203 0.20768718 1.0549557
000300 5d 03 82 bd b7 65 d8 be 5a ce 8d 3e bf 8b dd be
       -0.06348298 -0.42265102 0.27696496 -0.4327068
000310 f4 90 01 bf f0 37 0f bf 08 83 72 3e c3 6f 68 be
       -0.50611806 -0.5594473 0.23682797 -0.22698884
000320 aa eb cf 3f 94 18 a1 bc 7c 34 2b 3f 82 0f ad 3e
       1.6243794 -0.01966504 0.6687696 0.33800894
000330 b8 f0 6d bf 73 62 17 bf eb 1e 7e 3d 79 d6 a4 be
       -0.9294543 -0.59134597 0.062041204 -0.3219488
000340 d7 20 fa bd 1d 37 71 3f fa d9 88 3f 44 f5 ca 3e
       -0.12213295 0.9422472 1.0691521 0.39640248
000350 d6 0d e3 3e 1a 7a 46 bf 43 c4 66 be 3b 66 bc 3e
       0.44346493 -0.7753006 -0.22535805 0.36796746
000360 60 86 8b bf cb 67 8a 3d ce 39 d1 3e 32 19 c9 bf
       -1.0900383 0.06758078 0.40864414 -1.5710814
000370 2e 6e 86 be 88 80 1b 3f e8 fe 4b bf 1b 84 f6 bf
       -0.26255935 0.60743 -0.7968583 -1.9259065
000380 3a 35 32 be 02 85 e5 bf db c7 72 be 19 7e 02 bd
       -0.17403117 -1.7931216 -0.23709051 -0.031858537
000390 61 25 4b 3f cd d0 0e 3f e7 a2 04 3f c0 08 11 bf
       0.7935391 0.55787355 0.5181107 -0.56653976
0003a0 fe 8c 25 3f a0 4e 91 bf fc 91 04 bf b4 be 89 3e
       0.6466826 -1.135212 -0.51785254 0.26903307
0003b0 83 00 06 bf b0 c9 4a bf b3 6f 52 bf 1f 4b 3c be
       -0.5234453 -0.79214 -0.8220169 -0.18388031
0003c0 e7 3f 07 3f c0 c5 c3 bf 73 82 ac be 0c f2 86 be
       0.5283188 -1.5294724 -0.33693275 -0.26356542
0003d0 ff 87 e8 bd c7 be 1c bf d0 ac 99 bd 21 2a 1b be
       -0.11354064 -0.61228603 -0.075036645 -0.1515279
0003e0 98 cb 15 bf 85 8f ef 3e 9a 50 9e bf 5b 1f a0 3d
       -0.58513784 0.46789184 -1.2368348 0.078184806
0003f0 da 95 ca bf 87 81 f5 3e 7a 53 53 bf 66 c7 ca be
       -1.5826981 0.47950384 -0.8254925 -0.39605254

lstm.bias_ih_l0 f4 [400]
000000 37 41 5e bf fe 9c 39 bf b9 8b 37 bf 31 ad 8a be
       -0.8681826 -0.72505176 -0.71697575 -0.2708526
000010 7f b5 22 bf 95 67 e2 be 3b ee 10 bf 1d ff 26 bf
       -0.6355819 -0.44219652 -0.5661351 -0.6523302
000020 0f 20 d4 bf c1 d1 7a 3d 35 35 8b be 11 67 a7 3e
       -1.6572284 0.061235193 -0.2718903 0.3269582
000030 4a 2e 4a bf e1 ae 6e bf ad 8a d8 bf 45 c9 50 bf
       -0.7897688 -0.93235594 -1.691732 -0.8155711
000040 06 93 53 bf 0d df 6f bf 40 5d 54 bf ab 3a 2c bf
       -0.82646215 -0.93699723 -0.8295479 -0.6727702
000050 17 7f 18 3e bf bd 88 be 46 ca c5 bd c1 7c 91 3d
       0.14892231 -0.26707265 -0.09657721 0.07103873
000060 d4 de 7b bf 63 79 a5 bf 59 d5 2f bf 4a 15 d0 bf
       -0.98386884 -1.2927669 -0.6868492 -1.6256497
000070 16 93 76 bf ea 53 53 3e b5 74 49 c0 db 7d 84 bf
       -0.96318185 0.2063748 -3.1477482 -1.0350908
000080 8f 1d e5 bd e2 15 6f be b0 e8 37 bf 2f ee dc be
       -0.111872785 -0.23348191 -0.7183943 -0.4315047
000090 c3 1f 0a bf 89 29 46 bf 74 3d 5e be b1 33 6e bf
       -0.53954715 -0.7740713 -0.2170313 -0.93047625
0000a0 7a 05 6c bc f2 d6 a7 be 48 e1 c8 be fe d9 b4 bf
       -0.014405603 -0.32781178 -0.39234376 -1.4129026
0000b0 3f 63 24 bf 5a 92 6c bf 32 d6 84 bf 31 d8 9b bf
       -0.6421394 -0.92410815 -1.0377867 -1.2175351
0000c0 e5 80 ec bf 9f bb ff be 2d 01 95 be c2 85 56 3f
       -1.8476835 -0.4994783 -0.2910246 0.8379785
0000d0 7b 14 08 3d c4 d2 46 be 00 44 85 bf 92 83 b3 bf
       0.033222657 -0.19416338 -1.0411377 -1.4024527
0000e0 b4 28 2d bf 2f 13 55 3e 6c e7 9b bf a4 43 3a bf
       -0.67640233 0.20808099 -1.2179999 -0.7275946
0000f0 bc 26 9b be 7b 20 26 bf 01 7e f9 be 71 e6 42 bf
       -0.3030299 -0.6489331 -0.48728946 -0.76132876
000100 6e 18 db be f6 00 22 bf 5a 47 45 bf b5 5b e6 be
       -0.42792076 -0.63282716 -0.77062 -0.44991842
000110 22 44 23 3e 5a a7 27 bf a6 2f 1c 3e bc 78 f8 bc
       0.1594396 -0.65489733 0.15252551 -0.030331008
000120 a4 87 be be ec 6f 8f bf f3 8c 8b bf 5e 32 39 bf
       -0.3721286 -1.1206031 -1.0902389 -0.7234248
000130 87 4d 49 bf 58 73 73 bf 62 4e 76 bf a7 f1 3a bf
       -0.7863392 -0.95097876 -0.9621335 -0.7302498
000140 d8 50 1e bf fe 5e ee be 72 64 14 bf 68 5f 7a bf
       -0.6184211 -0.46556848 -0.5796577 -0.9780183
000150 80 83 fc be b6 a8 3d bf 63 fd 47 bf 47 1e 7d be
       -0.49319077 -0.7408556 -0.7812101 -0.24718581
000160 b3 66 99 bf df 36 09 3f 5c a9 a7 bd 74 b4 c0 bc
       -1.1984466 0.5359935 -0.081865996 -0.023523547
000170 3a ce 9b be 22 7d ef 3d 41 af f3 be df 1c 90 bf
       -0.30430776 0.11693789 -0.47594646 -1.1258811
000180 8d 3f 4f be 78 51 ce bd dc 6f b5 be 39 a9 27 bf
       -0.20239086 -0.10074133 -0.35436904 -0.6549259
000190 6c 44 0a bf 55 65 54 be d4 8a 0a bf ab b5 cf be
       -0.54010653 -0.2074178 -0.54118085 -0.4056829
0001a0 5a c8 48 bf 3d 84 e8 be d3 1c 7c bf a1 69 80 bf
       -0.7843071 -0.4541339 -0.9848148 -1.0032235
0001b0 dc 6f de bf 63 e1 9f be 24 77 7d be 23 95 2c bf
       -1.7377887 -0.31226644 -0.2475248 -0.67415065
0001c0 79 88 be be d9 03 ff be cc 39 89 bf ee 62 fd be
       -0.37213495 -0.49807623 -1.0720763 -0.4948954
0001d0 ce 82 38 bf 9a 1a c1 be fa 15 2d bf 68 e5 c0 3d
       -0.7207459 -0.37715608 -0.6761166 0.09418756
0001e0 de 83 14 bf f7 ab 4e bf 2b ac b9 be 3a 95 ef be
       -0.58013713 -0.8073115 -0.36264166 -0.46793538
0001f0 49 20 92 be 85 e5 17 bf ac 2d 51 be bd ca 38 bf
       -0.28540257 -0.59334594 -0.20427579 -0.72184354
000200 69 73 23 bf f4 f3 a5 be c8 e9 89 bf eb e0 4a bf
       -0.63847977 -0.32412684 -1.0774469 -0.7924945
000210 7c f1 18 bf d3 a1 99 be c6 a6 9c be 22 66 55 bd
       -0.59743476 -0.30006275 -0.30595988 -0.052099355
000220 ad 8d 85 bf ba ac 19 be 81 96 ea be 60 34 be be
       -1.0433861 -0.15007296 -0.4581795 -0.37149334
000230 e8 12 c2 be 23 f2 ff be 58 9d d0 be c0 c5 c1 bf
       -0.3790505 -0.49989423 -0.40745044 -1.5138474
000240 9d b8 dd be 37 e9 bf bf 1f 12 b6 be f9 52 95 be
       -0.4330491 -1.4993047 -0.355607 -0.29164866
000250 8c c1 a7 bf 9a db 88 bf 41 3e 31 bf 4e e0 0e 3e
       -1.3105941 -1.0692017 -0.69235617 0.13952753
000260 03 4e 9d bd 8c bf c7 be f1 a2 a1 bf c2 06 37 bf
       -0.07680895 -0.39013326 -1.2627851 -0.71494687
000270 70 c8 af be 8b 60 04 bf 2c a5 7e bf c8 49 be be
       -0.3433261 -0.5170981 -0.9947078 -0.37165666
000280 d0 c8 df bd bb 57 ed be 99 42 73 bf 48 f3 d0 be
       -0.10926974 -0.46355996 -0.95023495 -0.4081061
000290 d9 88 83 bc 83 d6 24 bf ac 58 31 bf ce d7 a6 be
       -0.016056465 -0.6438982 -0.6927593 -0.3258652
0002a0 32 ce 50 bf 89 62 57 bf d0 12 0e be 9a 55 2d bf
       -0.8156463 -0.8413473 -0.13874364 -0.6770874
0002b0 18 28 e5 be cb 77 46 bf e7 a2 14 bf c9 60 11 bf
       -0.44757152 -0.7752654 -0.5806107 -0.5678831
0002c0 4a 7f f2 be 6a 2c a6 bf 94 9f a5 be 99 2e b9 be
       -0.4736274 -1.2982304 -0.3234831 -0.36168364
0002d0 5d a6 b0 be c7 14 33 bf 35 63 1f bf 1c 87 03 bf
       -0.34501925 -0.6995358 -0.6226075 -0.51378036
0002e0 16 76 22 bf f8 c2 97 bf 4c 6b c8 be 47 d2 4b bf
       -0.63461435 -1.1856375 -0.3914436 -0.7961773
0002f0 ea 70 74 bf 69 e2 cb 3c eb 50 2a bf c9 d8 e0 be
       -0.95484793 0.024888234 -0.6652972 -0.43915394
000300 88 43 bc be a6 16 b0 be 34 ff 46 3d c2 36 29 bf
       -0.36770272 -0.3439228 0.048583224 -0.6609918
000310 fc 97 a8 be 27 96 3f bf ab c9 51 bf 2e 4b 8b be
       -0.32928455 -0.7483849 -0.81948346 -0.27205795
000320 ea 8f 05 3d 2e db 42 bd 50 8c 38 3e 51 58 81 3e
       0.03260795 -0.047572307 0.18022275 0.25262693
000330 70 03 12 be 1d b1 55 be 3d 1c ac 3e eb 54 e2 bd
       -0.14259124 -0.20868345 0.33615294 -0.11051353
000340 76 c7 9d be 97 60 0f 3d 94 f4 8d 3e e0 8e bc 3d
       -0.3081624 0.035004225 0.2772566 0.09206939
000350 8b d4 1b bd 06 e0 7e 3d 7b bf dc bd 9d 0c 6f be
       -0.038044494 0.062225364 -0.107787095 -0.23344655
000360 38 29 24 be 96 5a 0f 3e 8a 63 45 3e b6 09 1e 3d
       -0.16031349 0.139994 0.19276252 0.03858348
000370 1d d0 8b 3e f3 b1 f4 3d 88 be 02 bf 98 c8 b8 be
       0.27307215 0.119480036 -0.5107198 -0.3609054
000380 ef 3a 8d be 88 2d 12 be 2e 78 a2 bd 24 4e 29 be
       -0.27584025 -0.14275181 -0.07933079 -0.16533715
000390 07 47 b9 be 73 7f 10 3e 56 33 92 bd 9e 3b 81 be
       -0.36187002 0.14111118 -0.07138698 -0.25240797
0003a0 0b e5 5d 3e fa 2b da be 81 6e bb 3d 44 d2 93 bc
       0.21669404 -0.42611676 0.09151936 -0.018044598
0003b0 63 e5 2a bd 46 2e 0f 3d d8 b9 27 be f1 c4 89 3d
       -0.041722666 0.03495624 -0.16379488 0.06727017
0003c0 2b c6 9a 3e 2c 1e 5b be 1d b6 37 be fd 58 64 3e
       0.30229315 -0.21398228 -0.17940564 0.22299571
0003d0 0f 18 0c 3e 39 3c 98 3d f9 f0 b2 bd e8 42 b5 bd
       0.13681053 0.074333616 -0.08737368 -0.08850652
0003e0 a9 21 0c be d1 78 94 be 23 e5 2a be 74 06 3f 3d
       -0.13684715 -0.28998426 -0.16688971 0.046637014
0003f0 10 0a 85 be 3c 76 f7 bc 52 d9 e0 be 13 98 a1 bd
       -0.2598424 -0.030207746 -0.43915802 -0.07890334

lstm.bias_hh_l0 f4 [400]
000000 52 7b 64 bf 80 43 52 bf a7 02 25 bf 6c 82 80 be
       -0.8925067 -0.82134247 -0.6445717 -0.25099504
000010 16 50 26 bf ee df bf be b8 68 25 bf d3 09 18 bf
       -0.6496595 -0.37475532 -0.64612913 -0.5938999
000020 f1 85 d2 bf 9a b8 a5 3d 7d 7c b3 be 8b cd b2 3e
       -1.6447126 0.080918506 -0.35055915 0.34922442
000030 7e a0 4a bf 12 9c 6c bf 4e 37 e8 bf 78 ff 3d bf
       -0.7915114 -0.92425644 -1.8141878 -0.7421794
000040 e5 3e 4b bf 0a ca 74 bf 7c e7 5c bf 5f ef 2a bf
       -0.79392844 -0.9562079 -0.8629072 -0.667715
000050 cd 0a c4 3c 02 fd 11 be 21 82 be bc ed 97 e0 3d
       0.023930931 -0.14256671 -0.02325541 0.109664775
000060 90 07 65 bf 3f 05 ae bf a9 67 26 bf 6b a6 cb bf
       -0.89464664 -1.3595351 -0.6500192 -1.5910162
000070 1a 0d 8a bf a3 ef 82 3e 95 cc 3d c0 88 f1 66 bf
       -1.0785248 0.25573453 -2.9656117 -0.902123
000080 19 4d 36 bd e6 f3 27 be ab de 2a bf f3 80 fa be
       -0.04450712 -0.16401634 -0.66746014 -0.48926505
000090 6e 11 0a bf 0e 4d 4a bf 8b 13 d5 bd 90 aa 79 bf
       -0.53932846 -0.79023826 -0.10404118 -0.9752588
0000a0 32 af cf bd 76 42 4f be 2e cd fb be 5f 2f b8 bf
       -0.10140838 -0.20240197 -0.49179977 -1.4389457
0000b0 a6 bb 0e bf f2 0f 80 bf 05 4f 8b bf 20 aa 9c bf
       -0.5575508 -1.0004866 -1.088349 -1.2239418
0000c0 6c c5 da bf 54 be 06 bf 1b 1c 28 be 5a c9 63 3f
       -1.7091498 -0.5263417 -0.16416971 0.88979113
0000d0 d9 d2 84 3d b8 93 23 be 3d df 87 bf 7e 1b c1 bf
       0.064855285 -0.15974319 -1.0615002 -1.5086515
0000e0 75 28 27 bf fa e0 17 3e 39 f5 95 bf 55 0e 45 bf
       -0.6529611 0.14831915 -1.1715461 -0.76974994
0000f0 51 fc 9b be 40 38 50 bf 04 87 01 bf 97 03 59 bf
       -0.3046594 -0.8133583 -0.5059664 -0.847711
000100 4a d8 dc be b8 eb 25 bf cc cc 36 bf 83 48 f3 be
       -0.43133765 -0.64812803 -0.71406245 -0.4751626
000110 ed ca 72 3d b2 7c f6 be 26 63 05 3e 58 a3 4e bd
       0.059275556 -0.4814201 0.13026103 -0.050448745
000120 81 10 07 bf 40 d4 98 bf ed aa 85 bf 14 86 21 bf
       -0.5275956 -1.1939774 -1.0442787 -0.6309521
000130 98 b6 40 bf 19 89 7c bf ac 85 7c bf 28 4f 1d bf
       -0.75278616 -0.98646694 -0.9864147 -0.6144891
000140 bc 00 25 bf 40 6b 04 bf 80 6d fb be 40 a6 87 bf
       -0.64454246 -0.5172615 -0.4910698 -1.059761
000150 fc d3 b1 be d9 39 47 bf fd f9 4a bf e2 38 80 be
       -0.34732044 -0.77822644 -0.792877 -0.25043398
000160 a9 2a 9f bf d6 80 f6 3e 9b 7c f2 bd 71 38 81 3d
       -1.2434894 0.4814517 -0.11840173 0.063095935
000170 5c cb f4 be 2e e1 6a 3e a5 0b f0 be 2d fc 83 bf
       -0.478114 0.22937462 -0.46883884 -1.0311333
000180 0b a3 4c be d4 01 0a be 70 c1 f2 be e7 b2 12 bf
       -0.19984071 -0.1347726 -0.47413206 -0.57304233
000190 11 74 13 bf 35 87 be be d2 12 04 bf 4a ff b2 be
       -0.5759898 -0.3721253 -0.5159122 -0.34960395
0001a0 22 0e 4b bf e0 55 0b bf ed 2e 77 bf 0a ef 5c bf
       -0.7931844 -0.5442791 -0.9655598 -0.86302245
0001b0 26 9e d6 bf bc 15 63 be 88 64 86 be 78 bc 1c bf
       -1.6767013 -0.2217626 -0.26248574 -0.6122508
0001c0 29 e7 d6 be ba b3 d0 be 2d be 8a bf 6a d6 e3 be
       -0.41973236 -0.4076212 -1.0839287 -0.44499522
0001d0 5c cc 1e bf 19 14 0b bf a1 ef 30 bf 5f da fa 3d
       -0.6203058 -0.5432754 -0.69115645 0.12248682
0001e0 b0 36 11 bf 7c 1d 2e bf 1f 8d e9 be b3 62 e2 be
       -0.5672407 -0.6801374 -0.4561548 -0.44215927
0001f0 19 03 77 be 4d 35 39 bf 4c 5a 38 be a9 75 4e bf
       -0.24122275 -0.72346956 -0.18003196 -0.80648285
000200 a5 7e 28 bf 14 b2 a6 be c7 2b 78 bf 60 b3 3b bf
       -0.65818244 -0.32557738 -0.969418 -0.7332058
000210 1a 2f 25 bf a1 0e 84 be c6 d7 a1 be 4c 0b 22 be
       -0.64524996 -0.2579241 -0.31609935 -0.15824622
000220 0b d1 86 bf 34 df c0 bd c5 d2 d8 be 1d df 9f be
       -1.0532545 -0.094175726 -0.42348304 -0.3122491
000230 36 e3 77 be cf ca 01 bf f7 3a cf be e8 cb b6 bf
       -0.24207768 -0.50700086 -0.40474674 -1.4280977
000240 41 39 fd be 6a 5f af bf 2e 6d 9b be 67 7d d3 be
       -0.49457744 -1.3700993 -0.30356735 -0.41306612
000250 38 20 bc bf 69 33 68 bf 68 61 3e bf ab 37 01 3e
       -1.4697332 -0.90703446 -0.7436738 0.12618892
000260 84 42 22 be fc 16 11 bf c0 9b b3 bf 09 37 47 bf
       -0.15845686 -0.56675696 -1.4031906 -0.7781835
000270 34 79 f5 be e3 0c d1 be 0e 1d 60 bf 01 c5 ac be
       -0.47944033 -0.40830144 -0.87544334 -0.33744052
000280 8a 29 9d 3c c1 7e e7 be 1c 37 81 bf dd 46 02 bf
       0.019184846 -0.45213893 -1.0094943 -0.5088938
000290 6e 92 ba bd 4d b3 0d bf 9a b1 4a bf d0 43 d5 be
       -0.091099605 -0.55351716 -0.7917725 -0.416533
0002a0 87 6b 50 bf c0 00 45 bf 93 75 47 be 6e 94 33 bf
       -0.81414074 -0.7695427 -0.19478445 -0.7014836
0002b0 7b 47 c7 be 70 ee 3b bf f5 70 22 bf fe 62 1f bf
       -0.38921723 -0.734107 -0.6345361 -0.62260425
0002c0 52 1f dd be 87 c1 a2 bf f0 7d 8c be a6 b6 e4 be
       -0.43187958 -1.271531 -0.27439833 -0.446706
0002d0 c2 e2 a5 be d1 16 19 bf a8 bc 28 bf 99 cf ed be
       -0.32399565 -0.5980044 -0.65912867 -0.46447447
0002e0 90 35 1f bf 41 f1 94 bf 8c b0 f1 be d5 0a 41 bf
       -0.62191105 -1.1636125 -0.47205007 -0.75407153
0002f0 04 d6 83 bf 34 c6 ac 3d 76 22 31 bf 68 d6 bc be
       -1.0299687 0.08436242 -0.6919321 -0.3688233
000300 af da be be 29 fb 5c be 5c a5 e3 3d b2 e6 2c bf
       -0.37276217 -0.21580185 0.11115524 -0.67539513
000310 7d f4 5a be 07 03 2b bf 13 90 61 bf 7e c6 36 be
       -0.21382327 -0.66801494 -0.88110465 -0.17849156
000320 86 07 38 3d b0 fe 4d 3d 15 a2 b7 3c 5b 3d 8a 3e
       0.04492905 0.050291717 0.022416154 0.26999936
000330 42 b0 2b be dd d1 d4 bd ba 8a b5 3e 60 ad 42 be
       -0.16766456 -0.10391591 0.35457402 -0.1901145
000340 1e a2 7e be ea 25 b8 3c ee 60 87 3e 08 b2 d8 3b
       -0.2486653 0.022479016 0.2644114 0.00661302
000350 18 a7 5a bc ae cf 97 3d 2c d1 22 be de 3f 0f be
       -0.013345502 0.07412659 -0.15900105 -0.13989207
000360 6d d4 d9 bd 72 05 8b 3d 68 c6 7a 3e 7b ab ba 3c
       -0.1063622 0.06788148 0.24489748 0.022786846
000370 b2 b3 ae 3e e5 0c 54 3d c3 54 f4 be cb 4f af be
       0.34121472 0.05177011 -0.47720918 -0.34240565
000380 c8 d9 89 be 34 5a fc bd 6e 03 d5 bc 07 d7 66 be
       -0.26923966 -0.123218924 -0.026002612 -0.22542964
000390 b2 52 e0 be fe 67 e5 3d 45 96 e1 bd 25 40 74 be
       -0.43813092 0.112014756 -0.1101499 -0.23852594
0003a0 bf 06 6a 3e ed d6 f0 be 61 9a 90 bd 20 87 da 3c
       0.22854136 -0.47038975 -0.070606954 0.02667576
0003b0 fe f6 36 bd c8 a3 0c 3d bb e5 18 be 37 09 e0 3c
       -0.044669144 0.03433588 -0.14931385 0.027348144
0003c0 09 a7 b1 3e 6e 06 a0 be ff a0 24 be 77 da 08 3e
       0.3469775 -0.31254905 -0.1607704 0.13364588
0003d0 db f2 81 3e a1 a4 9e bd c6 dc 30 bd 8e 92 ab bd
       0.25380597 -0.07746244 -0.043179296 -0.083775625
0003e0 0d 29 4a be 33 ed 83 be 0a 81 3c be ce ec 23 3d
       -0.19742222 -0.25766906 -0.184086 0.040020756
0003f0 4f 93 46 be c9 b8 8a 3d b7 2f aa be 48 d9 55 be
       -0.19392131 0.06773526 -0.3323953 -0.20883667

linear.weight f4 [1, 100]
000000 d6 a6 b7 bd 27 15 a7 ba 44 fa 9b 3c f0 39 35 3e
       -0.08967368 -0.0012747393 0.019040234 0.17697883
000010 a7 b7 8c 3c b3 a8 0f be a2 e1 ad be 71 0c 6a 3d
       0.017177416 -0.14029197 -0.33961207 0.05714077
000020 bc c5 66 be 7a c3 c1 3b 0d 15 57 3d e5 7a cc be
       -0.22536367 0.005913195 0.05251031 -0.3993751
000030 09 57 d5 3d d2 28 bd ba d7 bc 1e 3c 41 65 b6 3c
       0.10416991 -0.0014431721 0.009688578 0.022265078
000040 17 54 e8 3c 05 1d a3 bb 60 03 4d 3e db 86 83 3e
       0.02836041 -0.0049778246 0.20020819 0.25688824
000050 0d df 36 bf 36 b1 87 bd ac 9e 55 bc c3 c8 5f bc
       -0.714341 -0.06625597 -0.013038319 -0.013658705
000060 5d fe 90 bd b5 ae 0b 3b c9 ba 38 3e f6 1e 94 3d
       -0.07079766 0.002131385 0.18040003 0.07232468
000070 d1 84 f1 3e af 5b 47 be 44 5e 89 bd 31 80 a3 bc
       0.47171643 -0.19468568 -0.06707433 -0.019958587
000080 63 c8 e0 bd f3 41 e8 3c 39 15 cf bc 23 0e 23 bd
       -0.10975721 0.02835176 -0.025278674 -0.039808404
000090 b8 60 b9 3c 43 60 48 bc 7d 08 d1 bd 1b cc 94 3e
       0.022629127 -0.012229982 -0.10206697 0.2906197
0000a0 53 8b 92 bd 8f 57 c5 3e 60 45 13 3c 5f 4c 66 3e
       -0.0715548 0.38543364 0.008988708 0.22490071
0000b0 fc 04 1f 3e fe 60 19 3c 56 97 c2 3c 35 42 4b 3d
       0.15529245 0.009361504 0.023753803 0.049623687
0000c0 56 2c b5 3b b9 de c0 3d d3 20 38 3e c3 c4 9b be
       0.005528967 0.09417481 0.17981271 -0.30423555
0000d0 5e ba 43 3e ac bb 34 bd b4 28 2b bf 71 ee 3a bd
       0.19114062 -0.04412429 -0.66858983 -0.04563755
0000e0 dc ca 07 3e ef 1d 2b be 3b 31 b5 3e b3 4f ae bb
       0.13260978 -0.16710638 0.35389122 -0.0053195595
0000f0 0f 98 2c 3e af 7b 8c 3e 6c ec 9a bc 2b c9 89 3e
       0.16854881 0.27438113 -0.018911563 0.2691129
000100 98 e6 a6 bd 55 47 1a bd ef c7 ff 3d a7 b0 4f 3d
       -0.08149451 -0.037665684 0.12489306 0.05070558
000110 48 f6 57 be d1 b1 11 be 31 8c ff 3d 0b 73 92 bc
       -0.21090043 -0.14227988 0.12477911 -0.017877122
000120 2e c1 93 bd de f7 86 3d 41 b0 8b 3c 2e 95 fe bc
       -0.072145805 0.06590246 0.017051818 -0.031076994
000130 48 da c1 3d f8 6d 85 be e8 42 b0 3d 42 5f d3 3d
       0.09465462 -0.26060462 0.08606511 0.10320903
000140 c9 97 a1 bd 72 67 9c 3e d3 2c c1 3d c3 08 68 3b
       -0.07890279 0.30547673 0.09432378 0.0035405613
000150 f9 d5 4e 3e ea 04 67 be 2f 9c 1c bd 21 77 25 3e
       0.20198812 -0.22560468 -0.038234886 0.16158725
000160 ae 14 9c be a6 de c1 bb 05 5f 44 3d fd eb 69 bd
       -0.30484527 -0.0059164343 0.04794218 -0.05710982
000170 0a 6d 2f 3e 41 fb 7b be bf ac 8c 3d b3 d4 a0 bc
       0.17131439 -0.24607565 0.06868886 -0.019632673
000180 fa a1 f8 3c 0d f8 8b bd ef bd 27 be 5e 97 fa bd
       0.030350674 -0.06834421 -0.16381048 -0.12235902
