BodelLigging/IJsselkop_bodemligging_V1.pt (torch, 661983 bytes, 5 tensors)

lstm.weight_ih_l0 f4 [400, 1]
-1.022722 -1.0997021 -0.7417538 -2.023972 -0.46401453 -1.0683006 0.6168793 0.13872413
-1.261242 0.20888019 0.52756685 -0.25280246 1.7092751 -1.1866105 0.4804133 0.26307532
-0.64420295 -0.87969065 0.46373644 -2.0841804 -1.1537102 -0.95174426 -1.7935936 -0.7873059
-2.910426 -0.29756626 -0.14341694 -0.17824177 0.5038595 -0.58340585 -0.7164848 -0.63548046
0.13443984 -1.4549843 -1.8870274 -3.56415 -0.07223991 0.28115508 -1.679938 -0.007417087
-0.16479075 -0.8326807 -0.2453482 0.36448014 -0.84585315 -0.5830145 -0.2603974 0.18693663
-0.8024754 0.21187587 -0.3060437 -1.2846518 0.33100078 -0.7236379 -1.8193468 -2.524861
-2.1444478 -1.1525673 -0.24507153 -2.1269503 -0.9642131 -0.40762526 -1.8120953 0.49099118
-1.3536242 -1.268101 -1.6154779 -1.1368045 0.19385196 -0.28191307 -0.06449146 0.18889937
0.7020151 -0.12720983 -0.4651943 -1.3795853 -1.1293027 0.71830565 -1.0845089 -2.0154383
-1.0265493 -3.079604 -3.186042 -1.2698017 -0.04278838 -1.4951599 0.5501337 -1.0892733
-2.2025461 -0.76228577 -1.2279865 -0.1200149 -0.15647614 -0.59021676 -1.1631608 -2.7564626
-0.38491827 1.038388 0.6128251 -0.036699653 0.05675224 1.2841027 -1.5194716 0.02317002
0.9256438 -0.59964687 -1.9886878 -1.1718469 -1.207515 -1.1750638 -0.1639938 -0.02666806
0.49936032 -1.9862044 0.8141137 -0.7888407 -1.1914325 0.36511886 0.07978382 -1.4594368
0.24795727 -1.2026973 -0.34323883 -0.03204293 -0.4413693 1.293741 0.40471014 -1.6654009
0.13532083 0.5979656 -1.4595685 -0.9545857 -0.47758237 0.2408108 -1.7966052 -0.4366665
0.86462104 0.52373 -0.90986407 0.3046788 0.16457994 0.48259947 -2.4110582 -0.0032627308
1.0075179 -1.092849 -0.8614072 -0.32738024 1.2131826 0.5071707 1.6836987 0.4262096
1.334381 -0.020714078 -1.0884334 -2.0983157 1.8186015 0.9057232 -0.48962495 -1.873115
-0.8560378 1.4284383 -0.023971824 0.9267962 1.304477 0.108370155 -1.1821071 -0.7178635
0.6574054 -1.5078661 -0.762451 -1.146138 1.3701208 -0.15740912 -1.3699193 -1.7544407
0.20160331 0.21567546 -1.291637 -0.2290845 -0.9577511 -0.62441987 -1.2847497 1.0761917
1.5936483 -1.4587107 0.6071281 0.12403112 -1.4597028 -0.57289255 -0.065301195 0.02396307
-1.2575237 -0.99131125 -0.85114413 -0.065854244 -0.007100825 0.17992431 -0.786955 1.5217831
-0.5365215 2.059738 0.4338621 -1.039163 -0.49345967 -0.112962596 0.8546342 -0.20085727
-2.0141048 0.18996324 0.10963364 -0.4875633 1.7253839 0.3585759 0.26965705 -0.16383179
-0.29635513 2.446791 -1.2484578 -0.92479724 -0.89450556 -0.55585897 -1.1479645 1.13508
-3.0282004 1.8288268 -0.32097766 0.5802494 1.3763297 -1.8436416 1.6191379 1.4666556
0.16833875 -0.9233745 -1.6534921 0.35757688 1.1050836 1.1986426 -1.2114733 -1.5135703
0.51189125 0.6766064 1.0556701 0.560317 -1.1154478 -1.2920116 0.38823438 -0.010305359
-0.8837894 -1.7601027 1.8368008 0.85444087 2.4678204 -1.9826819 -1.4707112 -1.0121521
00000000: 8ee8 82bf 0ac3 8cbf 94e3 3dbf c288 01c0
00000010: 5093 edbe 13be 88bf cdeb 1d3f b30d 0e3e
00000020: 6170 a1bf b0e4 553e 9f0e 073f 536f 81be
00000030: 87c9 da3f dae2 97bf bbf8 f53e cfb1 863e
00000040: 7cea 24bf 6833 61bf dd6e ed3e 3663 05c0
00000050: c7ac 93bf 83a5 73bf 7a94 e5bf e18c 49bf
00000060: 6b44 3ac0 9b5a 98be e4db 12be 0385 36be
00000070: f0fc 003f 165a 15bf 8c6b 37bf d9ae 22bf
00000080: 99aa 093e ed3c babf 1d8a f1bf 091b 64c0
00000090: 85f2 93bd 8ff3 8f3e 3508 d7bf 090b f3bb
000000a0: e8be 28be 902a 55bf 8f3c 7bbe 249d ba3e
000000b0: d589 58bf 7040 15bf cf52 85be 516c 3f3e
000000c0: 076f 4dbf fdf5 583e c3b1 9cbe 786f a4bf
000000d0: ef78 a93e 5540 39bf 5be0 e8bf 5397 21c0
000000e0: a23e 09c0 5387 93bf 08f4 7abe f41f 08c0
000000f0: abd6 76bf 42b4 d0be bdf2 e7bf 3263 fb3e
00000100: 8f43 adbf 2251 a2bf fbc7 cebf cf82 91bf
00000110: 2181 463e e956 90be 1914 84bd d66e 413e
00000120: 43b7 333f 4b43 02be f32d eebe 4096 b0bf
00000130: fe8c 90bf e1e2 373f 30d1 8abf f1fc 00c0
00000140: f865 83bf 3b18 45c0 1de8 4bc0 dd88 a2bf
00000150: de42 2fbd 6661 bfbf 90d5 0c3f 4f6d 8bbf
00000160: 84f6 0cc0 2925 43bf a92e 9dbf 5fca f5bd
00000170: 483b 20be 7218 17bf 74e2 94bf e269 30c0
00000180: 0214 c5be e6e9 843f 1be2 1c3f 6052 16bd
00000190: 0975 683d 7a5d a43f 0c7e c2bf 0ecf bd3c
000001a0: fef6 6c3f 7582 19bf 528d febf 14ff 95bf
000001b0: da8f 9abf 7e68 96bf feed 27be fa76 dabc
000001c0: 28ac ff3e f23b febf c169 503f 77f1 49bf
000001d0: dc80 98bf dcf0 ba3e b365 a33d d3ce babf
000001e0: 83e8 7d3e fcf1 99bf 00bd afbe 733f 03bd
000001f0: 28fb e1be 4e99 a53f 2b36 cf3e db2b d5bf
00000200: 8b91 0a3e 4614 193f 24d3 babf ba5f 74bf
00000210: ad85 f4be 1b97 763e 29f7 e5bf c092 dfbe
00000220: ce57 5d3f 2b13 063f daec 68bf dcfe 9b3e
00000230: a587 283e 4717 f73e c74e 1ac0 8ad3 55bb
00000240: 59f6 803f 7ae2 8bbf 2f85 5cbf 629e a7be
00000250: 9149 9b3f f0d5 013f 7083 d73f 2538 da3e
00000260: ffcc aa3f 92b0 a9bc c951 8bbf ce4a 06c0
00000270: efc7 e83f 7add 673f 1fb0 fabe 3bc2 efbf
00000280: 4b25 5bbf 11d7 b63f 8f60 c4bc 8442 6d3f
00000290: 1af9 a63f 2cf1 dd3d 494f 97bf e7c5 37bf
000002a0: b84b 283f c201 c1bf fd2f 43bf a6b4 92bf
000002b0: 1e60 af3f db2f 21be 8459 afbf 8391 e0bf
000002c0: 1971 4e3e 07da 5c3e 5c54 a5bf 2195 6abe
000002d0: 2d2f 75bf fbd9 1fbf ae72 a4bf a6c0 893f
000002e0: abfc cb3f 08b7 babf bf6c 1b3f 0704 fe3d
000002f0: 8bd7 babf 16a9 12bf a2bc 85bd 334e c43c
00000300: 89f6 a0bf 93c6 7dbf 95e4 59bf 97de 86bd
00000310: 0aae e8bb 143e 383e e275 49bf cac9 c23f
00000320: 7959 09bf bfd2 0340 2c23 de3e 4b03 85bf
00000330: bfa6 fcbe ef58 e7bd 4fc9 5a3f 87ad 4dbe
00000340: 18e7 00c0 b985 423e 9a87 e03d e6a1 f9be
00000350: 61d9 dc3f 4397 b73e 7d10 8a3e 85c3 27be
00000360: dcbb 97be 3998 1c40 77cd 9fbf 83bf 6cbf
00000370: 51fe 64bf c64c 0ebf 80f0 92bf 4d4a 913f
00000380: 09ce 41c0 ff16 ea3f 2f57 a4be 3a8b 143f
00000390: 922b b03f 73fc ebbf e93f cf3f 5fbb bb3f
000003a0: fe60 2c3e 4562 6cbf a1a5 d3bf 5114 b73e
000003b0: 6173 8d3f 1f6d 993f 8f11 9bbf acbc c1bf
000003c0: 4e0b 033f 1436 2d3f 3320 873f ef70 0f3f
000003d0: fec6 8ebf a360 a5bf a8c6 c63e cfd7 28bc
000003e0: 0640 62bf 0c4b e1bf 4a1c eb3f a3bc 5a3f
000003f0: c5f0 1d40 85c8 fdbf 4440 bcbf 338e 81bf

lstm.weight_hh_l0 f4 [400, 100]
-0.13553183 -0.09128042 -0.57025224 -0.63839555 0.0070561008 -0.023549639 -0.6018564 -0.163722
-0.99299365 -0.3353377 -0.006178361 -0.04977065 0.66588104 -0.8195302 0.02643189 0.15214081
0.17389281 0.104289874 0.16672018 -0.5666918 0.27320117 -0.46902803 -0.06201362 -0.32921198
-1.7909659 0.36777702 -0.17100684 -0.36428347 -0.17988396 -0.4002741 0.059214003 1.2928252
0.44334754 -0.5191408 -0.91762716 -1.3015972 -0.27444217 0.6231657 -0.47291818 0.06841985
0.07309127 -0.2702192 0.43150115 0.119236864 0.12402911 -0.6901541 -0.04065763 -0.7601443
-0.029565325 0.26384372 -0.18822123 -0.13060218 -0.7200916 -0.43345279 -1.2430106 -0.34657866
0.164657 -0.13249846 -0.12241606 -1.5519919 -1.2650919 -1.4688959 -0.7789254 0.14402962
0.022757854 -0.716097 -1.5698003 -0.2222305 0.12993133 0.40977383 0.04611316 0.32785302
-0.34075585 -0.0066121495 -1.553714 -1.1715041 -0.56759393 -0.20525834 -1.3840489 -0.9554454
0.18143761 0.26880255 -1.0593827 -0.3649447 -0.4505368 -0.7021587 -0.22199385 -0.25846726
-0.52507365 0.1712004 -0.09747755 0.4471326 -0.1384034 0.11514969 -0.114725135 -1.1444975
0.22776411 -0.37811238 0.26619393 -0.6136456 -0.3318162 0.7820304 -0.75976324 -0.7180363
-0.4897591 -0.5446354 -0.24168889 0.45074525 -0.68564874 0.1895537 -0.3774268 -0.7724632
-0.07784625 -0.348026 0.5630802 0.0069199246 -0.2692997 0.26790935 -0.56870526 -1.4141788
-0.7305018 -0.14474486 -0.18393645 -0.017693672 -0.3024996 0.46128458 -1.2890258 -0.9354784
0.42226812 -1.1596675 -0.6215016 0.07751014 0.5077661 -0.106794626 -0.3846493 0.16060872
0.35780418 -0.5968558 -0.10331762 0.0057447227 0.7002685 -0.52039725 0.26281372 -0.22200496
-0.49582827 -0.6206154 -0.3262392 -0.19500545 -0.54436445 -1.3962681 0.997147 -1.0374521
1.6905378 -0.7539369 -0.39525953 -1.17881 -0.88782525 -0.57933915 -0.65125173 -0.53871197
-0.15892784 0.56357694 -0.7946502 -0.0382745 -0.80309725 -0.55037516 -0.07513942 -0.7418495
0.48490956 -0.45347026 -1.1881734 0.5197695 1.0617541 -0.6852026 -0.55033094 -0.41358852
0.061516635 -0.43414465 -0.99570894 -1.6994605 0.7348459 -0.54098064 -0.21934958 -0.47051227
-0.09163528 -0.8061648 0.37015638 -1.2010111 -1.3316267 0.118992314 -0.5849104 -1.6688095
-0.04986366 -0.84650993 1.3037158 -1.461711 1.1536733 0.43114173 -0.17093956 0.90962845
0.16951713 0.9034191 0.26429987 -0.21785606 0.12956731 -0.03658045 0.93084884 0.6902435
-1.4301711 -0.38564995 -0.38968524 0.33829993 0.15110631 0.7377102 -0.24662094 0.07313006
-0.8388821 0.8423174 1.103941 -0.40728334 1.5225104 -0.92195874 0.81033015 0.6739491
-0.785829 1.4835345 0.48810738 0.6719722 -0.4528651 -0.7857472 -0.18219239 0.86558807
1.0263537 -0.46211058 -1.7930423 -0.7372098 -0.23026446 0.44180658 0.31941152 -0.40329546
0.7096123 1.0084258 0.8209406 0.5943301 0.4612116 0.026204936 -0.2268053 -0.4305322
1.0193186 -0.6960209 0.8290162 0.00249343 0.41422936 -2.020914 -1.0200962 0.77814156
00000000: dbc8 0abe 3bf1 babd 0dfc 11bf e46d 23bf
00000010: dd36 e73b 2ceb c0bc 4313 1abf bda6 27be
00000020: d534 7ebf 62b1 abbe d973 cabb 4fdc 4bbd
00000030: 2e77 2a3f bbcc 51bf b187 d83c cdca 1b3e
00000040: f510 323e ee95 d53d b2b8 2a3e b712 11bf
00000050: 06e1 8b3e 7124 f0be fe01 7ebd 798e a8be
00000060: 5f3e e5bf 454d bc3e 6b1c 2fbe 5d83 babe
00000070: 8033 38be baf0 ccbe 628a 723d 4c7b a53f
00000080: 73fe e23e 69e6 04bf 9de9 6abf bd9a a6bf
00000090: af83 8cbe ca87 1f3f 5522 f2be b51f 8c3d
000000a0: e0b0 953d 2c5a 8abe b8ed dc3e 7532 f43d
000000b0: f902 fe3d f0ad 30bf 9d88 26bd d198 42bf
000000c0: fb32 f2bc 8616 873e 11bd 40be 94bc 05be
000000d0: ec57 38bf 86ed ddbe f91a 9fbf c272 b1be
000000e0: d89b 283e adad 07be 45b5 fabd aca7 c6bf
000000f0: 88ee a1bf c804 bcbf a867 47bf 807c 133e
00000100: ae6e ba3c 2252 37bf 37ef c8bf 6490 63be
00000110: b80c 053e e0cd d13e 27e1 3c3d 5adc a73e
00000120: 8d77 aebe bbaa d8bb 1ae0 c6bf d9f3 95bf
00000130: d64d 11bf 3e2f 52be 8428 b1bf 1298 74bf
00000140: c8ca 393e 7da0 893e da99 87bf 08da babe
00000150: c2ac e6be acc0 33bf 5b52 63be d255 84be
00000160: 3a6b 06bf 284f 2f3e 4fa2 c7bd 90ee e43e
00000170: 9fb9 0dbe 9ad3 eb3d 03f5 eabd e57e 92bf
00000180: ff3a 693e f297 c1be 924a 883e e117 1dbf
00000190: d0e3 a9be 2533 483f d87f 42bf 3ad1 37bf
000001a0: b4c1 fabe 3a6d 0bbf 4b7d 77be 15c8 e63e
000001b0: ad86 2fbf 5d1a 423e 163e c1be 26c0 45bf
000001c0: db6d 9fbd 7730 b2be 0626 103f 89c0 e23b
000001d0: a6e1 89be 6a2b 893e ab96 11bf d003 b5bf
000001e0: 2a02 3bbf ff37 14be d659 3cbe 52f2 90bc
000001f0: 3ae1 9abe 7e2d ec3e ccfe a4bf 837b 6fbf
00000200: 8733 d83e fc6f 94bf bb1a 1fbf a3bd 9e3d
00000210: f6fc 013f 24b7 dabd c1f0 c4be 9d76 243e
00000220: 1c32 b73e 8bcb 18bf 3098 d3bd 3a3e bc3b
00000230: cc44 333f c138 05bf 858f 863e 4555 63be
00000240: 34dd fdbe a7e0 1ebf d308 a7be 82af 47be
00000250: 785b 0bbf eab8 b2bf 0745 7f3f 3bcb 84bf
00000260: 8b63 d83f 0202 41bf 755f cabe 3fe3 96bf
00000270: 8448 63bf 924f 14bf 6fb8 26bf 07e9 09bf
00000280: fbbd 22be 9446 103f 326e 4bbf b9c5 1cbd
00000290: c897 4dbf 63e5 0cbf b2e2 99bd d9e9 3dbf
000002a0: 1146 f83e 412d e8be 1116 98bf 9d0f 053f
000002b0: 8fe7 873f 7069 2fbf 7de2 0cbf e0c1 d3be
000002c0: def8 7b3d 3548 debe c8e6 7ebf ec87 d9bf
000002d0: dc1e 3c3f b57d 0abf 2d9d 60be fce6 f0be
000002e0: 47ab bbbd d160 4ebf 2385 bd3e bbba 99bf
000002f0: be72 aabf 3eb2 f33d b0bc 15bf 8d9b d5bf
00000300: d63d 4cbd e0b4 58bf 29e0 a63f 5919 bbbf
00000310: 91ab 933f 9cbe dc3e c80a 2fbe 69dd 683f
00000320: e695 2d3e 7946 673f 5052 873e a915 5fbe
00000330: 4bad 043e 62d5 15bd 1c4c 6e3f ccb3 303f
00000340: d90f b7bf e973 c5be d384 c7be a635 ad3e
00000350: 9dbb 1a3e 93da 3c3f 338a 7cbe 37c5 953d
00000360: fac0 56bf 1da2 573f f04d 8d3f 7187 d0be
00000370: 9fe1 c23f 7d05 6cbf cc71 4f3f ee87 2c3f
00000380: 172c 49bf 75e4 bd3f 36e9 f93e 5f06 2c3f
00000390: efdd e7be ba26 49bf a490 3abe 2e97 5d3f
000003a0: 8f5f 833f c299 ecbe 6982 e5bf c8b9 3cbf
000003b0: 72ca 6bbe 7934 e23e e889 a33e be7c cebe
000003c0: 27a9 353f 1914 813f 2a29 523f 0426 183f
000003d0: ed23 ec3e bcab d63c a63f 68be b76e dcbe
000003e0: 0879 823f 6d2e 32bf 683a 543f d068 233b
000003f0: df15 d43e a856 01c0 8392 82bf 4934 473f

lstm.bias_ih_l0 f4 [400]
-0.44148186 0.049168248 -0.7417373 -0.5446689 -0.5307019 -1.3404136 -1.4129772 -0.5146317
-0.03883039 -1.2914983 -1.2335224 -0.41191122 0.19805734 -1.2365584 -0.5551742 -1.4247544
-0.9116178 -0.14869419 0.14075442 -1.041224 -0.45812508 -0.599985 -0.90201986 -1.0517213
-0.48985064 0.4083044 -1.2588105 -1.2789853 -0.31394327 -0.3508701 -0.657757 -0.88515806
-0.3862759 -1.2951454 -0.35852233 -0.5369162 -0.53015727 -0.47687685 -0.8918324 -0.40615028
-0.7180516 -0.78047514 -0.9823567 -0.9150869 -0.5162272 -0.80943966 -0.73465323 -1.0645748
-0.15177554 0.32876107 -0.24053581 -0.8206648 0.19231038 -0.41900784 -0.99839973 -0.8511958
-0.573654 -0.8711793 -0.29778618 -0.8008652 -0.48338267 -0.5089346 -0.7221649 -0.5729267
-0.0123224165 -0.17990626 -1.3471438 -0.48904178 -0.6539707 -1.3022374 0.3720919 -1.0938355
-0.10429319 -0.4154534 -1.2279458 -0.73591304 -0.9221517 -0.12944792 -1.1235057 -0.4322152
-1.3025724 -0.9351366 -0.59795576 -0.3953289 -0.2872369 -0.7663688 -0.50313497 -0.3269776
-0.8672575 -0.9355915 -0.45349693 0.16691199 -0.9298409 -0.29865485 0.1057455 -0.34945574
-0.5013882 0.3057717 -0.5676263 0.4325276 0.010377861 -0.6592491 -0.14646764 0.085182406
-0.2833306 -0.7436475 0.12082415 -0.14826411 -0.030717958 -0.6696044 -0.42630932 -0.5273081
-0.38899678 -0.8490514 -0.5142706 -0.7162847 -0.8364647 -0.82266694 -0.52083313 -0.7289461
-0.05774036 -0.95038855 -0.12433303 -0.47781095 -0.43091235 0.103056416 -0.71248376 -0.6326321
-0.28392753 -0.058098607 -0.67851657 -0.82168263 -0.08775324 -0.50475144 -0.27200866 -0.57235837
-0.4557097 -0.022524215 -1.1000037 -0.07414719 -0.685329 -0.51751006 -0.24784851 -0.6732479
-0.3566889 -0.6800858 -0.65069574 -0.15939568 -0.45558342 0.027836045 -0.2794855 -0.38844427
-0.3114028 -0.22926502 -0.76818484 -0.5816063 -0.072852865 -0.2239379 -0.24045748 -0.024524527
-0.4262354 -0.51666796 -0.22545779 -0.30920815 -0.4206781 -0.36215854 -0.41405362 -0.2967342
0.0016624436 -0.4882654 -0.42437315 -0.45636407 -0.3132223 -0.33633843 -0.5807294 -0.43005252
-0.91585726 0.07070841 -0.4634058 -0.40080732 -1.31921 -0.4878084 -0.8112282 -0.5925773
-0.20529142 -0.25081313 0.62846184 -0.40828785 -1.0515603 -1.0816467 -0.370061 -0.21684074
-1.1832111 -0.85537887 -0.8250942 -0.36485663 -0.27162462 -0.2165732 -0.14397088 -0.39162585
-0.031352315 -0.091931626 0.5032527 0.15080003 0.13997088 -0.043967593 0.06145556 -0.40054947
0.12089048 -0.07392917 -0.074397124 0.22728999 -0.34198812 -0.21176969 0.09471136 0.28373992
0.2631441 -0.28802836 0.10535323 0.3845759 0.33564714 0.21706575 0.39154354 -0.07732727
-0.08242093 -0.19862512 0.42544407 -0.43036488 0.14735056 0.26895294 -0.36104548 0.21430747
-0.27199018 -0.04319904 0.10632859 0.07430114 0.030031294 -0.08800506 -0.12974386 0.2886466
-0.010000798 0.33743516 0.17579237 -0.0037509487 0.22768965 0.061673597 -0.092053205 0.03688422
0.04208406 0.3490992 0.009260705 0.0048116376 -0.35756907 0.3874583 0.2773696 0.33307517
00000000: e909 e2be a564 493d 7fe2 3dbf 6c6f 0bbf
00000010: 14dc 07bf ac92 abbf 70dc b4bf e7be 03bf
00000020: 9d0c 1fbd d14f a5bf 10e4 9dbf 07e6 d2be
00000030: 8bcf 4a3e 8c47 9ebf e51f 0ebf 5a5e b6bf
00000040: c95f 69bf 4a43 18be ed21 103e d446 85bf
00000050: 5f8f eabe 9e98 19bf c6ea 66bf ce9e 86bf
00000060: b4cd fabe 460d d13e b420 a1bf cab5 a3bf
00000070: 2cbd a0be 3fa5 b3be c362 28bf b899 62bf
00000080: f4c5 c5be 53c7 a5bf 3d90 b7be 5773 09bf
00000090: 63b8 07bf 3429 f4be 214f 64bf eef2 cfbe
000000a0: 3bd2 37bf 38cd 47bf bb7b 7bbf 2343 6abf
000000b0: 7727 04bf 7037 4fbf 3c12 3cbf fd43 88bf
000000c0: 0c6b 1bbe 5f53 a83e 054f 76be 1717 52bf
000000d0: 03ed 443e 3288 d6be 2097 7fbf f8e7 59bf
000000e0: fdda 12bf 9b05 5fbf 6e77 98be 8005 4dbf
000000f0: ef7d f7be 8a49 02bf cddf 38bf 53ab 12bf
00000100: f6e3 49bc 5939 38be 356f acbf af63 fabe
00000110: a06a 27bf b7af a6bf d482 be3e cd02 8cbf
00000120: ab97 d5bd 4fb6 d4be 542d 9dbf cc64 3cbf
00000130: 2212 6cbf ff8d 04be 09cf 8fbf 504b ddbe
00000140: b1ba a6bf 1d65 6fbf a113 19bf 8d68 cabe
00000150: b710 93be bf30 44bf 74cd 00bf 9c69 a7be
00000160: 9604 5ebf ed82 6fbf c030 e8be faea 2a3e
00000170: 0e0a 6ebf 4ae9 98be 1991 d83d ddeb b2be
00000180: fa5a 00bf 1c8e 9c3e f54f 11bf 4274 dd3e
00000190: e707 2a3c 8dc4 28bf 9dfb 15be 1d74 ae3d
000001a0: b510 91be af5f 3ebf a772 f73d 8cd2 17be
000001b0: 3aa4 fbbc 326b 2bbf 3745 dabe aafd 06bf
000001c0: 962a c7be 6f5b 59bf 3da7 03bf 6f5e 37bf
000001d0: 8d22 56bf 4d9a 52bf 5255 05bf 369c 3abf
000001e0: 2881 6cbd aa4c 73bf 51a2 febd a3a3 f4be
000001f0: 8ba0 dcbe 3e0f d33d 5665 36bf 2df4 21bf
00000200: f35e 91be cef8 6dbd 43b3 2dbf cb59 52bf
00000210: f8b7 b3bd 6437 01bf b844 8bbe 1486 12bf
00000220: c852 e9be b484 b8bc eccc 8cbf 7bda 97bd
00000230: b971 2fbf 8a7b 04bf 00cc 7dbe f959 2cbf
00000240: ed9f b6be 1a1a 2ebf ff93 26bf 9f38 23be
00000250: 3b42 e9be 6b08 e43c b918 8fbe 2be2 c6be
00000260: 3070 9fbe 73c4 6abe c3a7 44bf 27e4 14bf
00000270: e233 95bd fa4f 65be 7c3a 76be a9e7 c8bc
00000280: 873b dabe 5a44 04bf 68de 66be 8850 9ebe
00000290: 1f63 d7be d86c b9be d6fe d3be 8ced 97be
000002a0: 5ae6 d93a ecfd f9be 7047 d9be 8da8 e9be
000002b0: ac5e a0be 8d34 acbe afaa 14bf d82f dcbe
000002c0: 9f75 6abf 92cf 903d 8643 edbe 9e36 cdbe
000002d0: e0db a8bf 06c2 f9be a7ac 4fbf 25b3 17bf
000002e0: ea37 52be 946a 80be e0e2 203f 1b0b d1be
000002f0: 8799 86bf 6673 8abf a378 bdbe 800b 5ebe
00000300: 7673 97bf 1cfa 5abf 6039 53bf 7dce babe
00000310: 6212 8bbe 5dc5 5dbe 1a6d 13be 2f83 c8be
00000320: 496b 00bd a646 bcbd 2bd5 003f 536b 1a3e
00000330: 8754 0f3e 5d17 34bd d3b8 7b3d d214 cdbe
00000340: 6e95 f73d 2d68 97bd 855d 98bd b5be 683e
00000350: 1119 afbe 27da 58be 08f8 c13d 5c46 913e
00000360: d3ba 863e 7478 93be 6fc3 d73d 22e7 c43e
00000370: f1d9 ab3e 7c46 5e3e 6578 c83e c25d 9ebd
00000380: 4ecc a8bd 6264 4bbe ced3 d93e c958 dcbe
00000390: 11e3 163e 33b4 893e f4da b8be 6b73 5b3e
000003a0: 4c42 8bbe 7af1 30bd cec2 d93d 322b 983d
000003b0: 3004 f63c ff3b b4bd 93db 04be 7dc9 933e
000003c0: 63da 23bc 4dc4 ac3e ea02 343e 7ad2 75bb
000003d0: 7a27 693e 749d 7c3d 6486 bcbd e813 173d
000003e0: 5660 2c3d 21bd b23e 36ba 173c f1aa 9d3b
000003f0: 4b13 b7be ef60 c63e 6303 8e3e d488 aa3e

lstm.bias_hh_l0 f4 [400]
-0.41732302 0.012422902 -0.7724009 -0.4503394 -0.5090602 -1.3440349 -1.4883829 -0.38440013
-0.06244101 -1.2125418 -1.1595232 -0.58777744 0.29896203 -1.0895522 -0.5425395 -1.430821
-0.9572774 -0.20607324 0.19225778 -1.1233768 -0.5502473 -0.57711744 -0.95974326 -0.99561137
-0.44264314 0.21681696 -1.1560843 -1.2918588 -0.36262718 -0.3552853 -0.6100938 -0.79041934
-0.41460192 -1.1778388 -0.31969446 -0.41947758 -0.39273474 -0.56589407 -0.9566393 -0.47802457
-0.78431547 -0.72379404 -0.9396522 -0.9376163 -0.5925109 -0.78936845 -0.7463425 -1.0389862
-0.27902824 0.35996374 -0.16053213 -0.86604685 0.33241844 -0.42263836 -0.8510728 -0.77788895
-0.4172182 -0.8890716 -0.20406158 -0.9047964 -0.35820952 -0.43779263 -0.70540965 -0.5764803
0.043448016 -0.09156499 -1.3088131 -0.4958694 -0.60761905 -1.4109586 0.33679146 -1.1004776
-0.13592716 -0.4450437 -1.1816415 -0.82622474 -0.85264397 -0.05749096 -1.1308427 -0.488381
-1.2240871 -1.0095576 -0.4562208 -0.35795063 -0.21241032 -0.7282658 -0.43420586 -0.40007752
-0.79319674 -0.9297044 -0.4295727 0.26306224 -0.9787299 -0.22658762 0.11488931 -0.37089708
-0.59577113 0.20985468 -0.5078488 0.45302606 -0.08099706 -0.6532248 0.008597108 0.192891
-0.2735392 -0.75310445 -0.020049516 0.031952277 0.03788539 -0.7337498 -0.35418716 -0.4660122
-0.33218098 -0.8051203 -0.5434998 -0.8410211 -0.98617613 -0.7486454 -0.55665404 -0.6200557
-0.12588942 -0.9477133 -0.09213439 -0.48168024 -0.59414387 0.18225521 -0.7320536 -0.6136914
-0.28812492 -0.1255299 -0.6628298 -0.847478 -0.1821428 -0.4705985 -0.28077573 -0.61332816
-0.32919627 -0.035533305 -1.1032486 -0.179195 -0.5891021 -0.63780504 -0.14193536 -0.54827785
-0.47603863 -0.61377746 -0.6428262 -0.16962174 -0.42890632 -0.03626162 -0.2300396 -0.37974247
-0.33330685 -0.27254528 -0.702554 -0.45486668 -0.08076205 -0.19702494 -0.31531176 -0.024299279
-0.37972763 -0.4800438 -0.30283564 -0.30492795 -0.36093116 -0.3303729 -0.396388 -0.39225727
-0.024196 -0.5040287 -0.41348627 -0.397868 -0.28962874 -0.39188778 -0.48670286 -0.42901903
-0.8131375 0.11007423 -0.43727678 -0.53005475 -1.3303806 -0.59229165 -0.89379936 -0.5807785
-0.111609206 -0.41079614 0.53319025 -0.5959647 -1.2077124 -1.02585 -0.3431491 -0.25674203
-1.30531 -0.79950124 -0.9393109 -0.26357958 -0.3174822 -0.15304595 -0.16890374 -0.3387678
0.018720748 -0.028115783 0.53962463 0.11077464 0.19158044 0.0038528447 -0.09846375 -0.23417595
0.1940526 0.095756866 -0.14784345 0.24327837 -0.32040757 -0.10299613 0.08469908 0.18550101
0.28342366 -0.23840153 0.14689456 0.20878272 0.22049929 0.24049331 0.42305008 -0.0037948214
0.03816232 -0.3356915 0.44316056 -0.3283527 0.22353737 0.2632611 -0.25123674 0.16281256
-0.1978979 -0.002594416 0.18620367 0.019764133 -0.055188186 -0.08970019 -0.099538825 0.16485277
0.01073936 0.36506596 0.120283246 -0.013648592 0.2425156 0.1988293 -0.13826051 -0.0723119
0.09544929 0.31352404 0.08909008 0.036175918 -0.3452082 0.3088102 0.29707655 0.47479314
00000000: 5dab d5be 6d89 4b3c 11bc 45bf e392 e6be
00000010: c551 02bf 5609 acbf 5583 bebf 18d0 c4be
00000020: 25c2 7fbd 9234 9bbf 426b 94bf 9578 16bf
00000030: 8d11 993e 7276 8bbf dee3 0abf 2425 b7bf
00000040: 2210 75bf dd04 53be 39df 443e d0ca 8fbf
00000050: 02dd 0cbf f8bd 13bf bcb1 75bf 63e0 7ebf
00000060: 1fa2 e2be 4405 5e3e 92fa 93bf a15b a5bf
00000070: 45aa b9be f4e7 b5be 1b2f 1cbf ec58 4abf
00000080: b446 d4be 6cc3 96bf feae a3be c4c5 d6be
00000090: 8714 c9be 6fde 10bf 50e6 74bf a3bf f4be
000000a0: e6c8 48bf 914a 39bf 0c8d 70bf 9f07 70bf
000000b0: cbae 17bf 0d14 4abf 4d10 3fbf 80fd 84bf
000000c0: cadc 8ebe 2b4d b83e 8962 24be 3fb5 5dbf
000000d0: c032 aa3e 0e64 d8be e8df 59bf bb23 47bf
000000e0: a09d d5be 329a 63bf 85f5 50be bda0 67bf
000000f0: 3d67 b7be 5b26 e0be ba95 34bf 3794 13bf
00000100: 8cf6 313d 6d86 bbbd 3087 a7bf 98e2 fdbe
00000110: ec8c 1bbf 4b9a b4bf ee6f ac3e 73dc 8cbf
00000120: 7d30 0bbe c5dc e3be 0740 97bf 7783 53bf
00000130: e046 5abf a47b 6bbd 74bf 90bf 130d fabe
00000140: e3ae 9cbf 2f39 81bf c695 e9be 4e45 b7be
00000150: 1782 59be a16f 3abf 3b50 debe f6d6 ccbe
00000160: f10e 4bbf 1c01 6ebf f4f0 dbbe 18b0 863e
00000170: 0b8e 7abf 9606 68be 164b eb3d 39e6 bdbe
00000180: 7584 18bf 25e4 563e 6102 02bf 08f3 e73e
00000190: c9e1 a5bd be39 27bf e2da 0c3c 3885 453e
000001a0: 540d 8cbe 74cb 40bf e23e a4bc 64e0 023d
000001b0: b62d 1b3d 07d7 3bbf 0558 b5be 2799 eebe
000001c0: a013 aabe 5d1c 4ebf ce22 0bbf 294d 57bf
000001d0: 0a76 7cbf 3aa7 3fbf e180 0ebf f8bb 1ebf
000001e0: 28e9 00be 579d 72bf f4b0 bcbd cb9e f6be
000001f0: d019 18bf 1ca1 3a3e dd67 3bbf e11a 1dbf
00000200: 1c85 93be e98a 00be 37af 29bf 51f4 58bf
00000210: a483 3abe 49f2 f0be d6c1 8fbe 1303 1dbf
00000220: 6a8c a8be 5f8b 11bd 4037 8dbf e57e 37be
00000230: 65cf 16bf 3147 23bf 8157 11be f05b 0cbf
00000240: 56bb f3be 8520 1dbf 4290 24bf 52b1 2dbe
00000250: 9c99 dbbe 1087 14bd 808f 6bbe 9b6d c2be
00000260: 32a7 aabe 0e8b 8bbe 94da 33bf 49e4 e8be
00000270: 9366 a5bd e8c0 49be 8b70 a1be 480f c7bc
00000280: a96b c2be 4dc8 f5be 460d 9bbe 841f 9cbe
00000290: f8cb b8be a326 a9be 5ef3 cabe f2d5 c8be
000002a0: b136 c6bc 0608 01bf 79b4 d3be 5bb5 cbbe
000002b0: 384a 94be 84a5 c8be 1e31 f9be 62a8 dbbe
000002c0: c729 50bf 996e e13d bee2 dfbe abb1 07bf
000002d0: e949 aabf 6da0 17bf 09d0 64bf e6ad 14bf
000002e0: 5e93 e4bd df53 d2be 287f 083f 2591 18bf
000002f0: 5296 9abf 0e4f 83bf 3db1 afbe b173 83be
00000300: 6614 a7bf 1dac 4cbf ae76 70bf e7f3 86be
00000310: 078d a2be 14b8 1cbe 1af5 2cbe f972 adbe
00000320: 415c 993c 1253 e6bc d724 0a3f d1dd e23d
00000330: aa2d 443e 0280 7c3b 5da7 c9bd d2cb 6fbe
00000340: bab5 463e 2d1c c43d 4664 17be f71d 793e
00000350: 760c a4be a3ef d2bd b676 ad3d faf3 3d3e
00000360: e81c 913e 881f 74be 876b 163e 23cb 553e
00000370: 91ca 613e e143 763e 059a d83e 8ab2 78bb
00000380: 1850 1c3d c2df abbe f1e5 e23e d81d a8be
00000390: fbe6 643e 29ca 863e 1aa2 80be 56b8 263e
000003a0: bfa5 4abe 1407 2abb 2dac 3e3e 64e8 a13c
000003b0: 020d 62bd bcb4 b7bd 03db cbbd 2acf 283e
000003c0: 24f4 2f3c ede9 ba3e 1057 f63d 589e 5fbc
000003d0: 0256 783e e899 4b3e 2a94 0dbe 4318 94bd
000003e0: eb7a c33d 3986 a03e dc74 b63d 332d 143d
000003f0: 21bf b0be 5f1c 9e3e 6b1a 983e 1618 f33e

linear.weight f4 [1, 100]
-0.062346295 0.14237104 -0.23624612 -0.0077925487 -0.08267888 -0.10312687 -0.13583508 0.21389598
0.027803157 -0.07062717 0.07393755 -0.0939943 0.25131568 0.03614267 0.32651246 0.39486372
-0.27330506 0.25026006 -0.2437115 0.011754544 -0.03119816 -0.07471642 -0.26650837 -0.016475422
-0.7746909 0.09064913 -0.12191806 0.37395415 0.16084531 -0.009515266 0.002906406 -0.18674247
0.093263656 -0.005784291 -0.09309095 -0.7512202 0.026331007 0.008436409 -0.16133605 0.01436871
0.4816629 -0.09126436 -0.21890202 -0.29534864 0.038061958 -0.02656522 -0.09728453 -0.25857523
-0.06935111 -0.15808403 0.13134259 0.00814667 0.17109923 0.0019332408 -0.013923797 0.15859556
0.003619893 0.004894987 -0.041436207 -0.16843401 -0.122455284 0.079016514 0.1501905 0.0022740853
-0.2698716 -0.14282888 -0.0016222087 -0.2110945 -0.013487285 0.04567146 -0.11417112 0.0934743
0.07591783 -0.15367192 0.07794126 -0.103817455 0.2087379 -0.13501278 -0.13789587 0.19887811
0.0057038018 -0.37419152 -0.35210678 0.12695004 0.15818317 -0.12330939 -0.003267502 -0.09002468
0.21358362 0.17977658 -0.08803392 0.077560075 -0.012538456 0.18576606 -0.028683983 -0.2263869
0.047409363 0.067721955 -0.20406878 0.29113698
00000000: d45e 7fbd b7c9 113e 81ea 71be a358 ffbb
00000010: 8b53 a9bd 2e34 d3bd 5a18 0bbe 8c07 5b3e
00000020: 72c3 e33c faa4 90bd 926c 973d 1580 c0bd
00000030: 73ac 803e 560a 143d a42c a73e 942b ca3e
00000040: a4ee 8bbe 1622 803e 828f 79be 2296 403c
00000050: 4993 ffbc ec04 99bd c973 88be 77f7 86bc
00000060: 2552 46bf 40a6 b93d 2db0 f9bd eb76 bf3e
00000070: a2b4 243e ebe5 1bbc 6779 3e3b 6b39 3fbe
00000080: 0401 bf3d 268a bdbb 78a6 bebd f84f 40bf
00000090: 20b4 d73c dd38 0a3c 4735 25be bd6a 6b3c
000000a0: 859c f63e cfe8 babd da27 60be f037 97be
000000b0: dbe6 1b3d 4e9f d9bc 1d3d c7bd f963 84be
000000c0: f407 8ebd c8e0 21be ac7e 063e 9c79 053c
000000d0: a334 2f3e cc64 fd3a a320 64bc e066 223e
000000e0: ba3b 6d3b 2166 a03b 03b9 29bd f779 2cbe
000000f0: d6c9 fabd 69d3 a13d 8acb 193e d208 153b
00000100: 9c2c 8abe bc41 12be 4ba0 d4ba 2829 58be
00000110: c6f9 5cbc ff11 3b3d 8cd2 e9bd 746f bf3d
00000120: cf7a 9b3d 2c5c 1dbe ab9f 9f3d 3f9e d4bd
00000130: 63bf 553e ca40 0abe 9334 0dbe b4a6 4b3e
00000140: f5e6 ba3b 0896 bfbe 5747 b4be 31ff 013e
00000150: c5fa 213e a289 fcbd 9623 56bb dc5e b8bd
00000160: aab5 5a3e 5a17 383e 214b b4bd d1d7 9e3d
00000170: 196e 4dbc 7539 3e3e acfa eabc f8d1 67be
00000180: 5230 423d cfb1 8a3d 68f7 50be e80f 953e
