BodelLigging/Lith boven_bodemligging_V1.pt (torch, 661983 bytes, 5 tensors)

lstm.weight_ih_l0 f4 [400, 1]
000000 0e 0c 64 bf 5e 3f 37 40 7c 05 17 be 16 ff c7 3e
       -0.89080894 2.8632426 -0.14748186 0.39061803
000010 5a 77 ab 3f 18 0f e3 3e af 29 c2 be 5a 96 5f 3f
       1.3395798 0.44347453 -0.37922427 0.87338793
000020 ca cb 1e bf ad 6e 0d bf f5 86 f5 bd 50 ec c9 bf
       -0.6202971 -0.55247 -0.11988632 -1.5775242
000030 45 74 d3 3e b1 50 6f 3f 3a 92 a3 be c2 69 5a be
       0.41299644 0.934825 -0.319475 -0.21329406
000040 eb e1 d3 3e ab 90 58 3e 33 ea 12 bf db 20 72 3f
       0.413833 0.21148936 -0.5738861 0.94581383
000050 6c b9 28 bf d1 ae 98 3c ed da 12 3f 09 41 c7 be
       -0.6590793 0.018638046 0.57365304 -0.38916805
000060 36 5e aa 3f d9 9f 27 be 3a 54 de be 3b ab 60 3e
       1.3310001 -0.16369571 -0.43423635 0.21940319
000070 88 b7 06 bf 8a 9a a0 3f 18 f5 a6 3f 10 c6 b6 3f
       -0.52623796 1.2547162 1.3043547 1.4279194
000080 b8 a0 19 3f 74 29 52 3d d3 df 12 3f 39 10 a3 bf
       0.6001086 0.051309064 0.5737278 -1.2739326
000090 de 18 ba 3e b5 cb 54 bf 02 98 f1 bf 40 ac 06 3f
       0.36347097 -0.8312333 -1.8874514 0.5260658
0000a0 57 5c 83 3f bd db 18 3e 6e 04 60 bf d0 cd 06 bf
       1.0262555 0.14927574 -0.8750676 -0.52657795
0000b0 f6 98 40 be cf b6 08 40 b4 dd c6 bc d6 3f d8 3e
       -0.1880835 2.1361578 -0.024275638 0.42236203
0000c0 0b 8d 86 3f 92 0b 6c be bb 97 86 3f 3c c1 4c 3f
       1.0511793 -0.23051289 1.0515054 0.7998235
0000d0 3a af 41 bf 18 a3 20 3f 3e 63 9e be a6 a2 d8 bf
       -0.75658 0.6274886 -0.3093509 -1.6924636
0000e0 01 a9 de 3e d8 8d b1 3e fd fd 25 bd e2 81 68 bd
       0.43488315 0.3467853 -0.040525425 -0.05676449
0000f0 93 73 5e bf f6 6a af 3f 47 90 78 3e 06 cb f7 be
       -0.868951 1.3704517 0.24273787 -0.48397082
000100 d9 6b c2 bc 9a 28 c7 3f 30 ea 53 3d 94 ba d9 bf
       -0.023733066 1.5559266 0.05173701 -1.7010064
000110 6f ad 31 be 30 a0 6a 3d 09 b0 f6 3e c8 7e 5e bf
       -0.17351316 0.057281673 0.4818118 -0.869122
000120 bf 6d 5a 3f 95 ae a6 3e 33 5a 87 3e ca 7f d7 3d
       0.8532371 0.3255507 0.26436004 0.10522421
000130 5e 61 36 3f 1e 85 b4 bf 40 a3 84 3f 67 23 c0 3f
       0.7124232 -1.4103124 1.036232 1.5010804
000140 6c b7 d6 3e 3f 1f 11 3f 0a 26 05 3d 11 e4 05 40
       0.41936815 0.566883 0.03250698 2.092045
000150 ab 51 b5 3e 9d de ff 3f d4 3e d0 3f 4d 1f 46 bf
       0.3541387 1.9989811 1.6269174 -0.7739151
000160 b1 8c 77 be 8b a6 0c 3f d4 55 78 bf 88 2f ae 3f
       -0.24174763 0.54941624 -0.97005963 1.3608255
000170 79 21 53 be d8 33 40 3f 81 68 a7 3e b3 ba d1 3e
       -0.20618238 0.7507911 0.32696918 0.40962753
000180 93 44 f8 be e3 e8 7d 3e 63 37 0e 3d 68 d8 41 3f
       -0.48489818 0.2479587 0.03472079 0.75720835
000190 52 b0 97 bf 79 96 df 3f 37 5c a5 3e 61 3d 40 bf
       -1.1850684 1.7467796 0.32296917 -0.75093657
0001a0 ff 83 24 3e 32 a1 8f 3e eb 3e 52 be e8 af 2e 3f
       0.16065978 0.2805267 -0.20531814 0.6823716
0001b0 db db 05 bf a9 a3 06 bf 96 2c 0c bf 77 8b 14 bf
       -0.522886 -0.52593476 -0.5475553 -0.58025306
0001c0 b5 5e 65 3e 50 af ba be 90 f6 11 bf 58 eb af be
       0.22399409 -0.36461878 -0.5701685 -0.3435924
0001d0 52 64 26 be 59 e2 15 bf aa 76 87 bf 7d 8a fb bd
       -0.16249207 -0.58548504 -1.0583088 -0.12282274
0001e0 e3 90 56 be 5d ad 44 3d 69 ea a1 bf d0 f5 12 be
       -0.20953707 0.048016895 -1.2649661 -0.14351583
0001f0 37 ec d2 3d 9e 6d fc 3e 64 d3 13 bf d9 95 8c 3e
       0.10298961 0.4930238 -0.5774443 0.27458075
000200 8f a0 62 bf 59 35 76 3f 08 01 df be 4b 19 ab bc
       -0.8852624 0.9617515 -0.43555474 -0.020886084
000210 27 de 6a bc 7e da d5 be 35 28 aa 3f 78 cf 0c bb
       -0.014335192 -0.4176826 1.329352 -0.0021485966
000220 d9 50 b3 bf 31 da 45 3e fc ee 45 bd fe ce 1d be
       -1.4009048 0.19321515 -0.048323616 -0.15410993
000230 05 cf b1 be b7 43 93 3c dc 05 94 3e af 27 89 3d
       -0.34728256 0.017976625 0.2891072 0.06697022
000240 09 7e f7 3d e6 0f 4a bf 69 7e 48 3e 23 63 cc be
       0.12084586 -0.7893051 0.19579472 -0.39919385
000250 3c 22 81 3e 44 be 82 be 56 70 52 be 23 89 81 bf
       0.2522143 -0.25535786 -0.20550665 -1.0119976
000260 ba 9a d8 3e 6a 61 fe 3d 44 4a e6 3d ae 16 3c 3f
       0.42305547 0.12420924 0.11244634 0.73472106
000270 02 bf 99 3e 6d 05 97 3e 10 17 17 bf e1 7f 13 3f
       0.3002854 0.29496327 -0.59019566 0.57617
000280 7a 5e 2a be 8b 21 20 3f 31 63 5b be 47 c2 15 bf
       -0.16637602 0.6255118 -0.21424557 -0.5849957
000290 52 67 09 bd d0 dd 8d 3e 7a 73 83 bf fd 63 56 3d
       -0.0335458 0.27708292 -1.0269616 0.05234145
0002a0 49 b8 f1 3e 85 94 81 be 94 89 d1 be 1d 2e 15 bf
       0.4721091 -0.25308624 -0.40925276 -0.5827349
0002b0 1a ac d0 be 97 3e 02 be d9 06 d5 be 05 06 85 3f
       -0.40756303 -0.12719189 -0.41606787 1.0392462
0002c0 10 53 22 bf 8a 83 16 bf 75 85 86 bc 12 2f b8 be
       -0.63407993 -0.5879446 -0.01642106 -0.35973412
0002d0 cd 47 92 3e 16 34 fc be 15 f9 3f 3e 2e 64 fe 3f
       0.28570405 -0.49258488 0.18747361 1.9874322
0002e0 ac 4d 63 3f 29 9a 9d 3f 51 46 9a 3d 01 78 15 bf
       0.8879039 1.2312671 0.07532943 -0.58386236
0002f0 0e f8 b3 be dc e4 cb be b9 bd 17 be 63 a7 f1 3f
       -0.35150188 -0.39823043 -0.14818467 1.8879207
000300 3a 75 e3 be e6 83 34 3f 4a 58 2e 3e 64 94 b2 3d
       -0.44425374 0.7051376 0.17025867 0.087197095
000310 fc 68 38 bf ed 4f 3b bd f5 36 78 3e b3 b4 d9 3e
       -0.72035193 -0.04573052 0.24239714 0.42520675
000320 af d5 36 bf 5c cc b1 bf 9c aa e0 3f 23 df 6f be
       -0.71419805 -1.389049 1.7552066 -0.23424964
000330 47 69 04 40 0d 9e 96 be d6 0f b1 be 20 15 fe 3f
       2.0689256 -0.29417458 -0.34582394 1.9850197
000340 8c 54 8c bf e3 bb c0 bf 2f d9 83 be a6 ad 16 40
       -1.0963302 -1.5057338 -0.25751635 2.3543487
000350 40 0a f0 bf 61 31 68 3f 18 a1 cc bf 86 2d d4 bf
       -1.8753128 0.90700346 -1.5986662 -1.6576393
000360 44 39 8d 3f 0c 4f a4 bf f6 e2 b0 bf 58 68 d1 3f
       1.1033101 -1.2836623 -1.3819263 1.6359968
000370 c0 dd 15 bf ee 46 e4 bf a6 e9 a7 3e 28 3e 45 bf
       -0.5854149 -1.7834146 0.32795447 -0.7704797
000380 14 b1 13 40 fd 5b 8d bf 79 db 79 bf 3f af ec be
       2.307683 -1.1043698 -0.97600514 -0.46227452
000390 11 c8 18 c0 d1 7b f7 bf 27 f7 56 bf ea 99 9b 3f
       -2.387211 -1.9334661 -0.83970875 1.2156346
0003a0 86 05 21 40 b0 42 c5 3f 83 c5 d0 3e 39 c0 28 40
       2.5159621 1.5410976 0.4077569 2.6367323
0003b0 89 af f4 bf cc ab c5 bf 6d 39 e2 bf 38 39 95 3f
       -1.9116069 -1.5443053 -1.7673775 1.1658087
0003c0 1d 3f c8 3f 78 d4 ec bf 94 81 c5 3f 86 b9 ae bf
       1.5644261 -1.850234 1.5430169 -1.3650367
0003d0 87 27 04 40 8d 10 f1 3f ad 73 21 bf 9e 0e ad bf
       2.0649126 1.8833176 -0.6306713 -1.3520086
0003e0 69 79 15 40 3d 0e f4 bf f6 c6 a9 3f 6f 5b 1d be
       2.3355353 -1.9066845 1.3263843 -0.1536691
0003f0 d8 3e b1 bf b8 03 be 3e 2a 39 19 c0 3c c3 a8 bf
       -1.3847303 0.37112212 -2.394114 -1.3184581

lstm.weight_hh_l0 f4 [400, 100]
000000 0f ad b2 3c 45 ad 19 3f 43 22 32 bf df ef 27 bf
       0.021811036 0.60030013 -0.6958353 -0.6560039
000010 78 85 95 bf 64 9d a4 be 4c a8 93 be 8c 1d 31 3f
       -1.1681356 -0.3215133 -0.28839338 0.6918571
000020 2d 7f f7 3e 82 4f a6 be 1d 83 0f bf f3 fa 7a 3e
       0.48339215 -0.32482535 -0.5605944 0.24509792
000030 09 ef 4b 3f f8 73 e3 3e 59 ef 94 be e6 22 99 3f
       0.79661614 0.44424415 -0.29088858 1.1963775
000040 db 08 3d bf 91 80 68 3e a3 b7 0d 3e 4b bc 01 3f
       -0.7384164 0.22705294 0.13839583 0.5067794
000050 58 a7 c4 bf 5d ee 24 3f bd ad 89 3f 8d 4f a0 bf
       -1.5363569 0.64426214 1.0756146 -1.2524277
000060 c3 2e 2a 3d 71 73 2a bf 41 bb 14 bf 14 62 d1 bf
       0.0415485 -0.665824 -0.58098227 -1.6358056
000070 9b 91 89 3e 60 99 06 3f 42 01 49 3f 79 cf 39 bf
       0.268689 0.5257778 0.78517544 -0.72582203
000080 ce 65 50 3f 35 47 12 bf 10 4b 79 bf fb 41 0f be
       0.8140534 -0.57139903 -0.9738016 -0.13990013
000090 3b 23 8f bf 6a 57 a0 bf f0 12 ff be 7f b3 a0 bf
       -1.1182626 -1.2526677 -0.49819136 -1.2554778
0000a0 40 28 e8 3e 0b d4 81 bf 1d cc 2c bf e6 80 3e 3d
       0.45343208 -1.0142835 -0.6749895 0.046509646
0000b0 ad 58 91 bf d7 c3 05 bf a9 e4 56 3f 6b 44 97 bf
       -1.1355187 -0.5225195 0.8394266 -1.1817755
0000c0 77 8b d9 bd 70 b2 d6 3c 36 3d 8b 3f db 84 a8 bd
       -0.10622304 0.026208133 1.0878055 -0.08228465
0000d0 1a 67 4d bf 17 f6 e7 bf de 6a 11 3e 21 18 80 3f
       -0.80235445 -1.8121976 0.14200923 1.0007364
0000e0 92 d3 87 bf 41 d4 58 bf 4d cc ad bf 28 30 16 be
       -1.0611441 -0.84698874 -1.3577973 -0.14666808
0000f0 7b 42 b4 be a6 41 3f bf 6d c4 e4 3e fa 0e 05 3c
       -0.3520697 -0.74709547 0.4468111 0.0081212465
000100 cf b4 8e 3f 90 8b 8c bf e1 4c 2c bf 59 d9 03 bf
       1.1148928 -1.0980091 -0.6730481 -0.5150352
000110 b8 8f ae 3e 8d b1 cd be 34 1d 45 bf 7c e9 cd 3e
       0.34094024 -0.40174523 -0.76997685 0.40217197
000120 b7 e9 97 bf e7 93 f8 3e 17 01 1f bf 56 84 ef be
       -1.1868199 0.4855034 -0.6211104 -0.46780652
000130 10 01 8b be d9 01 d5 3e 53 58 12 bf 83 93 8c be
       -0.27149248 0.41602972 -0.5716602 -0.27456293
000140 ec 07 aa bf 45 42 04 3f 7a b7 3d bc 27 ac 8d bf
       -1.3283668 0.5166362 -0.011579389 -1.1068162
000150 13 f3 8b bf 8c 18 c1 bf 55 05 31 bf ff 67 18 bf
       -1.0933555 -1.5085616 -0.6914876 -0.59533685
000160 dd 7b 00 bf 08 3e 8f bd d3 e7 90 3e 10 9d 92 bf
       -0.50189 -0.069942534 0.28301868 -1.1454182
000170 71 96 9d bd cc 1f e0 bf 4a 74 3d bf 2a 22 0c 3e
       -0.0769471 -1.7509704 -0.7400557 0.13684908
000180 b2 b2 8d 3e 36 e8 ce bf 44 cc fa 3f 32 ba 1a be
       0.27675396 -1.6164615 1.9593587 -0.1511009
000190 37 07 82 3e 38 18 6a 3e d1 9b a8 3f 31 84 92 be
       0.2539613 0.22860801 1.3172551 -0.2861648
0001a0 ee e7 63 3f e0 74 32 3f ca 47 03 be 0c 1c 44 3f
       0.8902577 0.6970959 -0.12820354 0.76605296
0001b0 12 f8 0a bf f7 a4 2a bf 80 97 4f bf 9f eb 37 40
       -0.54284775 -0.66657966 -0.81090546 2.8737562
0001c0 8a 29 4f bf 15 6c 4e 3f 19 81 03 bf 4a 25 a9 be
       -0.8092276 0.8063367 -0.5136886 -0.33036262
0001d0 07 ef 31 3f b5 9c 1f 3d 03 c2 e8 be 51 bc 8b 3f
       0.6950535 0.038967807 -0.4546052 1.0916845
0001e0 7b 12 07 bf 34 07 8a bf bb 3b dd bd ad bf 22 3f
       -0.52762574 -1.0783448 -0.10802408 0.63573724
0001f0 ac 29 b8 3f ab b7 62 3f d3 81 ff 3e 82 93 f3 be
       1.4387717 0.88561505 0.49903736 -0.47573477
000200 78 51 b4 be bc e0 4c be 2c 9f 26 3c 10 d3 21 3e
       -0.35218406 -0.20007604 0.0101697855 0.1580317
000210 8f a1 cd 3e 95 78 b9 3f ed 69 27 3f 93 b1 f6 3f
       0.40162322 1.4489924 0.65396005 1.9272941
000220 0f 88 a3 bf 28 de 91 3e 01 da 50 bf 62 16 7f 3f
       -1.2775897 0.28489804 -0.8158265 0.9964353
000230 77 0a 47 3f aa 12 a1 3f 7f b9 1a 3f 47 69 56 bf
       0.77750343 1.2583821 0.60439295 -0.8375439
000240 bc 27 bd 3f c7 f4 b7 3e 9f 40 57 3f 19 be aa bf
       1.4777751 0.35928938 0.8408298 -1.3339263
000250 94 12 d7 3f bf b1 45 bf 04 40 5d 3f c6 b4 1a 3f
       1.6802545 -0.77224344 0.86425805 0.6043209
000260 1d c9 00 bf 0b 57 94 3f 8d 3a c1 bf 7d bb 0a bf
       -0.50306875 1.1589063 -1.5095993 -0.54192334
000270 d6 5a 5d 3f 8d 60 24 3d 09 5f 44 3f 98 45 a7 3f
       0.8646673 0.04013114 0.7670751 1.3068113
000280 43 ab 55 bf c8 81 8c 3f 99 9a 82 3f 6a 0f 9f bf
       -0.8346445 1.0977106 1.020343 -1.2426579
000290 0a 75 d5 be 82 50 25 3f 85 e2 e7 3e cc d8 a3 3f
       -0.41690856 0.6457597 0.45290008 1.2800536
0002a0 94 10 59 3f b0 eb bd 3e 99 43 90 bf 02 72 64 be
       0.8479092 0.37093878 -1.1270629 -0.22309116
0002b0 aa 9c 84 3f 6d 50 0e bf cb ea 85 3f 0e 89 88 3e
       1.036031 -0.5559147 1.0462278 0.26667064
0002c0 68 db c6 3f ed bb bd bf 7d d7 cc 3f a3 2b 91 3f
       1.5535707 -1.4822975 1.6003262 1.1341442
0002d0 e1 36 46 3f b4 aa 0d 40 40 7a 8f bf 2e fb e7 be
       0.7742749 2.213544 -1.1209183 -0.45308822
0002e0 cc 87 71 3f 82 e5 24 3f e7 b6 4f 3f 4d 13 c3 bf
       0.94347835 0.644127 0.8113846 -1.5240265
0002f0 f1 5d a0 3f 32 4a f4 3e 24 4b 90 bf f3 eb ce 3e
       1.2528669 0.47712857 -1.1272931 0.4041439
000300 7e 4e fb 3f a2 0a ac 3e 0f 6f 71 3e 3c aa ea bf
       1.9633329 0.33601862 0.23577522 -1.8333201
000310 8d 1f 76 bf 11 78 bb be 32 de 33 3f 32 66 06 c0
       -0.9614189 -0.3661504 0.7026092 -2.0999875
000320 59 01 60 bf c7 0f ee 3e d6 86 2e 3f 2f 60 35 3f
       -0.87502056 0.46496412 0.68174493 0.7084989
000330 3c e7 f6 bd fb 85 86 be 9f c6 8a bf a8 a8 ca 3e
       -0.12055823 -0.26274094 -1.0841864 0.395818
000340 32 62 41 bf d3 76 27 bf cc b1 06 bf b8 26 2e 3f
       -0.7554046 -0.65415686 -0.52615047 0.6802783
000350 9c cc 69 be ae 84 95 bd cb b4 3b bf 18 45 be be
       -0.22831959 -0.07300697 -0.73322743 -0.3716209
000360 df be 97 be c3 6e 13 3d a5 f3 6b bf fb 1e cf be
       -0.2963781 0.035994302 -0.9216865 -0.40453324
000370 9e af 9b bf 0e 11 b2 be a4 c6 f9 3e 93 57 76 be
       -1.2162969 -0.34778637 0.48784363 -0.24056844
000380 bb 77 5e 3e b0 ed 3e bf 7b a9 9e be e4 68 36 bf
       0.21725361 -0.7458143 -0.30988678 -0.712538
000390 8f 74 8c be 35 ec b1 be 42 f0 f5 3e 33 60 1f bf
       -0.27432677 -0.34750524 0.48034865 -0.62256163
0003a0 7d a6 b1 3e 55 21 29 be c3 5a 49 3e 16 39 30 3f
       0.34697333 -0.16516621 0.19663529 0.68837106
0003b0 60 91 40 be c5 02 26 bf 15 0e c1 bb 01 ac 99 bd
       -0.18805456 -0.64847976 -0.0058915713 -0.0750351
0003c0 a8 20 8e be dd 23 78 be d4 6b 23 3f 94 43 50 bf
       -0.2775929 -0.24232431 0.6383641 -0.81353116
0003d0 a1 36 9a 3e 0b d5 8c 3e 0a 35 6a bf d0 4c 8e be
       0.30119804 0.2750629 -0.9148718 -0.27792978
0003e0 85 bc 33 3e 26 d5 8f be fa 0e b6 3e 73 81 bd bd
       0.17552383 -0.28092307 0.355583 -0.09253206
0003f0 69 65 9d bf d7 2b 2e bf 00 d4 26 bf 8b 29 76 3e
       -1.2296573 -0.68035644 -0.65167236 0.24039285

lstm.bias_ih_l0 f4 [400]
000000 2f 28 89 bf d7 83 5a bd 11 d6 ad bf 62 6c 11 bf
       -1.0715388 -0.05334839 -1.3580953 -0.56806004
000010 77 b4 93 be f0 a2 78 3e cb 91 a2 3e 13 77 09 bf
       -0.2884862 0.24280906 0.31751856 -0.5369732
000020 dc 70 8c be 78 cf 6d bf b8 78 96 bf 7b 34 06 bf
       -0.27429855 -0.928947 -1.175559 -0.5242383
000030 3b 84 75 be 3a a1 7e bf 55 e0 11 bf 69 b4 8b be
       -0.23976223 -0.9946476 -0.5698293 -0.2728608
000040 e5 4c 9a bf 11 1a 88 bf bb 85 6d bf d9 a2 40 bf
       -1.2054716 -1.0632955 -0.9278218 -0.75248486
000050 5e df 83 bf ab 91 7d be 07 bd 9a bf 00 01 66 bf
       -1.0302541 -0.24762599 -1.2088937 -0.89845276
000060 c1 42 3b bf c4 8f 72 be 08 a0 37 bf d1 b7 b0 be
       -0.73148733 -0.23687655 -0.71728563 -0.3451524
000070 cd 74 11 bf 56 be bf be 17 e0 19 bf b5 d8 60 bf
       -0.5681885 -0.37449902 -0.6010756 -0.8783067
000080 ca 07 91 3e 0e cd 9a bf 08 7b 48 bf d2 7b 21 bf
       0.28326255 -1.2093828 -0.7831273 -0.6307956
000090 82 3e 04 bf b5 95 94 bf 54 32 a9 be 01 87 99 bf
       -0.5165788 -1.1608187 -0.3304621 -1.1994325
0000a0 90 27 ee be fd eb 6a 3e 75 db a7 bf 1b 6b 68 bf
       -0.4651456 0.22941585 -1.3113848 -0.9078843
0000b0 9b ba 36 bf 17 97 b2 be a2 23 74 bf 14 ce 59 be
       -0.7137849 -0.34880897 -0.9536687 -0.21270019
0000c0 4b da 96 be 4a 06 0d bf 57 8f dc be e9 0b b4 bf
       -0.2946342 -0.5508772 -0.4307811 -1.4066135
0000d0 9a d8 98 be db 95 35 bf 36 0c d9 be 8f cc 13 bc
       -0.29852754 -0.70931786 -0.4239213 -0.009020939
0000e0 dc b8 9f 3e 45 fd ca bf 73 a9 02 c0 2d 87 49 bf
       0.31195724 -1.5858542 -2.0415924 -0.78721887
0000f0 f7 bf ff 3d 69 80 49 bf 24 75 ec 3d 2a 3c 8b be
       0.12487786 -0.78711563 0.1154578 -0.2719434
000100 f5 d6 7d bf d9 bb 33 bf ff 48 99 bf de 59 72 bf
       -0.99156123 -0.7020851 -1.1975402 -0.94668376
000110 16 4c 15 c0 44 2c 0e bf d6 31 46 bf ac 9c 66 bf
       -2.332769 -0.55536294 -0.77419794 -0.9008281
000120 b0 a7 7a bf 88 2e 00 c0 ba a9 17 bf 6e 35 e7 bf
       -0.9791212 -2.00284 -0.5924336 -1.806318
000130 5b 6b b8 bc da 60 6b be b2 86 a7 3e a6 75 03 be
       -0.022512129 -0.22986165 0.32719952 -0.12837848
000140 dc df bc bf 76 3e 2a bf 43 c1 0b bf 01 03 c3 be
       -1.4755816 -0.6650156 -0.5459177 -0.3808823
000150 6d 6b 31 bf 91 d1 f2 be c1 e0 dc be c8 26 e4 be
       -0.69304544 -0.4742551 -0.43140224 -0.44560838
000160 0d 01 59 bf 0d 64 51 bf 99 95 e9 be de b7 30 bf
       -0.8476723 -0.8179329 -0.45621946 -0.6903056
000170 38 1d 0d 3f 38 a7 04 3e 25 02 24 c0 06 50 54 3e
       0.5512271 0.12954414 -2.562631 0.20733652
000180 be 2b 3c bf 3a 2c 5c bf c2 47 88 bf 4b f2 bd 3e
       -0.73504245 -0.86004984 -1.0646899 0.37098917
000190 07 b5 25 bf 62 9c b5 3d 16 26 73 bf 55 92 ce be
       -0.6472935 0.08867718 -0.9497999 -0.40346017
0001a0 03 36 ec be 4f 3f ad be 7a e2 1d bf 56 1a 34 bf
       -0.46134958 -0.33837363 -0.616737 -0.70352685
0001b0 33 fc 8d be 3f 96 57 bf 66 5c 8a bf 66 8f 68 bf
       -0.27731475 -0.8421363 -1.0809448 -0.9084381
0001c0 32 19 23 bf 27 65 8e bf 8e c3 ee be d2 2f ab be
       -0.6371032 -1.1124619 -0.4663357 -0.33434922
0001d0 04 21 2a bf d9 37 61 bf ff 68 3e bf 87 95 3e bf
       -0.6645663 -0.8797584 -0.7437896 -0.7444691
0001e0 a0 92 2c bf 5d 6d 0f bf 2a da 97 bf c0 9a 5d bf
       -0.6741123 -0.5602625 -1.1863453 -0.86564255
0001f0 b2 65 04 bf 81 39 41 be 8f 7e b5 be 5a c8 08 bf
       -0.51717675 -0.18869592 -0.3544812 -0.5343071
000200 0a e7 38 bf 33 41 db be 09 1e 37 bf 39 2b 2c bf
       -0.7222754 -0.4282318 -0.71530205 -0.6725345
000210 a6 fb 62 bf 90 81 48 bf 1e 63 6a bf 68 6c ad bf
       -0.88665235 -0.78322697 -0.9155749 -1.3548708
000220 1a 36 24 bf f5 88 66 bf 6d fb da 3b 2c f2 3c bf
       -0.6414505 -0.9005273 0.0066828043 -0.73807025
000230 fe 12 b4 bf 6e 23 63 bf e5 63 8d bf df 3b 56 bf
       -1.4068296 -0.88725936 -1.104611 -0.83685106
000240 97 3a 85 bf ec 69 3c bf 2f 4a 8f be e2 7e eb be
       -1.0408505 -0.73599124 -0.27986285 -0.4599524
000250 32 08 85 bf af bd 26 bf 76 f1 81 bf 41 a7 61 bf
       -1.0393126 -0.65133184 -1.0151813 -0.88145834
000260 46 28 c1 be 29 28 87 bf ec e3 50 bf 3f f9 97 bf
       -0.3772604 -1.0559131 -0.8159778 -1.1872939
000270 b3 06 7c 3e f9 87 8f bf 05 48 53 bf fa 55 ac bf
       0.2461193 -1.121337 -0.8253177 -1.3463738
000280 ba 8b c3 be af 2f 0f bf 5e 91 3c bf b3 0a 18 bf
       -0.3819254 -0.55932134 -0.7365931 -0.59391326
000290 10 70 bb bf a4 06 2e bf 55 c5 b4 bf df 55 7d bf
       -1.4643574 -0.6797888 -1.4122721 -0.98959154
0002a0 58 08 c7 bf df 31 a0 bf 90 53 04 bf 15 b0 bd be
       -1.5549421 -1.251522 -0.51690006 -0.37048402
0002b0 0a 29 81 bf 3f 9b 4b bf 67 37 57 bf e1 93 7a bf
       -1.0090649 -0.7953376 -0.8406891 -0.97881895
0002c0 95 68 94 bf 0e 44 0d bf a4 1b 6f bf f8 f8 12 bf
       -1.1594416 -0.5518197 -0.9340155 -0.57411146
0002d0 65 7d 41 bf d5 6b fb be b9 cc 80 bf 74 00 2a bc
       -0.7558196 -0.49105707 -1.0062476 -0.010376085
0002e0 e0 95 66 bf 24 1a 59 bf 84 b0 ce be 3b 7a 3a bf
       -0.9007244 -0.8480551 -0.40369046 -0.7284276
0002f0 02 22 46 bf 7c 0b da be 9d 1b 8b bf 00 d9 f1 be
       -0.7739564 -0.42586887 -1.0867802 -0.4723587
000300 c6 b6 46 be bf 3b ec be 2b 96 5c bf a5 5a 5d bf
       -0.1940566 -0.46139333 -0.8616664 -0.8646644
000310 8a eb 45 bf de 89 29 bf 7e c9 57 bf 38 24 23 bf
       -0.7731253 -0.66225994 -0.8429183 -0.6372714
000320 c2 f7 e2 bd b4 4b 09 3f 76 fe 20 be 0d 16 e9 3c
       -0.11082412 0.5363114 -0.15722069 0.028452897
000330 e8 a6 25 bd bc 49 81 bc 1d 5c 25 be 43 38 38 bd
       -0.040442377 -0.01578223 -0.1614842 -0.04497553
000340 b2 17 d1 3d 0d e0 95 3d 49 1d 5a 3d af c3 d2 bd
       0.10209598 0.07318125 0.053250585 -0.1029123
000350 84 53 d5 3d 4e e7 21 bc db 59 f2 3d a9 8e 2b 3d
       0.1041632 -0.0098818075 0.11833545 0.0418841
000360 50 56 07 be 5b fd 28 3e 1d b1 10 bd d3 76 11 be
       -0.1321652 0.16502897 -0.03532516 -0.14205484
000370 9a 97 e8 3c cf ba 8d 3c 34 43 0d be 1e fb b0 bd
       0.028392602 0.017300991 -0.13795167 -0.08641647
000380 6f 78 3d be 7a 4a 8e bd cf 46 22 be e3 79 83 3e
       -0.18502973 -0.06947799 -0.15847324 0.2567893
000390 ac 34 75 be 84 ea 19 3e b2 e0 26 3e 12 11 26 be
       -0.23945874 0.15030867 0.16296652 -0.1621745
0003a0 29 dd 18 be 08 a0 27 3d d7 7a fe bd ce b8 40 bc
       -0.14928116 0.040924102 -0.124257736 -0.011762811
0003b0 7e 19 a5 3c f3 4c 3b 3c c3 58 37 3e 10 0f c8 bd
       0.020153757 0.01143192 0.17904954 -0.09768498
0003c0 06 1f 69 be 00 c7 7b 3e 7a df 8c bd d3 21 ab 3d
       -0.22765741 0.24587631 -0.06878562 0.08356061
0003d0 5d 00 09 be 67 79 39 be c3 03 42 be 3f d8 83 3e
       -0.13379045 -0.18112718 -0.18946747 0.2575092
0003e0 00 4c 82 bd f9 bc 24 bb fe 09 44 3c 6f e4 f7 bc
       -0.06362152 -0.002513705 0.011965273 -0.030260293
0003f0 0d 44 14 3e f8 00 56 bd ce c6 a2 3d f8 ad 06 3d
       0.14479084 -0.052247018 0.07948075 0.032880753

lstm.bias_hh_l0 f4 [400]
000000 cb c4 82 bf 5b 25 89 bd da 8f af bf 9d 09 18 bf
       -1.0216306 -0.06696578 -1.3715775 -0.5938967
000010 18 f0 e4 be 41 75 65 3e a8 02 a1 3e 71 bb 13 bf
       -0.44714427 0.2240801 0.3144734 -0.5770789
000020 f9 d9 de be 4b ba 82 bf 24 36 83 bf de cd f1 be
       -0.43525675 -1.0213102 -1.0250897 -0.47227377
000030 9b 30 80 be ab f5 75 bf a9 6a 16 bf dc ce 78 be
       -0.25037083 -0.96077985 -0.587565 -0.2429766
000040 00 65 a9 bf a9 e0 85 bf a4 1f 71 bf b2 7a 42 bf
       -1.3233948 -1.0459186 -0.94188905 -0.7596847
000050 8a 18 81 bf 67 11 a1 be d3 db 8a bf de 5c 50 bf
       -1.0085614 -0.3145859 -1.0848335 -0.81391704
000060 62 91 14 bf 11 a0 4b be de f8 37 bf 5b 6f ac be
       -0.58034337 -0.19885279 -0.71864116 -0.33678707
000070 e2 be 19 bf 83 54 08 bf b8 00 13 bf 84 1d 70 bf
       -0.6005689 -0.53253955 -0.5742297 -0.9379504
000080 bc 26 de 3e 8d 93 a6 bf 43 1b 4a bf 50 6f 37 bf
       0.43388927 -1.3013779 -0.7894785 -0.71654224
000090 38 2c 12 bf 8b 58 98 bf d8 15 89 be ad 0f 8d bf
       -0.5709872 -1.1902021 -0.26774478 -1.1020409
0000a0 10 6b 19 bf ca 36 a7 3e bc 57 aa bf ad 17 6b bf
       -0.5992899 0.32658988 -1.3308024 -0.91833
0000b0 11 0a 57 bf 53 09 aa be c7 8d 67 bf 39 f5 99 be
       -0.83999735 -0.3321024 -0.9045071 -0.30069903
0000c0 2e 42 be be 46 45 27 bf 88 a1 9f be 54 f8 b3 bf
       -0.37159866 -0.6534008 -0.31177926 -1.4060159
0000d0 10 56 dd be 91 54 24 bf 06 82 c0 be 43 d5 0a be
       -0.43229723 -0.6419154 -0.375992 -0.13557915
0000e0 df 46 b7 3e cc fb c9 bf a4 51 f7 bf ee 7d 46 bf
       0.35796258 -1.5779967 -1.932179 -0.77535903
0000f0 74 d5 8f 3e 10 88 36 bf 0c da 2c 3e 9e 75 b4 be
       0.2809254 -0.71301365 0.16880053 -0.35245985
000100 45 4f 96 bf 13 4c 2c bf 80 cf 9c bf 2d 5e 69 bf
       -1.1742941 -0.6730358 -1.2250824 -0.91159326
000110 7a 83 14 c0 a6 0a 0b bf 0d 29 2f bf e5 19 62 bf
       -2.3205247 -0.54313123 -0.68422014 -0.8832076
000120 61 15 80 bf c5 5f f9 bf 57 ae 10 bf 82 75 e4 bf
       -1.0006524 -1.9482352 -0.5651602 -1.784836
000130 5c 8f 07 be d7 c2 69 be 6e 58 b9 3e 03 23 ae bd
       -0.13238281 -0.22828232 0.3620028 -0.08502772
000140 52 d6 bd bf 1a b2 13 bf 80 7f 19 bf fe a1 66 be
       -1.483103 -0.57693636 -0.59960175 -0.22522733
000150 0e cb 26 bf b6 bb f2 be 39 b8 d9 be d6 70 ce be
       -0.65153587 -0.47408837 -0.42523363 -0.40320462
000160 52 0d 49 bf 62 ae 3b bf 07 9c fc be 43 9d 3b bf
       -0.7853595 -0.7331296 -0.4933779 -0.7328684
000170 4f 64 f6 3e 9a 57 09 3e 92 fc 25 c0 94 1c 35 3e
       0.48123404 0.13412324 -2.5935407 0.17686683
000180 d1 16 61 bf 7f 3b 56 bf cd b5 7f bf 85 2a a5 3e
       -0.8792544 -0.83684534 -0.9988678 0.32259002
000190 31 b6 1c bf 3f f0 dc 3d 9c 44 85 bf 31 52 e1 be
       -0.612155 0.10788011 -1.0411563 -0.4400802
0001a0 9c d9 22 bf 98 50 9f be c7 9e 28 bf c3 93 37 bf
       -0.63613296 -0.31116176 -0.65867275 -0.7170984
0001b0 80 ae d4 be d8 68 3c bf 7c 77 8a bf 04 d2 55 bf
       -0.41539383 -0.7359748 -1.0817714 -0.83523583
0001c0 01 fe 0d bf 32 a5 8c bf bc 4f 0c bf 1b 9e bd be
       -0.55465704 -1.0987914 -0.54809165 -0.37034687
0001d0 1d d3 3b bf 6f 07 74 bf a7 97 3a bf a5 58 35 bf
       -0.7336901 -0.9532384 -0.72887653 -0.70838386
0001e0 56 d4 24 bf ed cc 1d bf f9 b1 94 bf 6a 04 51 bf
       -0.643865 -0.61640817 -1.1616813 -0.8164736
0001f0 9a 61 02 bf 4b b0 52 be 76 14 cf be f9 ea ee be
       -0.5093018 -0.20575063 -0.40445298 -0.46663645
000200 b9 c1 3e bf 96 ed 85 be be dd 5e bf 82 07 3c bf
       -0.7451435 -0.26157826 -0.870571 -0.73448956
000210 0b 72 51 bf fb a3 67 bf 71 df 63 bf c1 d7 96 bf
       -0.8181464 -0.9048459 -0.8901282 -1.1784593
000220 cd 58 33 bf 79 44 51 bf 85 04 af bd 9e fe 40 bf
       -0.70057374 -0.81745106 -0.08545784 -0.75388515
000230 e9 3c a4 bf f6 27 33 bf 1f 1a 89 bf 78 a7 64 bf
       -1.2831088 -0.6998285 -1.0711097 -0.8931804
000240 ee d5 76 bf ec 45 33 bf 8d 55 af be 78 76 1a bf
       -0.9642018 -0.7002857 -0.34244958 -0.6033702
000250 6c 12 89 bf ad 4a 31 bf a5 37 64 bf fc e7 5f bf
       -1.0708747 -0.6925457 -0.89147407 -0.87463355
000260 18 58 c3 be 96 82 86 bf 6b 3a 48 bf 97 c4 96 bf
       -0.38153148 -1.0508602 -0.7821414 -1.1778744
000270 3b d8 00 3e 8b 37 8b bf 9a 9f 77 bf 79 3a b4 bf
       0.12582485 -1.0876325 -0.9672791 -1.4080344
000280 d4 a6 f8 be c6 8f 1a bf 0f 99 36 bf 2e a1 21 bf
       -0.4856478 -0.6037563 -0.713273 -0.63136566
000290 0d 13 c9 bf f6 eb 31 bf b6 87 be bf f3 98 65 bf
       -1.5708939 -0.6950067 -1.4885166 -0.89686507
0002a0 cd 9f bf bf e4 44 a0 bf e1 1d 0d bf 26 c6 d6 be
       -1.4970642 -1.2521024 -0.55123717 -0.4194805
0002b0 3a 64 7b bf 99 f4 59 bf e1 b8 29 bf 19 6e 6b bf
       -0.9819981 -0.8513885 -0.6629773 -0.9196487
0002c0 92 97 87 bf 89 af 0e bf 57 44 6b bf 43 04 e3 be
       -1.059313 -0.55736595 -0.91901153 -0.4433919
0002d0 b0 ff 14 bf a1 1e 01 bf 62 64 84 bf b6 d1 9a bd
       -0.5820265 -0.5043736 -1.0343134 -0.075595304
0002e0 2b 4b 43 bf 80 fb 51 bf 88 73 04 bf ff dc 37 bf
       -0.7628657 -0.82024384 -0.51738787 -0.7182159
0002f0 75 cd 2e bf a3 b3 0a bf 05 58 9a bf 47 3c cd be
       -0.6828225 -0.54180354 -1.2058111 -0.4008505
000300 f8 9f 22 bd 53 b1 c4 be 38 82 80 bf 90 1f 44 bf
       -0.03970334 -0.38416538 -1.003974 -0.7661066
000310 e1 3d 4e bf 0c 9f 27 bf 4b ba 55 bf 90 d1 23 bf
       -0.8056317 -0.6547706 -0.83487386 -0.6399164
000320 95 7d 65 be 8d e7 14 3f 76 e4 c1 3c 25 ff 3e 3e
       -0.22411187 0.5816582 0.023668509 0.18652017
000330 e0 de 1f be 27 6b 01 be 8e b1 9e bd 11 d3 00 be
       -0.15612364 -0.12638532 -0.077487096 -0.12580515
000340 c4 b1 06 3e fa 84 c4 3d 87 3d 55 bd 24 b1 96 bb
       0.1315375 0.09595676 -0.05206063 -0.0045987535
000350 e3 2b 13 3e cf 2a 81 bd b9 b7 12 bd 80 07 3b 3d
       0.1437221 -0.06306993 -0.035819743 0.04566145
000360 d1 38 c1 bd 5e 89 1b 3d 41 89 c6 3d 36 e1 32 be
       -0.09434665 0.0379728 0.09694148 -0.17468724
000370 d7 55 84 3d e2 73 dd 3d bb 6d 04 bd ad 5a 14 bd
       0.06461685 0.108131185 -0.03233121 -0.036219288
000380 14 0b bb bc 07 ff c8 bd 2d 46 39 be d3 b8 4f 3e
       -0.02283243 -0.098142676 -0.18093176 0.20285349
000390 10 dd 12 be bd bb fa 3d 79 d2 1e 3e ce 7a c4 bd
       -0.14342141 0.122428395 0.15509976 -0.09593736
0003a0 f5 98 21 be 7c c7 8f 3c 97 5a 44 be 6f 57 48 3c
       -0.15781005 0.017551176 -0.19175182 0.012227877
0003b0 01 ad b4 3c c8 9f 83 3d 2b 47 63 3e 3e bc 02 be
       0.022055151 0.0642696 0.22195117 -0.12767121
0003c0 c2 4f 98 be fa 24 16 3e 65 e8 86 bd aa ad a8 bc
       -0.2974835 0.14662543 -0.065872945 -0.020590622
0003d0 42 48 2e 3c 4f d8 6c be 58 2d 53 be 32 9c 43 3e
       0.010637345 -0.2312939 -0.20622766 0.19102553
0003e0 35 5a fb bd a0 51 4c 3d b4 1a 44 bd dc f8 f4 3c
       -0.12273065 0.04988253 -0.04787703 0.029903822
0003f0 56 c1 76 3d 4d af 91 bd 5f e6 2e 3e 19 a7 70 3c
       0.060242973 -0.07113514 0.17080067 0.014688277

linear.weight f4 [1, 100]
000000 66 9c ad 3c a8 dc c2 3d 7e e5 98 3d ab 11 cf 3a
       0.02119274 0.09514743 0.07465647 0.0015798112
000010 2a a6 c9 3d 55 ea 01 3e 04 6d 06 bd 87 55 30 3d
       0.098461464 0.12687047 -0.03281881 0.043050315
000020 26 81 ec bd df b6 3b bd cb 7b ce 3d 26 19 c3 3e
       -0.115480706 -0.045828696 0.100822054 0.38105124
000030 5c f7 5e bd 03 f1 58 bd 30 42 9d bd c8 de 01 be
       -0.05443512 -0.05296422 -0.0767864 -0.1268264
000040 1e 75 1c bc 7f 68 a9 bd b1 9d d9 bd a9 e7 2c 3c
       -0.009549407 -0.08271884 -0.106257804 0.010553279
000050 a3 54 c5 bd 73 12 8b bd 93 43 b8 bd 6e f4 98 3c
       -0.09635284 -0.06790628 -0.08997264 0.01867124
000060 b6 1e 62 3d 31 b1 c7 3c 18 7c db 3d 1a 67 37 bd
       0.05520507 0.024376484 0.107170284 -0.04477606
000070 f7 0e b2 be f4 a2 23 bc d6 e5 b4 3a f7 20 63 bd
       -0.34777042 -0.0099875815 0.0013801407 -0.05545136
000080 9e ef e9 3d f4 85 f6 3d 12 43 88 3b 9b 87 35 3e
       0.114226565 0.12037268 0.004158386 0.1772751
000090 46 e0 a9 3c 4e 59 d2 bd 04 a0 27 be 74 70 3c bc
       0.020736825 -0.1027094 -0.16369635 -0.01150142
0000a0 0b d2 40 bb c4 44 0d be 59 ed a6 3d d6 12 a6 bd
       -0.002942207 -0.13795763 0.08150739 -0.081090614
0000b0 c4 0d 8a 3d c7 1b 1a 3d 71 90 98 3e 2e 46 b1 bd
       0.06740907 0.037624147 0.297977 -0.08655964
0000c0 06 87 5a 3c 83 20 d6 bd 40 f9 3f 3e 75 69 c6 3d
       0.013337856 -0.1045542 0.18747425 0.09688083
0000d0 9e 18 a3 bd 67 1c 60 3c dc 31 19 3b fe c1 5f 3e
       -0.0796368 0.013678647 0.0023375666 0.21851346
0000e0 c1 59 eb bd 39 af 23 3c a9 54 a4 3d f7 bd 15 3d
       -0.114917286 0.009990507 0.0802396 0.036558118
0000f0 1f 3b ae bc 5a 52 3f 3d 88 76 f1 3d 68 03 10 3d
       -0.021268426 0.046709396 0.11790186 0.0351595
000100 90 76 9a 3e 2a 71 e7 3c 7a e6 5c be 5e 38 bb 3e
       0.3016858 0.028252203 -0.21572295 0.36566442
000110 29 cf 94 3d f6 94 9a bd 2a 3a 29 bd 98 50 1a 3b
       0.07266075 -0.07547943 -0.041315235 0.0023546573
000120 9b ae a5 3c 09 3d b3 bc 9a 30 d7 3d db 54 1f 3c
       0.02022486 -0.02187969 0.10507317 0.009724821
000130 19 98 93 3d dc 51 45 be 7b 3d 18 3e 53 8e b9 3d
       0.07206745 -0.19269508 0.14867203 0.09060349
000140 7d 0e 0e 3d 8f 49 2a 3e dc 4b 53 bd 7b d9 fa 3b
       0.034681786 0.16629623 -0.051586017 0.00765532
000150 61 0f 9e 3c 0c bf 62 b9 94 2f 93 3d 32 ef 27 be
       0.019294443 -0.0002162421 0.07186809 -0.1639984
000160 f7 79 87 3d 31 c8 77 bd 41 8f 98 bd 4b 07 ff bc
       0.0661506 -0.06049365 -0.074491985 -0.031131407
000170 6d b2 fb 3e 24 f4 20 3e ad b6 e4 bc 3c d0 1d be
       0.49159566 0.15718132 -0.027919138 -0.15411466
000180 77 bb 00 be d4 38 c2 bd fc 9f 09 3e b3 ec 43 be
       -0.12571512 -0.09483495 0.13439935 -0.19133262
