BodelLigging/Lobith Haven_bodemligging_V1.pt (torch, 661983 bytes, 5 tensors)

lstm.weight_ih_l0 f4 [400, 1]
2.8614562 0.8057856 1.8511205 -0.10100442 -1.7226292 2.1971054 -1.9598398 -3.5973623
1.7046504 -0.76029783 1.1345966 -2.0706005 1.4353586 0.91190934 -1.2202843 -0.50509834
-0.14519931 0.45722687 -2.0362787 1.6471375 -1.234668 -2.384428 -0.9670676 -2.441322
-2.0409625 1.1278313 2.3232765 2.2453089 -1.3567209 1.8399357 1.289752 2.4993424
-1.3390692 1.8608935 2.8488991 -0.21591294 1.9956887 -1.9043528 -1.3075844 1.7263968
-0.7676361 0.43225393 1.8139856 -0.8423459 1.7163515 1.9550848 -1.1056405 1.5891448
-5.9604 -0.17885663 2.1817083 0.8142548 1.4772513 -0.5762939 2.4783678 -1.4242917
1.9891915 1.6327648 -1.1357124 1.2164515 -0.06579685 -3.204208 0.9636443 0.38412827
2.315397 1.8629825 -1.1949744 3.265343 2.9278793 -1.0431639 -0.0049644103 2.8394446
1.3987994 -0.8012459 -2.5011208 1.2092515 1.8448848 -1.4148287 -1.1293901 1.5510669
-1.5304592 -1.0935678 -1.32093 0.79966044 1.7002319 1.7864741 1.8753053 2.7845216
-1.3750752 1.9082569 -7.2187424 1.0352274 0.4874747 -0.90575796 2.3855395 2.28913
-1.6290869 1.3940675 1.7075961 1.5534036 -0.5491244 -1.5916808 -2.0837204 1.1523808
-0.054348912 -1.0323794 0.15804294 -1.3638593 -2.0456328 -2.8690295 -0.88876456 -0.8442842
0.48261172 -2.8658772 0.4341411 -0.79221326 1.6820093 -2.381732 -0.73758554 -0.40746856
-0.7264578 -0.024817362 -1.1302371 -1.4852775 -0.9321814 -1.0110563 -0.74981666 -2.7147603
-0.85486174 1.8659348 -1.4511753 -1.5569609 0.6554941 -2.1272395 -1.9980707 -0.28068447
-2.567848 -1.4030582 0.3434074 -0.8837914 -0.86153907 -1.9354104 -3.1536577 -0.58580565
1.2255433 0.0044328244 -0.8718891 -0.7312699 0.39949355 0.52304155 -3.4066033 0.33597338
-3.3290715 -1.7617046 -1.1684058 -1.1925305 -2.1704004 -0.6202708 -1.4136075 -0.16325209
-0.9040581 -2.6501298 -2.9691083 -1.5817958 -0.003961745 -0.66984284 -0.5979246 -2.2875898
-1.8306967 0.42711508 -1.9122515 -2.710833 -1.0341792 -3.643317 -0.62001944 -1.8288966
-0.8063103 -0.8255906 -0.8075174 -2.073229 -0.92731345 -0.8138308 -0.844361 -3.3031616
-1.0620228 -1.2514431 -0.84768444 -1.7210171 -1.147462 1.4005331 -0.088024326 -0.7394509
-0.47854865 -0.8472711 -1.6753328 -0.6295908 -0.4292585 -0.38806072 -1.9965752 0.12090243
0.6383199 -1.6864176 -2.661909 2.1987224 -1.619694 0.26567644 0.31434909 -0.03714716
-1.4241812 -1.1055619 0.44796848 -2.2205925 -1.5405407 -1.7409897 -0.10197165 -0.17818959
2.3978865 -0.9065651 -0.313964 -1.8787574 0.10999603 0.09536412 -0.29343268 -0.6340768
1.763896 0.47542655 1.5340488 -1.4724308 0.018861936 2.2672377 -0.77847344 -1.5839832
-0.7557256 -1.65013 -1.1228173 -1.0391407 1.9743837 -0.7584016 -1.3012333 -0.46005732
-0.16229598 -0.57581973 -1.8648322 -0.20933565 2.0115047 -2.0655103 -0.70451075 -1.244888
-1.1488205 2.8912468 0.25785434 0.42804256 1.2796458 0.43823534 -1.3644387 -0.64395607
00000000: 1922 3740 f747 4e3f 84f1 ec3f 68db cebd
00000010: 1d7f dcbf 609d 0c40 08dc fabf 2f3b 66c0
00000020: fc31 da3f e1a2 42bf 763a 913f b884 04c0
00000030: d5b9 b73f e472 693f 4732 9cbf 204e 01bf
00000040: 21af 14be a419 ea3e 6452 02c0 67d5 d23f
00000050: 9a09 9ebf 789a 18c0 be91 77bf 9f3e 1cc0
00000060: 219f 02c0 c75c 903f 90b0 1440 24b3 0f40
00000070: 08a9 adbf 0383 eb3f 9816 a53f 3af5 1f40
00000080: 9f66 abbf c231 ee3f 5d54 3640 4818 5dbe
00000090: ba72 ff3f d5c1 f3bf ed5e a7bf 92fa dc3f
000000a0: cd83 44bf 6350 dd3e ae30 e83f fba3 57bf
000000b0: 68b1 db3f 3840 fa3f a185 8dbf 1969 cb3f
000000c0: 99bb bec0 3126 37be 1ca1 0b40 0173 503f
000000d0: 9216 bd3f ff87 13bf 949d 1e40 314f b6bf
000000e0: d49d fe3f 70fe d03f 065f 91bf afb4 9b3f
000000f0: 80c0 86bd be11 4dc0 65b1 763f 76ac c43e
00000100: 772f 1440 3676 ee3f ecf4 98bf 61fb 5040
00000110: 6062 3b40 6586 85bf 7eac a2bb 76b9 3540
00000120: dc0b b33f 741e 4dbf 5d12 20c0 c1c8 9a3f
00000130: 2f25 ec3f 1b19 b5bf db8f 90bf 5c89 c63f
00000140: 16e6 c3bf 08fa 8bbf 3c14 a9bf 8cb6 4c3f
00000150: 33a1 d93f 2fab e43f 010a f03f 9a35 3240
00000160: 7702 b0bf c341 f43f f0ff e6c0 5582 843f
00000170: 4996 f93e c1df 67bf aeac 1840 1b81 1240
00000180: eb85 d0bf ce70 b23f 8292 da3f eed5 c63f
00000190: 6b93 0cbf 32bc cbbf ad5b 05c0 3781 933f
000001a0: f79c 5ebd 0225 84bf 02d6 213e f192 aebf
000001b0: a6eb 02c0 2e9e 37c0 1386 63bf 0223 58bf
000001c0: e218 f73e 886a 37c0 be47 de3e 7dce 4abf
000001d0: 154c d73f 4c6e 18c0 68d2 3cbf b89f d0be
000001e0: 23f9 39bf c84d cbbc 9cab 90bf 931d bebf
000001f0: 71a3 6ebf 4b6a 81bf fcf3 3fbf a2be 2dc0
00000200: 38d8 5abf f4d6 ee3f 1dc0 b9bf 7f4a c7bf
00000210: 76ce 273f b124 08c0 c8c0 ffbf e0b5 8fbe
00000220: 9f57 24c0 6997 b3bf 18d3 af3e 2740 62bf
00000230: d38d 5cbf 87bb f7bf 87d5 49c0 5cf7 15bf
00000240: 9ade 9c3f 3a41 913b 2034 5fbf 8134 3bbf
00000250: 6b8a cc3e 0de6 053f ca05 5ac0 b404 ac3e
00000260: 820f 55c0 897f e1bf 528e 95bf d7a4 98bf
00000270: d7e7 0ac0 11ca 1ebf 17f1 b4bf 8e2b 27be
00000280: 5a70 67bf ba9b 29c0 df05 3ec0 4978 cabf
00000290: 87d1 81bb d27a 2bbf 9611 19bf df67 12c0
000002a0: 4554 eabf d4ae da3e a8c4 f4bf 4a7e 2dc0
000002b0: fc5f 84bf 1b2c 69c0 98b9 1ebf 4919 eabf
000002c0: 5a6a 4ebf e859 53bf 76b9 4ebf c9af 04c0
000002d0: 6a64 6dbf 3757 50bf 0b28 58bf 0067 53c0
000002e0: 5df0 87bf 4a2f a0bf d901 59bf 4a4a dcbf
000002f0: 09e0 92bf ab44 b33f 1946 b4bd a74c 3dbf
00000300: 5404 f5be c2e6 58bf 4e71 d6bf dd2c 21bf
00000310: c5c7 dbbe e5af c6be c78f ffbf b19b f73d
00000320: ef68 233f 88dc d7bf b85c 2ac0 deb7 0c40
00000330: 2252 cfbf be06 883e 5df2 a03e 9f27 18bd
00000340: 924b b6bf 0d83 8dbf 205c e53e 301e 0ec0
00000350: 7030 c5bf c0d8 debf 83d6 d0bd 5577 36be
00000360: f976 1940 a714 68bf e4bf a0be 1f7b f0bf
00000370: 9945 e13d 444e c33d cf3c 96be db52 22bf
00000380: 58c7 e13f 1c6b f33e b65b c43f 9d78 bcbf
00000390: 5984 9a3c 6c1a 1140 094a 47bf f6bf cabf
000003a0: 3c77 41bf 7637 d3bf 7ab8 8fbf 9002 85bf
000003b0: 9bb8 fc3f 9b26 42bf d08e a6bf a28c ebbe
000003c0: eb30 26be ec68 13bf d2b2 eebf 165c 56be
000003d0: 7ebc 0040 5231 04c0 d15a 34bf 7d58 9fbf
000003e0: 8d0c 93bf 300a 3940 7c05 843e 6528 db3e
000003f0: 6fcb a33f 6260 e03e eda5 aebf 4eda 24bf

lstm.weight_hh_l0 f4 [400, 100]
-1.2211581 1.7009871 2.967651 -2.6730487 -1.0969605 -0.44643444 -0.047467016 -0.1848492
0.9205078 -0.577755 -1.732158 0.97095305 1.1703665 1.2638446 1.0125551 -0.006383863
-2.3915803 0.7508286 0.8236785 1.8991427 -1.2030185 0.44894505 -0.9621841 0.9831725
-0.8412683 0.07797394 -3.4472063 0.73346674 -0.7227395 -3.0756984 0.7393057 1.150442
0.1677754 1.5323907 1.2457457 0.38520333 -2.4582088 0.23602848 -0.40350953 1.0106366
-0.33348 0.60007626 1.0659119 -0.6056006 -2.5688267 1.4744228 -1.3825226 1.0885108
-0.6154883 -2.3245704 -1.174848 -0.6704295 -2.1344955 -0.8764284 2.259054 -0.5747135
1.3802361 -0.6202083 -1.2206221 -1.5634329 -2.2578714 0.59306014 -2.0826974 0.816625
2.3613691 -0.98789763 -0.43633127 1.264494 -1.884396 -0.50055814 -0.17919649 -1.4118607
-2.9531078 -1.1343144 -0.7881415 0.3077447 -0.16922455 -0.81410277 0.590375 2.0636654
-0.54267937 -1.3904129 -1.1775004 1.20798 -0.4499774 1.8436413 -1.7659312 1.9133593
-0.46756843 -3.238064 0.5851718 1.2684139 -0.7782051 -1.6499602 -2.7675972 -3.1604698
-0.15749744 -0.90689963 -2.7952013 3.2050488 0.6782786 0.8432451 0.7932335 -1.9525256
0.9816154 0.28798983 0.6076924 0.7324438 1.0982071 -1.9483992 -0.40512583 0.6556866
1.221219 0.5452559 -0.03622388 -0.23852327 -1.6252823 -0.07111278 -0.49608552 1.2958143
-0.51790607 -0.24303815 0.02187317 -0.75224715 -0.4418829 -0.5284531 -1.5607767 0.5956057
-0.34805244 -0.5524328 -1.3565549 0.9867071 0.40532672 -0.90956384 1.5746517 -1.5704936
-1.6625696 -1.2246248 0.5418058 -1.0957443 0.6689418 -0.75892115 0.92585933 -0.15814415
-0.98066866 1.1724666 -0.05572624 0.72843945 -0.9197667 -2.1862876 -1.6949958 -1.126206
-1.4833896 -0.6166776 1.5992093 0.11402337 1.4566689 -1.426579 -0.64956576 -1.5866736
-2.1570678 -1.0335995 -1.314542 -0.6350103 1.7881883 -1.1781269 -1.2103143 1.444081
-2.3242652 -0.23274283 -0.28746015 -1.8751869 -1.567505 0.11329841 -0.17167656 -1.2979409
0.31941167 0.039603382 0.5441874 0.98150057 -0.57219756 -1.3666904 -0.72256523 0.043118216
-0.47935885 0.38882366 0.12949148 2.0002923 -0.56079346 -0.69931996 0.40416488 0.26494545
-1.0777677 -0.67744505 -1.4743975 -2.2122056 0.532162 0.22751161 -1.4466171 1.0419434
-0.31291696 1.5382669 2.1046586 -1.6165459 1.0086936 -1.0440855 0.3816854 0.15526305
1.105015 -0.6386539 -0.9936595 0.9159681 0.8502892 0.80792713 0.290435 -0.5792087
-2.1445808 0.26140657 -0.017543038 1.9703757 -0.83415085 0.25536928 -0.29364064 -0.72718537
-0.84894836 -0.8062498 -1.9616439 1.2559916 -0.6045942 -0.008780931 -0.54461926 1.384164
-0.28218484 -0.5856829 1.6041532 -0.4536477 -0.46457806 -0.39145252 1.3922974 -0.554376
2.0366545 -0.29378843 1.7320443 -0.7904261 -1.3274502 0.50118387 -0.33762863 0.7641595
-0.12266177 -2.873565 -0.25019062 -1.183024 -2.257247 -1.3007394 1.747759 -0.4774553
00000000: e94e 9cbf f2b9 d93f feed 3d40 3b13 2bc0
00000010: 3469 8cbf 0e93 e4be c66c 42bd 1c49 3dbe
00000020: 66a6 6b3f c0e7 13bf 5ab7 ddbf 6190 783f
00000030: 92ce 953f a9c5 a13f 689b 813f b92f d1bb
00000040: a70f 19c0 4e36 403f 98dc 523f 1c17 f33f
00000050: 83fc 99bf 20dc e53e b251 76bf 31b1 7b3f
00000060: 5c5d 57bf cdb0 9f3d 079f 5cc0 7ac4 3b3f
00000070: 7505 39bf 3ed8 44c0 2343 3d3f af41 933f
00000080: 51cd 2b3e 6125 c43f 9874 9f3f 5f39 c53e
00000090: 4b53 1dc0 73b1 713e cd98 cebe 8a5c 813f
000000a0: e4bd aabe 999e 193f cd6f 883f a408 1bbf
000000b0: a867 24c0 e3b9 bc3f 80f6 b0bf 5254 8b3f
000000c0: a490 1dbf c3c5 14c0 6b61 96bf 45a1 2bbf
000000d0: 939b 08c0 9d5d 60bf 5794 1040 6d20 13bf
000000e0: 94ab b03f f9c5 1ebf 583d 9cbf 921e c8bf
000000f0: f780 10c0 cad2 173f ea4a 05c0 560e 513f
00000100: ac20 1740 dce6 7cbf d066 dfbe f0da a13f
00000110: e333 f1bf 9424 00bf 497f 37be dab7 b4bf
00000120: b8ff 3cc0 3731 91bf a4c3 49bf b790 9d3e
00000130: 3349 2dbe 0a69 50bf d122 173f 1813 0440
00000140: 09ed 0abf 0df9 b1bf 55b8 96bf 179f 9a3f
00000150: 7063 e6be 70fc eb3f 090a e2bf f5e8 f43f
00000160: 2165 efbe 713c 4fc0 d2cd 153f 635b a23f
00000170: 7338 47bf e531 d3bf 5020 31c0 2345 4ac0
00000180: 0247 21be 932a 68bf 94e4 32c0 851f 4d40
00000190: aba3 2d3f e9de 573f 5a11 4b3f 5cec f9bf
000001a0: 264b 7b3f 6773 933e bb91 1b3f 7081 3b3f
000001b0: 0d92 8c3f 2565 f9bf a76c cfbe 14db 273f
000001c0: e750 9c3f e495 0b3f 7e5f 14bd 723f 74be
000001d0: 4009 d0bf 94a3 91bd ecfe fdbe 3edd a53f
000001e0: 7e95 04bf fede 78be 5d2f b33c 4593 40bf
000001f0: 7a3e e2be b448 07bf 88c7 c7bf 9d79 183f
00000200: ee33 b2be 3c6c 0dbf 97a3 adbf d698 7c3f
00000210: fc86 cf3e 2dd9 68bf 308e c93f ef05 c9bf
00000220: 15cf d4bf 81c0 9cbf c9b3 0a3f 5941 8cbf
00000230: c53f 2b3f a848 42bf 1e05 6d3f 8af0 21be
00000240: 1a0d 7bbf 6313 963f 3341 64bd 027b 3a3f
00000250: d575 6bbf 23ec 0bc0 9ff5 d8bf 8527 90bf
00000260: b6df bdbf 95de 1dbf e4b2 cc3f 1685 e93d
00000270: 2074 ba3f 249a b6bf f149 26bf 1f18 cbbf
00000280: 660d 0ac0 fd4c 84bf ea42 a8bf 0990 22bf
00000290: 5be3 e43f ddcc 96bf 94eb 9abf a5d7 b83f
000002a0: c3c0 14c0 2354 6ebe fa2d 93be 2006 f0bf
000002b0: 01a4 c8bf ff08 e83d fbcb 2fbe ed22 a6bf
000002c0: ed89 a33e 2837 223d de4f 0b3f 9f43 7b3f
000002d0: 8a7b 12bf b6ef aebf 09fa 38bf ba9c 303d
000002e0: 866e f5be e513 c73e 6a99 043e ca04 0040
000002f0: 2990 0fbf a206 33bf b3ee ce3e eea6 873e
00000300: 4bf4 89bf 0a6d 2dbf 0fb9 bcbf c794 0dc0
00000310: c53b 083f cef8 683e c02a b9bf 675e 853f
00000320: a736 a0be eee5 c43f bab2 0640 faea cebf
00000330: df1c 813f 98a4 85bf 456c c33e 47fd 1e3e
00000340: 2271 8d3f d27e 23bf 7860 7ebf e37c 6a3f
00000350: 8eac 593f 50d4 4e3f e5b3 943e 0547 14bf
00000360: d040 09c0 15d7 853e 6bb6 8fbc 4535 fc3f
00000370: e98a 55bf c3bf 823e 1158 96be d228 3abf
00000380: ae54 59bf 6366 4ebf 2617 fbbf 55c4 a03f
00000390: afc6 1abf e5dd 0fbc 2b6c 0bbf 492c b13f
000003a0: 887a 90be 51ef 15bf e454 cd3f 8344 e8be
000003b0: 2ddd edbe 776c c8be cd36 b23f 96eb 0dbf
000003c0: 8c58 0240 706b 96be a1b3 dd3f 5d59 4abf
000003d0: e3e9 a9bf 964d 003f a9dd acbe f59f 433f
000003e0: 1836 fbbd 7de8 37c0 fc18 80be 556d 97bf
000003f0: bc76 10c0 a17e a6bf 91b6 df3f 0575 f4be

lstm.bias_ih_l0 f4 [400]
-0.07870103 -0.44790664 0.26595372 0.026463376 -0.63245195 0.017040918 -0.7531153 -0.72697103
-0.88031554 -0.69485885 -1.182996 -0.34196275 -0.5617672 -1.2862163 -0.7004084 -1.0008458
0.71427417 -1.0959164 -0.8567367 -0.53686327 -2.5618825 -0.32187137 -1.7892663 -0.5598463
-0.9748333 -1.3356344 -0.54629785 -0.828541 -2.1588156 -0.3089074 -1.0867351 -0.8615588
-0.8625472 -0.37602037 -0.53884554 -0.493442 -0.7059042 -0.5542 -0.6205056 -1.0741576
-0.51029736 -1.1027496 -0.38782036 -3.082289 -0.29354173 -0.21610497 -1.729486 -0.2686478
-0.40661854 0.42208868 -0.6016166 -0.43110955 -0.8036972 -0.8025396 -0.21425736 -1.3097639
-0.25581494 -0.4182567 -1.9736956 -0.40960488 0.06395266 -0.923264 -0.87101936 -1.4933226
-0.23336014 -1.3358324 -1.1332493 -0.5518155 -0.6245779 -0.20881587 -1.4931828 -0.69533634
-0.8643875 -1.7325692 -1.3119233 -0.28966543 -1.0445065 -1.7577173 -0.38492894 -0.90071297
-0.78020006 -0.648442 -1.9526175 -1.1511838 -1.1810657 -0.3576924 -0.8372725 -0.2102018
-0.8089505 -0.60901946 -0.12272655 -0.9327255 -0.93316954 -1.9181222 -0.39804992 0.102921695
-0.5078429 -1.0184951 -0.5476672 -0.5004028 -0.54080176 0.10800156 -0.21117279 -0.6180124
-0.9378451 -1.2970674 -0.9498464 -1.9445127 -0.06346235 -1.6321265 -0.41002026 -1.3101273
-0.30799815 -0.3312953 -1.0783145 -2.0850017 -0.6073636 -0.5112314 -0.32440642 -0.33014512
-1.983073 -0.9587697 -1.6800102 -1.6069187 -1.4144046 -0.98903257 -0.64764947 -0.007530734
-1.8870227 -0.41515094 -1.0512385 -0.5750392 -0.27656102 -0.7568962 -0.7811256 -1.148657
-0.6327348 -2.0305424 -0.74533504 -0.8954616 -1.1113292 -2.0534472 0.22295448 -1.3582865
-0.78559685 -0.55927247 -1.5937138 -0.03693995 -0.80071795 -0.7432339 -1.0494014 -0.8881099
-0.58120155 -0.88593394 -0.29505792 -2.1566896 -0.07644569 -0.763917 -2.0181386 -0.19382574
-1.0263642 -0.7072612 -0.38080668 -0.92592835 -0.7803189 -1.0393486 -1.6078917 -0.2614587
-0.3179001 -0.35448968 -2.57185 -0.4188761 -0.38332263 -1.4788028 -2.418521 -1.0143517
-1.05151 -1.6867793 -1.1564438 -0.12862098 -1.2835763 -0.7677575 -1.6062825 -0.43820626
-1.732508 -0.7660377 -0.63825315 -0.69763523 -1.3070589 -0.4355611 -1.3976085 -1.2727319
-0.9643748 -2.0106907 -0.46746507 0.031877983 -1.6618037 -0.5415316 -0.23714338 -0.7363979
-0.35046458 -0.011613681 0.068614915 -0.21980684 0.076833285 -0.086566694 0.18075596 -0.42056265
0.014763348 0.0052493983 -0.08172603 0.029567257 0.14853604 0.09985216 0.6809606 -0.07417703
-0.2384639 0.1314737 0.41780147 0.24177544 -0.05244961 -0.1298203 -0.13998619 -0.39222673
-0.021483468 -0.350173 -0.11280482 0.16884418 -0.147643 -0.06758724 0.17431197 0.16256846
-0.53085136 0.06581853 0.1345985 0.0023438183 -0.27759537 0.035853084 -0.038399026 0.18809292
0.19728445 0.0403668 0.10598209 0.015627168 -0.14529696 -0.04023205 -0.21364307 0.045632444
0.0072807726 -0.10567893 -0.07549509 -0.19270355 -0.173004 0.01900682 0.20262739 -0.13494687
00000000: 012e a1bd 0554 e5be 162b 883e b9c9 d83c
00000010: 5fe8 21bf 6599 8b3c 2acc 40bf c61a 3abf
00000020: 5c5c 61bf 45e2 31bf 6a6c 97bf be15 afbe
00000030: facf 0fbf bca2 a4bf f74d 33bf b71b 80bf
00000040: acda 363f fd46 8cbf 1953 5bbf df6f 09bf
00000050: e2f5 23c0 53cc a4be ae06 e5bf 1652 0fbf
00000060: ad8e 79bf 11f6 aabf 2dda 0bbf 431b 54bf
00000070: 092a 0ac0 1c29 9ebe 231a 8bbf 1e8f 5cbf
00000080: e5cf 5cbf be85 c0be c8f1 09bf 6ea4 fcbe
00000090: 23b6 34bf 0de0 0dbf 74d9 1ebf ff7d 89bf
000000a0: d9a2 02bf e626 8dbf 6490 c6be 3944 45c0
000000b0: 1a4b 96be 9f4a 5dbe cc5f ddbf 348c 89be
000000c0: 4e30 d0be 021c d83e 8c03 1abf 64ba dcbe
000000d0: 1abf 4dbf 3c73 4dbf 4866 5bbe 58a6 a7bf
000000e0: 2dfa 82be be25 d6be 0fa2 fcbf bbb7 d1be
000000f0: 9df9 823d 085b 6cbf 20fb 5ebf 3225 bfbf
00000100: f6f5 6ebe 8efc aabf 500e 91bf c843 0dbf
00000110: 56e4 1fbf d4d3 55be 9d20 bfbf 9001 32bf
00000120: 8048 5dbf d4c4 ddbf 1aed a7bf 074f 94be
00000130: 64b2 85bf e1fc e0bf 6815 c5be 2095 66bf
00000140: 31bb 47bf 4b00 26bf 5fef f9bf fe59 93bf
00000150: 292d 97bf 7523 b7be 7e57 56bf 243f 57be
00000160: 6117 4fbf b3e8 1bbf 0f58 fbbd 19c7 6ebf
00000170: 33e4 6ebf 0785 f5bf 33cd cbbe 9cc8 d23d
00000180: fe01 02bf 0c5e 82bf eb33 0cbf 661a 00bf
00000190: fc71 0abf ec2f dd3d ae3d 58be 1036 1ebf
000001a0: 9e16 70bf 4e06 a6bf 2229 73bf cbe5 f8bf
000001b0: 8cf8 81bd 85e9 d0bf 2dee d1be 40b2 a7bf
000001c0: efb1 9dbe 8a9f a9be 3606 8abf ab70 05c0
000001d0: 2e7c 1bbf 10e0 02bf 9918 a6be c808 a9be
000001e0: 56d5 fdbf ee71 75bf 930a d7bf 83af cdbf
000001f0: 360b b5bf 3d31 7dbf 5bcc 25bf 60c4 f6bb
00000200: f689 f1bf aa8e d4be fc8e 86bf c535 13bf
00000210: 6899 8dbe f3c3 41bf d9f7 47bf 3107 93bf
00000220: e8fa 21bf 68f4 01c0 47ce 3ebf f93c 65bf
00000230: 0940 8ebf ae6b 03c0 2e4e 643e 55dc adbf
00000240: e01c 49bf 7b2c 0fbf d0fe cbbf 584e 17bd
00000250: dafb 4cbf 9444 3ebf c952 86bf 2c5b 63bf
00000260: a0c9 14bf 91cc 62bf d511 97be 3407 0ac0
00000270: 8f8f 9cbd 1190 43bf 2f29 01c0 417a 46be
00000280: e75f 83bf 120f 35bf 18f9 c2be a409 6dbf
00000290: fbc2 47bf 6009 85bf 65cf cdbf eadd 85be
000002a0: cdc3 a2be ac7f b5be 3199 24c0 ee76 d6be
000002b0: dd42 c4be 6949 bdbf 0cc9 1ac0 47d6 81bf
000002c0: e197 86bf 62e8 d7bf 5a06 94bf 38b5 03be
000002d0: 3a4c a4bf c18b 44bf aa9a cdbf 925c e0be
000002e0: d2c2 ddbf 0c1b 44bf 8f64 23bf 3998 32bf
000002f0: b54d a7bf dd01 dfbe d6e4 b2bf e1e8 a2bf
00000300: 44e1 76bf 28af 00c0 9557 efbe 7d92 023d
00000310: fcb5 d4bf d1a1 0abf b7d5 72be 9384 3cbf
00000320: 1870 b3be 4f47 3ebc fa85 8c3d 0b15 61be
00000330: c55a 9d3d e149 b1bd 1718 393e fd53 d7be
00000340: f8e1 713c 2503 ac3b fa5f a7bd 0837 f23c
00000350: d519 183e 4a7f cc3d 6f53 2e3f 20ea 97bd
00000360: e12f 74be 0ba1 063e 13ea d53e fb93 773e
00000370: 67d5 56bd 9def 04be 8a58 0fbe f1d1 c8be
00000380: 19fe afbc e049 b3be 3706 e7bd 7de5 2c3e
00000390: ba2f 17be 2e6b 8abd d67e 323e 5978 263e
000003a0: e0e5 07bf decb 863d 30d4 093e bf9a 193b
000003b0: fb20 8ebe afda 123d 4c48 1dbd 6e9b 403e
000003c0: ef04 4a3e a857 253d 230d d93d 8c04 803c
000003d0: bac8 14be 5dca 24bd 40c5 5abe 16e9 3a3d
000003e0: 8c93 ee3b 326e d8bd 2b9d 9abd 1454 45be
000003f0: f627 31be 31b4 9b3c 8e7d 4f3e 832f 0abe

lstm.bias_hh_l0 f4 [400]
-0.20402314 -0.4276815 0.35599965 0.117691696 -0.47633082 0.09531372 -0.76098204 -0.7948874
-1.001984 -0.5798661 -1.2495205 -0.34641737 -0.5594934 -1.2383658 -0.8037036 -1.0714024
0.5693106 -1.0054469 -0.7586363 -0.4676719 -2.5182564 -0.29882437 -1.7513822 -0.6639123
-1.0420412 -1.4948236 -0.47001505 -0.8429723 -2.2937212 -0.40119383 -1.0409267 -0.8351757
-0.8488132 -0.48535645 -0.49902517 -0.41860524 -0.6356328 -0.51463187 -0.7141026 -1.0926899
-0.48771086 -1.0257323 -0.47204787 -3.137115 -0.40602052 -0.26017308 -1.5761036 -0.30222857
-0.5145485 0.5281887 -0.6563941 -0.5704652 -0.8547357 -0.7226895 -0.2800424 -1.2147753
-0.2786386 -0.38514072 -2.0105352 -0.24846154 0.071801975 -0.85670614 -0.75986534 -1.3510575
-0.33694422 -1.4080445 -0.9752602 -0.48222315 -0.6745305 -0.21205507 -1.5382304 -0.6714853
-0.76978105 -1.7012278 -1.2142081 -0.2956908 -1.1082783 -1.6187549 -0.5024037 -0.85827434
-0.8028537 -0.7462578 -1.8567388 -1.2419612 -1.2242723 -0.3168103 -0.81929606 -0.25442177
-0.8324133 -0.6693909 -0.26199606 -0.8131639 -0.97439283 -1.7322656 -0.4301787 0.075891465
-0.50661725 -1.0413505 -0.46814287 -0.57016623 -0.5186628 0.13820416 -0.12659548 -0.65305865
-0.9858612 -1.391274 -1.0132661 -1.787798 0.06985759 -1.4951541 -0.51553696 -1.3681865
-0.27597708 -0.30404004 -1.1898406 -2.140212 -0.4810802 -0.4488531 -0.35694548 -0.29996243
-1.8557686 -0.89444494 -1.6361916 -1.6156344 -1.3690288 -0.9814615 -0.69255036 -0.10799485
-1.8097692 -0.41606045 -1.0912958 -0.54109204 -0.19726244 -0.80926603 -0.74468035 -1.2941874
-0.6052889 -2.0872943 -0.88108903 -0.8601796 -1.1936858 -1.9757218 0.28984246 -1.2391452
-0.7494216 -0.7328554 -1.5297042 -0.06870099 -0.6445711 -0.6605606 -1.1816885 -0.9516025
-0.5600269 -1.02532 -0.37594596 -2.263559 -0.008538341 -0.7910748 -2.091402 -0.123772345
-0.94642216 -0.7699273 -0.4082231 -0.9593215 -0.87857336 -1.0681462 -1.4881552 -0.24288352
-0.22087117 -0.5016322 -2.5263424 -0.39121518 -0.42077816 -1.6295383 -2.3225956 -1.001146
-1.1354299 -1.7992995 -1.1236261 0.038559552 -1.2419076 -0.71441656 -1.5058752 -0.47039872
-1.6784831 -0.64488614 -0.52654207 -0.61207163 -1.4480978 -0.4477164 -1.4352893 -1.2509049
-0.9830557 -2.208733 -0.532931 0.11176484 -1.648021 -0.51330227 -0.24909985 -0.7307017
-0.4700156 0.061362464 0.11751675 -0.15473244 -0.051396724 -0.18811043 0.17421216 -0.25379813
-0.0016100758 0.05864112 -0.18131296 0.12113151 0.03358866 0.06666996 0.64579487 -0.064918265
-0.12175909 0.14494672 0.44420534 0.1997579 -0.10379533 -0.13167764 -0.225661 -0.41786793
-0.1273132 -0.36273918 -0.17080186 0.10201517 -0.1245293 -0.049787574 0.11033692 0.12291162
-0.54681593 0.043658487 0.14075568 -0.008606154 -0.2041731 0.0813397 -0.058032714 0.1638907
0.15712623 0.043438822 0.045388673 0.038772784 -0.09352584 0.031863373 -0.12497594 -0.07794599
0.07746298 -0.15259285 -0.12808053 -0.10294656 -0.113603435 -0.022165125 0.16036709 -0.05748917
00000000: 71eb 50be 12f9 dabe 9645 b63e 5808 f13d
00000010: a2e1 f3be d733 c33d b8cf 42bf be7d 4bbf
00000020: 0341 80bf 1b72 14bf 4af0 9fbf 9e5d b1be
00000030: f63a 0fbf c582 9ebf 85bf 4dbf b723 89bf
00000040: 57be 113f 7cb2 80bf fd35 42bf b172 efbe
00000050: 1d2b 21c0 82ff 98be 4b2d e0bf 28f6 29bf
00000060: 9b61 85bf 6156 bfbf d0a5 f0be 08cd 57bf
00000070: 54cc 12c0 4769 cdbe 163d 85bf 13ce 55bf
00000080: d24b 59bf a480 f8be 3a80 ffbe 6d53 d6be
00000090: d5b8 22bf eabe 03bf 6ecf 36bf 43dd 8bbf
000000a0: 3db5 f9be 324b 83bf 42b0 f1be 7ec6 48c0
000000b0: ece1 cfbe 6835 85be c3bd c9bf b4bd 9abe
000000c0: 73b9 03bf 6037 073f 7209 28bf 020a 12bf
000000d0: f5cf 5abf 2e02 39bf b861 8fbe c27d 9bbf
000000e0: b8a9 8ebe 2a31 c5be 9cac 00c0 b46c 7ebe
000000f0: ea0c 933d 1851 5bbf 8986 42bf 74ef acbf
00000100: f483 acbe cd3a b4bf a7aa 79bf f4e5 f6be
00000110: 08ae 2cbf f724 59be bce4 c4bf 76e6 2bbf
00000120: 5f10 45bf d5c1 d9bf 2c6b 9bbf c964 97be
00000130: 10dc 8dbf 5c33 cfbf 879d 00bf deb7 5bbf
00000140: d287 4dbf c00a 3fbf 9ea9 edbf 96f8 9ebf
00000150: f4b4 9cbf f634 a2be 63bd 51bf 9243 82be
00000160: 0a19 55bf 345d 2bbf 5924 86be 822b 50bf
00000170: cf71 79bf e1ba ddbf 6240 dcbe fc6c 9b3d
00000180: abb1 01bf f94a 85bf 6cb0 efbe 6af6 11bf
00000190: 16c7 04bf 6485 0d3e 3fa2 01be da2e 27bf
000001a0: 6661 7cbf 4415 b2bf b4b2 81bf 91d6 e4bf
000001b0: 7f11 8f3d 3661 bfbf 3bfa 03bf bc20 afbf
000001c0: de4c 8dbe 23ab 9bbe b24c 98bf 3cf9 08c0
000001d0: 2550 f6be 13d0 e5be 8fc1 b6be ad94 99be
000001e0: d389 edbf 58fa 64bf ba6e d1bf 1ccd cebf
000001f0: 563c afbf 1041 7bbf fb4a 31bf 672c ddbd
00000200: 84a6 e7bf e005 d5be 95af 8bbf 0285 0abf
00000210: 2aff 49be 0f2c 4fbf 5fa3 3ebf efa7 a5bf
00000220: 37f4 1abf 3b96 05c0 0d8f 61bf bb34 5cbf
00000230: b2ca 98bf 74e4 fcbf 3b66 943e 4f9c 9ebf
00000240: 18da 3fbf 699c 3bbf 59cd c3bf 1bb3 8cbd
00000250: 9d02 25bf 801a 29bf 9241 97bf 399c 73bf
00000260: ec5d 0fbf b03d 83bf fd7b c0be 27de 10c0
00000270: 66e4 0bbc e183 4abf 88d9 05c0 5b7c fdbd
00000280: b948 72bf f519 45bf 9e02 d1be 1896 75bf
00000290: 2fea 60bf 04b9 88bf df7b bebf 75b6 78be
000002a0: 0d2c 62be f86a 00bf 98af 21c0 5b4d c8be
000002b0: 3c70 d7be b694 d0bf 68a5 14c0 8d25 80bf
000002c0: c455 91bf 724f e6bf fbd2 8fbf 9ff0 1d3d
000002d0: d4f6 9ebf 01e4 36bf 85c0 c0bf 1ad8 f0be
000002e0: 89d8 d6bf 4217 25bf 76cb 06bf bab0 1cbf
000002f0: 455b b9bf 153b e5be 8fb7 b7bf a71d a0bf
00000300: 8aa9 7bbf e25b 0dc0 2b6e 08bf f7e4 e43d
00000310: 5af2 d2bf c767 03bf 0814 7fbe 440f 3bbf
00000320: e2a5 f0be 3557 7b3d 9fac f03d 2e72 1ebe
00000330: 5f85 52bd 05a0 40be ac64 323e d4f1 81be
00000340: 2e09 d3ba ac31 703d 1baa 39be cc13 f83d
00000350: 4394 093d 438a 883d d052 253f def3 84bd
00000360: d45c f9bd ea6c 143e e26e e33e 568d 4c3e
00000370: a592 d4bd 81d6 06be ad13 67be c9f2 d5be
00000380: 645e 02be f3b8 b9be afe6 2ebe 54ed d03d
00000390: 3809 ffbd 0eee 4bbd 53f8 e13d 16b9 fb3d
000003a0: 21fc 0bbf 3ed3 323d 4222 103e d300 0dbc
000003b0: c112 51be 6e95 a63d b6b3 6dbd f7d2 273e
000003c0: b3e5 203e e8ec 313d 79e9 393d 36d0 1e3d
000003d0: 7a8a bfbd 2b83 023d 63f3 ffbd 26a2 9fbd
000003e0: e9a4 9e3d 4d41 1cbe 8b27 03be a5d5 d2bd
000003f0: eba8 e8bd a393 b5bc 4537 243e c479 6bbd

linear.weight f4 [1, 100]
0.32245365 -0.23836334 -0.1757193 -0.17439368 -0.36851063 0.1125049 -0.1497401 -0.6832942
-0.11005423 0.1587752 -0.049642462 0.28551254 -0.2946054 0.019346574 0.18090636 0.042206958
-0.24411738 -0.013760639 -0.0036276667 -0.26800156 0.18245968 -0.08516526 0.1070723 -0.17345363
0.3297603 0.17264985 0.3073424 -0.104772724 0.07416499 0.10121465 0.05384336 -0.31497556
-0.03088912 -0.14780441 -0.14332494 -0.1631119 0.18140233 0.22698471 -0.22986554 -0.08058438
-0.13030666 -0.04695283 -0.19134502 0.038508635 0.088402025 0.0035641731 0.1092108 -0.1350671
-0.2623451 -0.0740328 -0.0042582545 -0.20578869 -0.008726236 0.23738459 -0.057624925 0.19296919
0.06687692 0.17276962 -0.30602276 0.05934877 -0.42504984 -0.09320839 0.054938268 -0.17910598
-0.15951736 -0.11712862 0.17822766 -0.022367496 0.009805162 -0.097010955 -0.039411142 0.38307405
0.1365685 0.16880807 0.16382755 0.08870864 0.08892221 0.068434395 0.21113396 -0.069185026
0.16267794 -0.06437921 -0.0023353542 0.026122328 0.15232769 0.055325024 -0.07864795 0.016739683
-0.0014806067 0.18911298 0.37359765 0.15109983 0.060389545 -0.060918838 0.028136509 0.06873917
-0.08510828 0.09941298 -0.100819625 0.0009144222
00000000: a518 a53e 8515 74be c3ef 33be 4294 32be
00000010: 6dad bcbe f868 e63d 7855 19be 5eec 2ebf
00000020: 1d64 e1bd f795 223e e555 4bbd b32e 923e
00000030: 85d6 96be b57c 9e3c 843f 393e 34e1 2c3d
00000040: e8f9 79be 4e74 61bc 26be 6dbb 8037 89be
00000050: b6d6 3a3e 206b aebd b948 db3d d49d 31be
00000060: 58d6 a83e 1fcb 303e fc5b 9d3e 1593 d6bd
00000070: d0e3 973d a049 cf3d db8a 5c3d 7a44 a1be
00000080: 2e0b fdbc 0a5a 17be c6c3 12be ce06 27be
00000090: 88c1 393e ae6e 683e df61 6bbe 6c09 a5bd
000000a0: 1c6f 05be 9c51 40bd f3ef 43be 3bbb 1d3d
000000b0: 1f0c b53d e794 693b e9a9 df3d 084f 0abe
000000c0: 1952 86be 829e 97bd d488 8bbb 45ba 52be
000000d0: 7df8 0ebc f214 733e 1d08 6cbd b799 453e
000000e0: c4f6 883d 85ea 303e 04af 9cbe b217 733d
000000f0: 22a0 d9be 0ae4 bebd f306 613d 8f67 37be
00000100: 8558 23be 21e1 efbd 5081 363e 0a3c b7bc
00000110: d5a5 203c aead c6bd 946d 21bd 4822 c43e
00000120: 9dd8 0b3e 06dc 2c3e 69c2 273e e0ac b53d
00000130: d91c b63d 5527 8c3d 8033 583e e1b0 8dbd
00000140: 0c95 263e 3fd9 83bd be0c 19bb 7efe d53c
00000150: cafb 1b3e 7e9c 623d 2d12 a1bd a921 893c
00000160: eb10 c2ba d5a6 413e 3148 bf3e eab9 1a3e
00000170: 075b 773d 0886 79bd 897e e63c 1fc7 8c3d
00000180: 404d aebd 0899 cb3d 857a cebd d6b5 6f3a
