BodelLigging/Lobith_bodemligging_V1.pt (torch, 661983 bytes, 5 tensors)

lstm.weight_ih_l0 f4 [400, 1]
000000 49 18 aa 3f e3 d3 1f c0 c4 6d 9c bf 83 06 6e be
       1.3288661 -2.4973075 -1.2220998 -0.23244672
000010 54 8d 93 3f 3e 4b e9 bf 8b c8 69 c0 e8 13 2f c0
       1.1527505 -1.8226087 -3.6528652 -2.73559
000020 80 1d 0d bf 2e f7 8a bf 2d 26 9b 3f 98 23 14 c0
       -0.5512314 -1.0856683 1.2121025 -2.3146725
000030 63 1c 14 c0 86 81 c8 bf b5 3c 34 c0 22 3b 68 bf
       -2.3142326 -1.5664527 -2.8162053 -0.9071523
000040 7f 96 a3 3f bc c1 22 c0 f9 b2 1e 40 21 e2 52 c0
       1.2780303 -2.5430746 2.4796736 -3.2950518
000050 f2 09 4a c0 a8 82 74 3e 4b 16 f0 bd 77 88 c0 bf
       -3.156857 0.23877966 -0.11723002 -1.5041646
000060 d8 42 19 c0 d5 6f 32 c0 9d 59 74 be 23 2a d0 bf
       -2.3947048 -2.7880757 -0.2386231 -1.6262859
000070 48 64 42 c0 b5 43 8a be 45 be 83 bf c2 c1 b9 bf
       -3.0373707 -0.2700478 -1.0292441 -1.4512255
000080 2b 35 9e 3f da 44 a1 c0 ef 5d 88 3f de 9d 71 bf
       1.2359976 -5.0396547 1.0653666 -0.9438151
000090 4c 59 4c c0 8d 0a 60 c0 4d f0 18 c0 5c fc 7a c0
       -3.1929502 -3.500644 -2.3896668 -3.9216528
0000a0 b7 9e 00 c0 f4 a9 37 bf 53 d1 de 3e 73 61 c7 bf
       -2.0096872 -0.717437 0.43519077 -1.5576614
0000b0 ee 8a 39 3f c3 e0 d8 bf f7 5b 14 40 77 c5 93 bf
       0.72477615 -1.6943592 2.318113 -1.1544636
0000c0 07 df 5d 3e a7 7f 0a 3f 77 a1 27 3f a1 d8 d7 3e
       0.2166711 0.5410103 0.6548075 0.42157462
0000d0 73 05 74 bf 81 41 5c c0 0b 8a 5e c0 ba 15 33 3f
       -0.95320815 -3.441498 -3.4771755 0.6995503
0000e0 83 84 22 bf 42 4f 8a c0 dc f6 ce bf 56 bc 86 bf
       -0.63483447 -4.322175 -1.6169086 -1.0526226
0000f0 db 65 6b bf 36 de 43 c0 05 95 59 bf 8e 48 43 bf
       -0.91952294 -3.0604377 -0.8499301 -0.76282585
000100 a9 d0 10 c0 b5 69 52 c0 5b 87 e8 bf 03 d5 80 bf
       -2.2627356 -3.2877018 -1.8166307 -1.0065006
000110 79 e4 6d c0 2f d0 02 c0 83 17 af c0 f2 5a 96 bf
       -3.7170699 -2.0439565 -5.47162 -1.1746504
000120 f0 8f 36 bf 87 0e f3 bf f1 1d 87 bf da 70 44 c0
       -0.7131338 -1.8988808 -1.0556012 -3.069388
000130 2f 45 85 be 3d 50 bf bf 97 92 de bd 9c 09 ad 3f
       -0.26029345 -1.4946362 -0.108678035 1.3518558
000140 2b 38 67 c0 72 fc 1e 40 89 99 c7 3f 35 6d 15 c0
       -3.6128032 2.484158 1.559373 -2.3347905
000150 b0 a4 20 40 b0 f7 22 c0 1f 27 c4 3f ae ef e6 3f
       2.5100517 -2.5463676 1.5324439 1.8041894
000160 5a 6f 3a 3f b9 cb 06 c0 93 ad 45 bf 70 c7 70 3f
       0.7282616 -2.1061842 -0.7721798 0.9405432
000170 4f 57 f3 bd f6 86 64 3f db 7f 0b c0 48 34 22 c0
       -0.11881887 0.89268434 -2.1796787 -2.534441
000180 7d 5b 1d c0 01 dd b0 bf cb b3 0f 3f 3e ff b4 bf
       -2.458709 -1.3817445 0.5613372 -1.4140394
000190 b1 2d 34 bf ac 92 27 bd a0 b0 45 be 1d c8 8c be
       -0.7038222 -0.04091136 -0.19305658 -0.27496424
0001a0 25 29 b2 be 03 9f dd be fb 99 03 c0 a7 e5 88 3e
       -0.34797016 -0.4328538 -2.0562732 0.2673771
0001b0 56 5c a1 be ce 7e af 3d 30 dd 93 bf d0 c4 86 bf
       -0.3151576 0.08569108 -1.1551876 -1.0528812
0001c0 8d d1 c8 bf bd 22 44 bf 61 0f 99 3e 2f 73 9a 3b
       -1.568895 -0.76615506 0.29894546 0.004713438
0001d0 cd 50 3a bf 35 24 b1 bf ac fe 8d bf c2 b0 4d be
       -0.7277954 -1.3839175 -1.1093345 -0.20086959
0001e0 7c ef dc bd 48 8c 9d 3e c2 9d 5b be a4 13 39 3c
       -0.107878655 0.3077109 -0.21446899 0.011296187
0001f0 52 88 8a bf 32 0c de bf 83 17 3b bf 0f 3b d5 3e
       -1.0822852 -1.7347472 -0.7308275 0.4164662
000200 f0 56 83 be 20 fe 6c bf 3d 30 94 3f fd b1 5e bf
       -0.25652266 -0.92575264 1.1577221 -0.8699034
000210 21 51 38 bf ad 3a 63 bf 90 8e dc be 94 b5 06 bf
       -0.7199879 -0.8876141 -0.43077517 -0.52620816
000220 a7 09 1e bf b2 ca c9 3e a5 b0 59 c0 a3 eb ce bf
       -0.6173348 0.39412457 -3.4014065 -1.6165661
000230 55 62 47 bf 08 73 00 3f 0a ee 7c bf 21 91 70 3f
       -0.7788442 0.50175524 -0.9880072 0.9397145
000240 b6 7e 01 c0 a5 8a 87 3f 55 49 9b bf e9 fd db bf
       -2.0233588 1.0589186 -1.2131754 -1.7186862
000250 0e 8a 64 3e 20 2d 96 be 08 b4 a8 3e eb fc 49 bf
       0.22318289 -0.29331303 0.32949853 -0.7890155
000260 fa c8 c1 bc 28 c7 5c 3e 8e bb 36 bf 06 c0 84 3f
       -0.023655403 0.21560347 -0.71379936 1.0371101
000270 12 5a 7d 3b 28 18 ca be 40 1b cc 3e 76 20 58 bf
       0.0038658422 -0.39471555 0.3986454 -0.8442453
000280 a9 8a 83 3e 68 c3 17 c0 f0 c9 16 bf 65 c7 a9 3d
       0.25691727 -2.3713017 -0.5890188 0.082899846
000290 58 7b 89 3e 3c bf c7 bf a7 4e 85 3e d2 7f 15 bf
       0.26851916 -1.5605235 0.2603657 -0.58398163
0002a0 79 99 0f 3f 92 1a a2 bf 34 cc 02 c0 f5 28 b6 3b
       0.56093556 -1.2664359 -2.0437136 0.0055590817
0002b0 f1 30 6f be 07 fe 18 3f c9 b4 dd bd 7a 87 2d bf
       -0.23358513 0.59762615 -0.10825498 -0.67784846
0002c0 d5 18 8e 3e 10 56 e0 3e c6 1f 02 bf 9c 0d 43 bf
       0.2775332 0.4381566 -0.5082973 -0.7619264
0002d0 49 da 7b c0 a6 f9 36 3d 2a 47 57 bf 11 a1 09 be
       -3.935198 0.044671677 -0.8409296 -0.13440348
0002e0 c2 da fb bd e1 7b c7 3e 93 28 a5 bf 89 73 7d bf
       -0.12297584 0.389617 -1.2903007 -0.9900442
0002f0 ce 01 89 bf 70 63 cb bf c8 4d 96 bf 19 24 81 bf
       -1.0703676 -1.5889721 -1.1742487 -1.0089141
000300 df 56 12 bf 60 cf c5 bf b8 0f 4c 3f 71 9c 8a 3c
       -0.57163805 -1.5453911 0.79711485 0.0169203
000310 95 56 5a 3e 17 d5 92 bf 1a 8b 6c bf 4a f0 43 bf
       0.21322091 -1.147128 -0.9239975 -0.76538527
000320 06 aa e8 bf bc 33 76 3f f2 21 e8 bd 4d 0d e6 bf
       -1.8176887 0.9617269 -0.113345996 -1.7972809
000330 68 22 a0 3f de a0 2d bf ce 88 a9 be 22 7f b0 3f
       1.25105 -0.6782359 -0.33112186 1.3788798
000340 86 0c 0a c0 53 7d 6c bf 05 c5 fc bf 07 2f df 3f
       -2.1570144 -0.9237873 -1.9747626 1.7436227
000350 5a ff ef bf fe f4 3f bf 71 9e 97 3f 18 d4 0a 3e
       -1.8749802 -0.74983203 1.1845227 0.1355747
000360 e2 12 ca bf af 1f 07 3f ca ae 1c 40 49 a3 7d 3f
       -1.5787013 0.5278272 2.4481683 0.9907728
000370 76 cb be bf ae 93 dd 3d 37 f3 96 bd a5 e3 d1 bf
       -1.4905841 0.10819183 -0.07370608 -1.6397597
000380 21 48 32 bf bf 6a ad 3e 89 01 1e 3f 89 ab fe 3e
       -0.6964131 0.33870503 0.6172109 0.49740246
000390 78 82 dd 3e e1 df 15 bf 9b 0e ab bd 8b 5d 85 bf
       0.43263602 -0.5854474 -0.08352395 -1.0419172
0003a0 04 77 c5 3f e7 5e 64 c0 10 43 b0 bf 4b f2 8c be
       1.5426946 -3.5682924 -1.3770466 -0.27528605
0003b0 de 0d f5 bf 4c f0 b9 bf 89 99 fe bf e5 89 b5 be
       -1.9144857 -1.4526458 -1.9890605 -0.35456768
0003c0 1e f0 c8 bf fe ac af be 4b 74 f4 bf 07 73 97 bb
       -1.5698278 -0.3431167 -1.909799 -0.0046218666
0003d0 16 f5 b9 bf 7a 33 17 be 68 68 e5 bf f3 ef 46 3e
       -1.4527919 -0.1476573 -1.7922487 0.19427471
0003e0 bf ae ae 3f bc 61 8b bf 09 5d cb bf 40 fe e3 bf
       1.3647078 -1.0889201 -1.5887767 -1.7811966
0003f0 f5 fb 13 3e 6d 13 b0 bf 31 8e a9 be 53 03 33 bf
       0.14451583 -1.3755928 -0.33116296 -0.6992695

lstm.weight_hh_l0 f4 [400, 100]
000000 05 92 8c 3e 37 29 17 bf a2 61 38 bf 63 8c 71 3e
       0.27455154 -0.59047264 -0.72023976 0.2358871
000010 b6 c1 eb be 62 f5 e8 be 3f fd d2 3e 79 1d c4 be
       -0.46046227 -0.45499712 0.41208836 -0.38303736
000020 dd 77 41 3f 1b 7e a6 3e 0e ea c4 3e ed bc 0b be
       0.7557352 0.32518086 0.3845982 -0.13646288
000030 5b 41 9f 3e c8 80 d4 be 81 50 d3 bd ff b1 95 bf
       0.3110455 -0.41504502 -0.10318089 -1.1694945
000040 e1 07 f5 3e 02 29 14 be af e5 dd 3c 72 88 83 be
       0.47857574 -0.14468768 0.02708706 -0.25690037
000050 c3 30 e1 3d 5e ee 8f be 3b 6c d8 be 2c a4 09 bf
       0.10995629 -0.28111547 -0.42270073 -0.5376613
000060 54 21 22 3e 6c be 99 be 62 91 86 be af f6 ee be
       0.15833026 -0.30028093 -0.26282793 -0.4667258
000070 bc ef 62 bd 58 36 19 bf 76 98 76 bf 37 af 1c 3f
       -0.05540441 -0.59848547 -0.96326387 0.61204857
000080 39 42 db be ea 07 f8 3e e1 18 a1 3e 13 19 8f 3e
       -0.4282396 0.48443538 0.31464294 0.27948818
000090 73 9d cd 3e 49 e4 72 bf 11 98 e5 3e 7a fb a9 be
       0.40159187 -0.94879586 0.4484258 -0.33199674
0000a0 6a 1c 84 3e 59 12 12 bf 8a f8 ac 3e f9 f0 0c bf
       0.25802928 -0.57059246 0.3378337 -0.55055195
0000b0 2f ba 20 bf c6 c5 de bf 0c 44 8f be 71 a6 17 bf
       -0.62784094 -1.7404106 -0.27981603 -0.59238344
0000c0 ef 9a 73 bf 55 a5 a2 3f c6 25 f9 3e 9d e9 68 3e
       -0.95158285 1.2706705 0.4866163 0.22745366
0000d0 85 30 d4 be a1 d4 96 3e 4d c4 26 bd 39 10 dc 3f
       -0.41443267 0.29459098 -0.04071455 1.7192451
0000e0 cd ad cb be 6c 36 11 3e 3f c4 fd be ca 06 ae bf
       -0.39781037 0.14180917 -0.49563786 -1.3595822
0000f0 2e 8e 14 be 1c 1b 31 bf 56 e5 ac 3e 2a 5c e0 be
       -0.14507362 -0.6918199 0.3376872 -0.43820316
000100 45 87 9b be 9b fe 06 bf 1a b9 ff 3e 3c 07 ba bf
       -0.3037664 -0.5273225 0.4994591 -1.4533458
000110 ef e9 b8 3e 0b 88 a5 bf d0 49 6a bf fe c8 18 bf
       0.36115977 -1.2932142 -0.9151888 -0.5968169
000120 12 dd 8b be bc 81 10 bf b9 41 76 bf 24 b2 38 bf
       -0.273171 -0.5644796 -0.96194035 -0.7214682
000130 fa 33 8e be f1 43 d4 3e 36 40 9f 3d d7 c4 7b bf
       -0.2777403 0.41458085 0.07775919 -0.9834723
000140 62 d1 8d 3e 39 60 12 bf 97 b2 f2 bd f2 da df 3e
       0.2769881 -0.57178074 -0.118504696 0.4372173
000150 09 9c 39 3f 48 f3 76 be 4e a3 57 bf 3f 0f a2 3c
       0.72503716 -0.24116242 -0.8423356 0.01978266
000160 d6 9d 38 3f fc a5 12 bf b2 71 4f bf 29 97 bf 3d
       0.7211584 -0.5728452 -0.8103286 0.093550034
000170 d9 c2 65 be ea 8a f4 3e a6 87 84 bf a1 7c 63 3d
       -0.2243761 0.47762233 -1.0353897 0.055538777
000180 30 1a dd be 4d a2 b0 3f 05 88 f3 3e 8f 7a 68 bf
       -0.43184042 1.379953 0.47564712 -0.9081201
000190 e5 ad 89 be 78 f1 d5 3e 99 65 0b bf 99 8c 0e be
       -0.26890483 0.4178579 -0.544519 -0.13920821
0001a0 32 ec a3 be 73 8d 0b 3f 98 a8 6c be a7 ba 65 3f
       -0.3201614 0.5451271 -0.23111188 0.89737934
0001b0 88 05 b4 bd 02 78 a9 be 52 0c f0 3e ad 67 d5 be
       -0.087901175 -0.3309937 0.468844 -0.4168066
0001c0 0a 4c 20 bc 24 12 95 3d 11 59 06 bd 9e a4 9f 3d
       -0.009783754 0.07278851 -0.032799784 0.0779507
0001d0 d0 66 0e bf 20 18 44 bf 52 45 c1 3e 78 d1 66 bd
       -0.5562563 -0.7659931 0.377482 -0.05635211
0001e0 9f 01 0d be 4f 51 8b bf 69 16 93 3f bf 9a 80 bf
       -0.1377015 -1.0884188 1.1491214 -1.0047225
0001f0 15 5c 28 be c1 1e 9f 3e 10 a6 f9 be 73 7d 94 3d
       -0.16441377 0.3107815 -0.48759508 0.0725049
000200 30 c9 1c bf 06 ac 55 bd ae d3 81 3f 7c 5c ce be
       -0.6124449 -0.052166007 1.0142725 -0.40304935
000210 cb 9c 95 be 49 a2 06 bf 56 8b 42 3e e9 3a 91 bd
       -0.29221186 -0.5259138 0.18998465 -0.07091314
000220 0b bb 03 bf 42 9c e0 3e 6a 91 13 bf ee 4f 2c bf
       -0.5145728 0.43869215 -0.5764376 -0.67309463
000230 a1 f8 44 bf 6e 55 04 3f 3b 43 20 bf 31 16 36 bf
       -0.7694188 0.51692855 -0.62602586 -0.7112761
000240 35 48 01 bf 59 18 a5 be e3 9b 32 bf 5d f2 2e bf
       -0.50500804 -0.32245138 -0.69769114 -0.68338567
000250 5a 6e 55 be bc 3b 9a be 76 13 15 3f 00 ee a0 bd
       -0.20842877 -0.301237 0.5823282 -0.07857895
000260 c9 cd aa 3e 0f 14 d5 be f5 ea 2c 3f b4 74 73 bf
       0.33360127 -0.41616866 0.67546016 -0.9509995
000270 32 e6 8d bd 84 8f 68 3e fc d4 e9 3d ad a6 8f be
       -0.06928672 0.22710997 0.11417577 -0.2805685
000280 4d 31 a4 3e e1 96 0a be 7c bd 48 3d b5 23 17 bc
       0.32068864 -0.13534118 0.04900883 -0.009224822
000290 1b f2 56 bf 4f 19 0d 3e dd f7 86 3e 87 08 1b be
       -0.83963174 0.13779186 0.2636098 -0.15139972
0002a0 47 49 11 bf 38 f0 b6 3d e8 ad f2 3d c8 5a ba bd
       -0.5675244 0.08932537 0.11849576 -0.090993464
0002b0 88 2d 91 3e f2 06 01 bf 18 f5 fe bd 1c 38 06 bf
       0.2835505 -0.5040122 -0.12449092 -0.52429366
0002c0 47 8d 99 bd c3 d8 2d bd 2e b5 ca 3e 1e 74 e3 3e
       -0.0749765 -0.04244305 0.39591354 0.44424528
0002d0 c7 fc 76 be f8 e1 22 3e 97 a8 c0 3a 50 1c 22 bf
       -0.24119864 0.15906513 0.0014698681 -0.6332445
0002e0 58 15 34 bf bf 83 c3 3f fe 08 f8 be 5d 17 28 bf
       -0.7034507 1.5274581 -0.4844436 -0.6566065
0002f0 ee 4f 2b bf 7e d7 7c 3d e3 12 26 3e 6d 3d 93 bf
       -0.6691884 0.061728947 0.16218142 -1.1503121
000300 9f 18 1d 3f 46 64 23 3f c4 03 20 bf 97 26 7a bf
       0.61365694 0.6382488 -0.62505746 -0.97715133
000310 91 b1 c7 3e 6a 26 43 3f f6 bb 83 be 3f bf b1 be
       0.3900266 0.7623049 -0.2572934 -0.34716222
000320 f1 c6 dd 3d a7 bc 28 bf ef a4 98 bd 47 bc 1c 3f
       0.10828961 -0.6591286 -0.074533336 0.6122479
000330 18 f1 50 be 4c 85 21 bf da 09 6d bf bc 2f 09 be
       -0.2040447 -0.6309402 -0.9259316 -0.13397115
000340 a2 bc 04 3e 56 12 df 3d ad 8f a4 be a5 c1 7e 3d
       0.12962583 0.10892169 -0.32140866 0.062196393
000350 d5 ad 92 3e 84 3b f7 3e 09 83 8a 3d 33 66 f3 be
       0.28648248 0.48287594 0.06763274 -0.4753891
000360 8b d2 08 bf 80 40 82 bc c1 d3 8c be 79 b3 4f 3f
       -0.53446263 -0.015899897 -0.27505305 0.8113323
000370 ef 92 a2 3e 09 2c ca be a0 5a 05 3f d4 22 dd 3d
       0.31752726 -0.3948672 0.5209141 0.107976586
000380 d1 04 2e 3f ee 5d 0e bf 94 32 ac be 11 96 d9 be
       0.679761 -0.55612075 -0.33632338 -0.42497304
000390 16 1e a3 3e dd 43 2a 3d c7 eb 57 be 2f bf bf 3e
       0.3185889 0.041568626 -0.21086036 0.3745055
0003a0 63 6f 3a bf 44 f4 33 bf ee 8a 3e 3e 16 55 ac 3d
       -0.7282621 -0.70294595 0.18607685 0.08414666
0003b0 84 9a 9e 3e 4a e2 3a bf ce 23 bf bd 5b 5b 1e 3f
       0.3097726 -0.7300154 -0.09333001 0.6185815
0003c0 01 d4 14 3e 08 a5 69 3e 60 f8 1f 3e f8 49 ed be
       0.14533998 0.2281686 0.15622091 -0.46345496
0003d0 37 25 86 bf ab 17 da be 93 1b 00 3f a5 5d c0 be
       -1.0480107 -0.42596182 0.50042075 -0.37571445
0003e0 cd c0 3e bf e5 0f 55 3c e3 bd 65 3f 84 91 0d 3f
       -0.7451294 0.013004278 0.8974287 0.55300164
0003f0 60 1b df be 0c c2 05 3f 4d e4 e0 be a7 de 8b 3d
       -0.43575573 0.5224922 -0.4392418 0.06829577

lstm.bias_ih_l0 f4 [400]
000000 b4 ff 92 be d2 a8 f0 be 37 c0 b8 bf 03 ac e6 be
       -0.2871071 -0.470038 -1.4433659 -0.4505311
000010 0e a5 b9 be 7d e8 2a bf 13 bd a5 be 16 ad 97 bf
       -0.3625874 -0.66761 -0.32370815 -1.1849697
000020 93 eb a5 be d5 a8 ec bd 1b 77 80 be 1b 67 4c bf
       -0.3240629 -0.1155564 -0.2509087 -0.79844826
000030 fb 89 d9 be b3 7a bc bf a8 32 1d bf 5d 88 2c bf
       -0.42488083 -1.4724945 -0.6140542 -0.67395574
000040 80 a6 e5 be 96 65 3f be 50 54 31 be 07 cf 19 bf
       -0.44853592 -0.18691096 -0.17317319 -0.60081524
000050 87 f1 e2 be ee 1e 92 be cb fc 80 be 73 67 64 bf
       -0.44324896 -0.28539222 -0.25192866 -0.8922035
000060 be 66 95 bf 84 03 b8 bf 08 5e 05 3e ad 24 41 bf
       -1.167198 -1.4376073 0.13024151 -0.7544659
000070 58 77 13 bf d3 84 ff be b9 50 10 bf db 97 91 bf
       -0.5760398 -0.49906024 -0.56373173 -1.1374468
000080 9d 6e d4 be 8b c8 cc bd 94 a1 0d bf 4c 00 80 bf
       -0.4149064 -0.09999188 -0.55324674 -1.0000091
000090 f5 b5 15 bf 5e 82 81 bf f3 02 b3 bd 41 07 7d be
       -0.5848077 -1.011791 -0.08740797 -0.24709798
0000a0 c5 a2 57 be 25 d5 48 bd 48 f7 c7 be 50 a6 8a bf
       -0.21058185 -0.049031395 -0.39055848 -1.0832005
0000b0 a1 0d cd bf bd 66 e0 be 27 40 4c be 42 30 fb bf
       -1.6019784 -0.43828383 -0.19946347 -1.9624102
0000c0 cf d8 03 bd c3 ee 67 bf 12 17 d4 bd c0 99 b6 be
       -0.032189187 -0.90598696 -0.10355963 -0.35664177
0000d0 9d 3d 45 bf 48 0e b2 be 6d fe 22 bf cc 21 ba be
       -0.7704714 -0.3477652 -0.6366947 -0.3635391
0000e0 3b cf 1d bf 70 8a 87 bd 0e bf 4d bf 6c b6 fc be
       -0.61644334 -0.06618202 -0.8036965 -0.49357927
0000f0 08 bf 50 bf a3 10 6e bd f0 22 4c bf ce 0f 44 bf
       -0.8154149 -0.058121335 -0.7974081 -0.76586616
000100 0b 10 bb be 22 94 39 bf d2 9a bc bf 5e 66 9e be
       -0.36535677 -0.7249166 -1.4734747 -0.30937475
000110 5f bc cd be 97 b8 3e bf f3 c3 08 be fd 9e f6 be
       -0.40182778 -0.7450041 -0.13355999 -0.48168173
000120 3e 54 13 bf 68 c5 0c bf 59 2f 7d bf 0f 02 67 3e
       -0.5755042 -0.5498872 -0.9890037 0.22559379
000130 83 8d 00 be ce e4 64 bf d5 c6 57 bf 6d 37 b9 bf
       -0.12553982 -0.8941163 -0.8428777 -1.447004
000140 5d 37 89 be 92 c1 3f 3e 35 16 2e bf 08 1f f7 bd
       -0.2680005 0.18726185 -0.68002635 -0.120664656
000150 76 9b 00 bf 9a b4 11 be 76 38 55 bf 85 28 5e bf
       -0.50237215 -0.1422905 -0.8328928 -0.8678058
000160 f7 25 73 be 30 75 6f bf 2a 3a a2 bf 2b 18 6d bd
       -0.23744951 -0.9353819 -1.2674 -0.057884376
000170 17 bd ef be 1b b1 35 bf 29 ee fd be a4 4e 4e bf
       -0.46823952 -0.70973366 -0.49595764 -0.80588746
000180 e8 a3 1c bf 6c cf 20 bf e8 6e 05 3d 76 5d 97 be
       -0.611876 -0.628165 0.03257647 -0.29563493
000190 71 bd fb be 60 b0 95 bf d5 3c bd be 04 fb 3c 3c
       -0.4916797 -1.169445 -0.36960474 0.011534456
0001a0 cf f9 2a bd e8 b3 e7 be aa b1 04 bf 17 c8 ad be
       -0.041742142 -0.45254445 -0.51833594 -0.3394172
0001b0 8f 4b 82 bf 6a c9 4f be 7a 49 ef be cf 5d de be
       -1.0179309 -0.20291677 -0.46735746 -0.43430945
0001c0 21 ee 8e bf dc de a1 bf d2 ce 46 be 66 e0 dc be
       -1.1166421 -1.2646136 -0.19414833 -0.43139952
0001d0 13 43 28 bf 24 bd f0 be a8 a0 de be 97 f2 97 bf
       -0.6572735 -0.47019303 -0.43481946 -1.1870908
0001e0 9e 48 d8 be b1 14 f1 bd 33 58 e9 be b6 67 51 bf
       -0.42242903 -0.11771525 -0.45575103 -0.81798875
0001f0 49 31 a5 bf 12 ef c5 bf b7 b1 c8 be 2e ea de 3c
       -1.2905666 -1.5463583 -0.39198086 0.027211275
000200 2d 0d b7 be 41 6c 83 be e7 35 b6 be c8 c3 f5 bf
       -0.3575224 -0.2566853 -0.35588 -1.9200373
000210 98 7a f4 bd 12 25 8b be 34 91 53 be 9d 7a 00 bf
       -0.119374454 -0.2717672 -0.2066086 -0.50187093
000220 f6 ce a9 bf 58 e4 8b be d5 aa 3e bf 45 4a 64 bf
       -1.3266284 -0.2732265 -0.7447942 -0.89175826
000230 93 0b 1b bf eb 35 e0 bd 93 1e 57 bf 28 d1 51 3d
       -0.60564536 -0.10947784 -0.8403103 0.051224858
000240 af d0 9f be 4e b9 a3 be 0c 0b cf be 69 3d 9a bf
       -0.312139 -0.31977314 -0.40438116 -1.2049991
000250 00 33 b0 3d 33 8d d1 be e3 15 a0 be 9f a3 0c bf
       0.086034775 -0.4092804 -0.31266698 -0.54937166
000260 c4 59 bb be a7 69 23 bf c2 58 48 bf 5f a6 03 bf
       -0.36591923 -0.6383309 -0.78260434 -0.5142574
000270 38 9b ac be 4f 51 7a 3a 22 9d 1f 3e 63 a9 40 bf
       -0.33712173 0.0009548859 0.15587285 -0.75258464
000280 75 62 18 bf e7 3d 3a bf 68 f1 37 bf 05 0a 45 bd
       -0.59525234 -0.72750705 -0.7185273 -0.04810526
000290 16 52 24 bf cf 4f 45 bf 9b 4b bb be ee 4e 3e bf
       -0.64187753 -0.77074903 -0.3658112 -0.7433919
0002a0 fd f4 85 3c ec 98 99 be e0 c8 a6 be 7f 0d 48 be
       0.016352171 -0.29999483 -0.3257513 -0.19536398
0002b0 ee 27 99 be 53 92 95 3b 65 67 97 be 48 d4 35 be
       -0.29913276 0.0045645623 -0.2957107 -0.1775676
0002c0 e6 f2 11 be 09 51 c3 be 8a 8d e6 be 4d 7d 29 bf
       -0.14252815 -0.38147762 -0.4502986 -0.6620682
0002d0 87 ef 4c bf 71 97 79 be 98 45 05 bf e3 cc a1 be
       -0.8005299 -0.24374177 -0.52059317 -0.3160163
0002e0 51 2d b5 be b9 09 04 bf 03 45 24 bf ba 1d 7e bf
       -0.35386136 -0.51577336 -0.64167804 -0.9926411
0002f0 4b 3d 44 be ce 67 68 be 1f 04 7c bf a1 8a 2f bf
       -0.19164006 -0.22695848 -0.9844379 -0.68570906
000300 f2 46 bd be 6b 77 17 bf 9d e7 f8 be 78 b6 59 bf
       -0.3696819 -0.5916659 -0.48614207 -0.8504405
000310 ed 0c 87 be 42 67 ac bf 6d e4 54 be af c5 d8 be
       -0.2637705 -1.3469012 -0.20790263 -0.4233832
000320 0b a4 49 3e 5a f6 56 3d bb 70 02 be 56 87 81 3e
       0.19691484 0.052481033 -0.12738316 0.25298566
000330 0b db 1c bd 93 46 45 3d 61 a8 9e 3e 11 93 9b 3e
       -0.038294833 0.048163008 0.30987838 0.3038564
000340 b7 85 c2 3e b3 cb 38 bd a3 c8 49 3e ed e5 ba 3e
       0.3799264 -0.045116138 0.19705443 0.36503544
000350 93 df 54 3e d4 18 23 be e0 2e 44 bd fe 02 31 bd
       0.20788412 -0.1592744 -0.047896266 -0.043215744
000360 69 5c 44 3e 52 ab ef 3b 0c 6b cb be 77 80 07 3e
       0.19175877 0.007314124 -0.39730108 0.13232599
000370 61 de 2c 3e 36 15 8b 3e 8b 16 41 be 6b 25 03 3e
       0.16881706 0.2716462 -0.18856256 0.12807243
000380 df bc 33 3e b4 4a 96 be 6e 98 8a 3c 6c e5 4c be
       0.17552517 -0.2935387 0.016918387 -0.20009392
000390 81 82 dc bc f2 86 6e be 4f 6e 38 be 7c 73 0a 3e
       -0.026917698 -0.23293665 -0.1801083 0.13520616
0003a0 d5 ad 88 be 22 23 c5 3d 56 10 8b 3e 12 b9 4a 3c
       -0.26695123 0.09625842 0.271609 0.012373226
0003b0 fa fa 94 3d 57 0d bb bc a7 33 b5 3d 20 b1 08 be
       0.072744325 -0.02283351 0.088477425 -0.13348818
0003c0 25 79 18 3e 99 9b 52 3d b4 88 8a 3e 18 31 81 be
       0.14889963 0.05141792 0.2705742 -0.25232768
0003d0 07 62 ad bd 01 46 12 3e e6 bf 87 3e 1d 0d 64 bd
       -0.08465963 0.14284517 0.26513594 -0.05567657
0003e0 0d 5e 96 be 7d 19 57 3e f5 e6 a7 3e 7b 41 c6 3e
       -0.2936863 0.21005817 0.32793394 0.38721833
0003f0 d2 30 98 bd 13 b1 8f 3e 6c e3 18 bf 46 2e f5 3d
       -0.07431187 0.28064784 -0.5972202 0.119717166

lstm.bias_hh_l0 f4 [400]
000000 70 94 53 be c0 d7 03 bf 05 48 b9 bf 0e 26 e0 be
       -0.20662093 -0.51501083 -1.4475104 -0.43779033
000010 15 77 cc be 6b 79 41 bf bb 12 a4 be 06 e9 97 bf
       -0.39934602 -0.75575894 -0.3204554 -1.1867988
000020 ad 4e a1 be 08 b4 83 be 13 2d 8a be 90 5a 59 bf
       -0.31505337 -0.2572329 -0.26987514 -0.8490381
000030 7a 70 e7 be 0a b6 af bf 89 50 ee be a7 79 2a bf
       -0.45203 -1.3727429 -0.46545818 -0.66591877
000040 6f 51 ff be d1 dc 0d be 1c ea e8 bc 9f 4d f2 be
       -0.49866816 -0.13853766 -0.028431945 -0.47324845
000050 1c 61 eb be 82 67 3c be 7c 6a 84 be 1b 38 4f bf
       -0.45972526 -0.1839886 -0.2586249 -0.80944985
000060 8f 48 89 bf fd f9 ac bf 39 56 1f 3e 69 ce 36 bf
       -1.0725268 -1.351379 0.15560235 -0.71408707
000070 71 a5 d2 be 08 e7 00 bf 01 25 cc be b0 5e 9b bf
       -0.41141847 -0.50352526 -0.39871982 -1.2138271
000080 69 6b ca be e1 44 5f 3d 77 9e 20 bf a3 1c 72 bf
       -0.39535072 0.054509047 -0.627418 -0.94574946
000090 03 99 03 bf 15 61 95 bf 51 67 37 be 65 76 61 be
       -0.5140535 -1.1670252 -0.17910506 -0.2201782
0000a0 e9 cc 35 be c3 5e 65 bd 72 c8 cd be 40 bd 77 bf
       -0.17753948 -0.055998575 -0.4019199 -0.9677315
0000b0 10 de cf bf d5 bd b1 be 0b e2 41 be c2 a7 f2 bf
       -1.6239643 -0.34715143 -0.18933885 -1.8957446
0000c0 24 42 4e be 72 5f 6f bf 6b aa 34 bd 4b 9d 85 be
       -0.20142418 -0.93505013 -0.044107836 -0.26096568
0000d0 50 91 31 bf e5 39 6c be 6d 52 3b bf f9 fa d0 be
       -0.69362354 -0.2306896 -0.73172647 -0.40816477
0000e0 a3 3b 27 bf c2 2f 9c 3d d4 30 44 bf f0 4f e8 be
       -0.65325373 0.076262966 -0.76637006 -0.45373487
0000f0 fb de 54 bf 42 35 88 bc 8e ff 58 bf e5 4a 37 bf
       -0.8315274 -0.016626958 -0.84764946 -0.71598655
000100 16 77 b4 be 06 6d 3f bf 8a 9b cf bf 8e d9 87 be
       -0.35247105 -0.7477573 -1.6219342 -0.2653317
000110 1e 3d 9b be 60 45 22 bf 15 e8 f1 bd bb f8 d8 be
       -0.30320066 -0.6338711 -0.11811844 -0.42377266
000120 bd fd e0 be fe 21 0c bf 36 b9 65 bf 51 9f 53 3e
       -0.43943587 -0.5473937 -0.89735734 0.20666243
000130 f6 9e 19 be a7 1d 37 bf 54 6f 54 bf 24 12 ba bf
       -0.15002045 -0.7152962 -0.82982373 -1.4536786
000140 2e 2c 25 be 11 c2 8d 3e 12 54 38 bf e2 27 d2 bd
       -0.16130134 0.27687123 -0.7200328 -0.10261513
000150 9a ea 1c bf e2 de 44 bd 2c 79 63 bf 72 0b 6b bf
       -0.61295474 -0.04806412 -0.8885677 -0.9181434
000160 d8 09 e1 bd 0d 50 7c bf b6 39 9f bf d7 3a 1b bd
       -0.10988206 -0.9855965 -1.2439487 -0.03789791
000170 60 3c e6 be b5 54 2a bf b1 ea 02 bf c2 a7 6c bf
       -0.44967937 -0.665355 -0.5113936 -0.9244348
000180 e9 30 11 bf 2b 6c 04 bf 2b de d3 3d 1d 52 30 be
       -0.56715256 -0.5172755 0.103451096 -0.17218824
000190 84 69 e2 be 59 1c 82 bf 21 bb ee be e0 8f fb bb
       -0.44221127 -1.0164901 -0.46627143 -0.0076770633
0001a0 aa 7c 39 bd 97 15 b9 be 36 9f fb be 07 bb 6d be
       -0.045284905 -0.36149284 -0.49144906 -0.23215877
0001b0 c5 b5 88 bf 2a 89 75 be 2f 1e 05 bf 8c 14 dc be
       -1.0680472 -0.23978105 -0.5199918 -0.42984426
0001c0 e4 b9 7f bf 72 ed 96 bf 8d 01 9e bd 1b b8 0f bf
       -0.9989302 -1.1791213 -0.077151395 -0.561403
0001d0 55 fa 2f bf c3 d2 e3 be 33 8e d6 be 29 b2 a1 bf
       -0.6874135 -0.44496736 -0.41905364 -1.2632495
0001e0 47 66 14 bf 77 ec eb bd d7 7d dd be e3 21 54 bf
       -0.5796856 -0.115197115 -0.4326007 -0.8286421
0001f0 5f f6 b0 bf 98 3c bc bf ee 42 ba be 3f 88 0c 3d
       -1.3825186 -1.4705992 -0.36379188 0.034309622
000200 8d 72 b0 be d2 90 b6 be c2 e8 d6 be c5 cb f7 bf
       -0.34462395 -0.35657364 -0.41974455 -1.935906
000210 ce bb 97 bd e5 d8 90 be 0e 81 a2 be e3 2f 07 bf
       -0.07408868 -0.28290477 -0.31739086 -0.52807444
000220 fc 51 a4 bf 4f 6e c7 be 23 82 41 bf 13 ed 80 bf
       -1.283752 -0.38951346 -0.755892 -1.0072349
000230 dc bb 2f bf 48 f6 2f be 87 b7 4c bf 0a cb 3e 3d
       -0.68646026 -0.17183793 -0.7996754 0.046580352
000240 a3 aa 9d be 20 ec 97 be d3 10 b3 be 05 5b 9e bf
       -0.30794248 -0.29672337 -0.34973773 -1.2371527
000250 9e 81 bd 3d ca da c5 be 99 93 dd be 78 0b 25 bf
       0.09253238 -0.38643485 -0.4327667 -0.64470625
000260 72 ee da be 47 91 08 bf c5 da 32 bf 03 5a 08 bf
       -0.42760044 -0.53346676 -0.69865066 -0.53262347
000270 33 bc a0 be 12 a1 ae bd a6 a6 3f 3e 2b 8d 36 bf
       -0.31393585 -0.085268155 0.18715915 -0.71309155
000280 f1 30 06 bf 9f eb 28 bf 90 5d 4e bf 41 bc ca bd
       -0.5241843 -0.6598453 -0.80611515 -0.09899188
000290 e2 af 09 bf 5f 41 5d bf 47 f4 f5 be 41 d4 20 bf
       -0.53784 -0.86427873 -0.4803793 -0.62823874
0002a0 21 6e c1 3b 16 25 d3 be a8 18 43 be b6 4f 7b be
       0.005903021 -0.41239232 -0.19052374 -0.24542126
0002b0 79 28 d2 be 35 32 f7 bd 03 a1 73 be 80 55 88 be
       -0.41046503 -0.12070123 -0.2379189 -0.2662773
0002c0 8a 55 b1 bd b3 68 71 be 40 88 08 bf 41 1e 25 bf
       -0.086588934 -0.23575096 -0.533329 -0.6449929
0002d0 ed aa 42 bf 2d 58 70 be 85 28 e0 be d5 01 86 be
       -0.7604206 -0.23471136 -0.43780914 -0.26173273
0002e0 54 9a 8f be cf ab e4 be 5b 10 24 bf 9b de 92 bf
       -0.2804743 -0.4466233 -0.64087456 -1.1474184
0002f0 ef b4 3e be a8 24 99 be 02 c5 7e bf 41 93 4b bf
       -0.18623708 -0.2991078 -0.9951936 -0.79521567
000300 4d b4 5f be 19 12 07 bf 95 bd 12 bf 19 7c 49 bf
       -0.21846123 -0.5276199 -0.5732053 -0.78704983
000310 80 86 6d be f0 02 a8 bf eb 66 9f be eb 55 c4 be
       -0.23195839 -1.3125896 -0.31133208 -0.383468
000320 c1 9d 5d 3e 37 0a ae bc d7 d7 12 be e9 51 8d 3e
       0.2164221 -0.021245105 -0.14340149 0.27601555
000330 04 3d 40 be 36 3d fb 3d a9 3f 3b 3e 5b e8 73 3e
       -0.18773276 0.122675344 0.18286003 0.23819105
000340 c1 dc 69 3e d7 a6 32 bd 3d 75 82 3e 07 6e fe 3e
       0.22838117 -0.043616142 0.2548007 0.4969332
000350 46 ea 67 3e a7 5d 1c be 6e f1 49 3a 30 1d 1b be
       0.22647962 -0.152701 0.00077035173 -0.15147853
000360 b5 49 54 3e fd 1f 39 be ea 69 b8 be e3 0e 94 3e
       0.20731242 -0.18078609 -0.36018306 0.28917608
000370 8b 2f 06 3e d8 21 83 3e 44 b7 35 be 43 42 68 3e
       0.13104074 0.25611758 -0.17745692 0.22681527
000380 76 3c 9a 3d f5 9a 0f be c8 08 c5 3d 31 d4 bd bd
       0.07531063 -0.14023955 0.096208155 -0.09268988
000390 df 3e 0e be 4d d4 68 be 07 71 b2 bd c1 bf 36 3e
       -0.13891171 -0.22737236 -0.087129645 0.17846586
0003a0 c6 51 b4 be 83 83 89 3e d8 09 55 3e 18 3c 2a 3e
       -0.35218638 0.26858148 0.20804536 0.16624486
0003b0 2f 86 0f 3e 1f f6 e3 3d 2e e6 b0 bd d4 09 1b be
       0.1401603 0.11130928 -0.08637653 -0.15140468
0003c0 2c e9 1c 3e 0c 22 af 3c 75 68 b5 3e aa 2b d3 be
       0.15323323 0.02137854 0.35431257 -0.4124425
0003d0 b5 c4 bc bd 47 22 ea 3d eb fa 85 3e 32 e5 31 3d
       -0.092172064 0.11432319 0.26167998 0.04343147
0003e0 82 94 85 be 2a e9 ac 3e 02 97 af 3e 95 08 8a 3e
       -0.26089865 0.3377164 0.34294897 0.26959673
0003f0 70 2d 0c be 95 c4 3e 3e 41 8a 20 bf 66 08 ef 3d
       -0.13689208 0.18629678 -0.6271096 0.11671524

linear.weight f4 [1, 100]
000000 0d b3 f6 3d 00 bc 3c be dc d5 8e bc cf ee 2d be
       0.1204587 -0.18431091 -0.01743596 -0.1698563
000010 b4 85 2c 3e bd f5 32 3e 71 83 2c 3f 54 c2 8d be
       0.16847879 0.17476554 0.67388064 -0.27687323
000020 2c 80 cb be bd fa af be 28 82 21 3e e7 3e c8 3d
       -0.39746225 -0.34370986 0.15772307 0.09777623
000030 51 a3 24 3d 7a 07 56 3d 15 a7 21 3e 05 be ec 3d
       0.040194813 0.052253224 0.15786393 0.11559681
000040 90 22 ce bd 1c 59 1a 3d 5d 2f 86 be 34 ca 2f 3d
       -0.10065186 0.037682638 -0.2620801 0.042917445
000050 56 46 09 be 34 eb a5 3e 8b c8 20 3e 4b 0a 15 be
       -0.13405737 0.32406008 0.15701501 -0.14554708
000060 e9 56 0d be 5a ec c4 bb 2b 55 4d 3e 17 34 68 3d
       -0.13802685 -0.0060096206 0.2005202 0.0566903
000070 49 e4 71 3e 1f db 89 be fb 4f 46 bd 76 bc 33 3e
       0.2362224 -0.2692499 -0.04841612 0.17552361
000080 07 cc 91 3e 05 e6 dc 3e b7 84 ec 3d 8d cc 39 3e
       0.28475973 0.4314424 0.11548751 0.18144436
000090 50 be 10 3e f7 76 9f 3c cf 4d a1 3d 89 f6 d3 3e
       0.14135098 0.019465907 0.07876169 0.4139903
0000a0 5b 45 9e be c6 a9 8b be a7 71 ea bd 1f d1 8b 3d
       -0.3091229 -0.27277964 -0.11447459 0.06826996
0000b0 5f 78 bd 3d f1 57 9d 3d 4f c6 df bc 2f 2b f8 bc
       0.092514746 0.07682789 -0.02731624 -0.030294029
0000c0 a6 26 31 3e d3 ba aa bd 92 94 85 be 80 84 80 bd
       0.172999 -0.08336415 -0.26089913 -0.06275272
0000d0 d4 16 9f bb 85 0b 6d be d9 3e f9 3b 23 b2 f7 3b
       -0.0048550162 -0.23148926 0.007606369 0.0075590773
0000e0 59 f2 ea 3d 68 2d 3b 3e a5 d7 c6 bd 31 6f c0 ba
       0.114720054 0.1827904 -0.097091 -0.0014681575
0000f0 55 55 24 3e af 8a 10 be 3a 94 81 3d c1 20 b4 bd
       0.16048177 -0.14115404 0.063271 -0.0879531
000100 e9 a6 c8 bc 47 93 47 bc 8a 72 ad be 0f ba d6 3d
       -0.024493651 -0.01218111 -0.3387645 0.104847066
000110 a8 25 00 be 62 3c 90 b8 22 4f 80 be 32 42 00 3e
       -0.12514365 -6.877702e-05 -0.25060374 0.12525252
000120 c0 3b 6b bd d6 e9 50 3d 14 c7 11 bd 66 a8 ba bc
       -0.05743003 0.051004253 -0.035590246 -0.022785377
000130 75 41 0a 3e 54 de b7 3d ad 55 aa 3b 74 25 c4 be
       0.13501532 0.089779526 0.0051982016 -0.38309824
000140 ed 72 4e 3e 4a a2 60 3e 5b 94 44 be 66 0d 50 3e
       0.20161028 0.21936908 -0.19197218 0.20317611
000150 91 34 3c bd 8c 16 2f be 27 76 ce 3d 66 fc cb bd
       -0.04594857 -0.17098445 0.100811295 -0.099602506
000160 5a 6b d7 be 34 2f 3c be 6a 24 33 bd 72 91 10 bf
       -0.4207409 -0.18377382 -0.0437359 -0.5647193
000170 d4 b5 8c 3e 2c c7 a2 bc 72 ac 0a 3c e4 58 27 3d
       0.27482474 -0.019870363 0.008463966 0.040856257
000180 0f 24 70 3e 80 b3 43 3d 05 49 8c be 43 d5 6b 3e
       0.23451255 0.047778606 -0.2739946 0.23030572
