BodelLigging/Megen dorp_bodemligging_V1.pt (torch, 661983 bytes, 5 tensors)

lstm.weight_ih_l0 f4 [400, 1]
00000000: f9ed 373f 1fb5 f4be 176b 413f 9fdb 3c3e
00000010: c6de c53f 42d3 c3bf 1cd9 c3be 4407 05bf
00000020: 0558 2bbf fb0c 423f 7b7b 773f de95 493f
00000030: b605 333f f59c 623f e11d eabe 1307 d4be
00000040: 6e1f 0b3d 2668 cebe 4493 84be 0065 933f
00000050: 2bba debf a066 0f3f 782d 353f ab00 0d3f
00000060: 606a aabe d9e5 6f3f 465f 863f 900f 82bf
00000070: 9c16 82bf e9fb 593f fb45 063e 8b39 703f
00000080: 218b 88bd 6fc0 dc3d 16ea 39bd 4572 663f
00000090: 518f 9d3e 7858 ab3e 783b 51bf 4a9e 52be
000000a0: 3f3b 1bbf ceff 29be ca71 4cbf 0b41 183d
000000b0: 9f69 2fbf 9f56 343f 3466 fcbe 9b4d 1abe
000000c0: d658 24be c727 2c3f 6c00 74bf 379d 3b3f
000000d0: 3f73 abbe 5cf6 ab3f 01f4 42bf 0249 5ebf
000000e0: 89a5 013f 7aee 1abf 9db7 cebd 5bd9 213f
000000f0: 1256 64be 8a4c 403f 21ab 75be a614 063f
00000100: 8511 373f 5315 0cbf b47d 3fbf fdf8 cd3e
00000110: 46ed be3f 7874 55bf 8312 8f3f 0d1f 15bf
00000120: 5717 393f 3dbf 52bf 4ed0 a23e ed23 c1be
00000130: cac9 ee3d b856 313f bab3 713e ae3b 46bf
00000140: dc5d ff3e b35e 73bf d3be 563e 40f9 2f3f
00000150: 9f95 c9bd 9f9d 613f 85a0 7c3f 4d70 80be
00000160: 8775 263f b18b b43e a624 9f3f 99f3 93bf
00000170: f96c 24bf 6bbb 94bf a055 b03e 4fde 923f
00000180: 8dae 38be 01e6 6d3f 2fab 9e3f b713 1c3e
00000190: 00ef 363f 1cfc c93e c12e 423e b3df 133f
000001a0: 62ca 6b3e e6ac 333e 7d0e 4ebe 9025 943e
000001b0: a5af 383f 4902 e73e 7b11 8f3f 4ca0 df3e
000001c0: 99a9 bbbe 808c a33e 08e5 d63e 17c3 883e
000001d0: c60d 843f 5668 953e 19ce 503f f342 b43f
000001e0: f568 043f abd4 303f 3ff1 ba3e 3800 fd3e
000001f0: 3fb3 f53e 3830 40bf 2324 8a3f a58c 333f
00000200: 76a3 5a3d dcda 053f d2fd 623f d657 8a3f
00000210: 6b90 3b3f 5b0e 933f efb2 2c3f 4ca6 033f
00000220: d841 6d3f 5c6b 573f 4f56 a83e 875f 943f
00000230: 85ee 253f ed01 a93e 9ebc 223f 469b 143f
00000240: b5c0 683f c682 ab3e 55f0 953f 8d79 6f3f
00000250: 601e 673f 71e0 323f 0a50 9b3e 78a2 ae3e
00000260: 7900 4f3f fff5 2b3f a2ad 323f 5e69 5a3f
00000270: 8708 913e feee c23d 446e d33e d436 e63e
00000280: f62e 43be 0a73 323f 2d2a 0f3e e724 2f3f
00000290: c07d f63e b187 183f eaa3 de3e a4e1 11bf
000002a0: f9a1 d43e c420 e83e e901 c43e 6cb4 24bf
000002b0: 085a 0c3f 07ea d93e 231e bc3e 647a c03e
000002c0: 67b9 1d3f 40c4 313f 4f5e 403f 81ea e43e
000002d0: 635b 263f 7a50 70bc 2a42 d03e d63c 353f
000002e0: 7520 633f 8b7a d73e 34c9 133f 216a c53e
000002f0: 145f 303f 433a 833f b6d0 383f c639 003f
00000300: 3021 db3e 4fab f13e e205 ca3f 1ff8 373f
00000310: 5772 cd3e 446e 0d3e 8057 bc3e 2c93 813f
00000320: 805d 9a3e 29a1 013f e6f6 b1be 2950 1f3f
00000330: ce8d 7a3f 0650 30bf 480b 86bf 01d3 333f
00000340: 3d53 253f b3c4 9e3e c00c 88bd fa1f 7fbe
00000350: 54fb bcbf e076 53bf f4dd 853f 78aa 3fbf
00000360: 4582 f3bd e023 8f3f 9953 2a3e 806c 1e3d
00000370: b6b0 a2bf 9a37 c73e ab26 423e 3a39 66be
00000380: 87ef 303f fb0b a2be fee8 573e 892a 593f
00000390: 4ccf 90bf 8d6b b43e e8b9 df3e 0380 6bbe
000003a0: 04b9 953e 8461 a13e 14a4 a53d 998a 023f
000003b0: 6a49 8b3e 7d5e 6c3e b5b6 76bf 491c 37be
000003c0: 15d2 7fbf 293b 31bf f302 553f caee 293f
000003d0: b882 5c3f 1c6e 6a3e ba54 ee3e 8b5f 023f
000003e0: 863a 3e3f 1be0 1a3f 3242 7a3f 3ca0 c2bd
000003f0: 56d9 57bf 7adb aabd eca0 3abf 440c 51bf
0.7184749 -0.47794434 0.7555403 0.18443154 1.545861 -1.5298846 -0.3825158 -0.5196421
-0.6693118 0.75801057 0.9667279 0.78744304 0.6993059 0.8852075 -0.4572592 -0.41411647
0.03396552 -0.40313834 -0.25893605 1.1515198 -1.7400564 0.5601597 0.70772505 0.55079144
-0.33284283 0.93710095 1.0497825 -1.0160999 -1.016315 0.8515001 0.13112633 0.93837804
-0.06667162 0.10778891 -0.045389257 0.9001811 0.30773404 0.33465934 -0.8173137 -0.20568195
-0.6063728 -0.16601488 -0.7986113 0.037171405 -0.6852054 0.70444673 -0.49296725 -0.15068667
-0.16049513 0.67248195 -0.95313144 0.73286766 -0.33486363 1.3434558 -0.7615357 -0.8683015
0.5064321 -0.60520136 -0.10093615 0.63222283 -0.22298458 0.7511679 -0.23991062 0.52375257
0.7151111 -0.5472004 -0.7480118 0.40229025 1.491616 -0.8338084 1.1177524 -0.58250505
0.7230124 -0.82323056 0.3179955 -0.37722722 0.11659582 0.6927295 0.23603716 -0.77434814
0.49876297 -0.95066375 0.20971231 0.687397 -0.09842991 0.88131136 0.98682433 -0.2508568
0.6502308 0.35262826 1.2433059 -1.1558715 -0.6422878 -1.1619695 0.34440327 1.1474093
-0.18035336 0.92929083 1.2395991 0.15241896 0.71458435 0.39450157 0.18963148 0.5776321
0.23026422 0.17546424 -0.20122714 0.28934908 0.7214301 0.4511893 1.117721 0.43676984
-0.3665283 0.3194313 0.41971612 0.26711342 1.0316703 0.29181165 0.8156448 1.4082931
0.5172265 0.69074506 0.3651218 0.4941423 0.47988316 -0.75073576 1.0792278 0.7013648
0.053378545 0.5228708 0.8866855 1.0808055 0.7326724 1.1488756 0.6746053 0.51425624
0.92678595 0.8414819 0.32878348 1.1591653 0.64817077 0.33009282 0.63569057 0.5804943
0.9091905 0.3349821 1.1713969 0.93544847 0.90280724 0.6987372 0.30334502 0.3410833
0.80860096 0.67172235 0.6979619 0.8531703 0.28326818 0.095182404 0.41295063 0.44963706
-0.19060883 0.69706786 0.13980933 0.68415684 0.48142815 0.5958205 0.43484432 -0.56984925
0.41529825 0.45337498 0.38282707 -0.643378 0.54824877 0.4256136 0.36741742 0.37593377
0.61611027 0.6944008 0.75143903 0.44710162 0.64983195 -0.014667625 0.4067548 0.70795953
0.887214 0.4208568 0.57728887 0.38557532 0.6889508 1.0252155 0.7219347 0.50088155
0.42798758 0.4720101 1.5783045 0.7186298 0.40126297 0.13811594 0.36785507 1.0123038
0.3014946 0.50636536 -0.3475868 0.6223169 0.97872627 -0.68872106 -1.0472193 0.7024384
0.64580137 0.31009445 -0.06643057 -0.24914542 -1.4764199 -0.82603264 1.045836 -0.7486949
-0.11890081 1.1182823 0.16633452 0.038677692 -1.2710178 0.38909608 0.18960063 -0.22482768
0.6911549 -0.31649765 0.21084973 0.8483053 -1.1313262 0.35238305 0.43696523 -0.22998051
0.29242718 0.3151971 0.08087936 0.50992733 0.27204448 0.2308292 -0.9637254 -0.17881884
-0.99929935 -0.69230896 0.83207625 0.6637999 0.8613696 0.22893566 0.46549016 0.50927037
0.7430805 0.6049821 0.97757256 -0.095032185 -0.84316003 -0.08342643 -0.729018 -0.8165934

lstm.weight_hh_l0 f4 [400, 100]
00000000: bd9f 583e d3be c83d 4c26 18be c208 86be
00000010: 240e 94be 643d e1be ab35 33bf c790 e73d
00000020: d21f babc 39e8 87be 1ea3 8d3c 6499 b6be
00000030: edbe 3dbf a2d9 ce3d 7804 df3c 43b0 81be
00000040: 2110 3ebe d518 7dbd f9a9 d2bb 6856 0c3e
00000050: 06c6 0bbf a691 6ebe ce2a 02be a4ec 9cbe
00000060: bcf1 10be 8107 883e fdeb 033e c017 373c
00000070: 0a1f dcbd 3a8b 773d 03f5 4f3c 2a67 6fbe
00000080: 51d3 203d 5c49 8fbc 8c2f c4bd 6f8d adbd
00000090: a210 c4bc fa1d 5abd 6db9 41be 0b00 cfbd
000000a0: 219c 96bd f493 76bd 5807 0abd 4541 b03e
000000b0: ad1f d4be e270 383e 95c7 48bd ec5d 4abb
000000c0: 92ec 523e d1ed 89bd b1fd 5e3d daba a3bd
000000d0: 2d9e c83d a345 0ebf dce4 b7be c736 eb3d
000000e0: 2df2 5dbe bf28 8a3d cafe eebd a543 30bb
000000f0: 1634 0e3f f7ca b0bd 6b5e a4be da54 47be
00000100: 9c7b 97bd b262 82bd 16bf 8ebe 6c55 66bf
00000110: 1c67 453e 3704 0d3f b180 a3be 3c7a ff3d
00000120: 2e82 493d fc80 c6be b5e6 0a3e cc6d f6be
00000130: 547a 203e 9575 94be e094 a33a a882 0e3e
00000140: 54c0 72be 63aa 063d 9123 debd 814c 933e
00000150: 8ad2 c63d b771 05be 6f1f 49bd 9970 e33d
00000160: c213 93bc f92d b2be 2691 3d3e cdd1 74be
00000170: 5f44 0cbf 8e76 bebc 00a2 aa3d b09b 8b3d
00000180: 19a1 56bd 3464 8fbd d18a 9f3a 5d2b edbe
00000190: ac91 81bc 510b 123e b898 e8bd dbe5 3fbe
000001a0: 54e8 0bbe b58c d0be 1b94 98bf 3cf6 993e
000001b0: acc1 81bd 1a0a 68be 157e 98bd d42b 62be
000001c0: e35c 86bf 7280 943d 0c4b bb3e c103 33be
000001d0: 9b02 bbbe f5da f23e 15a6 823e e788 063e
000001e0: 5dd1 60bf 03ef 923c d7a2 73be fb6a d4be
000001f0: b36c 41be 41fe fd3e 9301 bdbd b7b6 e33d
00000200: 6111 4cbe 1c0a 163d e2a9 103d db6a b7be
00000210: 2f7b 3b3e e351 c53d cb74 743d f3cf 03bc
00000220: 1981 0a3e f193 ba3d 9f56 cfbe c133 853d
00000230: 0eb7 5abe 47be 87be 3152 82bd 2d08 ac3e
00000240: 15a4 ebbe 66d8 10bd 3da4 eb3d fc55 0abd
00000250: 13d0 bc3e c901 24be ce2e 1c3e 64bb 84bd
00000260: 7bf5 30be 27de 19bf 641a c0be 3e89 383d
00000270: 0db7 c5be c5cc f5bc e5fb ecbe 2a81 af3d
00000280: 3081 253f af25 9fbd 837a e3be 889d 8bbe
00000290: 724f bdbe 623c 17be 7b4e b6be d8af abbf
000002a0: 90f1 c8bc e557 f43e 3c28 a3be 86de 6c3e
000002b0: 1785 cfbd af30 fcbe c4a5 053d 10bc 04bf
000002c0: 8eab 793e 7548 b3be a2ad 66be 5e44 7f3e
000002d0: 58c9 8ebe ca3c 513e 6702 553b 06bb a33e
000002e0: 2177 ce3c f37a 43be d19f d1bd 6543 8f3e
000002f0: 80ee 243d dfbe 0dbf 3cf0 233d da22 cabe
00000300: 163c 0ebf 6eb5 8e3c 2087 933d d50a 9a3d
00000310: 9ea2 533d 144a ebbc 9c0a 62bd 4abc 03bf
00000320: 4aad be3d 11c1 88be 77cb ec3e 6409 dcbe
00000330: 3a91 d1be b144 aebe 0cc4 1abf fe4e dcbe
00000340: c417 f9ba fe98 66be d62f f63e 161e afbe
00000350: ba3a 6dbf f8f1 b23e 1119 c4be 554b f0be
00000360: a3ff 2ebe c52a 35be a946 073e 02d2 ff3e
00000370: 4af0 2dbf a3dc 60be d1e1 4dbd b693 e8bd
00000380: 5664 07be 5064 9d3e 811c 4b3f 5096 24bf
00000390: dab7 88bd b7a6 1dbd d954 cdbc 6639 953c
000003a0: 8bfa 33bf a8ae 94be 7015 dabe 4a1d 15bf
000003b0: 26bf a2bd bd9a a83d 05c0 1b3d d978 93be
000003c0: 6ebb ffbe db66 bd3e e511 093e 3f93 8e3e
000003d0: dd50 e3bd e606 7fbc 1e29 743e bcba 973d
000003e0: fbdd 383f f980 bcbe dd7a 84be aff1 b9bd
000003f0: 3a36 a2bd 4a56 72be 3048 e1be 3a7a 25be
0.21154685 0.09802022 -0.14858359 -0.26178557 -0.28917038 -0.4399215 -0.70003766 0.11306911
-0.022720251 -0.2654436 0.017289694 -0.35663903 -0.74119455 0.10100104 0.02722381 -0.2532979
-0.1856084 -0.06179126 -0.0064289537 0.13704836 -0.54599035 -0.23297748 -0.12711641 -0.30649292
-0.14154714 0.26568225 0.12882991 0.011175096 -0.10748108 0.06043551 0.012692693 -0.23379198
0.039264027 -0.017491035 -0.09579381 -0.08474242 -0.023933712 -0.053251244 -0.1891839 -0.1010743
-0.07353998 -0.060199693 -0.03369841 0.34424797 -0.41430417 0.18011811 -0.04901846 -0.0030878736
0.20598057 -0.06734813 0.054441158 -0.079946235 0.09795795 -0.5557501 -0.35916793 0.11485057
-0.21674414 0.06746053 -0.11669691 -0.0026895788 0.55548227 -0.086324625 -0.32103285 -0.19465962
-0.073966235 -0.06366481 -0.27880162 -0.89974093 0.19277614 0.55084556 -0.3193412 0.12474486
0.049196415 -0.38770282 0.1356457 -0.48130643 0.15671664 -0.28995958 0.0012480281 0.13917029
-0.2370618 0.032877337 -0.108466275 0.28769305 0.09708126 -0.1303166 -0.049102243 0.11105461
-0.017953757 -0.348007 0.18512401 -0.23908158 -0.54791826 -0.02324989 0.0833168 0.068168044
-0.05239973 -0.07001534 0.0012172108 -0.46322146 -0.015816532 0.1426213 -0.11357254 -0.18740027
-0.13662845 -0.4073235 -1.1920198 0.30070674 -0.06335768 -0.22660103 -0.07445923 -0.22087032
-1.0497097 0.072510615 0.36580694 -0.17481901 -0.36525425 0.47432676 0.25517336 0.13138162
-0.87819463 0.017936235 -0.23792587 -0.4148787 -0.18889122 0.49608043 -0.09228816 0.111188345
-0.19928505 0.036630735 0.035318263 -0.35823712 0.1830871 0.09634759 0.059681695 -0.008045184
0.1352581 0.09110249 -0.40495774 0.06504012 -0.21358892 -0.26512358 -0.06363333 0.33599988
-0.46023622 -0.035362624 0.11505935 -0.033773407 0.36877498 -0.16016306 0.1525223 -0.064810544
-0.17281143 -0.601046 -0.37520134 0.04505276 -0.3861622 -0.030004868 -0.4628593 0.08569558
0.6465025 -0.077708595 -0.44429407 -0.27268624 -0.36974674 -0.14769128 -0.3560675 -1.3413038
-0.024529248 0.47723308 -0.31866634 0.23131761 -0.10132807 -0.49255893 0.03262879 -0.5184946
0.24381849 -0.35016218 -0.22527173 0.24928424 -0.27887988 0.20433345 0.0032502653 0.31978625
0.02520329 -0.1908987 -0.10235561 0.27981105 0.040266514 -0.5536937 0.040024027 -0.39479715
-0.55560434 0.017420497 0.072035074 0.07521597 0.051668756 -0.028721847 -0.0551859 -0.5145918
0.09310396 -0.26709798 0.4624898 -0.42975914 -0.40931112 -0.34036782 -0.60455394 -0.43029016
-0.0019004275 -0.225193 0.4808337 -0.3420264 -0.92667735 0.34950233 -0.38300374 -0.46932474
-0.17089705 -0.17692097 0.13210548 0.4996491 -0.67944777 -0.21959166 -0.050264183 -0.113562986
-0.13221869 0.30740595 0.7934037 -0.6429186 -0.06675692 -0.03848907 -0.025064873 0.018215846
-0.70304173 -0.29039502 -0.4259448 -0.58247817 -0.07946615 0.08232639 0.03802492 -0.28803137
-0.49947685 0.36992535 0.13385732 0.27846715 -0.11099408 -0.01556561 0.2384381 0.07408664
0.72213715 -0.36817148 -0.25874987 -0.090793006 -0.07920499 -0.23665729 -0.44000387 -0.16159907

lstm.bias_ih_l0 f4 [400]
00000000: 84d9 17c0 2355 0ac0 7a61 4dbf e091 cfbf
00000010: e8e9 27bc 8862 8ebf fa26 d53d e118 95bf
00000020: 14fa 8cbf cf99 c3bf 4139 80bf 174a bebf
00000030: 0774 2e3e 2e1b 27bf cf84 5ebe 7e3f 92bf
00000040: 0254 64bf 518c 543e 8ad1 e9be ac02 38bf
00000050: 5528 0b3f 34e9 f6bf 7c68 17c0 16ed 12c0
00000060: 625f a2bf 8c37 b23d 78b1 84bf c7fa 5fbf
00000070: fd58 c93e 020e edbf 4ecc 11c0 b559 e7bf
00000080: 219a a0bf 1a4c b9bf 1bef 3abf 99ea d6bf
00000090: 998a adbf 4715 73bf 684d 6fbf 03e5 a2be
000000a0: b426 c4be 80e9 81bf f4ce 53bf 40ef 8cbf
000000b0: 174e 15bf 754b 1dc0 7a77 95bf f2d3 a5bf
000000c0: c998 19bd 1f00 bebf ea36 82bf 4df4 31c0
000000d0: a05c 35bf b4d4 7bbf 6288 a9bf 3e13 14bf
000000e0: 0a6f 32bf 1c44 55bf 6051 62bf 4505 9d3e
000000f0: 0822 fb3d f7a0 dabf 23a7 eabf f6e5 8ebf
00000100: 8572 f4bf 8d90 14bf fda8 a1bf a8fd fa3e
00000110: ec0f 253e dada 2ebf c0fa b3bf 85e3 46be
00000120: 7297 cabf e593 bbbf b149 14c0 97e0 80bf
00000130: 03e5 e6be 41bb debf 8d4e f8bf 40ca bcbd
00000140: f65a c6bf dfe5 ea3e 3914 76bf dda0 8dbf
00000150: 4a45 41bf 6a86 fbbe 68e5 04c0 896f f5be
00000160: a25a 20c0 a7b4 d63e dd27 a9bf e8b9 84bf
00000170: af80 90bf 5f58 06bf 80f5 84bf d58b 77bf
00000180: e424 37bf 6832 30c0 7e72 89bc 1c08 87bd
00000190: b813 79bf 20a4 82bf 099e 6bbf e7ab 0ebf
000001a0: cf03 eabe 326e 2fbf 7c6c 33be 57b0 c7be
000001b0: 7448 3fbf 433a 39bf 618c a7bf 6beb 80bf
000001c0: 2d96 d4be 1d47 f6be 9625 4ebe b269 24bf
000001d0: 971e 81bf dfb3 38be 8f4e c2bf 5779 60bf
000001e0: dc74 b3be 681b 6abf 46da 8abf b314 72bf
000001f0: 1b22 e7be 1f4b 323e cb52 80bf a12a 28bf
00000200: dc2a 4abd 0962 2bbf 8dd5 42bf 94ec 80bf
00000210: 936d 18bf 4023 2fbf 4b23 5fbf 7e84 a9be
00000220: 9444 b0bf 79ce 9dbf 65dc f3be 8ceb 75bf
00000230: 5e91 09bf 9352 d5be cfc2 17bf 6321 20bf
00000240: e185 04bf 89a4 93bf abd1 65bf 70e4 7fbf
00000250: dff0 87be 8745 5ebf 25b0 b5be 8cc6 8cbf
00000260: da24 1abf 0117 0cbf 987c 21bf 972c 31bf
00000270: a322 f6be 9b0d 53be 3596 febe 6038 60bd
00000280: 008f 17bf bdfb f5be 115b 38bf 0ee4 27bf
00000290: cc3d a6bf 428f bfbe 91d4 0fbf 75d7 21bf
000002a0: 823d eebe 4c6b 06bf d47c 71bf f64d db3d
000002b0: e856 a9bf 484d 67bf 8552 a0bf eeef bbbe
000002c0: 9094 21be 3625 6fbf ce54 91bf f230 9bbe
000002d0: 1531 babf bf7c e5be c368 a8be c094 cabe
000002e0: 410d 40bf d1a9 bfbe 48a4 a0bf d3d5 eabe
000002f0: 7484 75bf 09b3 acbe b8d7 9ebf ae48 41bf
00000300: b130 a1be c504 89be 6fd9 94bf c30a 13bf
00000310: 438a a6be 265f 84bf 3794 bebe c506 003c
00000320: 2eec 793d a534 0c3e 0a1d 2abe 710a 0d3e
00000330: 56a6 7f3e 8059 00be a17f 4dbe 84d8 6f3e
00000340: 223c 553e 2200 d93d b2fd ca3d edd7 503d
00000350: 6249 58be 28ff 31be a0b8 2d3e 0982 3bbe
00000360: 4887 1e3d 133d 363e f0e2 573d ea26 8fbd
00000370: 5e5d 15bd 8492 083e 7c09 833c 49e9 183c
00000380: 10fb 523e e09f b5be ea00 c33d ef06 143e
00000390: b0b4 1bbe f933 9a3d 4c99 ef3d f0ab 91bc
000003a0: 3ef5 b63a eda8 113e fecf b23d be20 183e
000003b0: 4545 2e3e db9d aebd 991e 3ebe a349 883c
000003c0: f7ba 3fbe c805 7bbd 3820 5a3e fecc 0f3e
000003d0: 263e 7a3e d98c 903c dd1f 413e 7a66 2d3e
000003e0: 70b8 683d d6f5 023e 5add 8e3e ebaa dcbc
000003f0: 2f33 87be c06b 99bd c7ce dcbd 2036 22be
-2.372651 -2.1614463 -0.8022686 -1.6216393 -0.010248639 -1.1123819 0.10407825 -1.1648217
-1.1013818 -1.5281314 -1.0017473 -1.486636 0.17036448 -0.6527585 -0.2173035 -1.1425626
-0.89190686 0.20756651 -0.45667678 -0.71879077 0.54358417 -1.9289918 -2.3657522 -2.2957206
-1.2685359 0.08702001 -1.0366659 -0.8749203 0.39325705 -1.85199 -2.2780948 -1.8074251
-1.2547036 -1.4476349 -0.73021096 -1.6790344 -1.3557922 -0.9495434 -0.9347749 -0.31815347
-0.38310778 -1.0149384 -0.8273766 -1.1010513 -0.5832228 -2.4577305 -1.1677086 -1.2955306
-0.037499223 -1.4843787 -1.0173008 -2.780536 -0.7084446 -0.98371434 -1.3244746 -0.5784186
-0.6970068 -0.8330705 -0.8840542 0.30668083 0.1226235 -1.7080373 -1.8332256 -1.1163929
-1.9097449 -0.58033067 -1.2629696 0.4902165 0.16119355 -0.6830269 -1.4060898 -0.1942273
-1.5827467 -1.4654509 -2.3169978 -1.0068539 -0.45096597 -1.7400895 -1.9398972 -0.092182636
-1.5496509 0.45878503 -0.9612461 -1.1064717 -0.7549635 -0.49125987 -2.0765018 -0.47936657
-2.5055318 0.41934702 -1.321529 -1.0369234 -1.1289271 -0.52478594 -1.0387421 -0.9669774
-0.71540666 -2.7530766 -0.016778227 -0.065933436 -0.97295713 -1.0206337 -0.9203802 -0.5573105
-0.4570603 -0.6852752 -0.17521852 -0.39001724 -0.7471993 -0.72354525 -1.3089715 -1.0071844
-0.41520825 -0.4810113 -0.20131525 -0.6422378 -1.008746 -0.18037365 -1.5180224 -0.8768515
-0.35050094 -0.9144807 -1.0847862 -0.94562835 -0.45143208 0.17411469 -1.0025266 -0.65690047
-0.04935728 -0.66946465 -0.761071 -1.0072198 -0.59542197 -0.6841316 -0.8716323 -0.33108896
-1.3770928 -1.2328635 -0.47629085 -0.9606254 -0.5373744 -0.41664562 -0.5928163 -0.62550944
-0.51766783 -1.1534587 -0.8977305 -0.9995794 -0.26550958 -0.8682484 -0.3548595 -1.0998092
-0.6021248 -0.547226 -0.6308074 -0.69208664 -0.480733 -0.20610659 -0.49723974 -0.054741263
-0.59202576 -0.48043624 -0.72013956 -0.6558236 -1.2987609 -0.37413985 -0.56183726 -0.63219386
-0.46531302 -0.5250747 -0.943311 0.10708229 -1.3229647 -0.90352297 -1.2525183 -0.3670649
-0.15779328 -0.93416154 -1.1354005 -0.3031078 -1.4546229 -0.44821736 -0.32892427 -0.39566612
-0.75020224 -0.37434247 -1.2550135 -0.4586626 -0.9590523 -0.33730343 -1.2409582 -0.75501525
-0.3148246 -0.2676145 -1.1628855 -0.57438296 -0.3252736 -1.0341537 -0.37222454 0.007814114
0.061016254 0.13691957 -0.1661264 0.13773514 0.24965796 -0.12534142 -0.20068218 0.23422438
0.2082372 0.105957285 0.0991167 0.050987173 -0.21121743 -0.1738249 0.1696496 -0.18311323
0.038703233 0.17796735 0.05270666 -0.06989844 -0.036465995 0.13337141 0.015995733 0.009332963
0.20603585 -0.35473537 0.09521659 0.1445577 -0.15205646 0.07529444 0.11699161 -0.017782182
0.0013958586 0.14224596 0.087310776 0.1485624 0.17018612 -0.08526202 -0.1856636 0.016636675
-0.18723665 -0.06128481 0.21301353 0.14043042 0.2443777 0.017645286 0.18859811 0.16933623
0.05681652 0.12789091 0.27903253 -0.026936969 -0.26406237 -0.07491255 -0.10781627 -0.1584096

lstm.bias_hh_l0 f4 [400]
00000000: 5014 11c0 4b83 0dc0 d797 5bbf ffb0 cbbf
00000010: d7bb 58bd 5afb 99bf 313a 333e 2967 a3bf
00000020: 5b76 95bf 717b d3bf f237 8fbf dba7 b5bf
00000030: 11ae 2f3d 4f1c 38bf d242 98be b3cd 85bf
00000040: c0f6 83bf f015 3f3e ce2e efbe 6f62 39bf
00000050: a730 f83e 1999 f1bf f004 11c0 01de 0dc0
00000060: 06bf a6bf ea9c 963d dbe8 85bf 9b23 5cbf
00000070: 0f58 df3e 6376 edbf d440 10c0 a7d7 ecbf
00000080: 6235 8bbf 895d b7bf 6e17 24bf 2210 c8bf
00000090: 36e5 b7bf 33bd 75bf 0e12 82bf 8f05 80be
000000a0: 3093 d0be deef 95bf 09a1 57bf f29b 83bf
000000b0: 2e04 14bf 45b1 22c0 2d04 adbf 436c a8bf
000000c0: 66db a73c 5b93 c5bf c017 96bf dc2f 39c0
000000d0: 024c 1bbf 4b79 77bf 9164 aabf 6c0e 2abf
000000e0: 5604 2abf b14b 50bf 38f6 62bf a62e cf3e
000000f0: 6a85 163e 4335 cfbf b6a3 debf 17ef 9fbf
00000100: 6339 f1bf f0b1 40bf 1c26 a1bf 49db e33e
00000110: 51b8 a33e 8b90 48bf 1ecd b3bf 4937 ddbd
00000120: bbc2 d9bf ffc7 cbbf d5bf 0ec0 1a65 89bf
00000130: e1c5 ecbe a2c0 e1bf b456 f6bf e602 e6bd
00000140: 6bad d6bf b63d 1f3f 631f 51bf 6338 94bf
00000150: 7190 11bf ffaf 0abf 2407 07c0 0730 00bf
00000160: 9ec3 1bc0 2ca1 8a3e d868 c0bf 129e 81bf
00000170: 2490 9cbf 5578 04bf 94bb 76bf 3758 72bf
00000180: b879 39bf fb85 29c0 70b4 3d3d 65a6 17bd
00000190: ceca 82bf 0d6b 8abf 193b 65bf eb4e 2dbf
000001a0: 86c7 92be 0a2e 31bf ad44 b7bd 2af1 adbe
000001b0: 4c13 1bbf a0ae 29bf 37bc b4bf ee44 89bf
000001c0: be61 d8be d96d 05bf 1340 b6be e705 13bf
000001d0: db6d 86bf fcd0 83be b308 bbbf 948e 3ebf
000001e0: d1e6 f6be 4143 62bf 089a 91bf 5802 78bf
000001f0: 8369 0bbf ae22 963e 0240 85bf 8033 18bf
00000200: d097 ecbd 79e5 2bbf ecb1 30bf bd76 74bf
00000210: 8064 eabe 5b20 3cbf bfd4 74bf bc1c e7be
00000220: e6c4 a1bf 7663 93bf 34d6 b0be d360 4ebf
00000230: 7051 07bf d124 95be 9be5 11bf 8eb9 0bbf
00000240: fe28 0dbf c891 81bf 634f 64bf c163 8abf
00000250: d84a aebe 7c0b 5bbf 6842 92be f222 95bf
00000260: e5fc 15bf ba1d 16bf a58e 29bf 0d12 38bf
00000270: 48c6 f9be 70c2 b0be 7445 0cbf a14d c6bb
00000280: 8b09 0abf a33b dcbe b6ae 44bf 7a62 34bf
00000290: 0b01 a7bf e4e2 cfbe 6821 28bf d35c 3bbf
000002a0: 297a fdbe 9d04 0bbf b9f5 6fbf 0161 c2bc
000002b0: a898 a1bf 391b 56bf 9723 9bbf e268 d4be
000002c0: a019 88be 757d 84bf 83f6 94bf a7f6 8fbe
000002d0: 49b1 cbbf 28ce c6be f213 a5be da42 fabe
000002e0: af33 26bf 2824 cbbe 0342 a0bf fd96 d9be
000002f0: 0157 6dbf bc19 80be 3204 93bf 2c45 2dbf
00000300: 03d5 a1be 2015 85be 92f5 82bf 5bd8 28bf
00000310: f3dd 95be feea 5fbf 5e58 e0be ca2f a0bd
00000320: 314e 943d 3c0c 623d eaa6 b1bd 213e 533e
00000330: 1bb0 933d b275 2dbe 5e35 29be 7b43 053e
00000340: bc16 ea3d 7004 fa3d 2e27 96bd a739 08be
00000350: 19c8 91be 6054 0ebe 5e1a 313e a27a 44be
00000360: 5f18 0bbe 37f1 403e 0ec8 313d 1e39 0c3b
00000370: 7f18 4abe 1a34 0bbc 2030 0f3d c614 82bd
00000380: cf49 2f3e d28f cdbe fb6f c03d dd78 373e
00000390: 0487 92be a3a3 163e b7b2 f63c 1f2c 7bbd
000003a0: 7ba2 023e 5f13 31ba 8729 d53d 8ce0 ea3d
000003b0: ce8d 233e 4756 d7bb 7b15 65be 1188 edbd
000003c0: d919 98be 562f 53be 2f5e 013e effb dc3d
000003d0: b196 313e ae60 e53d 28be 453d add3 ff3d
000003e0: 8108 30bd fdc4 153d 9da8 0c3e dafb 16bc
000003f0: ee21 ffbd 7020 cabd a73a 2fbe c641 85be
-2.2668648 -2.2111385 -0.85778564 -1.591339 -0.052913513 -1.2029831 0.17502667 -1.2765857
-1.1676744 -1.6522046 -1.1188948 -1.419185 0.042890612 -0.71918195 -0.2973848 -1.04534
-1.0309677 0.18660712 -0.46715397 -0.7241582 0.4847462 -1.8874847 -2.2659264 -2.216675
-1.3027046 0.07354148 -1.0461687 -0.8599183 0.4362187 -1.8551754 -2.2539568 -1.8503312
-1.0875666 -1.432542 -0.6409825 -1.5629923 -1.4366825 -0.9599182 -1.016176 -0.2500424
-0.40737295 -1.1713827 -0.84230095 -1.0281966 -0.5781888 -2.5420697 -1.3516899 -1.3158039
0.02049036 -1.5435594 -1.1725998 -2.893546 -0.60662854 -0.96669453 -1.331194 -0.66428256
-0.66412866 -0.81365496 -0.8865695 0.40465277 0.14699331 -1.6188129 -1.7393711 -1.249484
-1.8845638 -0.7527151 -1.2589755 0.4450324 0.3197656 -0.78345555 -1.4046972 -0.108015604
-1.7012552 -1.5920409 -2.2304585 -1.0733979 -0.4624472 -1.7636912 -1.924521 -0.112310216
-1.6771673 0.6220354 -0.8168852 -1.1579708 -0.56861025 -0.541748 -2.1098108 -0.50073284
-2.4338145 0.2707609 -1.5031996 -1.0126364 -1.2231488 -0.5174611 -0.9637997 -0.94665855
-0.72451353 -2.6488025 0.046314657 -0.03702392 -1.0218141 -1.0813919 -0.895433 -0.67698544
-0.2866785 -0.69210875 -0.08948646 -0.33973056 -0.6057632 -0.6628208 -1.4119939 -1.0724161
-0.4226207 -0.5212074 -0.3559576 -0.5743088 -1.0502275 -0.2574538 -1.461203 -0.74436307
-0.48222974 -0.8838387 -1.1375132 -0.96878576 -0.54457873 0.29323334 -1.0410159 -0.5945358
-0.115523934 -0.6714702 -0.6902149 -0.9549368 -0.457798 -0.7348687 -0.95637125 -0.4513911
-1.2638214 -1.1514728 -0.34538424 -0.8061649 -0.5285864 -0.2912965 -0.56990975 -0.5458001
-0.55140674 -1.0122614 -0.89183635 -1.0811692 -0.34041476 -0.855644 -0.2856629 -1.165129
-0.5858901 -0.5863911 -0.66233283 -0.71902543 -0.4878409 -0.34523344 -0.5479348 -0.0060517346
-0.5392081 -0.4301425 -0.7682909 -0.70462763 -1.3047193 -0.4060279 -0.65675974 -0.73188514
-0.49507263 -0.54303914 -0.9373432 -0.023727896 -1.2624712 -0.8363529 -1.2120236 -0.4148627
-0.2658205 -1.0350786 -1.163773 -0.28117868 -1.5913478 -0.3882916 -0.3224178 -0.4887913
-0.6492261 -0.39676023 -1.2520145 -0.42498007 -0.9271088 -0.25019634 -1.1485655 -0.6768367
-0.31607828 -0.2599268 -1.0231192 -0.6595513 -0.29270896 -0.87467945 -0.4381742 -0.07821615
0.07241476 0.05518745 -0.086744145 0.20629169 0.07211324 -0.16939428 -0.16524264 0.13014023
0.114301175 0.12207878 -0.07331692 -0.13303243 -0.28472975 -0.13899374 0.17295215 -0.19187406
-0.13583516 0.18842016 0.043403678 0.002139635 -0.19735907 -0.008496309 0.034958005 -0.063516185
0.17118 -0.4014879 0.093963586 0.179172 -0.28618634 0.1471086 0.030114515 -0.061321374
0.12757294 -0.00067549007 0.10408311 0.1146861 0.15972063 -0.0065715644 -0.22371475 -0.11598218
-0.2970722 -0.20623526 0.12633584 0.1079024 0.1734264 0.11200081 0.04827705 0.12491546
-0.04297686 0.036564816 0.13736196 -0.0092153195 -0.124576434 -0.09869468 -0.17112218 -0.26026744

linear.weight f4 [1, 100]
00000000: 7c84 e03b 099d d03b 97a7 9ebc af31 4d3d
00000010: abd2 be3e ec40 2b3d c428 37be c8c3 473a
00000020: dd31 4ebc 2b61 133d 5792 843c b598 b5bc
00000030: 8750 89be f962 37bd 13a1 acbd cf76 07bc
00000040: 4678 c03c 61de 4b3e 6678 773b 8126 053c
00000050: f57d 03bf 64a1 91bc 8660 9dbb e605 c4bc
00000060: 6055 d5bc 91e8 cdbe d9d2 b53c 0e3e 28bd
00000070: 8a80 4abe 1341 86bb ac37 19bd 886c 32bc
00000080: 2d8f 8e3b 55e3 0bbc d417 a2bb 1417 1d3d
00000090: 9559 f1bc 7564 843c 6e2a 843c f3a3 fc3a
000000a0: 73d9 cebd 0c45 a23c fc47 92bc 98be 8fbc
000000b0: eda3 143d 9d4b b03b 52a1 8a3b 110b 5dbb
000000c0: 2e55 143d a8b9 18bc aa13 97bc 91a8 c0bc
000000d0: 4f7f 72bc 20dd 9bbb 2973 8ebb c567 27bd
000000e0: e5dd dfbc 29c1 cdbc 428c 633c 0b15 8a3e
000000f0: 891a a23e 40e9 803c 9e26 e639 9ddd c43b
00000100: d63d 1ebd c013 ec3c b73e 90bb 5e87 aebe
00000110: f4ee bcbe f6e3 29bd 48dc a23c 10ca 00bd
00000120: 0eb4 7c3b b3a4 3f3b 37d8 2fba f2fc 6bbb
00000130: 7c5b eb3b 6496 47bc d104 74bb d3ef 54bb
00000140: 9a6e d53c a873 ce3e 55b3 80bb ebf7 363d
00000150: b26b bfbc 55bf 68bd eb32 dc39 a796 06bd
00000160: 079a f7ba c557 983d 2829 baba c745 303d
00000170: d818 ab3c ac91 d9bd 01da 2fbb 5a20 3c3c
00000180: 227a 8dbb 8bda 503c a898 a6be 3d29 62bc
0.006851731 0.0063663763 -0.019367022 0.05009621 0.37270102 0.04180996 -0.17886645 0.0007620421
-0.0125851305 0.03598134 0.016183062 -0.022167543 -0.2681925 -0.044772122 -0.0842916 -0.008268072
0.02349485 0.1990905 0.0037760972 0.008126856 -0.5136407 -0.017777152 -0.0048027663 -0.023928594
-0.026041687 -0.40216497 0.022195267 -0.041074805 -0.19775596 -0.004097113 -0.03740661 -0.010890134
0.004350564 -0.008538087 -0.004946688 0.038352087 -0.029461661 0.016161183 0.016133513 0.0019274935
-0.10100069 0.019808315 -0.01785659 -0.017546937 0.036289144 0.0053801076 0.0042306567 -0.003372852
0.036214046 -0.009321608 -0.018441994 -0.023517879 -0.014800861 -0.0047565848 -0.0043472243 -0.040870447
-0.027327487 -0.02511652 0.013888421 0.2696918 0.3166087 0.015736222 0.0004389779 0.0060078637
-0.03863319 0.028818011 -0.0044020074 -0.34087652 -0.36901057 -0.041477166 0.019880429 -0.0314427
0.003855947 0.0029242455 -0.0006707939 -0.0036008921 0.0071825366 -0.012181852 -0.0037234316 -0.003249158
0.026053715 0.40322614 -0.003927628 0.044670027 -0.023366783 -0.056823093 0.00041999607 -0.032858517
-0.0018890508 0.07438616 -0.0014202939 0.043035295 0.02088587 -0.10623488 -0.0026832821 0.011482323
-0.004317538 0.012747417 -0.32538342 -0.013803777
