BodelLigging/Mook_bodemligging_V1.pt (torch, 661983 bytes, 5 tensors)

lstm.weight_ih_l0 f4 [400, 1]
0	0x3f050afa	0.51969874
1	0xbfd02f94	-1.626452
2	0x3f7512b1	0.95731646
3	0xbf6999b7	-0.91250175
4	0x3ed7e641	0.42167857
5	0xbd4e971c	-0.050437078
6	0x3f7de467	0.9917664
7	0x3f8cded2	1.1005499
8	0x3ffc1caf	1.9696254
9	0xbf8baf29	-1.091283
10	0xbdc2baa7	-0.09508257
11	0x3f9e92ae	1.2388513
12	0x3f990da6	1.195729
13	0x3e870a55	0.2637507
14	0x3fa89e06	1.3173225
15	0xbdf98b3c	-0.1218476
16	0x3f347520	0.7049122
17	0x3d78a3dc	0.060703143
18	0xbf181f2a	-0.5942255
19	0xbf4df5e2	-0.8045331
20	0x3f851ef0	1.0400066
21	0x3e199fca	0.15002361
22	0x3e156039	0.14587487
23	0x3d31dde8	0.043424517
24	0x3e869bba	0.26290685
25	0xbd23e6bc	-0.040014967
26	0xc02e74b5	-2.7258732
27	0x3f23453a	0.63777506
28	0xbeb2761e	-0.3485574
29	0x3c83250a	0.016008873
30	0x3eb703a2	0.3574496
31	0xbf8d9a40	-1.1062698
32	0x3f2c8585	0.67391235
33	0x3e80233b	0.2502688
34	0xbf991009	-1.1958019
35	0x3dfc7c91	0.12328447
36	0x3f76fb03	0.96476763
37	0x3fccc541	1.5997697
38	0x3f1cb447	0.6121258
39	0x3bcf1c2f	0.0063204984
40	0xbf03ec1b	-0.51532143
41	0xc001c1c5	-2.0274518
42	0xbd0fd03d	-0.0351107
43	0x3e4283cf	0.18995593
44	0x3c4d887d	0.012544748
45	0x3f57616d	0.84133035
46	0xbf087295	-0.5329984
47	0xbfeba065	-1.8408324
48	0xbeb0fd29	-0.34568146
49	0x3e98c698	0.29839015
50	0x3f359925	0.70936805
51	0x3f8aee55	1.0853983
52	0xbec61bee	-0.38693184
53	0x3f1bd6ed	0.60874826
54	0xbe7cb001	-0.24676515
55	0xc094696a	-4.637868
56	0x3fd0c604	1.631043
57	0x3f1dc729	0.6163202
58	0xbdb43f1c	-0.088011
59	0xbfb1c859	-1.3889266
60	0xbd303eb8	-0.043028563
61	0x3f9f9af4	1.2469163
62	0xc03fc97e	-2.996673
63	0x3eb5f97a	0.35541898
64	0x3f08656b	0.5327975
65	0xbe8e5a33	-0.27803192
66	0xc03860eb	-2.8809154
67	0x3e8583d4	0.2607714
68	0xbf4287e7	-0.7598862
69	0x3f19ad49	0.6003004
70	0x3fe2e626	1.7726486
71	0xbf12f8f4	-0.5741112
72	0x3f3e1b37	0.74260277
73	0xbf0794f0	-0.52961636
74	0xbf3dfc23	-0.74212855
75	0x3f2f0375	0.6836465
76	0x3f0e5e03	0.556122
77	0xbfa6e567	-1.3038758
78	0x3e8be94c	0.2732643
79	0xbff28518	-1.8946867
80	0xbf3a1ffb	-0.7270505
81	0xbf9f777b	-1.2458338
82	0xbf265960	-0.64980125
83	0xbf9735ed	-1.1813332
84	0x3e8cbe56	0.27488965
85	0xbd59b415	-0.053150255
86	0xc0320e7c	-2.782134
87	0xbf8cc709	-1.0998241
88	0xbfcbf7d7	-1.593501
89	0xbfabf747	-1.3434838
90	0x3f102bab	0.5631663
91	0xbee161d8	-0.4401996
92	0x3f4aa70e	0.79161155
93	0xbf41e0af	-0.75733465
94	0xbfa73005	-1.3061529
95	0xbf2773b8	-0.6541095
96	0xc0489078	-3.1338177
97	0x3f0f628e	0.5600976
98	0x3f817296	1.0113094
99	0x3f71cadc	0.94450164
100	0xbf11ac50	-0.56903553
101	0x3f6a7b90	0.9159479
102	0x3f403217	0.7507643
103	0xbf42512d	-0.75905114
104	0xbef7dc33	-0.48410186
105	0x3e8e4748	0.27788758
106	0xbf8f345d	-1.1187855
107	0xbf803fbd	-1.0019451
108	0xbe755b1f	-0.23960541
109	0x3eac0ba5	0.33602634
110	0xbf7c9c74	-0.9867623
111	0xbfa919ed	-1.3211037
112	0xbf9938f2	-1.1970503
113	0xbe483cde	-0.19554469
114	0xbecf8146	-0.40528315
115	0xbe5e4403	-0.21705632
116	0xbf3a8ceb	-0.72871274
117	0xbf0a7df5	-0.54098445
118	0xbed85c17	-0.4225776
119	0xbe185a07	-0.14878093
120	0x3e6ec022	0.2331548
121	0xbeee4178	-0.46534324
122	0x3f826148	1.0185938
123	0xbfe651c4	-1.7993703
124	0xbda3cb2f	-0.079977386
125	0x3f415412	0.75518906
126	0xbfc73919	-1.55643
127	0xbf48b5f7	-0.78402656
128	0xbf871006	-1.0551765
129	0xbed8f866	-0.42377013
130	0xc00074ef	-2.007137
131	0x3e13e96a	0.14444509
132	0xbf5a03d0	-0.8516207
133	0xbf7fbef1	-0.9990073
134	0xbef9cecd	-0.4879059
135	0xbfb15d7e	-1.3856657
136	0xbf8bbf1e	-1.0917699
137	0xbf376f55	-0.71654254
138	0xbf432260	-0.7622433
139	0xbf2ba8f9	-0.67054707
140	0x3e58e25b	0.21180098
141	0x3ef84e0a	0.4849704
142	0xbed5aafa	-0.41732007
143	0xbe9b0bfe	-0.30282587
144	0xbe17dd43	-0.14830498
145	0x3c98b5fd	0.018641466
146	0x3f092342	0.53569424
147	0x3f41da87	0.7572407
148	0xbf93e95c	-1.1555591
149	0xbedddacf	-0.43331
150	0xc064829e	-3.5704722
151	0xbf3d218e	-0.73879325
152	0x3d5de9c9	0.054178033
153	0xbf61e192	-0.8823482
154	0xbeb84cb0	-0.35996008
155	0xbfe09221	-1.7544595
156	0xbfb31ae2	-1.3992579
157	0xbd163c1b	-0.036678415
158	0xbc29bba1	-0.010359676
159	0xbe00d439	-0.12580957
160	0x3c1abae8	0.009443976
161	0xbf82461f	-1.0177649
162	0xbfb08c2e	-1.379278
163	0xbe8624ba	-0.26199895
164	0xbf60d03e	-0.8781775
165	0xbe859c9f	-0.26096055
166	0x3f56f09a	0.8396088
167	0xbf7b73e8	-0.98223734
168	0xbdd00ede	-0.10159086
169	0xbe9758bd	-0.2955989
170	0xbe809304	-0.25112164
171	0xbe94c273	-0.29054603
172	0xbf40b87e	-0.7528151
173	0xbdae0daa	-0.084987
174	0x3cfea7e2	0.031085912
175	0x3fb08668	1.3791018
176	0xbf87eb33	-1.0618652
177	0xbf070072	-0.52735054
178	0xbf077b8d	-0.529229
179	0xbe5e21dc	-0.21692604
180	0xbd01a3f8	-0.031650513
181	0xbf135dda	-0.5756508
182	0xbbe648b7	-0.0070277113
183	0xbe71873b	-0.23586743
184	0xc0022f4a	-2.0341363
185	0xbea6e375	-0.3259541
186	0xbf0adc98	-0.5424285
187	0xbd6671ab	-0.056260746
188	0x3fe74875	1.8068987
189	0x3f0fe00c	0.56201243
190	0xbe2ae061	-0.16687156
191	0xbe80d696	-0.25163716
192	0xbf91663e	-1.1359327
193	0xbeca3dd5	-0.395003
194	0x3c195ddb	0.009360756
195	0xbf9655cc	-1.1744933
196	0xbfa93502	-1.3219302
197	0xbe827839	-0.25482348
198	0xbf9a8d4d	-1.2074372
199	0x3f1aa239	0.6040378
200	0xbfb585f1	-1.4181501
201	0x3f5f4f0e	0.8723
202	0x40004928	2.004465
203	0x3f64e51b	0.8941209
204	0xbfae91c8	-1.3638239
205	0x3e29475e	0.1653113
206	0xbf8df6ee	-1.1090982
207	0x3fb32182	1.3994601
208	0x400cbabf	2.198898
209	0xbf5d221a	-0.8638016
210	0xbfb7842d	-1.4337212
211	0xbeb803e6	-0.35940474
212	0x3eaf972d	0.34295025
213	0xbfc8f165	-1.5698668
214	0xbfed69a0	-1.8547859
215	0x3fc3d3be	1.5298994
216	0xbf98fa10	-1.1951313
217	0x3e8499eb	0.2589868
218	0x3f9b8613	1.2150291
219	0xbf9d389c	-1.2282901
220	0x40030f3e	2.0478053
221	0x3fc87462	1.5660517
222	0xbebef67d	-0.3729743
223	0xbfa72630	-1.3058529
224	0xbfb8a027	-1.4423875
225	0xbe9619a8	-0.2931645
226	0xbf5a92c9	-0.85380226
227	0xbf8cbe80	-1.0995636
228	0x3f65f086	0.89820135
229	0x3f82c307	1.0215768
230	0xbdbef310	-0.09323704
231	0x3f5660fb	0.8374173
232	0x3f189f64	0.5961821
233	0x3fbe6f6b	1.4877752
234	0x3f4676b0	0.7752485
235	0x3f5afbf9	0.8554073
236	0x3f922678	1.141799
237	0xbfc7da60	-1.5613518
238	0x3f397394	0.72441983
239	0xbeebf1a1	-0.46082786
240	0x3ec22471	0.37918428
241	0x3f814466	1.0098999
242	0xbe94f006	-0.29089373
243	0xbf152a8d	-0.5826805
244	0xbfcc5822	-1.5964396
245	0xbfd7a6f0	-1.684782
246	0xbf918f0f	-1.1371783
247	0xbfbd4bd2	-1.4788764
248	0x3f81620a	1.0108044
249	0x3f9acfc7	1.2094659
250	0x3f13e5ea	0.57772696
251	0xbfd4a4ee	-1.6612833
252	0xbfb4b755	-1.4118448
253	0xbfb5ed1a	-1.4212983
254	0xbecb1e7b	-0.39671692
255	0xbfc4134a	-1.5318387

lstm.weight_hh_l0 f4 [400, 100]
0	0xbf73bc9a	-0.9520966
1	0xbe5f0d23	-0.21782355
2	0x3e8427d0	0.25811625
3	0xbca5954b	-0.02021279
4	0x3e1cd85e	0.15316913
5	0x3d87d559	0.0663249
6	0x3e0476d5	0.12935956
7	0xbcc01d98	-0.023451611
8	0xbf342d34	-0.70381474
9	0x3e2e204f	0.17004512
10	0x3d9fa51d	0.07795165
11	0x3d6453bb	0.055743914
12	0xbe86819d	-0.26270762
13	0xbf61b190	-0.88161564
14	0x3ed323e7	0.4123833
15	0x3eb7c48f	0.3589215
16	0x3edef747	0.43548033
17	0xbf89000a	-1.0703137
18	0xbe4a4c03	-0.19755559
19	0xbf1c9765	-0.6116851
20	0xbf26557e	-0.649742
21	0x3e9da50d	0.30789986
22	0xbea1f2df	-0.31630608
23	0xbf2ffca4	-0.68744874
24	0xbee44057	-0.44580337
25	0x3ed0b0db	0.4075993
26	0x3de387c5	0.1110988
27	0xbf049551	-0.5179034
28	0xbe72d64c	-0.2371456
29	0xbde41516	-0.11136834
30	0xbf069272	-0.5256721
31	0xbe7f752a	-0.24947038
32	0xbed59db4	-0.4172188
33	0x3e4a5cc5	0.19761951
34	0x3c91e5d0	0.017809778
35	0x3e00ff65	0.12597425
36	0xbe1dc000	-0.15405273
37	0xbd9e938d	-0.07742987
38	0xbd453072	-0.048141904
39	0xbf1442a7	-0.57914203
40	0xbf77e956	-0.9684042
41	0xbf301fef	-0.68798727
42	0x3cc331e3	0.023827499
43	0x3d2825b8	0.041051596
44	0xbd4a356e	-0.04936736
45	0x3e7c95fd	0.24666591
46	0xbe74ecda	-0.23918477
47	0x3da627fd	0.08113096
48	0xbf62909a	-0.88501894
49	0x3ea078e5	0.31342235
50	0x3ed1911e	0.40931028
51	0x3f35ef56	0.7106832
52	0x3e01f11f	0.12689637
53	0x3eb19593	0.3468443
54	0xbf774940	-0.96596146
55	0xbe9f515c	-0.3111676
56	0xbf91fae4	-1.1404691
57	0xbec67e0c	-0.3876804
58	0xbeb63798	-0.3558929
59	0x3e0731f3	0.13202648
60	0xbfad2c2b	-1.3529104
61	0xbe5f18db	-0.21786825
62	0xbe564fba	-0.20928851
63	0xbed6bf9d	-0.41943064
64	0xbf6317a3	-0.8870794
65	0x3dfc3884	0.12315467
66	0xbed38627	-0.41313288
67	0xbed8285d	-0.42218295
68	0x3e43623f	0.19080447
69	0x3e17ed6a	0.1483666
70	0x3e0b2b36	0.13590702
71	0x3e1a88bc	0.15091223
72	0xbcb31026	-0.021858286
73	0x3f292829	0.66076905
74	0xbd6366ec	-0.055518076
75	0xbe894630	-0.2681136
76	0xbe325442	-0.17414954
77	0x3e885455	0.2662684
78	0x3d0f1cc9	0.03493956
79	0x3ea6f6db	0.3261021
80	0x3d869b96	0.065726444
81	0xbdcb26af	-0.09919488
82	0xbde2946d	-0.11063466
83	0xbdaf93ae	-0.085730895
84	0xbf0890d2	-0.5334598
85	0xbe5c9d4b	-0.21544378
86	0x3eee4b33	0.46541747
87	0x3e9827d8	0.29717898
88	0x3d0c33a2	0.03422893
89	0x3d12b991	0.0358215
90	0x3e68210f	0.22668861
91	0x3f008a02	0.50210583
92	0xbf391738	-0.72301054
93	0xbe46aea6	-0.1940256
94	0x3dbc1fe8	0.09185773
95	0x3ddc9ba6	0.10771875
96	0xbf4082a6	-0.75199354
97	0x3dda9bc8	0.10674244
98	0xbeaca91e	-0.33722776
99	0x3ea46ec6	0.32115763
100	0x3e9ac8fb	0.3023146
101	0x3eb7dd63	0.35911092
102	0xbf14ee7f	-0.58176416
103	0xbf2d6a98	-0.67740774
104	0x3eb20a46	0.34773463
105	0xbf08542f	-0.53253454
106	0xbf109f5f	-0.5649318
107	0xbdb38644	-0.087658435
108	0xbfaf5722	-1.3698466
109	0xbf97282d	-1.1809136
110	0xbe0c397c	-0.13693804
111	0x3f893bc4	1.0721364
112	0x3f610906	0.87904394
113	0x3ee9707e	0.45593637
114	0x3ec02dce	0.37534946
115	0xbef68e4c	-0.4815544
116	0x3f86d8a2	1.0534861
117	0x3e0e925c	0.13923019
118	0x3dac1d3a	0.08404012
119	0x3e0ae35d	0.13563295
120	0xbf4560b0	-0.7710066
121	0xbf9ed6fd	-1.2409359
122	0xbff7a00f	-1.9345721
123	0x3c74d808	0.014944084
124	0x3e3d0021	0.1845708
125	0xbf0c740b	-0.5486457
126	0x3ecec949	0.40387943
127	0x3dbc88fa	0.09205814
128	0xbd78c862	-0.060737975
129	0xbf287e67	-0.65817875
130	0xbf400f0b	-0.75022954
131	0xbf6b5428	-0.9192529
132	0x3d3969a4	0.045266762
133	0xbe72bbc6	-0.23704442
134	0xbf1b2def	-0.60616964
135	0xbf903d61	-1.1268731
136	0x3e8b3775	0.27190748
137	0x3e060cfd	0.13090892
138	0xbf955e1b	-1.1669344
139	0xbf446a15	-0.7672437
140	0xbead5e52	-0.33861023
141	0xbf62e687	-0.88633007
142	0xbfa3329e	-1.2749822
143	0x3e93333a	0.2875002
144	0xbe91f4a1	-0.2850695
145	0x3f830e39	1.0238715
146	0xbdb390b2	-0.08767833
147	0xbf30ac51	-0.69012934
148	0x3e925c67	0.28586122
149	0xbed429cc	-0.41438138
150	0xbfa9c9a0	-1.3264656
151	0x3ed1bf55	0.40966287
152	0x3f2647e7	0.64953464
153	0x3eb0d09b	0.34534153
154	0xbf01c96b	-0.50697964
155	0xbec0abf2	-0.37631184
156	0x3f122404	0.57086205
157	0xbf1283d4	-0.57232404
158	0xbea21d63	-0.31663045
159	0xbe004208	-0.12525189
160	0xbdf2a228	-0.11847335
161	0x3f1fc1ef	0.62405294
162	0x3e52dd40	0.20592213
163	0xbecbded8	-0.39818454
164	0x3c6aca76	0.014330497
165	0x3d073585	0.033010025
166	0xbe2ca11b	-0.16858332
167	0x3f047af2	0.517501
168	0xbe8105e4	-0.25199807
169	0xbdd73f14	-0.10510078
170	0xbe21ef02	-0.1581383
171	0x3e62f236	0.22162709
172	0x3e20c101	0.15698625
173	0xbe642e0e	-0.22283193
174	0xbe12114d	-0.14264412
175	0xbf78e41f	-0.97223085
176	0xbff575af	-1.9176539
177	0xbf3a80d2	-0.72852814
178	0x3edb1aaf	0.42793795
179	0x3f444080	0.7666092
180	0xbf3673c5	-0.712704
181	0xbe7c56c7	-0.24642478
182	0xbf4b1750	-0.7933245
183	0x3d98a6fe	0.07453726
184	0xbbbfa522	-0.005848543
185	0xbe7392a1	-0.23786403
186	0x3e814df8	0.25254798
187	0xbf57829d	-0.84183675
188	0xbf6753fb	-0.9036252
189	0xbeeee811	-0.46661428
190	0x3eb66c96	0.3562972
191	0x3f877bb8	1.0584631
192	0x3e4a63ab	0.19764583
193	0xbedf28f9	-0.43585947
194	0xbdfad221	-0.1224711
195	0xbf0db5de	-0.5535563
196	0xbe57659e	-0.21034858
197	0xbf3ae967	-0.73012394
198	0x3d4e5a37	0.050379004
199	0x3e0f55e2	0.13997605
200	0xbf479393	-0.77959555
201	0xbf013287	-0.50467724
202	0x3e519b0d	0.20469303
203	0x3e075c94	0.1321891
204	0xbf3d83a6	-0.74029005
205	0x3f027572	0.5096046
206	0xbf8f4afe	-1.1194761
207	0x3f21856b	0.63094205
208	0x3e296f89	0.16546454
209	0xbef90998	-0.48640132
210	0xbf8c8a1b	-1.0979646
211	0x3e94ea00	0.29084778
212	0x3e149027	0.14508115
213	0xbecc1088	-0.39856362
214	0xbf28dae3	-0.65958995
215	0x3f52d4b5	0.82355815
216	0xbf0e16ff	-0.5550384
217	0x3e781e8e	0.24230406
218	0x3f437866	0.7635559
219	0xbf560123	-0.83595484
220	0x3ebf9235	0.37416235
221	0x3f132d9a	0.5749146
222	0xbfaf50a3	-1.3696483
223	0xbe8e7b88	-0.27828622
224	0x3e238faf	0.1597278
225	0xbf95ed0c	-1.1712966
226	0xbf1a4e15	-0.60275394
227	0xbf17d330	-0.5930662
228	0xbecc085f	-0.39850137
229	0x3fa81cbd	1.313377
230	0xbf321dfa	-0.6957699
231	0x3e7c9da7	0.24669515
232	0x3f396751	0.72423273
233	0x3edb45d3	0.4282671
234	0x3e8eec2a	0.27914554
235	0x3e9d2dd8	0.30699039
236	0x3f48b17a	0.7839581
237	0xbe46bd28	-0.19408095
238	0x3e4ffd35	0.20311435
239	0xbee263eb	-0.44216856
240	0x3e71898c	0.23587626
241	0x3de4090e	0.111345395
242	0xbe42ec99	-0.19035567
243	0xbfb00664	-1.375195
244	0xbf081c4c	-0.5316818
245	0xbf466062	-0.7749082
246	0xbf9db0bc	-1.231956
247	0xbee17e20	-0.44041538
248	0x3ede7927	0.43451807
249	0x3f57c3d8	0.8428321
250	0x3e80d028	0.2515881
251	0xbf41f5e4	-0.75765824
252	0xbf0a779a	-0.5408875
253	0xbf1ffe5e	-0.6249751
254	0xbecb5bed	-0.3971857
255	0xbdbdd551	-0.092692025

lstm.bias_ih_l0 f4 [400]
0	0xbf5b85c4	-0.85750985
1	0xbf2abbfc	-0.6669309
2	0x3c535010	0.012897506
3	0xbf2ce6f6	-0.6753992
4	0xbf25da7a	-0.64786494
5	0xbf655e52	-0.89597046
6	0xbf2b5802	-0.66931164
7	0xbf03113c	-0.5119817
8	0x3f58fa76	0.84757173
9	0xbf112106	-0.56691015
10	0xbec9ed5a	-0.39438897
11	0xbf0f229f	-0.559122
12	0xbf264256	-0.6494497
13	0xbf03a0c4	-0.51417184
14	0x3d817094	0.06320301
15	0xbefbf09e	-0.49207014
16	0xbf620f77	-0.8830485
17	0xbf19a8ce	-0.600232
18	0xbef91020	-0.48645115
19	0xbf51a6ea	-0.81895316
20	0x3d9dd940	0.07707453
21	0xbf07b38c	-0.5300834
22	0xbe70f6e0	-0.23531675
23	0xbe18e8d0	-0.14932561
24	0xbf061c4c	-0.5238693
25	0xbef536cd	-0.47893372
26	0xbe2ef838	-0.17086875
27	0xbd742960	-0.05960977
28	0xbf943d5f	-1.1581229
29	0xbf629e32	-0.88522637
30	0x3e0b2ea0	0.13592005
31	0xbf5eef4a	-0.87083876
32	0xbe93bf73	-0.28857002
33	0xbeb4f209	-0.35340908
34	0xbf675571	-0.9036475
35	0xbfa83cae	-1.3143518
36	0xbf389e35	-0.72116405
37	0xbf0aa98a	-0.54164946
38	0xbe19d9c1	-0.15024473
39	0xbf7e9fc3	-0.9946253
40	0xbf76777c	-0.9627607
41	0xbea2e8af	-0.31818148
42	0xbf49c513	-0.78816336
43	0xbef678d8	-0.4813907
44	0xbea95d99	-0.33079222
45	0xbea4c120	-0.32178593
46	0xbf7aac6b	-0.9791934
47	0xbe428b95	-0.18998559
48	0xbef3a590	-0.47587252
49	0xbf635ba6	-0.8881172
50	0xbf201ae5	-0.6254104
51	0xbdee0696	-0.1162235
52	0xbed28bef	-0.41122386
53	0xbe6d45d9	-0.23171176
54	0xbf9aa5be	-1.208183
55	0xbe0e118a	-0.13873878
56	0xbd40c535	-0.04706307
57	0xbf200a6e	-0.62515914
58	0xbf5fbe9f	-0.8740024
59	0xbf8cd490	-1.1002369
60	0xbf19595c	-0.59901977
61	0xbf3549df	-0.70815843
62	0xbe8a3da5	-0.27000156
63	0xbf4ee845	-0.80823165
64	0xbe541874	-0.20712453
65	0xbfa97db0	-1.3241482
66	0xbf4f44b8	-0.8096423
67	0xbed5a6ec	-0.41728914
68	0xbf321014	-0.69555783
69	0xbf0515bd	-0.51986295
70	0xbf03750c	-0.51350474
71	0xbf34256e	-0.70369613
72	0xbf4ac33a	-0.7920414
73	0xbf8d20ab	-1.1025594
74	0xbf31a4c9	-0.6939207
75	0xbe7024eb	-0.23451583
76	0xbf0d45e6	-0.5518478
77	0xbf8a17b0	-1.0788479
78	0xbecb2aab	-0.3968099
79	0xbf79c3a2	-0.97564137
80	0xbf917cb4	-1.1366181
81	0xbf5a0d05	-0.85176116
82	0x3d058c32	0.032604404
83	0xbfae8d47	-1.3636864
84	0xbe9940c0	-0.29932213
85	0xbf330c65	-0.6994079
86	0x3bd8344b	0.0065980307
87	0xbfa5a364	-1.2940488
88	0xbe10cae2	-0.14139894
89	0xbe987a0e	-0.2978062
90	0xbe6374bb	-0.22212498
91	0xbfb17600	-1.3864136
92	0xbf5d0c52	-0.86346924
93	0xbfaee791	-1.3664418
94	0xbe6825ba	-0.22670642
95	0xbf24390a	-0.64149535
96	0xbe78e2e7	-0.24305306
97	0xbf0fa974	-0.5611794
98	0xbf5561e7	-0.8335251
99	0xbf2f1cb5	-0.6840318
100	0xbf71001d	-0.941408
101	0xbebb7799	-0.36614683
102	0xbe94e4d3	-0.2908083
103	0xbfdc2d18	-1.7201262
104	0xbf0174de	-0.5056895
105	0xbf002b20	-0.50065804
106	0xbea3978f	-0.31951568
107	0xbee4e763	-0.44707784
108	0xbea378c0	-0.31928062
109	0xbf85b3f0	-1.0445538
110	0xbf1f7d2e	-0.62300384
111	0xbf22b76c	-0.6356113
112	0xbf895f08	-1.0732126
113	0xbee8b083	-0.45447168
114	0xbe2d6bea	-0.16935697
115	0xbef608b5	-0.48053518
116	0xbf00c0ef	-0.50294393
117	0xbec87857	-0.39154312
118	0xbf1ba033	-0.6079132
119	0xbf1a9098	-0.6037688
120	0xbf12a200	-0.5727844
121	0xbf0f68fd	-0.56019574
122	0x3e99c96c	0.30036485
123	0xbf3865d0	-0.72030354
124	0xbf0a1efd	-0.53953534
125	0xbeea9dce	-0.4582352
126	0xbe66fc7c	-0.22557253
127	0xbf2bfe42	-0.6718484
128	0xbeed5dae	-0.46360534
129	0xbf4662ba	-0.77494395
130	0x3e19ab3e	0.1500673
131	0xbf84152c	-1.0318961
132	0xbf30f75e	-0.6912745
133	0xbf434837	-0.76282066
134	0xbfb08f91	-1.3793813
135	0xbec09dc7	-0.37620375
136	0xbeb213d5	-0.34780756
137	0xbf4120e0	-0.7544079
138	0xbf051d6e	-0.5199803
139	0xbf0c1e61	-0.54733855
140	0xbf19be3b	-0.60055894
141	0xbe19c93c	-0.15018171
142	0xbf0f9f8d	-0.5610283
143	0xbf13f19f	-0.5779056
144	0xbf7f582f	-0.9974393
145	0xbeb4ba13	-0.35298213
146	0xbdafea13	-0.08589568
147	0xbd8e00fb	-0.06933781
148	0xbeebde1e	-0.460679
149	0xbf73d4ae	-0.952464
150	0xbf5a0083	-0.8515703
151	0xbd54fb30	-0.051997364
152	0xbea580ce	-0.32324833
153	0xbeebf36a	-0.46084148
154	0xbf8c1c47	-1.094613
155	0xbe0911f4	-0.13385755
156	0xbf8c5ebd	-1.0966412
157	0xbf3af93d	-0.7303656
158	0xbf0546ca	-0.5206114
159	0xbeee3a0d	-0.46528664
160	0xbfa0c9a2	-1.2561533
161	0xbf5f9a50	-0.8734484
162	0xbe9a6e5d	-0.30162326
163	0xbf593082	-0.8483964
164	0xbec5ac34	-0.38607943
165	0xbf84a321	-1.0362283
166	0xbf8b5e8b	-1.0888227
167	0xbf31d2b6	-0.69462144
168	0xbef63281	-0.48085406
169	0xbed3b60b	-0.41349825
170	0xbee602b1	-0.44923928
171	0xbecb6765	-0.3972732
172	0xbf95afda	-1.1694291
173	0xbf041f96	-0.51610696
174	0x3dfc686e	0.12324606
175	0xbf6cadf6	-0.92452943
176	0xbed67628	-0.4188702
177	0xbf7af607	-0.9803166
178	0xbf01731b	-0.5056626
179	0xbf8d48db	-1.1037859
180	0xbf292777	-0.66075844
181	0xbf3205a6	-0.6953987
182	0xbebc7c03	-0.36813363
183	0xbf3cf5ca	-0.73812544
184	0xbf17f6f3	-0.5936119
185	0xbf5e99de	-0.8695353
186	0x3ec114e8	0.37711263
187	0xbf2ddbcb	-0.679135
188	0xbeb1bdae	-0.34715027
189	0xbf5162a6	-0.8179115
190	0xbe7c5f1f	-0.24645661
191	0xbf7833f7	-0.9695429
192	0xbf2e9488	-0.6819539
193	0xbf31a58f	-0.6939325
194	0xbeac27d4	-0.33624136
195	0xbf412067	-0.7544007
196	0xbe579c6e	-0.21055767
197	0xbf3730f6	-0.71559083
198	0xbf14307c	-0.5788648
199	0xbf1a0713	-0.60167044
200	0x3e1226af	0.14272569
201	0xbe8850cb	-0.2662414
202	0xbe5a5c72	-0.21324328
203	0xbdb6a68b	-0.08918484
204	0x3de3140f	0.1108781
205	0xbad9d375	-0.0016618805
206	0x3e341807	0.1758729
207	0xbe5cfec9	-0.21581568
208	0xbe880147	-0.26563475
209	0x3d65741e	0.05601894
210	0x3d4d1c91	0.05007607
211	0xbd94e0a9	-0.07269413
212	0xbdb56422	-0.088569894
213	0x3e024268	0.12720644
214	0x3e99ba8b	0.30025133
215	0xbde408c4	-0.111344844
216	0x3d2096d6	0.03920635
217	0xbdce02f9	-0.10059161
218	0xbe3f50ef	-0.18683217
219	0xbe3d578a	-0.18490425
220	0xbe9159bf	-0.28388783
221	0xbdb20011	-0.08691419
222	0x3d983a9a	0.07433052
223	0x3db47f42	0.08813335
224	0x3e2775ff	0.16353606
225	0x3d02a263	0.031893145
226	0x3e0ad863	0.13559107
227	0x3bd1c5f7	0.006401773
228	0xbe0ef28b	-0.1395971
229	0x3cc0eee6	0.023551416
230	0x3ce1f696	0.027583402
231	0xbe9160b3	-0.28394088
232	0xbe42a119	-0.19006766
233	0xbe7cb4de	-0.2467837
234	0xbdf797a1	-0.12089468
235	0x3c2a21d6	0.010384044
236	0xbe45a0fc	-0.19299692
237	0x3e276b95	0.16349633
238	0xbe1dcd2d	-0.154103
239	0xbe0a2d29	-0.1349379
240	0xbe4ca06d	-0.19983073
241	0xbe23abc7	-0.15983497
242	0x3e28d03a	0.16485682
243	0x3e24f604	0.16109473
244	0x3e71b6ef	0.2360494
245	0x3e62f814	0.22164947
246	0xbea4d431	-0.3219314
247	0xbd15d44c	-0.036579415
248	0xbe738561	-0.23781349
249	0xbe56b0c9	-0.20965876
250	0x3c0dac00	0.008646965
251	0x3e646e06	0.22307596
252	0x3d63fb89	0.055659804
253	0x3e03face	0.12888643
254	0xbc39c406	-0.01133824
255	0x3e22ae57	0.15886818

lstm.bias_hh_l0 f4 [400]
0	0xbf465391	-0.7747126
1	0xbf132177	-0.5747294
2	0x3ccd2c89	0.02504565
3	0xbf2e0ceb	-0.6798846
4	0xbf1a23d9	-0.6021095
5	0xbf631416	-0.88702524
6	0xbf0144e1	-0.50495726
7	0xbefef366	-0.49795073
8	0x3f4dd279	0.8039928
9	0xbf235e07	-0.6381535
10	0xbe86adf7	-0.263046
11	0xbf12414a	-0.57130873
12	0xbf208d46	-0.62715566
13	0xbeee481f	-0.465394
14	0xbd874767	-0.06605416
15	0xbf11c63a	-0.56943095
16	0xbf80f754	-1.0075479
17	0xbef6a73a	-0.4817446
18	0xbf101847	-0.56287044
19	0xbf522182	-0.8208238
20	0x3e4188c7	0.18899833
21	0xbf11dcd9	-0.5697761
22	0xbeacbdbc	-0.33738506
23	0xbe202aec	-0.15641373
24	0xbee8b523	-0.45450696
25	0xbee32d5d	-0.44370547
26	0xbe19dbba	-0.15025225
27	0xbceb4b85	-0.028722534
28	0xbf8ce29e	-1.1006658
29	0xbf79a246	-0.97513235
30	0x3ddf1c28	0.10894042
31	0xbf740a88	-0.9532857
32	0xbe797daf	-0.2436435
33	0xbe9b38ac	-0.30316675
34	0xbf374baa	-0.7159983
35	0xbfade0b2	-1.3584197
36	0xbf1a12c2	-0.6018487
37	0xbee536af	-0.44768283
38	0xbe604cc4	-0.21904284
39	0xbf5a891e	-0.85365474
40	0xbf585a52	-0.8451282
41	0xbeed9383	-0.46401605
42	0xbf2573a9	-0.6462961
43	0xbee1853e	-0.44046968
44	0xbef079da	-0.46967965
45	0xbe810ab8	-0.2520349
46	0xbf7109cd	-0.9415558
47	0xbe99c360	-0.30031872
48	0xbeeb471c	-0.4595269
49	0xbf781add	-0.9691599
50	0xbefa11b5	-0.48841634
51	0xbde448ef	-0.111467235
52	0xbeee39b1	-0.4652839
53	0xbe97b4e2	-0.2963019
54	0xbf9f6def	-1.2455424
55	0xbe5ed564	-0.2176109
56	0xbb445987	-0.002996059
57	0xbef973a8	-0.4872105
58	0xbf4fa1c1	-0.8110619
59	0xbf80c9e4	-1.0061612
60	0xbf062eb9	-0.52415043
61	0xbf37f516	-0.71858346
62	0xbe61916e	-0.22028133
63	0xbf50f5f3	-0.8162529
64	0xbe7fb38b	-0.24970834
65	0xbfa94bbd	-1.3226238
66	0xbf50650b	-0.8140418
67	0xbeff1792	-0.4982267
68	0xbf2ffd05	-0.6874545
69	0xbf001827	-0.50036854
70	0xbf089689	-0.533547
71	0xbf1f52d2	-0.6223575
72	0xbf1b10b2	-0.6057235
73	0xbf955464	-1.1666379
74	0xbf2df484	-0.67951226
75	0xbea0484a	-0.31305152
76	0xbedcc927	-0.43122217
77	0xbf6ff600	-0.9373474
78	0xbed6d3f7	-0.4195859
79	0xbf607237	-0.8767428
80	0xbf8bac7e	-1.0912015
81	0xbf344850	-0.7042284
82	0xbdc797e0	-0.09745765
83	0xbfb63084	-1.4233556
84	0xbe5df27b	-0.2167453
85	0xbf4b1615	-0.7933057
86	0x3e1fc459	0.15602244
87	0xbf9f8359	-1.2461959
88	0xbe2f7890	-0.17135835
89	0xbea5598c	-0.3229488
90	0xbe1a4f9c	-0.15069431
91	0xbfaef0b6	-1.3667209
92	0xbf3a750d	-0.72834855
93	0xbfb0c917	-1.3811368
94	0xbe859e8b	-0.2609752
95	0xbf23fa0c	-0.64053416
96	0xbe6540b2	-0.2238796
97	0xbf136c28	-0.5758691
98	0xbf4f8814	-0.81067014
99	0xbf15e5b4	-0.58553624
100	0xbf48720d	-0.7829903
101	0xbe6f4fc7	-0.23370276
102	0xbebc7b80	-0.36812973
103	0xbfcf47c0	-1.6193771
104	0xbf1b139c	-0.60576797
105	0xbefd798a	-0.4950679
106	0xbe7dd386	-0.24787721
107	0xbed044f5	-0.4067761
108	0xbe8b3a0e	-0.2719273
109	0xbf8862ad	-1.0655113
110	0xbf28f7be	-0.66003025
111	0xbf2f0c8c	-0.6837852
112	0xbf7a229b	-0.97709054
113	0xbee2e120	-0.44312382
114	0xbe776f95	-0.24163659
115	0xbf08b25d	-0.5339716
116	0xbf0f1e4d	-0.5590561
117	0xbebcc499	-0.36868742
118	0xbf127cbc	-0.5722158
119	0xbf2acef2	-0.66722023
120	0xbf1f030f	-0.6211404
121	0xbf279120	-0.6545582
122	0x3ea9054a	0.33011848
123	0xbf380738	-0.71886015
124	0xbf1e5adf	-0.6185741
125	0xbedd1a05	-0.43183914
126	0xbe52954b	-0.20564763
127	0xbf1b37a3	-0.6063177
128	0xbf0beef5	-0.54661494
129	0xbf1efbac	-0.6210277
130	0x3e3fa0a5	0.18713625
131	0xbf8896e8	-1.0671053
132	0xbf2c3d57	-0.672811
133	0xbf23c0ad	-0.63965875
134	0xbfadae69	-1.3568851
135	0xbea1f600	-0.31632996
136	0xbe6a0ce7	-0.22856484
137	0xbf3ca26a	-0.73685324
138	0xbf330c91	-0.6994105
139	0xbf1d5570	-0.6145849
140	0xbf15fdeb	-0.58590573
141	0xbea8886b	-0.3291658
142	0xbf22af12	-0.63548386
143	0xbeda5f15	-0.42650667
144	0xbf768a3e	-0.9630469
145	0xbeb9b2b1	-0.36269143
146	0xbdfc1ed6	-0.12310569
147	0xbdb6c4ff	-0.08924293
148	0xbf0e2855	-0.5553029
149	0xbf79c1c7	-0.97561306
150	0xbf335384	-0.7004931
151	0x3d3397f3	0.043846082
152	0xbe82cb03	-0.2554551
153	0xbed9bd50	-0.42527246
154	0xbf8b6680	-1.0890656
155	0xbb7a007c	-0.0038147261
156	0xbf783368	-0.9695344
157	0xbf2cac58	-0.67450476
158	0xbefdbeb3	-0.49559554
159	0xbf1036f0	-0.5633383
160	0xbfa47378	-1.2847738
161	0xbf39b2d7	-0.7253851
162	0xbef5dbed	-0.48019353
163	0xbf800164	-1.0000424
164	0xbf08e7c2	-0.53478634
165	0xbf811179	-1.0083457
166	0xbf8a3b31	-1.0799314
167	0xbf539477	-0.82648414
168	0xbf03e2f5	-0.51518184
169	0xbe9c08f4	-0.3047558
170	0xbeccba8a	-0.39986068
171	0xbe8bb162	-0.2728377
172	0xbf94a1c1	-1.1611863
173	0xbeff2701	-0.49834445
174	0x3e3c9291	0.18415286
175	0xbf7494a0	-0.95539284
176	0xbec6ba68	-0.38814092
177	0xbf60ce8d	-0.8781517
178	0xbee2b7c7	-0.44280836
179	0xbf843ce0	-1.0331078
180	0xbf223aa7	-0.63370746
181	0xbf0a4547	-0.5401196
182	0xbef42f11	-0.4769216
183	0xbf3730f0	-0.7155905
184	0xbf387e65	-0.7206786
185	0xbf456bab	-0.77117413
186	0x3ec3472b	0.38140234
187	0xbf1ede1a	-0.6205765
188	0xbe97c04f	-0.29638907
189	0xbf484bb1	-0.78240496
190	0xbe898d47	-0.268656
191	0xbf4d18d9	-0.8011604
192	0xbf424e36	-0.7590059
193	0xbf446f15	-0.76732
194	0xbf00cdd3	-0.5031406
195	0xbf3f90eb	-0.748305
196	0xbd5630ba	-0.052292563
197	0xbf477282	-0.779091
198	0xbf0f0611	-0.5586863
199	0xbf11ec64	-0.5700133
200	0x3e36dc2d	0.17857428
201	0xbe48aec5	-0.1959792
202	0xbe6e0cb3	-0.23247032
203	0xbe3b5163	-0.18292765
204	0x3e3bee44	0.1835261
205	0x3dccfd36	0.10009234
206	0x3e4bc912	0.19900921
207	0xbe5338b7	-0.20627104
208	0xbebb3c28	-0.36569333
209	0x3e160f15	0.14654191
210	0x3dd1fc72	0.10253228
211	0xbde6fe42	-0.112789646
212	0xbbb5d84d	-0.0055494667
213	0x3e5ad8d9	0.21371783
214	0x3e65a48f	0.22426055
215	0xbe72a163	-0.23694377
216	0x3e0a5f1a	0.13512841
217	0xbc85041d	-0.016237313
218	0xbdfed102	-0.12442209
219	0xbd87afe6	-0.06625347
220	0xbea382fb	-0.31935868
221	0xbe2abc3f	-0.16673373
222	0x3e46bb4f	0.1940739
223	0x3d6681c0	0.056276083
224	0x3d9536f9	0.07285876
225	0x3cb2e311	0.02183679
226	0x3e2a9469	0.16658176
227	0x3d2d767f	0.042349335
228	0xbe34b3e2	-0.17646745
229	0xbe041d45	-0.1290179
230	0xbc093e21	-0.008376629
231	0xbeac7507	-0.33683035
232	0xbe47b7da	-0.19503728
233	0xbe5d6211	-0.2161944
234	0xbd377a74	-0.044794515
235	0x3c0fe470	0.008782491
236	0xbe52fd44	-0.20604426
237	0x3e41cf42	0.18926719
238	0xbdbfe475	-0.093697466
239	0xbd92638d	-0.07147894
240	0xbe3ae418	-0.18251073
241	0xbe3601e7	-0.17774163
242	0x3d39d1e8	0.045366198
243	0x3de203bc	0.110358685
244	0x3d87dd2a	0.066339806
245	0x3e53f815	0.20700105
246	0xbe908535	-0.2822663
247	0xbcdf462d	-0.027255142
248	0xbe36a852	-0.17837647
249	0xbe07cbff	-0.13261412
250	0x3a440f05	0.0007479045
251	0x3e758560	0.2397666
252	0x3e4d255b	0.20033781
253	0x3dc1371a	0.09434338
254	0x3da29c95	0.07940022
255	0x3d6f86f3	0.058478307

linear.weight f4 [1, 100]
0	0x3c718078	0.014740102
1	0x3d858ded	0.06521211
2	0x3e275ce1	0.16344024
3	0x3e1d7a76	0.15378746
4	0x3df78f04	0.12087825
5	0x3db029fb	0.08601757
6	0xbda0680f	-0.078323476
7	0xbd625e4d	-0.055265713
8	0x3e0f28fd	0.1398048
9	0xbdd23c94	-0.102654606
10	0xbcfe6940	-0.031056046
11	0x3dad7ebe	0.0847144
12	0x3dbf66ed	0.093458034
13	0x3ba67c5c	0.0050807428
14	0xbd4f806d	-0.050659586
15	0x3e04919e	0.12946174
16	0x3dee8801	0.116470344
17	0x3d9180e5	0.07104663
18	0x3d2906f6	0.041266404
19	0xbdd639af	-0.10460221
20	0x3e1d2f3d	0.15350051
21	0xbdae46d8	-0.08509606
22	0x3db4e658	0.08832997
23	0xbdd7a369	-0.10529215
24	0xbd547a66	-0.05187454
25	0x3c15f426	0.009152448
26	0x3e800a49	0.25007847
27	0x3dbcc512	0.09217276
28	0x3cee2c88	0.029073969
29	0xbedc5645	-0.43034568
30	0x3ea46e3f	0.3211536
31	0x3ea5ecd9	0.32407263
32	0x3e4c4651	0.19948699
33	0xbb4f7281	-0.0031653943
34	0x3dfeb485	0.12436775
35	0x3c9ad8dd	0.018902237
36	0x3d042d95	0.032270033
37	0x3e4b0b85	0.19828613
38	0x3e09917d	0.13434406
39	0xbb64487f	-0.003483325
40	0xbcc6418f	-0.024201183
41	0x3cc6ed0f	0.02428296
42	0x3d652e01	0.055952076
43	0xbe1a19eb	-0.1504895
44	0xbe597de2	-0.21239427
45	0xbd0d9d65	-0.03457393
46	0xbd5e9aa4	-0.054346696
47	0xbe68fd78	-0.2275294
48	0x3dcef5a8	0.10105449
49	0xb9626673	-0.00021591205
50	0x3c3064b8	0.010766201
51	0x3c3ac5de	0.011399714
52	0xbc80650e	-0.015673187
53	0x3e2b6517	0.16737781
54	0x3d0df7a1	0.034659985
55	0x3ec24f38	0.37951064
56	0x3e4e2cb7	0.20134245
57	0xbdc83400	-0.09775543
58	0xbd136205	-0.03598215
59	0x3b5dcb11	0.003384296
60	0x3d7f28aa	0.06229464
61	0x3d19ed34	0.03757973
62	0x3e9f5b90	0.31124544
63	0xbe023432	-0.12715223
64	0x3d78ffc7	0.060790803
65	0xbe8ad934	-0.27118838
66	0xbe7a4ac2	-0.2444258
67	0x3c5e2dfc	0.013560768
68	0xbc1ad303	-0.009449723
69	0x3d3d254a	0.04617814
70	0x3eb02c14	0.3440863
71	0x3b6a7111	0.003577296
72	0x3e7bc6e3	0.24587588
73	0x3d74d16b	0.05977003
74	0xbda19b87	-0.078909926
75	0x3d4d8247	0.05017307
76	0xbbb46436	-0.00550511
77	0x3cb6b503	0.02230311
78	0xbe3d4b6f	-0.18485807
79	0x3e1bc228	0.15210783
80	0xbb603fdc	-0.003421775
81	0x3aa32aaa	0.0012448628
82	0x3d19d38b	0.03755526
83	0x3ddf13e0	0.10892463
84	0xbe4c8dcc	-0.19975966
85	0xbd31a1b9	-0.04336712
86	0x3cc434bf	0.023950933
87	0x3d240747	0.040046003
88	0x3e3777cf	0.17916797
89	0xbe43922b	-0.19098727
90	0xbe8d9fc7	-0.27660963
91	0x3d5536d8	0.052054256
92	0xbdcce0fb	-0.10003849
93	0x3d6053a7	0.054767277
94	0xbbd6dc13	-0.0065569966
95	0xbc407240	-0.011745989
96	0x3e867d5c	0.26267517
97	0xbdf8695c	-0.12129471
98	0xbb278c45	-0.0025565785
99	0x3c7980f2	0.015228497
