BodelLigging/Nieuwegein_bodemligging_V1.pt (torch, 661983 bytes, 5 tensors)

lstm.weight_ih_l0 f4 [400, 1]
-1.2942266 0.50647247 -2.471517 -3.0504029 1.6709919 0.077040106 -0.2584517 -1.0451653
-0.12243521 -1.5529548 1.3674625 0.77439445 1.0832736 -1.3597068 -0.880258 -1.8509581
-0.027907606 0.3322458 0.19141495 -0.41815063 0.21447267 -1.4909477 0.65758705 1.0322478
-0.45848435 0.00229989 0.87183195 0.22374274 0.81687534 -0.08481227 -0.25472283 0.17866597
1.0117832 -2.8336048 -0.5847738 -1.5689453 0.030219462 2.7829328 0.07456088 -1.8315986
-0.84090346 -2.4702086 -0.83747643 -0.5567565 -0.3044076 -1.0856508 -0.13010912 0.4097453
2.9215982 0.33191893 -0.3640034 -0.28200367 -1.5182225 -0.3091206 -0.6379351 0.33102018
-0.13387036 -0.9098976 -1.3106743 -1.9967294 -0.6427689 -0.6216433 -1.2372117 0.28607348
0.90107656 -0.4345173 -0.23617135 -1.416612 -1.1618308 -1.2104169 0.5824379 0.016946295
0.52682227 -0.5286484 -0.65413845 -0.10558029 -0.69181526 -0.7336791 -0.9513272 -1.9868447
-0.86380833 -2.5021038 -0.24939054 1.3144233 -2.7971592 -1.3344214 2.8816423 0.93783504
-0.3812178 0.16319227 -1.024357 -1.314237 0.83599967 -1.0641159 -0.18412168 -1.5513227
-0.49153247 -0.6932526 -2.3809936 -0.5594071 0.6149167 0.6518804 1.146028 1.3066007
0.8006673 0.70647526 -0.80131817 0.60504055 -0.2792797 0.72266227 -0.1441799 1.3831236
0.26621526 1.1718994 0.6416428 1.1046437 0.8103346 0.8044066 0.6442774 0.63057977
-0.92469364 0.913727 -0.63358223 0.7114137 1.8519934 -0.3202965 0.91410804 1.6710271
0.10916693 -0.0500437 1.3073255 -0.14536639 0.032384705 0.9848515 1.2727159 1.1726966
0.7069289 0.9099037 0.19724692 1.1428788 1.247843 2.888029 -1.4061439 -0.46063235
0.6701106 2.4753716 0.45254973 1.3076746 1.5309106 1.7858837 0.21560702 1.3576492
1.1253512 1.0709919 0.31072283 0.6048111 -0.672682 0.55068904 2.2464354 1.1811926
1.3731279 1.055159 0.3221083 -0.46232244 0.54103565 0.5647956 0.7446095 0.8989798
0.53217286 1.3768084 2.601504 0.51027775 0.49652848 0.74266255 0.7750314 0.8337172
0.7789087 0.40335542 1.2852252 0.32683575 -0.4283024 -0.43332344 0.56428885 0.107074864
0.87386525 1.0145924 -0.037132338 0.67424077 -0.18232074 0.4107609 -0.77309614 -0.48051822
0.40722722 1.8266327 0.7117956 0.890101 0.37746882 0.8115439 1.8666327 -0.44578776
-1.5014851 -1.4560381 -1.5867009 -0.88012797 -0.53611356 0.14532904 -1.1839871 -2.0329092
-0.9328463 -1.3612456 1.726085 0.29094312 -1.3132097 1.8678188 -2.3312378 1.7317932
-0.04340238 0.35820112 1.3826973 0.5935374 -0.8227894 1.5067613 -0.944348 2.1779115
0.88065434 -1.3620446 -0.028645055 -0.50833637 -1.808559 0.42316917 0.16429861 2.1727738
0.0024294904 1.7435353 -0.77723324 1.4564637 0.62521744 -0.5436091 -0.3618772 -1.4078491
-1.4808201 1.5645188 -0.8188212 1.1772451 -0.7027906 -1.4613019 -2.1505077 -0.02128863
-0.8130893 -1.2585107 -0.7659324 0.6599972 0.8508402 -1.3920048 0.46357822 1.9834015
00000000: 38a9 a5bf 2ea8 013f 562d 1ec0 cd39 43c0
00000010: 10e3 d53f 34c7 9d3d c853 84be fac7 85bf
00000020: 50bf fabd 39c7 c6bf 0309 af3f b73e 463f
00000030: b6a8 8a3f df0a aebf 9758 61bf 32ec ecbf
00000040: 7e9e e4bc 1f1c aa3e 4802 443e d717 d6be
00000050: b99e 5b3e 60d7 bebf a057 283f b220 843f
00000060: 76be eabe c0b9 163b 6130 5f3f d11c 653e
00000070: be1e 513f 0eb2 adbd 086b 82be 36f4 363e
00000080: 1d82 813f c859 35c0 bcb3 15bf 33d3 c8bf
00000090: ce8e f73c 921b 3240 60b3 983d d371 eabf
000000a0: 7345 57bf e617 1ec0 db64 56bf 9887 0ebf
000000b0: 50db 9bbe 9bf6 8abf 533b 05be 23ca d13e
000000c0: 77fb 3a40 47f1 a93e a75e babe c962 90be
000000d0: 1d55 c2bf 0e45 9ebe b74f 23bf 7a7b a93e
000000e0: 5015 09be 0def 68bf 2dc4 a7bf d494 ffbf
000000f0: 818c 24bf 0424 1fbf f45c 9ebf 3978 923e
00000100: f4ac 663f 0d79 debe e7d6 71be 8b53 b5bf
00000110: dfb6 94bf f1ee 9abf a61a 153f f5d2 8a3c
00000120: d3dd 063f 8055 07bf 9e75 27bf 7b3a d8bd
00000130: ce1a 31bf 65d2 3bbf 2e8a 73bf ed50 febf
00000140: 8b22 5dbf 7822 20c0 3c60 7fbe 063f a83f
00000150: a804 33c0 52ce aabf d46c 3840 f515 703f
00000160: fb2e c3be e01b 273e 211e 83bf eb38 a8bf
00000170: 1304 563f f334 88bf 658a 3cbe be91 c6bf
00000180: 25aa fbbe 0179 31bf 3362 18c0 4e35 0fbf
00000190: 2e6b 1d3f a2e1 263f 0cb1 923f b13e a73f
000001a0: 88f8 4c3f 90db 343f 3023 4dbf f0e3 1a3f
000001b0: c0fd 8ebe 6500 393f e5a3 13be 320a b13f
000001c0: 5e4d 883e cd00 963f b442 243f f764 8d3f
000001d0: 1772 4f3f 97ed 4d3f 5def 243f ad6d 213f
000001e0: b9b8 6cbf 03ea 693f 7232 22bf 351f 363f
000001f0: 1f0e ed3f e7fd a3be fc02 6a3f 37e4 d53f
00000200: e992 df3d 9ffa 4cbd 7156 a73f edda 14be
00000210: d3a5 043d 3a1f 7c3f 5be8 a23f ec1a 963f
00000220: 4bf9 343f 73ef 683f 19fb 493e da49 923f
00000230: 52b9 9f3f 78d5 3840 86fc b3bf 01d8 ebbe
00000240: 5e8c 2b3f 7d6c 1e40 99b4 e73e e261 a73f
00000250: e1f4 c33f d697 e43f 16c8 5c3e 73c7 ad3f
00000260: 820b 903f 4316 893f 1017 9f3e e6d4 1a3f
00000270: e334 2cbf f5f9 0c3f 99c5 0f40 5231 973f
00000280: a8c2 af3f 730f 873f 61eb a43e 87b5 ecbe
00000290: 5081 0a3f 7296 103f ba9e 3e3f 8a23 663f
000002a0: 7b3c 083f 423b b03f 0b7f 2640 90a1 023f
000002b0: fb38 fe3e 221f 3e3f 7568 463f 7e6e 553f
000002c0: 9066 473f 9a84 ce3e 4282 a43f 0457 a73e
000002d0: 744a dbbe 92dc ddbe 3c75 103f 114a db3d
000002e0: a2b5 5f3f 2ade 813f 1418 18bd 0b9b 2c3f
000002f0: 4ab2 3abe 414f d23e a1e9 45bf 7c06 f6be
00000300: 1680 d03e 1acf e93f 3d38 363f a9dd 633f
00000310: 9843 c13e 57c1 4f3f d2ed ee3f 4b3e e4be
00000320: aa30 c0bf 755f babf 0419 cbbf 1150 61bf
00000330: bd3e 09bf 23d1 143e e48c 97bf 2f1b 02c0
00000340: 04cf 6ebf 4c3d aebf 5af0 dc3f 7ff6 943e
00000350: 4117 a8bf b014 ef3f 0033 15c0 66ab dd3f
00000360: b2c6 31bd 2366 b73e 3afc b03f 11f2 173f
00000370: 53a2 52bf 8edd c03f cac0 71bf e762 0b40
00000380: 9072 613f 7a57 aebf 09a9 eabc 5522 02bf
00000390: dc7e e7bf a1a9 d83e e53d 283e ba0e 0b40
000003a0: 1638 1f3b 2a2c df3f c2f8 46bf 676d ba3f
000003b0: 400e 203f f729 0bbf f847 b9be 6634 b4bf
000003c0: 838b bdbf 2742 c83f 449e 51bf f8af 963f
000003d0: 16ea 33bf f10b bbbf eba1 09c0 7e65 aebc
000003e0: 9f26 50bf e116 a1bf 2514 44bf 94f5 283f
000003f0: aad0 593f 372d b2bf 205a ed3e 1ae0 fd3f

lstm.weight_hh_l0 f4 [400, 100]
-0.52877206 -0.37957248 -0.24116068 -0.8421029 -0.44513807 -0.17978069 -0.48751238 -0.2888475
-0.7526185 0.29724634 0.45781523 0.43100607 -0.5373015 0.4034957 -0.39438197 -0.09521926
-0.36665505 -0.23216167 0.37811378 1.2025696 -0.7373728 0.011844939 -0.7856218 -0.7763064
0.20247778 -0.31646708 -0.08322276 0.4173304 -0.2100112 0.23644279 -0.46925142 0.22515497
0.027964484 -0.067165144 -1.0019749 0.06305557 -0.67707884 0.26558977 0.102580756 -0.99685913
-0.55387884 0.24825618 -1.4938247 0.69583535 -1.0257096 -0.26038867 -0.058631975 -0.36864948
-0.2594914 0.17312112 -0.67592025 0.7563227 1.491355 -0.41537637 0.90181977 0.28202793
-0.26986206 0.6647082 0.48656362 0.17089772 -0.4688318 0.5749746 -0.055822697 -0.8434039
-0.0011454254 -0.5952016 -0.6522142 -0.96411335 -0.14735804 0.44093952 -0.3685248 -0.140283
0.10908432 -0.05319539 -0.8420734 0.9606317 0.50196916 -0.37188345 0.40439948 0.39718685
0.55486465 -1.2567413 -0.08670363 -0.492652 0.96261567 -0.75151247 -0.600432 -0.3755345
-0.53875893 -0.7579811 -0.89509445 -0.42519155 -0.15859853 -0.84404564 0.56705314 -0.08216052
-0.08527384 0.60754114 0.29129797 -0.8254839 -0.40228346 -0.03599292 0.74080944 -0.12774447
0.08967032 -0.3811368 -0.5410612 0.38508806 -0.7363693 0.16489452 -0.30652502 -0.12192467
-0.05468445 -0.045748055 0.14831187 -0.49479827 0.024704432 -0.08431377 -0.06921436 -0.054667085
-0.57609457 -0.24118198 -0.50647974 -1.0998892 -0.24492726 -0.7643437 -0.026420962 -0.37472403
-0.85655284 -0.39755735 0.17666693 -0.87024575 -1.3035585 -0.13497724 -1.0158821 -0.027022287
-0.4189065 -0.08762452 -0.5438531 -0.057145998 0.2863576 0.25041655 -0.07233907 0.24478152
-1.0355185 -0.016083412 0.2754463 0.15088215 -0.547814 -0.40091318 -0.4718278 -0.108414516
-0.20761704 0.25412244 -0.029936442 0.29435483 -0.3170617 0.16938573 0.09525602 -0.0820622
-0.4200594 -0.023186347 0.46397614 -0.59899217 -0.54859227 -0.06474604 -0.5286216 -0.16399077
-0.70181096 0.03236415 -0.528107 -0.3353012 -0.5028508 -0.06567699 -0.99957 -0.18118578
-0.70457846 -0.60592073 -0.11947257 0.42478988 0.26543292 -1.009327 -0.1767134 -0.18044758
-0.34953853 -0.1843232 -0.4712421 -0.7875197 -0.2255512 -1.3144931 -0.55567026 -0.85104364
-0.42386103 -0.11238427 0.27705032 -0.50249887 -1.0959944 -0.07540296 0.45570713 -0.8132659
-0.034628823 -1.3596251 -1.2885876 -0.92280275 1.6547328 -0.8209194 0.15907721 -0.73258096
-0.0075958287 0.6409001 0.585868 -0.0042605517 1.6410658 1.1682483 -0.6020367 -0.004782913
0.09772553 -0.3880419 -0.4770896 -0.09455631 0.027459351 0.015563493 -0.077405594 -0.46620053
-0.13953704 0.057149153 -0.8034244 -1.3003653 0.02985703 -0.21359822 -0.30448267 -0.24871968
-1.1278905 -0.10724725 -1.1509923 -0.29923877 -0.746881 -0.7493701 0.28273833 -0.9561681
-0.6332407 0.22026476 -0.44409567 -0.6430977 0.12420663 -1.1137097 -1.1799957 0.009036861
-0.111919105 -1.14816 0.631892 -0.14402698 0.4567317 -1.579532 -0.15176481 -1.1156296
00000000: 9b5d 07bf 5357 c2be d3f2 76be 0e94 57bf
00000010: 23e9 e3be 6e18 38be 399b f9be d2e3 93be
00000020: 9bab 40bf ac30 983e c266 ea3e d4ac dc3e
00000030: 978c 09bf fd96 ce3e 6fec c9be 5102 c3bd
00000040: 36ba bbbe cabb 6dbe 2198 c13e cded 993f
00000050: 77c4 3cbf 4611 423c 831e 49bf 04bc 46bf
00000060: 5656 4f3e f907 a2be b270 aabd 55ac d53e
00000070: 2d0d 57be 0f1e 723e b941 f0be 068f 663e
00000080: c615 e53c e18d 89bd b740 80bf 4723 813d
00000090: 0a55 2dbf 62fb 873e dc15 d23d 2932 7fbf
000000a0: 01cb 0dbf de36 7e3e a635 bfbf 4422 323f
000000b0: 744a 83bf aa51 85be 1528 70bd a0bf bcbe
000000c0: 0fdc 84be aa46 313e 1c09 2dbf 5d9e 413f
000000d0: b8e4 be3f 36ac d4be a9dd 663f f765 903e
000000e0: 5c2b 8abe 512a 2a3f de1e f93e d0ff 2e3e
000000f0: b90a f0be 8931 133f 57a6 64bd 51e9 57bf
00000100: 1922 96ba 225f 18bf 83f7 26bf 22d0 76bf
00000110: 07e5 16be d3c2 e13e 48af bcbe 59a6 0fbe
00000120: 9a67 df3d 69e3 59bd 1f92 57bf f6eb 753f
00000130: 0d81 003f 8267 bebe 730d cf3e 135c cb3e
00000140: 9c0b 0e3f e6dc a0bf ac91 b1bd e23c fcbe
00000150: fb6d 763f 1f63 40bf e9b5 19bf 0f46 c0be
00000160: 1bec 09bf 0d0b 42bf e924 65bf b5b2 d9be
00000170: a767 22be 6013 58bf 652a 113f c643 a8bd
00000180: 0da4 aebd d187 1b3f 0225 953e ea52 53bf
00000190: 19f8 cdbe 506d 13bd b0a5 3d3f 72cf 02be
000001a0: 13a5 b73d 5d24 c3be fd82 0abf 432a c53e
000001b0: b382 3cbf 1cda 283e d9f0 9cbe a4b3 f9bd
000001c0: cdfc 5fbd 5062 3bbd 11df 173e 3356 fdbe
000001d0: f360 ca3c b3ac acbd 42c0 8dbd 98ea 5fbd
000001e0: ef7a 13bf 69f8 76be a8a8 01bf 2bc9 8cbf
000001f0: 36ce 7abe 07ac 43bf c670 d8bc d4db bfbe
00000200: 0c47 5bbf a38c cbbe 2de8 343e 6dc8 5ebf
00000210: 01db a6bf 7937 0abe 6d08 82bf d85d ddbc
00000220: ea7a d6be 7c74 b3bd f539 0bbf ec11 6abd
00000230: 779d 923e 9936 803e 8226 94bd 02a8 7a3e
00000240: df8b 84bf 5cc1 83bc 4c07 8d3e da80 1a3e
00000250: 8a3d 0cbf 7e44 cdbe 6a93 f1be 6e08 debd
00000260: 9099 54be 561c 823e 453d f5bc adb5 963e
00000270: e955 a2be 7473 2d3e 9715 c33d 3a10 a8bd
00000280: 0712 d7be 4bf1 bdbc 488e ed3e 8d57 19bf
00000290: 8b70 0cbf 9299 84bd bf53 07bf 32ed 27be
000002a0: e2a9 33bf 4590 043d 0532 07bf 99ac abbe
000002b0: d4ba 00bf a881 86bd d2e3 7fbf c488 39be
000002c0: 415f 34bf 9f1d 1bbf 09ae f4bd 0f7e d93e
000002d0: d3e6 873e a131 81bf 5cf4 34be 40c7 38be
000002e0: b7f6 b2be 39bf 3cbe a546 f1be e49a 49bf
000002f0: e5f6 66be 4f41 a8bf 6840 0ebf ffdd 59bf
00000300: 5004 d9be b929 e6bd 8ad9 8d3e c4a3 00bf
00000310: 8b49 8cbf de6c 9abd 7252 e93e 3232 50bf
00000320: f4d6 0dbd 3208 aebf 70f0 a4bf cd3c 6cbf
00000330: 49ce d33f c627 52bf 23e5 223e 6d8a 3bbf
00000340: 6ee6 f8bb 0712 243f 72fb 153f 199c 8bbb
00000350: 720e d23f 2989 953f 141f 1abf fbb9 9cbb
00000360: 5324 c83d 6ead c6be 1745 f4be bda6 c1bd
00000370: 6ff2 e03c 05fe 7e3c d386 9ebd d6b1 eebe
00000380: cce2 0ebe 3b15 6a3d 39ad 4dbf 5f72 a6bf
00000390: bb96 f43c 7eb9 5abe 27e5 9bbe 5fb0 7ebe
000003a0: b75e 90bf 72a4 dbbd b753 93bf d335 99be
000003b0: 9833 3fbf b8d6 3fbf 14c3 903e 6fc7 74bf
000003c0: 101c 22bf 168d 613e 8260 e3be 0da2 24bf
000003d0: 0c60 fe3d 0a8e 8ebf 190a 97bf 580f 143c
000003e0: d835 e5bd e8f6 92bf adc3 213f cf7b 13be
000003f0: bdd8 e93e 1b2e cabf 3c68 1bbe f3cc 8ebf

lstm.bias_ih_l0 f4 [400]
-0.29726523 -0.4905105 -0.24249686 -0.5745252 -0.06496374 -1.7730043 -0.7709967 -0.020016553
-0.57109445 -1.09654 0.22964953 -1.4846746 -0.85885507 0.050707765 -0.0004882917 -0.832684
-2.672427 -1.6376282 -0.7238216 -1.1530957 -0.9330792 -0.73177344 -1.1876135 -0.25129724
-1.424207 -0.91364664 -1.200178 -0.41717702 -0.1726474 -1.213481 -0.6256119 -0.09971457
-1.4853342 -0.39968216 -0.5287726 -0.8248386 -1.1131442 -0.6319742 -1.6570736 -0.5817629
-0.290611 -0.24536128 -0.64537555 -0.17783388 -1.0520744 0.119480975 0.11031071 -1.4382719
-0.64890224 0.022663724 -1.4671804 -1.3421539 -1.0030742 -0.5156091 -1.2277508 -0.21202414
-0.6429799 -1.2063446 -0.9963845 -0.7899224 -1.2729962 -1.3814374 -0.56366855 -1.0371746
-0.31825903 -0.8863115 -0.63679695 -0.83873457 -0.3851946 -1.2374548 0.11794384 -1.3474432
-1.507471 -0.9365655 0.006219186 -1.699279 -1.9502432 -0.49289626 -0.27335212 -0.46510193
0.07305059 -0.5026205 -1.2447075 -1.0323788 -0.3602301 -0.99087346 -0.21920308 0.019141722
-1.8272179 -0.8771656 -0.1423422 -0.16970095 -0.6868134 -1.0446962 -0.58412254 -0.32623276
0.3432465 -1.0866512 -0.47626162 -0.28664258 -0.6582885 -0.75015724 -0.29468775 -0.59701735
-1.39496 -0.7665267 -0.5146487 0.15295021 -0.50508434 -1.8522146 -0.58752584 -0.25947317
-2.091992 -0.23074108 -0.8139893 -0.71600395 -1.0303427 -1.0005447 -0.595206 -1.1398078
-0.5925757 -0.56794834 -0.45412493 -1.0626826 -0.99341494 -0.54958516 -0.39743474 -0.49406055
-0.5123225 -0.32653978 0.07149499 -0.5359608 -1.1242449 -0.5640812 -0.054247826 -0.9213589
-0.8796464 -0.50331974 -0.47517306 -0.32534945 -0.005953398 -0.49719855 -0.5390748 0.2845992
-0.7967454 -0.33232024 -0.0376564 -0.9788631 -0.39586532 -1.2945185 -0.88522434 -0.9544924
-0.817073 -0.4905495 -0.6766342 -0.899026 -0.32080463 -0.6587519 -0.48705015 -0.9654695
-0.44197336 -0.5126134 -0.64671713 -0.38007727 -0.37553093 -0.36565456 -0.6135227 -0.7236631
-0.54063606 -0.91157055 -0.81365293 -0.64879715 -0.6971792 -0.30017418 -0.040213503 -0.69659674
-1.48003 -0.9568457 -0.55480653 -1.2777386 0.62725204 -0.869878 -0.21619499 -0.22273469
-1.2011393 -0.9151288 -0.039246235 -0.5719676 -1.225077 -0.44271448 0.13419311 0.1848103
0.2063318 -0.50503296 -0.5896087 -0.91757613 -0.32379952 -0.90592825 -0.48767966 -0.7328417
-0.06947064 -0.07279854 -0.13248616 -0.119845465 -0.089897625 0.034786608 -0.04000354 -0.07093428
-0.049762577 -0.21829736 -0.026455348 0.02408233 -0.025891384 0.11742496 -0.100445345 0.06759605
-0.015486478 -0.06818107 -0.012776217 -0.054715965 0.062455248 0.0948364 0.04076235 -0.1056013
0.1249986 -0.06779284 -0.12228603 0.03501542 -0.18118714 0.057606217 -0.16836242 0.15775442
0.059012204 0.13424861 -0.057472706 0.0778436 -0.22491504 -0.13527136 -0.011328052 -0.10093209
0.06078825 0.15237111 -0.21059771 0.19107772 0.035536125 -0.035254188 -0.16336961 0.03822895
0.0878371 -0.02224221 -0.0042298674 0.048237663 0.19214326 -0.0058499286 0.04432487 0.11985388
00000000: 2633 98be 3124 fbbe 1951 78be 1514 13bf
00000010: b60b 85bd cef1 e2bf 0a60 45bf c1f9 a3bc
00000020: 3f33 12bf 6c5b 8cbf 3f29 6b3e d109 bebf
00000030: eddd 5bbf f2b2 4f3d b400 00ba c72a 55bf
00000040: 0b09 2bc0 cd9d d1bf 5f4c 39bf a498 93bf
00000050: 47de 6ebf 8155 3bbf b803 98bf 08aa 80be
00000060: 6a4c b6bf bfe4 69bf 6f9f 99bf 3a98 d5be
00000070: 7bca 30be 5853 9bbf 1a28 20bf 2737 ccbd
00000080: 6e1f bebf 24a3 ccbe a45d 07bf 9f28 53bf
00000090: 827b 8ebf 10c9 21bf fd1a d4bf 6aee 14bf
000000a0: f7ca 94be fd3f 7bbe 5537 25bf 161a 36be
000000b0: 60aa 86bf 71b2 f43d 95ea e13d 4b19 b8bf
000000c0: 751e 26bf 46a9 b93c 91cc bbbf b3cb abbf
000000d0: bc64 80bf f5fe 03bf f026 9dbf db1c 59be
000000e0: 559a 24bf 8069 9abf 0e13 7fbf 5b38 4abf
000000f0: 8af1 a2bf f1d2 b0bf 954c 10bf 23c2 84bf
00000100: d9f2 a2be 4fe5 62bf 2005 23bf 4fb7 56bf
00000110: 3a38 c5be eb64 9ebf 8a8c f13d 0579 acbf
00000120: cff4 c0bf c2c2 6fbf 50ca cb3b f981 d9bf
00000130: 92a1 f9bf e65c fcbe cff4 8bbe d721 eebe
00000140: 8c9b 953d bdab 00bf 9352 9fbf fd24 84bf
00000150: 1470 b8be e2a9 7dbf c676 60be 1acf 9c3c
00000160: 47e2 e9bf ed8d 60bf 27c2 11be 16c6 2dbe
00000170: 01d3 2fbf 9bb8 85bf 0e89 15bf fb07 a7be
00000180: 01be af3e 6317 8bbf 90d8 f3be d1c2 92be
00000190: 9885 28bf 4e0a 40bf 50e1 96be 21d6 18bf
000001a0: 0d8e b2bf 183b 44bf 04c0 03bf fb9e 1c3e
000001b0: 354d 01bf 5e15 edbf 1868 16bf abd9 84be
000001c0: 32e3 05c0 6447 6cbe 9a61 50bf 094c 37bf
000001d0: 45e2 83bf d911 80bf 6c5f 18bf 39e5 91bf
000001e0: 0bb3 17bf 1065 11bf 1083 e8be fc05 88bf
000001f0: 7150 7ebf 9db1 0cbf 917c cbbe 81f5 fcbe
00000200: 9127 03bf 3930 a7be f76b 923d ba34 09bf
00000210: 42e7 8fbf a067 10bf f832 5ebd 2dde 6bbf
00000220: 8230 61bf 90d9 00bf e249 f3be 3494 a6be
00000230: b914 c3bb cf90 febe ce00 0abf fdb6 913e
00000240: 82f7 4bbf e125 aabe 993d 1abd c696 7abf
00000250: dcae cabe c8b2 a5bf 109e 62bf 9d59 74bf
00000260: b22b 51bf 4e29 fbbe e637 2dbf 9126 66bf
00000270: 8140 a4be f7a3 28bf a35e f9be 0229 77bf
00000280: 554a e2be a23a 03bf 418f 25bf 7d99 c2be
00000290: 9745 c0be 1337 bbbe d30f 1dbf fc41 39bf
000002a0: 2067 0abf b05c 69bf 8f4b 50bf 9217 26bf
000002b0: 567a 32bf 6eb0 99be eab6 24bd 2a54 32bf
000002c0: 9f71 bdbf d7f3 74bf cd07 0ebf f08c a3bf
000002d0: 9793 203f 53b0 5ebf 3862 5dbe 9014 64be
000002e0: efbe 99bf e245 6abf a9c0 20bd 786c 12bf
000002f0: 53cf 9cbf 79ab e2be eb69 093e e93e 3d3e
00000300: a548 533e d749 01bf 99f0 16bf 45e6 6abf
00000310: 0dc9 a5be eaea 67bf 26b1 f9be 839b 3bbf
00000320: 9f46 8ebd 6717 95bd 74aa 07be 8a71 f5bd
00000330: 3f1c b8bd 677c 0e3d c1da 23bd fe45 91bd
00000340: d8d3 4bbd 5889 5fbe e3b8 d8bc 4e48 c53c
00000350: 2b1a d4bc 7f7c f03d 4ab6 cdbd cc6f 8a3d
00000360: ffba 7dbc 84a2 8bbd 5753 51bc d91d 60bd
00000370: 13d1 7f3d 9639 c23d 6cf6 263d 7f45 d8bd
00000380: 44ff ff3d f9d6 8abd 1971 fabd 546c 0f3d
00000390: 1f89 39be 7ff4 6b3d 3367 2cbe 608a 213e
000003a0: c8b6 713d 7878 093e 8068 6bbd 776c 9f3d
000003b0: 2150 66be 9384 0abe 4b99 39bc 7cb5 cebd
000003c0: 1afd 783d 2c07 1c3e eda6 57be e1a9 433e
000003d0: 548e 113d b266 10bd 5d4a 27be f695 1c3d
000003e0: f0e3 b33d 4c35 b6bc b39a 8abb db94 453d
000003f0: 34c1 443e c2b0 bfbb ff8d 353d f375 f53d

lstm.bias_hh_l0 f4 [400]
-0.2877104 -0.42724702 -0.3884442 -0.5813933 -0.04157375 -1.772912 -0.7269465 0.06544294
-0.5977746 -1.1739427 0.14133477 -1.4936912 -0.8440898 0.008332182 -0.079787865 -0.8725766
-2.7988665 -1.6756183 -0.82804596 -1.1525049 -1.0327296 -0.844243 -1.3638915 -0.15526262
-1.3397028 -0.79999614 -1.0570525 -0.37537777 -0.02953525 -1.3086712 -0.70380634 -0.21426378
-1.4592649 -0.38626853 -0.51207393 -0.70914066 -1.0281346 -0.74432355 -1.768413 -0.6668106
-0.13573968 -0.2896385 -0.61396277 -0.18319981 -0.99480146 0.17308873 0.120665275 -1.4823213
-0.52389604 -0.049661554 -1.5188663 -1.4157013 -0.9938103 -0.50395185 -1.3362132 -0.28267595
-0.7376101 -1.2427565 -1.1227355 -0.908958 -1.1594223 -1.5120927 -0.6025518 -1.0251957
-0.33677527 -1.024587 -0.7353528 -0.8084456 -0.394959 -1.2183189 -0.031471133 -1.2734767
-1.5157021 -0.9187865 0.0069568222 -1.7313846 -1.9581949 -0.55779845 -0.3988776 -0.50486225
0.14990258 -0.5085748 -1.223409 -0.9992904 -0.3976841 -0.91384447 -0.14722925 -0.046360187
-1.796305 -0.7203659 -0.036431223 -0.13879405 -0.77132595 -1.0702404 -0.6863698 -0.21180235
0.20429526 -1.1746796 -0.5903249 -0.4324283 -0.5805981 -0.87428415 -0.2715913 -0.6153709
-1.3192161 -0.69928604 -0.4807813 0.12675363 -0.46203077 -2.0339713 -0.62870103 -0.3603182
-2.020668 -0.21395038 -0.9349416 -0.7549356 -1.0384376 -0.9695848 -0.4600086 -1.2465765
-0.70550656 -0.5173225 -0.388466 -0.96624136 -0.9866136 -0.6233781 -0.3885481 -0.6280359
-0.36851546 -0.2206093 0.07250968 -0.5057903 -0.9832523 -0.5224469 -0.12249595 -0.78512836
-0.9342164 -0.5171489 -0.47867414 -0.33575693 -0.043486323 -0.5403084 -0.46171 0.29348886
-0.85544205 -0.19967721 -0.092662185 -1.0058522 -0.37919787 -1.2003589 -0.8460257 -0.9126573
-0.870447 -0.5347201 -0.67918 -0.98611283 -0.33751962 -0.5496866 -0.62857133 -0.9675755
-0.51255834 -0.36329594 -0.7476678 -0.45226038 -0.45269054 -0.29297543 -0.68263173 -0.7335824
-0.5623399 -0.9238671 -0.74594593 -0.7209064 -0.6534238 -0.2857701 -0.0037315951 -0.60068613
-1.4197941 -0.8955455 -0.7422913 -1.2757626 0.59980536 -0.8786117 -0.17873484 -0.16629377
-1.1610966 -0.8846275 0.14242928 -0.6887395 -1.1933023 -0.58163667 0.039249428 0.1711708
0.14923471 -0.41489676 -0.5457896 -0.8837993 -0.19736022 -0.91352844 -0.46118063 -0.7695527
-0.084722005 -0.040486466 -0.21452233 -0.093460426 -0.027491072 -0.04914418 -0.14227606 -0.057609305
-0.13873169 -0.08826988 -0.022394618 -0.081080884 -0.042085156 0.14401318 -0.20653656 0.16436818
0.0014261501 -0.062079173 0.11625048 0.071387395 -0.036936786 0.0765257 -0.12808006 -0.1554314
0.011779656 -0.15157022 -0.14169726 0.18370257 -0.14421548 -0.0021723472 -0.07290828 0.03299766
0.03448108 0.21811706 -0.008486249 0.14354846 -0.31966797 -0.11529536 -0.03859816 -0.02884449
0.030567354 0.14535879 -0.12036003 0.22175609 -0.07633958 -0.010514782 -0.21409386 0.03167397
0.10907427 0.01894364 -0.038382642 0.0005159688 0.09576751 -0.105309546 0.04405456 0.100458905
00000000: c74e 93be 1fc0 dabe 28e2 c6be 31d6 14bf
00000010: 3d49 2abd c8ee e2bf 2a19 3abf f306 863d
00000020: c207 19bf c143 96bf 10ba 103e 4631 bfbf
00000030: 4516 58bf b483 083c d267 a3bd 2e61 5fbf
00000040: a120 33c0 a97a d6bf d2fa 53bf 4885 93bf
00000050: 7c30 84bf 4f20 58bf ff93 aebf 2afd 1ebe
00000060: 627b abbf 8ccc 4cbf 7f4d 87bf 8431 c0be
00000070: e9f3 f1bc 8a82 a7bf a72c 34bf f767 5bbe
00000080: 31c9 babf fdc4 c5be 4717 03bf 3e8a 35bf
00000090: ea99 83bf fd8b 3ebf 5b5b e2bf 19b4 2abf
000000a0: 58ff 0abe 7f4b 94be aa2c 1dbf bb98 3bbe
000000b0: 4fab 7ebf 2c3e 313e 5b1f f73d b4bc bdbf
000000c0: 0d1e 06bf ea69 4bbd 366a c2bf b335 b5bf
000000d0: 5a6a 7ebf fd02 01bf 0909 abbf e7ba 90be
000000e0: 04d4 3cbf a512 9fbf ccb5 8fbf 79b1 68bf
000000f0: f367 94bf 418c c1bf d640 1abf 9d39 83bf
00000100: cf6d acbe ab25 83bf 1540 3cbf 4af6 4ebf
00000110: 1138 cabe e0f1 9bbf e0e7 00bd 4901 a3bf
00000120: 8702 c2bf 9835 6bbf 0ef6 e33b 039e ddbf
00000130: 21a6 fabf e1cb 0ebf af39 ccbe a73e 01bf
00000140: 1080 193e f531 02bf ab98 9cbf 7fd1 7fbf
00000150: 409d cbbe b6f1 69bf 44c3 16be 2ee4 3dbd
00000160: 52ed e5bf e669 38bf e838 15bd 0720 0ebe
00000170: 9e75 45bf a3fd 88bf eeb5 2fbf b7e2 58be
00000180: c732 513e e75b 96bf 881f 17bf 3e67 ddbe
00000190: 14a2 14bf 16d1 5fbf 040e 8bbe f388 1dbf
000001a0: 13dc a8bf 6904 33bf f728 f6be b4cb 013e
000001b0: 4c8f ecbe 962c 02c0 8df2 20bf a17b b8be
000001c0: a052 01c0 cf15 5bbe 5558 6fbf 7643 41bf
000001d0: 86eb 84bf b636 78bf 3f86 ebbe d28f 9fbf
000001e0: 149c 34bf 3f6f 04bf 04e5 c6be 985b 77bf
000001f0: b592 7cbf b595 1fbf c7ef c6be f6c6 20bf
00000200: 0fae bcbe 68e7 61be f57f 943d 797b 01bf
00000210: 6cb6 7bbf 14bf 05bf 28df fabd 2cfe 48bf
00000220: ce28 6fbf df63 04bf c714 f5be 55e8 abbe
00000230: b71e 32bd a751 0abf 4165 ecbe 2c44 963e
00000240: 40fe 5abf 2f78 4cbe acc5 bdbd c4bf 80bf
00000250: 3926 c2be 5ca5 99bf 2495 58bf e9a3 69bf
00000260: 9dd5 5ebf 6be3 08bf bede 2dbf e471 7cbf
00000270: 5fcf acbe 43b8 0cbf 0dea 20bf 07b3 77bf
00000280: 0637 03bf ed01 babe 2867 3fbf ac8e e7be
00000290: 0ec7 e7be e000 96be f4c0 2ebf 0ecc 3bbf
000002a0: 82f5 0fbf 8e82 6cbf 50f6 3ebf 528d 38bf
000002b0: c846 27bf 7550 92be c78d 74bb 91c6 19bf
000002c0: d0bb b5bf 7842 65bf cd06 3ebf 304c a3bf
000002d0: d88c 193f b2ec 60bf 4406 37be ea48 2abe
000002e0: d09e 94bf f376 62bf fbd8 113e 3b51 30bf
000002f0: 21be 98bf 24e6 14bf 02c4 203d 6647 2f3e
00000300: fcd0 183e 596d d4be deb8 0bbf ac40 62bf
00000310: cc18 4abe 00dd 69bf de1f ecbe 6801 45bf
00000320: bb82 adbd 23d5 25bd beab 5bbe 2e68 bfbd
00000330: f534 e1bc 684b 49bd d1b0 11be bcf7 6bbd
00000340: ae0f 0ebe d7c6 b4bd eb74 b7bc bc0d a6bd
00000350: 7c61 2cbd 3178 133e 527e 53be 2250 283e
00000360: a8ed ba3a bb46 7ebd bb14 ee3d 8e33 923d
00000370: 074b 17bd 82b9 9c3d 6b27 03be 6929 1fbe
00000380: 75ff 403c 3935 1bbe 1619 11be 871c 3c3e
00000390: 39ad 13be f05d 0ebb f050 95bd 8e28 073d
000003a0: 083c 0d3d 145a 5f3e e809 0bbc 5efe 123e
000003b0: 85ab a3be f91f ecbd 1b19 1ebd 484b ecbc
000003c0: 6368 fa3c efd8 143e 527f f6bd 0714 633e
000003d0: ed57 9cbd 3146 2cbc 6c3b 5bbe 91bc 013d
000003e0: 5562 df3d b12f 9b3c 1e37 1dbd 1442 073a
000003f0: c221 c43d 88ac d7bd 8e72 343d 66bd cd3d

linear.weight f4 [1, 100]
0.049602278 -0.16490392 0.02934991 0.055980224 -0.21393898 0.02722868 -0.006851263 -0.044025343
-0.052814107 -0.11038967 0.38023207 0.024778724 0.0025086955 0.25485238 -0.097808294 0.028392684
0.008445604 0.040046424 0.054940414 0.0399048 0.00443522 0.07712528 0.0023988362 0.33640066
0.15034871 -0.0036583585 0.08253425 -0.15515506 -0.06746949 0.06920403 0.022218097 0.08270218
-0.009796494 0.031033207 0.0151402615 0.05364459 0.016448932 0.16241206 -0.014919929 0.0096245445
-0.15445174 0.0017858932 -0.05769372 0.09338694 -0.056869853 -0.030110678 -0.16564463 -0.13039821
-0.15442643 -0.029591128 -0.052390452 0.09153754 -0.061981495 -0.05570078 -0.0032523542 0.07441546
-0.006470524 0.03997542 0.06327129 -0.022444462 -0.019411758 0.020998653 -0.100104146 0.028649518
0.08870684 -0.03480417 -0.0021043348 -0.027460994 0.08489899 0.10317398 0.005712127 0.004707832
0.06577347 -0.018993279 -0.26018098 0.049833775 0.027150184 0.078757435 0.05108265 0.07316937
0.11961928 0.05601879 -0.0058500497 0.036808647 -0.18857604 -0.05995256 0.5007109 0.08858761
-0.028064612 0.015382272 -0.088800825 0.08671018 -0.11107004 -0.019121112 0.086379185 -0.03139298
0.12871298 0.051986266 -0.09975135 -0.0056034597
00000000: c22b 4b3d 93dc 28be 396f f03c 854b 653d
00000010: d212 5bbe ae0e df3c 8f80 e0bb eb53 34bd
00000020: 9b53 58bd fb13 e2bd c7ad c23e c0fc ca3c
00000030: ed68 243b 037c 823e b74f c8bd c697 e83c
00000040: 6e5f 0a3c b807 243d 3309 613d 3773 233d
00000050: 5255 913b dcf3 9d3d cb35 1d3b b53c ac3e
00000060: 03f5 193e 12c1 6fbb b807 a93d f8e0 1ebe
00000070: 722d 8abd d8ba 8d3d ba02 b63c c35f a93d
00000080: 7981 20bc 5a39 fe3c dc0e 783c 6eba 5b3d
00000090: e9bf 863c 594f 263e b872 74bc 44b0 1d3c
000000a0: 9928 1ebe a214 ea3a 4050 6cbd a741 bf3d
000000b0: 5df0 68bd abaa f6bc bf9e 29be 1c87 05be
000000c0: f621 1ebe 1869 f2bc 5f97 56bd 0978 bb3d
000000d0: 4fe0 7dbd 8026 64bd 7325 55bb 2267 983d
000000e0: b006 d4bb 44bd 233d 6194 813d 73dd b7bc
000000f0: 6805 9fbc 5e05 ac3c 6703 cdbd 65b2 ea3c
00000100: efab b53d d18e 0ebd e1e8 09bb e1f5 e0bc
00000110: 86df ad3d e14c d33d cb2c bb3b 2844 9a3b
00000120: 3eb4 863d cb97 9bbc 7136 85be 801e 4c3d
00000130: 106a de3c 944b a13d 0a3c 513d d3d9 953d
00000140: f4fa f43d f573 653d c6b1 bfbb aac4 163d
00000150: 141a 41be d190 75bd 972e 003f 6c6d b53d
00000160: c2e7 e5bc ed05 7c3c 35dd b5bd 1b95 b13d
00000170: b078 e3bd e1a3 9cbc 92e7 b03d ed95 00bd
00000180: 56cd 033e 8def 543d 704a ccbd 3a9d b7bb
