BodelLigging/Nijmegen haven_bodemligging_V1.pt (torch, 661983 bytes, 5 tensors)

lstm.weight_ih_l0 f4 [400, 1]
2.535686 0.92669886 1.7186081 1.6900975 -0.06705049 1.0370649 -0.26509723 -0.26161245
-0.3863131 1.0045407 -2.8204322 0.20484337 -0.23527491 1.6638559 1.3918217 -0.036941905
-0.05418551 0.30865082 0.049238764 -0.31798303 -0.032141168 1.7480863 -0.09170542 -0.38358095
-1.1322956 0.92013 1.7337978 -0.03669921 -0.7796756 1.6521289 0.35204777 2.8406606
0.9745231 -1.0220487 3.3707287 1.2701944 -0.086745515 -0.774001 -0.84348977 -0.7017706
-0.10233106 0.741898 0.7585137 0.25827745 1.5904548 -0.37120575 -1.1957016 -1.0657713
1.4247048 0.01349876 0.038146187 -0.1791291 -0.2186913 0.5012595 0.20705897 -1.4528909
-0.7874177 2.4032528 -1.0601805 -0.2602734 -0.45395702 -1.5040231 -3.413303 2.244737
-1.3189327 0.6749875 0.72032255 -0.43528667 -2.0677192 -0.29765263 -0.8505437 -0.5283376
-0.07941897 2.0217464 -1.5422909 0.83815145 -0.7867516 0.46643412 -0.18270369 -0.33504814
-0.4244824 -0.46624732 0.15311901 -0.7419057 1.0363096 0.28257385 -0.55574554 0.3254014
-1.117441 -1.129697 1.892769 -0.40547416 0.31262565 0.63358474 0.4896361 -0.5409526
-0.18488127 0.1579937 -0.1541943 1.2758404 0.8686988 1.11694 0.03607151 0.6060937
0.7542455 0.15319154 0.118010215 0.06390101 0.90537053 1.7066036 1.0605537 0.5101226
-0.17628515 1.3501551 0.7672034 1.1116585 0.22252862 -0.0048977933 0.5772701 0.6164726
-0.31152028 1.3366654 -0.12675507 0.82266074 0.12057608 0.276933 0.53053796 1.1615914
0.45705205 3.2723987 2.1400924 1.1777042 0.78645355 0.8932323 0.93581647 1.0412512
1.1221007 0.97318834 0.4834504 0.054284595 0.34684426 0.7939812 1.0357082 0.5024106
0.27681154 0.17342171 0.3586477 1.5850434 0.30582622 0.44226137 0.41908053 0.7485297
0.5803852 0.20465998 1.0026987 0.24236968 0.87416303 1.7119441 1.2646706 0.067214854
0.73445636 0.22185932 1.5813522 2.4476175 2.7167084 0.06788081 0.7973561 0.019458767
0.7561208 0.00014983192 1.6233761 0.5380164 1.3252218 1.5981395 0.22940956 0.36636618
0.38815907 1.3683791 0.5297517 -0.14624451 -0.19131392 1.1386789 0.7170719 0.06771925
1.7662721 0.41362992 1.5125084 1.4211627 -0.24286857 1.2501072 2.116806 0.6700012
0.7809875 0.78334236 0.5520357 0.87345463 0.4544755 0.24364613 0.71454185 0.70270747
-0.25826338 0.14308141 -0.2961028 1.7053924 1.2065879 1.6380774 -1.9802554 -1.0626495
0.9282342 -0.7412638 2.1140952 2.037216 -0.13305524 1.362873 0.44438252 -0.6245505
-0.9658759 0.13522321 -0.05499767 1.0824617 -0.993022 1.0258505 1.044055 -0.6365022
-2.2966459 0.16782647 1.16006 -0.43735468 1.1138024 -0.40673622 1.442307 0.6660192
-1.1344666 1.6246984 0.54027927 1.6460962 0.7497705 -0.0011995592 1.6638027 -0.7481394
0.7444216 -0.8240761 -1.2696874 -1.6852689 0.8547727 -0.80414855 0.684065 1.0711393
-0.22955929 1.5351131 -0.95131683 1.0807374 -0.7808288 -0.3872959 1.8410937 -0.79741216
00000000: ae48 2240 233c 6d3f 5afb db3f 1d55 d83f
00000010: c451 89bd 8bbe 843f d3ba 87be 11f2 85be
00000020: d5ca c5be ca94 803f f681 34c0 76c2 513e
00000030: e8eb 70be 3bf9 d43f 3727 b23f 6550 17bd
00000040: a0f1 5dbd 7b07 9e3e 96ae 493d acce a2be
00000050: 75a6 03bd 4bc1 df3f 0dd0 bbbd b964 c4be
00000060: 10ef 90bf a48d 6b3f 16ed dd3f e951 16bd
00000070: d298 47bf f678 d33f 9b3f b43e 62cd 3540
00000080: 597a 793f 7ed2 82bf 05ba 5740 bb95 a23f
00000090: a2a7 b1bd ee24 46bf f2ee 57bf 3da7 33bf
000000a0: f292 d1bd 07ed 3d3f f42d 423f f13c 843e
000000b0: 0694 cb3f ae0e bebe c00c 99bf 326b 88bf
000000c0: ba5c b63f e729 5d3c 2d3f 1c3d 9e6d 37be
000000d0: 9df0 5fbe 8b52 003f 4407 543e 54f8 b9bf
000000e0: 3594 49bf e5ce 1940 ffb3 87bf 8e42 85be
000000f0: 0e6d e8be d483 c0bf 8e73 5ac0 c5a9 0f40
00000100: c9d2 a8bf fbcb 2c3f 0f67 383f e5dd debe
00000110: 8355 04c0 ed65 98be 3bbd 59bf 2241 07bf
00000120: 6aa6 a2bd 4b64 0140 ca69 c5bf 1891 563f
00000130: 8e68 49bf 74d0 ee3e ad16 3bbe 6e8b abbe
00000140: c255 d9be f8b7 eebe 3bcb 1c3e 88ed 3dbf
00000150: cba5 843f 85ad 903e 5745 0ebf 039b a63e
00000160: 4f08 8fbf e999 90bf 4146 f23f 4f9a cfbe
00000170: 7810 a03e 9c32 223f 95b1 fa3e df7b 0abf
00000180: 8451 3dbe 1ac9 213e 1ce5 1dbe bd4e a33f
00000190: 0b63 5e3f e4f7 8e3f b8bf 133d f528 1b3f
000001a0: 3c16 413f 3ede 1c3e 57af f13d 88de 823d
000001b0: 5dc6 673f fd71 da3f 39c0 873f 6597 023f
000001c0: 1884 34be e2d1 ac3f 7167 443f d34a 8e3f
000001d0: 8bde 633e ab7d a0bb f9c7 133f 26d1 1d3f
000001e0: 967f 9fbe da17 ab3f 15cc 01be e599 523f
000001f0: 98f0 f63d 2aca 8d3e 56d1 073f 07af 943f
00000200: ba02 ea3e fb6e 5140 46f7 0840 03bf 963f
00000210: 0555 493f dfaa 643f ab91 6f3f b847 853f
00000220: ffa0 8f3f df22 793f d086 f73e 8659 5e3d
00000230: 9295 b13e 5a42 4b3f 1692 843f fb9d 003f
00000240: 3eba 8d3e 7695 313e aca0 b73e b4e2 ca3f
00000250: 4195 9c3e 1570 e23e b991 d63e a49f 3f3f
00000260: 2094 143f 6392 513e 6e58 803f c22f 783e
00000270: 26c9 5f3f fc20 db3f bae0 a13f f1a7 893d
00000280: 5505 3c3f 172f 633e c069 ca3f c4a5 1c40
00000290: 8dde 2d40 1805 8b3d 881f 4c3f fe67 9f3c
000002a0: 2291 413f 331c 1d39 caca cf3f 71bb 093f
000002b0: dea0 a93f d68f cc3f 57ea 6a3e 5994 bb3e
000002c0: c9bc c63e 0c27 af3f cf9d 073f 1fc1 15be
000002d0: cce7 43be 3bc0 913f 0692 373f 64b0 8a3d
000002e0: 3415 e23f 4dc7 d33e e099 c13f a9e8 b53f
000002f0: 8ab2 78be 8303 a03f c079 0740 3385 2b3f
00000300: ccee 473f 2089 483f 3652 0d3f b99a 5f3f
00000310: 03b1 e83e 5f7e 793e 37ec 363f a3e4 333f
00000320: 193b 84be ef83 123e c99a 97be 4c4a da3f
00000330: 7971 9a3f 85ac d13f 0279 fdbf e604 88bf
00000340: c2a0 6d3f 77c3 3dbf 564d 0740 bf61 0240
00000350: a23f 08be 9f72 ae3f 1b86 e33e 8be2 1fbf
00000360: a543 77bf f477 0a3e 3d45 61bd 1b8e 8a3f
00000370: b136 7ebf 124f 833f 98a3 853f cff1 22bf
00000380: 3ffc 12c0 b4da 2b3e d97c 943f f4ec dfbe
00000390: 1491 8e3f bb3f d0be 849d b83f 3c80 2a3f
000003a0: 3436 91bf 1ef6 cf3f be4f 0a3f 48b3 d23f
000003b0: f6f0 3f3f 873a 9dba 7df7 d43f 1086 3fbf
000003c0: 6a92 3e3f a7f6 52bf 1e85 a2bf e4b6 d7bf
000003d0: 62d2 5a3f aedc 4dbf e21e 2f3f 181b 893f
000003e0: 9711 6bbe 967e c43f 8089 73bf 9a55 8a3f
000003f0: 65e4 47bf a64b c6be f5a8 eb3f 3423 4cbf

lstm.weight_hh_l0 f4 [400, 100]
-0.05227589 0.5370879 -0.30556673 -0.46000713 -0.25068152 -0.6581224 0.9085787 -0.44542226
-0.5991655 -0.21659908 0.04882993 -1.1052648 1.0476555 -0.18200666 0.77085423 0.008583734
0.22877097 -1.2076501 0.012172438 -0.2229268 -0.19791627 0.094286166 0.63869834 -0.38184488
0.6117532 -0.67240626 -0.6742175 -0.5603317 -0.20891169 1.2309178 -0.24564704 -0.780392
0.29326242 -0.05758152 -0.5913181 0.3774724 -0.41609842 -0.55633235 0.32277194 -0.026764467
1.0458419 0.30883104 -0.3563847 -0.47534144 -0.59421694 -0.81469756 -0.13126601 0.087546766
-0.29459065 -0.94243455 -0.3675276 -0.37983257 -0.49610934 -0.36623952 -1.2773502 -0.8527533
0.4219432 -0.1638939 -0.19680166 -0.095677204 -0.3753898 0.79789037 0.085998684 -0.7522452
0.36006188 0.27422383 1.0608562 0.0948601 -0.9268758 1.0597168 -0.87552875 0.30542555
-0.016277669 -0.5723682 1.6983776 -1.4685632 0.32336766 0.38102546 -0.5479321 0.7537874
1.4900682 -0.66108936 0.43013695 0.27819294 0.37496093 -0.68489516 0.20474339 -0.90250874
-0.4896502 -0.3746533 -0.91037786 0.04516941 0.04504583 0.18582523 0.5557574 0.72088313
0.71279526 -0.4158941 -0.35329458 0.034167442 -0.096296884 0.20559695 -0.5170725 -0.10021903
0.040217314 -0.39199275 0.44250694 0.33562398 -0.012146779 -0.5015004 -1.3124442 -0.54585266
-1.0525596 0.037309766 1.0200734 -0.18228371 0.22632396 -0.8539137 -1.0142759 0.044540398
-0.5563984 -0.8839733 0.009092106 -0.074994996 1.0632498 -0.353277 -0.32350522 0.090454794
-0.38396168 0.19440249 -0.36363953 -0.59112674 1.0701292 -0.21456641 -0.28834617 -0.07169079
-0.00019412723 -1.1374822 -1.2729367 0.28159377 -0.6100123 -0.011750062 -0.5797437 -0.28648865
-0.2830526 -0.26509693 -0.5727156 -0.12780015 0.06881316 -0.26911187 -0.36398926 0.20901321
0.98920053 -0.12112614 -0.75294 -0.67004037 -0.5654184 -0.28812224 -0.020485625 -0.8228526
-1.2349316 0.1603437 -0.5964195 -0.37402028 0.29395252 -0.31058064 0.16381343 -1.9395595
-0.48335442 -0.4760472 -0.7350352 0.441299 -0.25204682 0.4531037 -1.3977115 -0.9182765
-0.73176163 1.0094824 0.65256345 -0.21003993 -0.2834746 -0.46673524 -0.6912588 -0.29548556
0.5785836 -0.14672258 -0.565341 -0.3209045 -1.2803086 0.5612636 -0.48121575 -0.122607775
-0.10617943 -0.108346425 0.5240923 -0.47131002 -0.9305185 -0.25140178 -0.4917891 -0.5938671
0.2599922 -0.02738439 -0.80265576 0.077519484 0.63125277 0.69304186 -1.3279419 -0.9031721
0.3389031 0.49435896 -0.21633017 0.90395695 -0.7332298 0.13860187 0.05399355 -0.24152908
-0.06449927 -0.6876764 0.12754178 0.48715428 -1.0143454 -0.12421415 -0.38952538 -0.64390004
-0.93955153 -0.9497827 -0.20504478 0.07996336 0.98639727 -1.0285959 -0.4357319 -0.55743724
0.6668064 -0.25498155 -0.46583813 0.12728569 -0.9631192 0.44474235 0.4393904 0.108182825
0.005772035 0.8864718 0.86679465 -0.22371612 0.5356386 -0.3377629 -0.79302347 -0.42277429
-0.09571915 1.0438106 -0.9209018 0.5398071 -0.031886667 -0.7951338 0.3853348 -1.0384039
00000000: 3e1f 56bd 987e 093f 3e73 9cbe 0e86 ebbe
00000010: 5459 80be b67a 28bf 9d98 683f 630e e4be
00000020: e962 19bf 26cc 5dbe e501 483d 5179 8dbf
00000030: 9319 863f f45f 3abe b456 453f caa2 0c3c
00000040: f042 6a3e 4794 9abf e86e 473c ec46 64be
00000050: 90aa 4abe 1b19 c13d bc81 233f 2c81 c3be
00000060: dc9b 1c3f d122 2cbf 8599 2cbf e671 0fbf
00000070: f2ec 55be b78e 9d3f e68a 7bbe c5c7 47bf
00000080: 7e26 963e 9ada 6bbd 9f60 17bf 1044 c13e
00000090: da0a d5be cc6b 0ebf 5d42 a53e 2841 dbbc
000000a0: 26de 853f 1a1f 9e3e 0e78 b6be f45f f3be
000000b0: 9a1e 18bf 0590 50bf 996a 06be b84b b33d
000000c0: 96d4 96be 6443 71bf 942c bcbe 6a79 c2be
000000d0: 0b02 febe bf83 bbbe 3680 a3bf 0a4e 5abf
000000e0: f008 d83e cdd3 27be 6086 49be 69f2 c3bd
000000f0: 1833 c0be 8b42 4c3f 1420 b03d 2493 40bf
00000100: 085a b83e 1167 8c3e 23ca 873f 0346 c23d
00000110: bc47 6dbf cda4 873f a722 60bf bd60 9c3e
00000120: bf58 85bc b986 12bf 7064 d93f e1f9 bbbf
00000130: 7290 a53e c515 c33e 4745 0cbf 36f8 403f
00000140: 8eba be3f 273d 29bf e93a dc3e 4e6f 8e3e
00000150: e1fa bf3e 4a55 2fbf 40a8 513e d00a 67bf
00000160: 6eb3 fabe 8fd2 bfbe 860e 69bf 8f03 393d
00000170: fa81 383d f848 3e3e 1e46 0e3f cc8b 383f
00000180: c079 363f 12f0 d4be 07e3 b4be 29f3 0b3d
00000190: 4d37 c5bd 0288 523e dd5e 04bf a33f cdbd
000001a0: e9ba 243d 46b3 c8be 4590 e23e e8d6 ab3e
000001b0: 4903 47bc 5562 00bf 2cfe a7bf 00bd 0bbf
000001c0: 46ba 86bf 20d2 183d c491 823f 95a8 3abe
000001d0: 78c1 673e 179a 5abf cbd3 81bf fe6f 363d
000001e0: 2070 0ebf 134c 62bf 0ef7 143c fa96 99bd
000001f0: 9218 883f b9e0 b4be 7aa2 a5be 5d40 b93d
00000200: a096 c4be 7211 473e f62e babe 1554 17bf
00000210: fef9 883f 4cb7 5bbe 1ca2 93be 9fd2 92bd
00000220: a28e 4bb9 0499 91bf 97ef a2bf 0f2d 903e
00000230: c429 1cbf 5583 40bc 156a 14bf a4ae 92be
00000240: 45ec 90be c9ba 87be 7d9d 12bf 0bde 02be
00000250: eaed 8c3d 08c9 89be cd5c babe 8f07 563e
00000260: 3f3c 7d3f fb10 f8bd adc0 40bf c487 2bbf
00000270: 43bf 10bf c284 93be 78d1 a7bc 78a6 52bf
00000280: 3d12 9ebf 2431 243e f3ae 18bf 967f bfbe
00000290: f280 963e 6d04 9fbe b5be 273e 7c43 f8bf
000002a0: 3b7a f7be 75bc f3be 442b 3cbf f1f1 e13e
000002b0: 480c 81be 35fd e73e 36e8 b2bf 2b14 6bbf
000002c0: bb54 3bbf b836 813f 660e 273f b514 57be
000002d0: 9523 91be ecf7 eebe 56f6 30bf e249 97be
000002e0: 0e1e 143f 723e 16be 30ba 10bf 984d a4be
000002f0: 27e1 a3bf f9ae 0f3f e961 f6be c919 fbbd
00000300: 9a74 d9bd bbe4 ddbd ea2a 063f 8c4f f1be
00000310: 7636 6ebf bcb7 80be c8cb fbbe ad07 18bf
00000320: b31d 853e 3a55 e0bc d97a 4dbf 89c2 9e3d
00000330: c899 213f 316b 313f 00fa a9bf 4936 67bf
00000340: b584 ad3e 9e1c fd3e a885 5dbe b969 673f
00000350: f3b4 3bbf a6ed 0d3e 5728 5d3d 6653 77be
00000360: 3118 84bd 900b 30bf 509a 023e 496c f93e
00000370: 12d6 81bf fd63 febd df6f c7be a2d6 24bf
00000380: 7386 70bf f624 73bf 42f7 51be d5c3 a33d
00000390: 8884 7c3f 08a9 83bf 4018 dfbe 35b4 0ebf
000003a0: d3b3 2a3f f18c 82be 5682 eebe 2e57 023e
000003b0: fb8e 76bf 45b5 e33e c7f7 e03e f58e dd3d
000003c0: 5723 bd3b d1ef 623f 41e6 5d3f d715 65be
000003d0: 9c1f 093f 42ef acbe 9603 4bbf df75 d8be
000003e0: 6708 c4bd 969b 853f 38c0 6bbf cc30 0a3f
000003f0: 989b 02bd e48d 4bbf 9a4a c53e 6bea 84bf

lstm.bias_ih_l0 f4 [400]
-0.55375683 -1.5576642 -0.7009813 0.055587452 -1.0350202 -0.4255883 -0.17959769 -0.9215054
-0.95241755 -1.025113 -0.16449516 -0.3627411 -1.2264849 -0.15329477 -0.20193334 -0.965533
-1.4908998 -1.6286454 -1.4905499 -0.5273522 -1.0024525 -0.18204042 0.3147116 -1.2666583
1.1580384 -1.2176621 -0.8756114 -0.5250487 -0.62278277 0.123876534 -0.7130066 -0.53459585
-0.49814242 -0.3143976 -0.37015992 -0.8328887 -1.1598152 -0.6953339 0.13349198 -0.81257206
-0.0152041335 -0.90324414 -0.8358169 -0.22777656 -1.1964029 -1.0524036 -0.8340466 -0.603975
-0.9648759 -0.24593456 -1.1993437 -1.3510779 -0.28821447 -1.276703 -0.49576542 -1.2152665
-0.45521933 -0.50676626 -1.362631 -0.5848156 -0.03302896 -0.99982435 -0.38995934 -0.7604159
-0.8720488 -0.56817013 -1.0765412 0.5285631 -0.6874858 -0.3744407 -1.0225303 -1.285763
-0.17893083 -0.04724011 -0.42345658 -0.07472621 -0.32197657 -0.49941427 -0.96845865 -0.16227958
-0.75563437 -0.90216994 -0.62603354 -0.5949508 -1.2611285 -1.9680601 -0.57283455 -0.15990865
0.25017592 0.05873044 -1.0491852 -0.48553452 -2.7555428 -0.9159134 -0.49075994 -0.6582255
0.29932368 -1.3513592 -1.1727751 -0.9119304 -0.3055688 -0.49920064 -0.45466444 -0.77421886
-1.1451718 -0.63600886 -0.28365844 -0.47041783 -0.2322197 -0.49083278 -0.53975934 -0.9123264
-0.7233965 -1.113622 -0.84125465 -0.36434978 -0.49660656 -0.44615987 -0.7598997 -0.22145888
-0.49642792 -0.28001276 -0.84881693 -1.3009319 -0.050938744 -0.6099684 -1.3808742 -0.60809916
-0.30405086 0.41141728 -0.9400413 -0.5937518 -0.1843032 -0.64662874 -0.290943 -1.786744
-0.7022134 -1.7205178 -0.13466826 -0.3382093 -0.72748256 -0.7529499 -0.18749948 -0.42980328
-0.7987037 -0.7156612 -1.0217823 -1.105456 -1.0754466 -0.62941265 -0.5540865 -1.0983024
-0.06921922 -0.42444703 -1.0414598 -0.3835838 -0.43494636 -0.44497436 -1.1229949 -0.5328941
-0.26278624 -0.15195087 -0.32616782 -0.018634887 -0.8188303 -0.36116832 -0.74760646 -0.1197774
-0.82571596 -0.09928981 -0.7149998 -1.3482202 -0.6309421 -0.939288 -0.9305636 -0.40459776
-0.29114175 -0.11486428 -0.27178097 -0.047950786 -0.3556379 -0.6320984 -0.71766096 -0.13147898
-1.3913649 -0.6652877 -0.70143485 0.15718113 -0.6834974 -0.26519388 -0.1322942 -0.7647407
-0.98916173 -0.5927594 -0.15834823 -0.74694747 -0.47212738 -0.55951095 -0.5499792 -0.53081316
-0.06744346 -0.069703914 0.27678034 0.03362328 0.19663186 0.002972496 -0.3683924 -0.24427262
0.17666279 0.17274024 0.55872047 0.3510236 -0.16808528 -0.16582525 -0.20856984 -0.17860216
-0.22175734 -0.046479523 -0.14421085 0.12687632 -0.104471765 0.0129657565 -0.15598316 -0.038019564
-0.27602208 0.267984 0.042703226 0.051797647 0.08522278 -0.15384434 0.16298287 0.09390921
0.25395975 0.33850595 -0.08678507 -0.23265374 -0.023638764 0.021742884 0.31289044 0.06434344
0.07839305 0.042545944 0.41045216 -0.19138394 0.01934857 -0.1293389 -0.020618968 0.30312937
-0.23514368 0.30207643 -0.04779851 0.2772954 -0.051423196 -0.06577181 0.29001117 -0.16282973
00000000: 02c3 0dbf 8a61 c7bf 8373 33bf abaf 633d
00000010: 8b7b 84bf b6e6 d9be 75e8 37be c7e7 6bbf
00000020: a3d1 73bf e736 83bf 6b71 28be 34b9 b9be
00000030: 75fd 9cbf 4ef9 1cbe 9dc7 4ebe 2c2d 77bf
00000040: ced5 bebf 7477 d0bf 57ca bebf 8e00 07bf
00000050: 5d50 80bf ce68 3abe e121 a13e dc21 a2bf
00000060: 9a3a 943f 5adc 9bbf 1228 60bf 9769 06bf
00000070: b16e 1fbf fbb2 fd3d 9a87 36bf 46db 08bf
00000080: 860c ffbe b9f8 a0be 9a85 bdbe 3238 55bf
00000090: d374 94bf 6701 32bf 1fb2 083e b904 50bf
000000a0: c21a 79bc 023b 67bf 19f8 55bf 423e 69be
000000b0: bb23 99bf 29b5 86bf 1484 55bf 1b9e 1abf
000000c0: 1b02 77bf 45d6 7bbe 1884 99bf 1ff0 acbf
000000d0: d990 93be 016b a3bf f7d4 fdbe da8d 9bbf
000000e0: 8212 e9be 6fbb 01bf b16a aebf 7ab6 15bf
000000f0: 6049 07bd 7df4 7fbf c0a8 c7be 9eaa 42bf
00000100: 973e 5fbf 9973 11bf 1acc 89bf e94f 073f
00000110: 12ff 2fbf b1b6 bfbe 46e2 82bf e293 a4bf
00000120: a539 37be d87e 41bd 4dcf d8be 0e0a 99bd
00000130: 1dda a4be 3ab3 ffbe e8ec 77bf 9e2c 26be
00000140: 4171 41bf 9cf4 66bf bc43 20bf b24e 18bf
00000150: a96c a1bf 65e9 fbbf 49a5 12bf 18bf 23be
00000160: 0f17 803e 548f 703d b34b 86bf fb97 f8be
00000170: d05a 30c0 4d79 6abf e344 fbbe 7781 28bf
00000180: f440 993e 57f9 acbf 7f1d 96bf 4574 69bf
00000190: 8473 9cbe 3a97 ffbe c7c9 e8be 3533 46bf
000001a0: fd94 92bf 7ad1 22bf ae3b 91be 9bda f0be
000001b0: 00cb 6dbe 6f4e fbbe ab2d 0abf 398e 69bf
000001c0: 8330 39bf 2a8b 8ebf 775c 57bf 0e8c babe
000001d0: 3743 febe 116f e4be c988 42bf 1ec6 62be
000001e0: cd2b febe d55d 8fbe 114c 59bf f084 a6bf
000001f0: 25a5 50bd e426 1cbf 7cc0 b0bf 63ac 1bbf
00000200: 8eac 9bbe 49a5 d23e 8ca6 70bf 1e00 18bf
00000210: fab9 3cbe 7689 25bf 7bf6 94be 07b4 e4bf
00000220: 42c4 33bf ed39 dcbf 7ae6 09be c529 adbe
00000230: 4c3c 3abf 53c1 40bf ddff 3fbe 2d0f dcbe
00000240: d877 4cbf 9335 37bf c3c9 82bf 957f 8dbf
00000250: 3ca8 89bf 3021 21bf 9dd8 0dbf 2c95 8cbf
00000260: cec2 8dbd 1f51 d9be 8e4e 85bf 1965 c4be
00000270: 4ab1 debe aed3 e3be 4cbe 8fbf bf6b 08bf
00000280: eb8b 86be 0299 1bbe 78ff a6be 31a8 98bc
00000290: dd9e 51bf 0eeb b8be 2363 3fbf da4d f5bd
000002a0: 1f62 53bf 7558 cbbd 3a0a 37bf 7b92 acbf
000002b0: 6c85 21bf 2e75 70bf 6b39 6ebf 7027 cfbe
000002c0: 8810 95be f73d ebbd e026 8bbe 0b68 44bd
000002d0: 2c16 b6be 33d1 21bf a1b8 37bf 6da2 06be
000002e0: 3f18 b2bf 4b50 2abf 3c91 33bf 17f4 203e
000002f0: b0f9 2ebf 7ec7 87be 2178 07be 0cc6 43bf
00000300: b439 7dbf 14bf 17bf 0a26 22be f337 3fbf
00000310: aeba f1be 1c3c 0fbf 70cb 0cbf 5fe3 07bf
00000320: cc1f 8abd edc0 8ebd 27b6 8d3e 90b8 093d
00000330: dd59 493e 35ce 423b ee9d bcbe 9a22 7abe
00000340: 17e7 343e d1e2 303e 4e08 0f3f 5eb9 b33e
00000350: 8c1e 2cbe 18ce 29be 5593 55be 7ce3 36be
00000360: 5b14 63be 5061 3ebd 02ac 13be deeb 013e
00000370: 4bf5 d5bd 536e 543c 0dba 1fbe 67ba 1bbd
00000380: c452 8dbe 3335 893e 94e9 2e3d c529 543d
00000390: 4889 ae3d 5f89 1dbe fbe4 263e 7953 c03d
000003a0: 0307 823e a750 ad3e 5fbc b1bd c83c 6ebe
000003b0: 15a6 c1bc 221e b23c 2d33 a03e 7ec6 833d
000003c0: 898c a03d a844 2e3d c926 d23e 27fa 43be
000003d0: e480 9e3c 6b71 04be 1ce9 a8bc c633 9b3e
000003e0: 81c9 70be c3a9 9a3e 5fc8 43bd aaf9 8d3e
000003f0: 21a1 52bd 5fb3 86bd 587c 943e d6bc 26be

lstm.bias_hh_l0 f4 [400]
-0.58011264 -1.7186168 -0.80934775 0.059261046 -0.95869815 -0.54680616 -0.17552406 -0.83345336
-1.0660778 -0.9355273 -0.09524049 -0.4549711 -1.2070276 -0.2109733 -0.3444886 -0.8551633
-1.415527 -1.579278 -1.3265933 -0.4827339 -0.91143185 -0.26324272 0.18700245 -1.1654793
1.219797 -1.1928682 -0.8621964 -0.41203848 -0.6486762 0.099968396 -0.6600264 -0.59469324
-0.48756674 -0.13954167 -0.20539786 -1.00521 -1.1135124 -0.62249374 0.1802042 -0.9151761
0.01837308 -1.0195198 -0.94478667 -0.07838856 -1.1264728 -0.9956449 -0.689409 -0.79472005
-0.8833242 -0.3046008 -1.0561486 -1.3525821 -0.1120817 -1.3187318 -0.4498117 -1.2217431
-0.34027028 -0.41241187 -1.3250436 -0.42701086 -0.018153844 -0.9835493 -0.32057858 -0.7749393
-0.70721436 -0.5853508 -1.0560694 0.6254219 -0.7864989 -0.22511692 -1.0796399 -1.2013314
-0.29020217 0.00058225606 -0.31385154 -0.02212105 -0.22310878 -0.62363553 -1.0467201 -0.29482952
-0.71765643 -0.8254036 -0.62429374 -0.5928043 -1.116856 -2.022652 -0.5351772 -0.29092792
0.17486863 -0.04765342 -1.0100348 -0.52390474 -2.7684069 -0.87064177 -0.51148176 -0.5021395
0.3196448 -1.3773917 -1.1553721 -0.9009601 -0.28686598 -0.47385788 -0.49068817 -0.69715196
-1.0643373 -0.5006606 -0.24409395 -0.41697067 -0.24792287 -0.4943107 -0.5066433 -0.9519337
-0.70410806 -1.0266484 -0.97014153 -0.39853346 -0.40166244 -0.58247423 -0.85899884 -0.113159224
-0.46689188 -0.43166727 -0.75217927 -1.1914182 -0.15285753 -0.5952009 -1.4394706 -0.4320403
-0.18334669 0.21839371 -0.87117386 -0.49348658 -0.21703194 -0.7406183 -0.20241685 -1.6801617
-0.62307125 -1.680682 -0.12824954 -0.42437762 -0.68562865 -0.8252834 -0.059347883 -0.54010224
-0.74374706 -0.7311579 -1.0207645 -1.1436788 -1.120407 -0.6519884 -0.46590087 -1.120223
-0.12397685 -0.54656726 -1.184671 -0.3768764 -0.4568346 -0.4764981 -1.0454214 -0.4445977
-0.20308325 -0.30076024 -0.26650175 -0.077194184 -0.8383615 -0.51102287 -0.66653854 -0.2109277
-0.6722672 -0.13894147 -0.79589397 -1.3631496 -0.58373827 -1.0580149 -0.93342257 -0.4516752
-0.17789729 -0.15755174 -0.37690264 -0.03346258 -0.284644 -0.69656056 -0.5980161 -0.25108308
-1.2847701 -0.5919742 -0.72491384 0.10936185 -0.67307925 -0.2641678 -0.16179532 -0.79880667
-0.8986217 -0.56238586 -0.14040948 -0.72657824 -0.5384555 -0.5501099 -0.52029735 -0.52137905
-0.029343365 0.04510877 0.25422794 -0.032907713 0.18873365 -0.034544762 -0.5299684 -0.19926408
0.1506883 0.25792986 0.4868805 0.3002389 -0.15113245 -0.07768048 -0.20478609 -0.01077456
-0.20137437 -0.16224538 -0.11835368 0.05866647 -0.20477793 -0.05307488 -0.09202277 -0.028608967
-0.104744956 0.108898856 -0.05893732 -0.12640826 0.18724206 -0.08867965 0.24225184 -0.020445175
0.21949022 0.23656638 -0.1540361 -0.17537612 -0.05052974 -0.05108944 0.1561926 0.11422583
0.00035728316 -0.097791135 0.3555275 -0.3758548 0.19389677 -0.12227349 0.11537412 0.1935884
-0.25255844 0.2616138 -0.11161513 0.15795444 -0.08725185 -0.18632579 0.38247713 -0.18743719
00000000: 4382 14bf a3fb dbbf 6a31 4fbf b6bb 723d
00000010: 3e6d 75bf 7dfb 0bbf 94bc 33be 335d 55bf
00000020: 3d75 88bf b87e 6fbf 720d c3bd f9f1 e8be
00000030: e17f 9abf 6209 58be cf60 b0be fbeb 5abf
00000040: fd2f b5bf c825 cabf cfcd a9bf e628 f7be
00000050: 9953 69bf c0c7 86be 927d 3f3e 6d2e 95bf
00000060: 4f22 9c3f e8af 98bf e7b8 5cbf b5f6 d2be
00000070: a50f 26bf 3bbc cc3d 7df7 28bf d13d 18bf
00000080: 59a2 f9be 03e4 0ebe d153 52be b9aa 80bf
00000090: 9387 8ebf c05b 1fbf 7387 383e fb48 6abf
000000a0: 2483 963c a07f 82bf 8add 71bf 2e8a a0bd
000000b0: 4330 90bf 96e2 7ebf 1c7d 30bf c672 4bbf
000000c0: 8921 62bf a3f4 9bbe e12f 87bf 6921 adbf
000000d0: 178b e5bd 34cc a8bf b84d e6be 1462 9cbf
000000e0: e837 aebe a627 d3be 079b a9bf 2ba1 dabe
000000f0: 5fb7 94bc e3c9 7bbf e022 a4be 6c62 46bf
00000100: 000c 35bf 8dd9 15bf 482d 87bf a61b 203f
00000110: fe57 49bf 0d85 66be a431 8abf 3ac5 99bf
00000120: 6195 94be 8ba2 183a 26b1 a0be 3437 b5bc
00000130: a176 64be 94a6 1fbf edfa 85bf e5f3 96be
00000140: 55b8 37bf a64d 53bf b7d1 1fbf 06c2 17bf
00000150: 23f5 8ebf 2173 01c0 5f01 09bf 81f4 94be
00000160: c310 333e 3c30 43bd d248 81bf 9f1e 06bf
00000170: 942d 31c0 61e2 5ebf 78f0 02bf 378c 00bf
00000180: 7ca8 a33e 5f4e b0bf 3ce3 93bf 52a5 66bf
00000190: 19e0 92be 809d f2be 7b3b fbbe 8d78 32bf
000001a0: 343c 88bf 4b2b 00bf c4f3 79be 2e7d d5be
000001b0: 7edf 7dbe 4b16 fdbe 60b3 01bf edb1 73bf
000001c0: 6d40 34bf 3769 83bf 325b 78bf 940c ccbe
000001d0: b3a6 cdbe 081d 15bf 59e7 5bbf 06c0 e7bd
000001e0: 740c efbe 7e03 ddbe d28e 40bf 6480 98bf
000001f0: af86 1cbe 165f 18bf 9340 b8bf 6334 ddbe
00000200: 3cbf 3bbe 9aa2 5f3e 4005 5fbf 46aa fcbe
00000210: 9f3d 5ebe 2999 3dbf 5d46 4fbe 8a0f d7bf
00000220: 9981 1fbf 9620 d7bf d953 03be 0648 d9be
00000230: 5c85 2fbf c645 53bf c416 73bd 2444 0abf
00000240: 3566 3ebf 2a2d 3bbf 69a8 82bf 1164 92bf
00000250: 7f69 8fbf b6e8 26bf 8f8a eebe 7863 8fbf
00000260: 93e7 fdbd d5eb 0bbf 4da3 97bf f2f5 c0be
00000270: 3ae6 e9be 8ff7 f3be 5ed0 85bf 4fa2 e3be
00000280: 0ef5 4fbe 3ffd 99be eb72 88be fc17 9ebd
00000290: dc9e 56bf 65d2 02bf 45a2 2abf 6efd 57be
000002a0: b419 2cbf ac46 0ebe b5bf 4bbf b07b aebf
000002b0: df6f 15bf 086d 87bf c8f4 6ebf f941 e7be
000002c0: b52a 36be 3e55 21be 62f9 c0be 0f10 09bd
000002d0: dcbc 91be cb51 32bf 9517 19bf f68d 80be
000002e0: 5973 a4bf 9f8b 17bf f493 39bf 1bf9 df3d
000002f0: ec4e 2cbf 0041 87be acad 25be 987e 4cbf
00000300: 120c 66bf 85f8 0fbf 81c7 0fbe 0801 3abf
00000310: 38d8 09bf 01d4 0cbf 3532 05bf 1979 05bf
00000320: 7f61 f0bc f9c3 383d 2a2a 823e 3dca 06bd
00000330: 6543 413e cf7e 0dbd 02ac 07bf e20b 4cbe
00000340: 094e 1a3e 620f 843e 6748 f93e eab8 993e
00000350: 77c2 1abe f216 9fbd 72b3 51be c887 30bc
00000360: 1535 4ebe a723 26be 6a63 f2bd 414c 703d
00000370: 4eb1 51be 0c65 59bd 6f76 bcbd 5a5d eabc
00000380: 8684 d6bd 5d06 df3d 4268 71bd 2b71 01be
00000390: 62bc 3f3e ad9d b5bd de10 783e a47c a7bc
000003a0: 0bc2 603e 753e 723e a4bb 1dbe cc95 33be
000003b0: 46f8 4ebd 2943 51bd f4f0 1f3e 3bef e93d
000003c0: bc51 bb39 b846 c8bd b307 b63e 0a70 c0be
000003d0: e08c 463e 866a fabd 4449 ec3d 0a3c 463e
000003e0: 574f 81be 3ef2 853e 7996 e4bd cfbe 213e
000003f0: 19b1 b2bd 30cc 3ebe 0bd4 c33e 89ef 3fbe

linear.weight f4 [1, 100]
-0.56259596 -0.44248533 0.20672742 -0.4268337 0.042702105 -0.061380967 -0.25475076 -0.0026676443
-0.17592354 -0.03138102 -0.13484406 0.085938 -0.11924183 0.101231165 0.21254027 -0.02400076
0.007988784 -0.03575024 0.17110495 0.063939534 -0.04714808 0.47236827 0.14713393 0.00018856184
-0.24332981 -0.022540325 0.3573231 0.14384462 -0.031437468 0.51810366 0.055441525 0.6545327
0.023928136 -0.080779485 -0.35559773 0.0145494845 -0.06657877 -0.02143503 0.1612206 0.18695775
0.09375052 -0.11625545 -0.020211967 -0.26710135 -0.02419949 -0.012225866 0.14225492 -0.10145361
-0.22161299 -0.31624866 -0.03684068 0.008507194 -0.038916543 -0.013749589 0.06985243 -0.26378822
0.20963728 0.48114055 -0.28122187 0.04266863 0.10593534 0.34324884 -0.22235838 0.07345404
0.16454498 -0.122398116 0.045236163 0.3119791 -0.06584977 -0.10187162 -0.025174532 0.1872229
0.18951596 0.1958592 0.09423873 0.013184745 -0.11615805 -0.021150915 0.026712544 -0.05856287
0.41961795 -0.41653582 0.025800109 -0.28153422 0.011659982 -0.006362124 0.3876401 0.024283972
0.08194156 -0.054293826 0.03683593 -0.008511593 0.011522646 -0.03226521 -0.064162746 0.33161402
-0.20596416 -0.011667272 0.042377464 -0.19197305
00000000: 4a06 10bf 708d e2be 5ab0 533e f289 dabe
00000010: 67e8 2e3d 9c6a 7bbd b16e 82be a5d3 2ebb
00000020: 4d25 34be 6289 00bd 9014 0abe 4300 b03d
00000030: 1035 f4bd 4952 cf3d 28a4 593e 3e9d c4bc
00000040: 64e3 023c d86e 12bd 2336 2f3e bbf2 823d
00000050: 581e 41bd 41da f13e 47aa 163e afb8 4539
00000060: 732b 79be 7da6 b8bc 0ef3 b63e 014c 133e
00000070: 93c4 00bd 71a2 043f a716 633d 748f 273f
00000080: f004 c43c b76f a5bd e810 b6be f660 6e3c
00000090: 735a 88bd 8498 afbc 0317 253e da71 3f3e
000000a0: 4600 c03d 5617 eebd 9193 a5bc 82c1 88be
000000b0: 023e c6bc 004f 48bc 46ab 113e e9c6 cfbd
000000c0: 84ee 62be 58eb a1be 41e6 16bd c261 0b3c
000000d0: f466 1fbd f545 61bc ca0e 8f3d 400f 87be
000000e0: 28ab 563e 0e58 f63e 50fc 8fbe 4dc5 2e3d
000000f0: a1f4 d83d 50be af3e eab1 63be 126f 963d
00000100: 7b7e 283e ddab fabd 8e49 393d b9bb 9f3e
00000110: 3fdc 86bd 11a2 d0bd d23a cebc 5cb7 3f3e
00000120: 7910 423e 508f 483e 3c00 c13d d404 583c
00000130: 46e4 edbd af44 adbc 44d4 da3c 9fdf 6fbd
00000140: 2ad8 d63e 2f44 d5be c05a d33c 4125 90be
00000150: 8209 3f3c 5d79 d0bb c378 c63e 2eef c63c
00000160: fad0 a73d 3463 5ebd 46e1 163d 3574 0bbc
00000170: 7bc9 3c3c 8628 04bd c267 83bd 50c9 a93e
00000180: 45e8 52be 1628 3fbc fe93 2d3d 9594 44be
