BodelLigging/Pannerdense Kop_bodemligging_V1.pt (torch, 661983 bytes, 5 tensors)

lstm.weight_ih_l0 f4 [400, 1]
0	0x3f92a6d6	1.1457164
1	0x4001c7f8	2.0278301
2	0x3fc3d9ca	1.5300839
3	0xbfad5cd1	-1.354395
4	0x3f8ed8bd	1.1159893
5	0x3f62ef15	0.8864606
6	0xc00adfc8	-2.1699085
7	0x3f866b26	1.0501449
8	0x3f3c2bd0	0.7350435
9	0x3f6e8ac9	0.9318052
10	0x3f88d5e0	1.069027
11	0xbea8547f	-0.32876965
12	0x402947e2	2.6450124
13	0x3dfacbe1	0.12245918
14	0x3f75a184	0.9594958
15	0xbe22c844	-0.15896708
16	0x3f99e512	1.2023032
17	0xbe275185	-0.16339691
18	0x3ffdcd8c	1.9828353
19	0x400898a8	2.1343174
20	0xbf94fb36	-1.1639163
21	0x401ce170	2.4512596
22	0x3ee6aa94	0.45052016
23	0x3f348cf3	0.7052757
24	0xbdad2cbe	-0.084557995
25	0xbe6e2569	-0.23256458
26	0x3f3a7a7a	0.72843134
27	0xbf23fa35	-0.6405366
28	0xbf1360ec	-0.57569766
29	0xbf70bd51	-0.94038874
30	0x40141b4f	2.3141668
31	0x3f85d442	1.0455401
32	0x3f66e9d5	0.9020055
33	0x3f1bfde0	0.6093426
34	0xc02e5b2d	-2.724315
35	0x3f4fd910	0.81190586
36	0x3c574eaf	0.013141318
37	0x3e2970ad	0.16546889
38	0x3f95c72a	1.1701405
39	0x3e8208ff	0.25397488
40	0x3fc2cfaa	1.5219624
41	0x3da21447	0.07914024
42	0xbf968982	-1.1760714
43	0xbefc9927	-0.49335596
44	0x3f926e16	1.1439846
45	0xbda8773a	-0.08225866
46	0x3e863156	0.26209515
47	0x3faa7790	1.3317738
48	0xc0312828	-2.768076
49	0x3f9863b3	1.1905426
50	0x3e5aa908	0.21353543
51	0xbf0aab00	-0.54167175
52	0x400a75ec	2.1634474
53	0xbea9b176	-0.33143204
54	0x3f964d1a	1.174228
55	0xc060f987	-3.51523
56	0x3fd9d7c8	1.7018976
57	0xbfc420d3	-1.5322517
58	0xbf099698	-0.5374541
59	0x3f5cf7b3	0.8631546
60	0x3e387c37	0.18016134
61	0x3f6bc2be	0.9209403
62	0xbf7ba07f	-0.9829177
63	0x3e3c8be2	0.18412736
64	0x3fb14427	1.3848923
65	0x3eea4c96	0.45761555
66	0xbd888e65	-0.066677846
67	0xc097c861	-4.7432103
68	0x3fb7f85d	1.437267
69	0x3fa242de	1.2676656
70	0x3f673e42	0.9032937
71	0xbfdb587b	-1.7136377
72	0x3efd37ec	0.49456728
73	0xbec15c18	-0.37765574
74	0x3e805044	0.25061238
75	0x3fbe44d3	1.4864753
76	0x3f4c6fb0	0.7985792
77	0xbf2afc57	-0.6679129
78	0x3f123c68	0.5712342
79	0x3f815490	1.0103931
80	0x3e70a9e8	0.23502314
81	0x3f9a64e0	1.2062035
82	0x3c7e3634	0.015515853
83	0xbf242196	-0.6411375
84	0xbf58e1f4	-0.8471978
85	0xbf2b7d31	-0.669879
86	0x3fd2af3e	1.645973
87	0x3fb72106	1.4306953
88	0x4052f100	3.2959595
89	0xbe22bae5	-0.15891607
90	0x3fc6995b	1.551555
91	0xbf168e86	-0.58811224
92	0x3f142d04	0.5788119
93	0x3f32396b	0.6961886
94	0xc0583f86	-3.3788772
95	0xbd8cbedc	-0.06872341
96	0xbf8ab4cb	-1.0836424
97	0xbde7023f	-0.11279725
98	0x3fbd4c14	1.4788842
99	0xbecc8d10	-0.39951372
100	0xbf51a368	-0.81889963
101	0xbfcbb956	-1.5915935
102	0xbfe22b86	-1.7669532
103	0x3f33a278	0.7016978
104	0x3f2e146f	0.6799993
105	0xbfbd4dd5	-1.4789377
106	0xbf1aba7a	-0.6044079
107	0xbf445cdd	-0.767042
108	0xbf210d03	-0.6291048
109	0xbf3663f7	-0.71246284
110	0xbf02fc18	-0.51165915
111	0xbfff014c	-1.9922271
112	0xc0048589	-2.0706503
113	0x3f024645	0.5088847
114	0xbfaaac4a	-1.3333828
115	0x3eb34952	0.35016876
116	0xc0101d62	-2.2517934
117	0xbf45d77a	-0.77281916
118	0xbec6864e	-0.3877434
119	0xbfd880bb	-1.6914285
120	0xbff5ae32	-1.9193785
121	0xbfca2551	-1.5792638
122	0x3f1055e5	0.56381065
123	0xbffcfe17	-1.9765042
124	0x3d47c770	0.048774183
125	0xc0061563	-2.0950553
126	0xbdc4f0d0	-0.09616244
127	0x3f9a7e2b	1.2069753
128	0xbd65bb16	-0.056086622
129	0xc00575cb	-2.0853145
130	0xbf6be779	-0.92150074
131	0xbf87e3ba	-1.0616372
132	0xbff5a166	-1.918988
133	0xbf0ddf4e	-0.5541886
134	0x3f136087	0.57569164
135	0xbdd6d8e2	-0.10490586
136	0xbfd1ba9d	-1.6385075
137	0xbe332367	-0.17493974
138	0xbef109f3	-0.47077903
139	0xbffc932b	-1.9732412
140	0x3d85df08	0.065366805
141	0xbd8f6978	-0.070025384
142	0xbf7cf1ca	-0.9880644
143	0xbf1d23a0	-0.61382484
144	0x3e1a8452	0.15089539
145	0xbfb832fa	-1.4390557
146	0xbf148124	-0.5800955
147	0xbe860b26	-0.2618038
148	0x3faa1cc9	1.3290035
149	0xbb9c7f3c	-0.0047759097
150	0x3fa006a2	1.2502024
151	0xbf1dbe20	-0.6161823
152	0xbfdbe048	-1.717782
153	0xc037e25d	-2.873191
154	0xbda9d0a6	-0.0829175
155	0xbfa0278e	-1.2512071
156	0xbf722a6b	-0.94595975
157	0xbf5e45c6	-0.86825216
158	0xbfeac506	-1.8341377
159	0xbfadb819	-1.3571807
160	0xbf744ad0	-0.95426655
161	0x3ea3c898	0.31988978
162	0xbe407336	-0.1879395
163	0xbfe047d7	-1.7521924
164	0xbf20bdfb	-0.6278989
165	0x3f4897b5	0.78356487
166	0x3f89a90f	1.0754718
167	0xbea285c9	-0.31742695
168	0xc008da60	-2.1383286
169	0xbf92c92e	-1.1467645
170	0xbf3aa3a1	-0.7290593
171	0xbf98b231	-1.192938
172	0xbe435170	-0.19074035
173	0xbd17524e	-0.036943726
174	0xbdcd2b71	-0.100180514
175	0xbfb9b790	-1.4509144
176	0xbebca68f	-0.36845824
177	0xbe56c860	-0.20974874
178	0xbfbf5e4f	-1.4950656
179	0xbe9d934d	-0.30776444
180	0xbf467f09	-0.7753759
181	0xbfdd5eba	-1.7294533
182	0x3f5a9448	0.8538251
183	0x3e93779e	0.28802198
184	0xbfd74e1e	-1.6820714
185	0xbeb60ff6	-0.35559052
186	0xbf067ffd	-0.52539045
187	0xbf7c79f8	-0.9862361
188	0xbff69c94	-1.9266534
189	0xbf75ff62	-0.9609281
190	0xbfcf4b42	-1.6194842
191	0xc029519b	-2.6456058
192	0xbfd02b98	-1.6263304
193	0x3ec3beb1	0.38231423
194	0x3e897272	0.26845127
195	0xbf22db90	-0.63616276
196	0xbd93e0f9	-0.072206445
197	0xc022ab18	-2.5416927
198	0xbf7099c1	-0.9398461
199	0xbf0d6861	-0.55237395
200	0xbdc50ff5	-0.09622184
201	0xbfbe2f20	-1.4858131
202	0x3eab7074	0.33484232
203	0xbf8d989b	-1.1062196
204	0x3ffac8ac	1.959249
205	0xbf2c479d	-0.67296773
206	0xbf74fb40	-0.9569588
207	0xbfc069c2	-1.5032275
208	0x3efbeedb	0.4920567
209	0x3e288471	0.16456772
210	0x3f9fdbc6	1.2488945
211	0xbfee4060	-1.8613396
212	0x3fae3c4d	1.3612152
213	0x3d44c9cd	0.048044015
214	0xbfd6e742	-1.6789324
215	0x3ffd4dc6	1.978936
216	0x3d6fd945	0.058556814
217	0x3f7ff9df	0.9999065
218	0x3f96c240	1.177803
219	0xbe48cbaf	-0.19608949
220	0xbff31ad4	-1.8992562
221	0xbfbfb6e3	-1.4977688
222	0x3fdabdba	1.708915
223	0xbffd048d	-1.9767014
224	0x3e9a3acf	0.30122992
225	0xc0208030	-2.507824
226	0xbff28636	-1.8947208
227	0x3fc7c46b	1.5606817
228	0x3f38fb3a	0.7225834
229	0x3f546a9d	0.8297518
230	0xbeb11837	-0.34588787
231	0xbf91ab33	-1.1380371
232	0x3fd273ac	1.644155
233	0x3f94851d	1.1603123
234	0xc023660e	-2.553104
235	0x3fa5f367	1.2964906
236	0xbf3c3406	-0.7351688
237	0x3f20c66e	0.6280278
238	0x40174a60	2.3639145
239	0x3fa3abef	1.2786845
240	0xc0032b9f	-2.0495374
241	0xc01f0ac0	-2.4850311
242	0x3d9c3741	0.07627726
243	0xbf8cab29	-1.0989734
244	0x402170e9	2.5225165
245	0x3f267c40	0.6503334
246	0x3fb5ac65	1.4193236
247	0xbfc3583c	-1.5261302
248	0x3d573611	0.052541796
249	0x401f38fc	2.487853
250	0x3f3d111d	0.7385424
251	0xc0307e04	-2.7576914
252	0xbdecd399	-0.115637966
253	0x4037c23a	2.8712296
254	0xbfe3a1df	-1.7783774
255	0xbfee1fe3	-1.8603481

lstm.weight_hh_l0 f4 [400, 100]
0	0x3daa1347	0.08304458
1	0x3ecbbd1d	0.3979272
2	0x3d91094d	0.07081852
3	0xbf1aa105	-0.60401946
4	0xbf362db4	-0.7116349
5	0x3c37c01d	0.011215237
6	0xbe890d88	-0.26768136
7	0xbcf414ed	-0.029795134
8	0xbe9eaa3e	-0.3098926
9	0x3dfc9ebf	0.12334966
10	0xbe861e83	-0.26195154
11	0x3ef4c3dd	0.47805682
12	0xbf84d5a2	-1.0377696
13	0xbf6bf3fd	-0.9216917
14	0x3f8a7dfd	1.0819699
15	0xbdad3955	-0.08458201
16	0xbf09adbc	-0.5378072
17	0x3e9a3ae3	0.30123052
18	0xbf48fd8f	-0.785119
19	0x3d7df5cc	0.06200199
20	0x3f4f19f0	0.8089895
21	0x3ebc8ee6	0.36827773
22	0xbe965440	-0.29361153
23	0xbeb646e4	-0.3560096
24	0xbec7ece2	-0.39047915
25	0x3f38945d	0.72101384
26	0xbed653a3	-0.41860685
27	0x3f2325bb	0.6372945
28	0xbfa6b412	-1.3023703
29	0x3bbb256c	0.005711248
30	0xbe5cc4d2	-0.21559456
31	0xbf94a554	-1.1612954
32	0xbf072abc	-0.5279958
33	0xbf28fb36	-0.6600832
34	0xbf2b734a	-0.6697279
35	0xbe0175b9	-0.12642564
36	0xbea1804e	-0.315432
37	0x3e827f61	0.25487807
38	0xbf722023	-0.94580287
39	0xbf9f817d	-1.2461392
40	0xbe9b415b	-0.303233
41	0xbe346ac0	-0.17618847
42	0x3f2b5fce	0.6694306
43	0x3d5dde9f	0.054167386
44	0xbf78b408	-0.97149706
45	0x3c348679	0.011018389
46	0xbf4f6608	-0.8101506
47	0xbf09d59f	-0.53841585
48	0xbebaf351	-0.3651376
49	0xbf3e4ea0	-0.7433872
50	0xbea1ba49	-0.31587437
51	0xbe9f1407	-0.31069967
52	0xbea7c660	-0.32768536
53	0xbf04390a	-0.51649535
54	0x3e4510a3	0.19244628
55	0xbe2da3dd	-0.1695704
56	0xbf199559	-0.5999351
57	0x3b88b9ec	0.0041725542
58	0xbec9d6ea	-0.3942178
59	0xbdf4e509	-0.119577475
60	0x3eb01f9f	0.34399125
61	0x3e5efd24	0.21776253
62	0xbe2252ac	-0.1585185
63	0xbdab79d2	-0.08372845
64	0xbedabc14	-0.42721617
65	0x3cdcc8da	0.026951242
66	0x3e851f60	0.260005
67	0xbf2899a8	-0.6585946
68	0x3eb2c37c	0.34914768
69	0x3f07f678	0.53110456
70	0x3b4a0781	0.0030827227
71	0xbecf08f9	-0.40436533
72	0x3dfcd9f0	0.12346256
73	0x3e818bac	0.25301874
74	0xbe0f23c4	-0.13978487
75	0x3f09d9e5	0.53848106
76	0x3f4ecf3f	0.8078498
77	0xbf583bea	-0.8446642
78	0x3eb0637d	0.34450904
79	0x3e9cec18	0.30648875
80	0x3d0f7617	0.03502473
81	0x3e7a4bf9	0.24443044
82	0x3f2472a5	0.64237434
83	0x3d9b5a58	0.07585591
84	0x3e94bd10	0.29050493
85	0x3e81f04f	0.25378653
86	0x3ea05862	0.3131743
87	0x3f0459d7	0.51699585
88	0xbdbd50f4	-0.09243956
89	0xbeca0c40	-0.3946247
90	0xbe290f15	-0.1650966
91	0xbec55323	-0.3853999
92	0x3f1814c0	0.5940666
93	0x3f5ceb1e	0.8629626
94	0xbf9f2438	-1.2432928
95	0x3e33ac0a	0.17546096
96	0xbf1683ae	-0.5879468
97	0xbe238482	-0.15968516
98	0xbf7c3e86	-0.98532903
99	0xbf0e44b8	-0.55573606
100	0xbf3a5a9a	-0.72794497
101	0xbe624131	-0.22095181
102	0x3d6de068	0.05807534
103	0xbdff0d43	-0.12453701
104	0x3dfa97e4	0.12236002
105	0xbf08b0a9	-0.5339456
106	0xbe68ca7e	-0.22733495
107	0x3ef3a25a	0.47584802
108	0xbe9d3670	-0.30705595
109	0xbf1f3eb4	-0.6220505
110	0xbde50afa	-0.11183734
111	0x3efa3847	0.4887106
112	0x3ec06d46	0.3758337
113	0xbe6845c5	-0.22682865
114	0x3f2e5d77	0.68111366
115	0x3e0c9183	0.13727383
116	0x3f2c6319	0.6733871
117	0xbcbadf5a	-0.02281158
118	0xbee77dd6	-0.45213193
119	0xbf9c409c	-1.2207217
120	0xbf0e1e55	-0.55515033
121	0xbf946535	-1.1593386
122	0x3cba377c	0.022731535
123	0x3ee2cde4	0.44297707
124	0xbd72b59c	-0.059255227
125	0xbe2ad31a	-0.16682091
126	0x3e6e74d6	0.23286757
127	0xbf021d19	-0.5082565
128	0xbeb357aa	-0.3502782
129	0x3d3555ad	0.04427116
130	0x3ef35e36	0.47532815
131	0xbdcb3e86	-0.09924035
132	0xbf01e6c6	-0.5074276
133	0xbddaa512	-0.10676016
134	0x3e6da116	0.2320598
135	0xbf08575b	-0.53258294
136	0x3e59e77b	0.21279709
137	0xbe69d470	-0.22834945
138	0xbdcf59c3	-0.101245426
139	0xbeb6b873	-0.356876
140	0x3f2a853d	0.66609555
141	0xbec6de0d	-0.38841286
142	0xbdc6703a	-0.09689374
143	0xbda103b9	-0.07862038
144	0xbdf1e95b	-0.11812087
145	0xbebbd34c	-0.36684644
146	0xbccd1966	-0.025036525
147	0x3ef55642	0.47917372
148	0xbddae95d	-0.10689042
149	0xbeacdcd7	-0.33762237
150	0xbf536329	-0.8257318
151	0xbc8e40ef	-0.017364947
152	0xbf30a45d	-0.690008
153	0xbe739a5a	-0.23789349
154	0xbf15d7f8	-0.5853267
155	0x3d1df441	0.038563017
156	0x3d8c301c	0.06845114
157	0x3d0b4eae	0.03401058
158	0x3d216f9c	0.03941308
159	0xbf8b4e03	-1.0883182
160	0xbf245e06	-0.6420597
161	0xbf3362b0	-0.7007246
162	0x3ea419ae	0.32050842
163	0x3d46f35c	0.04857193
164	0x3f1a8aa7	0.60367817
165	0xbfbf04a7	-1.4923295
166	0x3eaf066e	0.34184593
167	0x3dc1451f	0.09437012
168	0xbf3b8fdf	-0.73266405
169	0xbe41e052	-0.18933228
170	0xbe10ee61	-0.14153434
171	0x3d0c497d	0.03424977
172	0xbf70971d	-0.9398058
173	0xbe91c805	-0.28472915
174	0xbf1cdaf2	-0.61271584
175	0xbe75fce5	-0.24022253
176	0xbf164b7d	-0.58708936
177	0xbf2d5798	-0.6771178
178	0xbea8a8ca	-0.32941276
179	0x3e855cca	0.26047355
180	0xbf84bf3b	-1.0370859
181	0xbecd88b5	-0.40143362
182	0x3d8935a9	0.06699688
183	0xbe8aec7f	-0.27133557
184	0x3d13fb8d	0.03612857
185	0xbf0ef0f9	-0.55836445
186	0xbbc8200e	-0.006107337
187	0x3e3293e9	0.17439236
188	0xbf47c4ec	-0.78034854
189	0xbe8f20d3	-0.2795473
190	0xbeb7d2a5	-0.35902897
191	0xbf0a9b02	-0.54142773
192	0xbfbc866e	-1.4728525
193	0xbd39da29	-0.04537407
194	0xbe1ceabf	-0.15323924
195	0xbec8f134	-0.39246523
196	0xbdf0f82b	-0.11766084
197	0x3e4f86e3	0.20266299
198	0xbeab8567	-0.33500215
199	0x3e663b4a	0.22483554
200	0xbe323b5c	-0.17405456
201	0x3e2633b1	0.16230656
202	0xbefc2230	-0.49244833
203	0xbeb98f03	-0.36241922
204	0xbf54c9a4	-0.8312018
205	0xbe730d06	-0.23735437
206	0xbf0e6a6e	-0.5563115
207	0xbe2d7413	-0.1693881
208	0x3e075077	0.13214289
209	0x3e66afda	0.2252802
210	0xbe014edd	-0.1262774
211	0x3d476e5a	0.048689224
212	0xbff2e37b	-1.8975672
213	0xbf8c26fa	-1.0949395
214	0x3d19c7d2	0.03754408
215	0xbeb11218	-0.34584117
216	0xbf535c2e	-0.8256253
217	0x3d8f993d	0.0701165
218	0xbf0288cb	-0.5098998
219	0xbedb476f	-0.42827937
220	0xbe97733f	-0.29580113
221	0x3f6c898c	0.9239738
222	0xbf19f994	-0.6014645
223	0xbe50fac9	-0.20408167
224	0xbf03f899	-0.51551205
225	0x3e8b2ec0	0.27184105
226	0x3ca6c8bb	0.020359388
227	0x3e924ef8	0.28575873
228	0xbf813ee6	-1.009732
229	0xbdcc36e8	-0.0997141
230	0xbf1eec8f	-0.6207971
231	0xbf1c9d5a	-0.611776
232	0xbd81e853	-0.063431405
233	0xbfc4e9fd	-1.5383908
234	0xbeda73f7	-0.426666
235	0xbec1a757	-0.37822983
236	0xbeaface0	-0.3431158
237	0x3e5177f5	0.20455916
238	0xbf479df8	-0.77975416
239	0xbef78deb	-0.48350462
240	0xbea2cf8b	-0.31798968
241	0xbdcce53b	-0.1000466
242	0x3ea523bc	0.32253826
243	0x3e8e96bd	0.2784938
244	0xbf460cb2	-0.7736312
245	0x3c3eeacf	0.011652662
246	0xbf976b61	-1.1829644
247	0x3e0a3fb8	0.1350087
248	0x3e267979	0.16257276
249	0xbf4e49a3	-0.8058111
250	0xbba3096d	-0.004975489
251	0xbf3f1d47	-0.7465405
252	0x3d4efba5	0.050532956
253	0x3eb3f72e	0.3514952
254	0x3e5773f0	0.2104032
255	0xbe8cebef	-0.27523753

lstm.bias_ih_l0 f4 [400]
0	0xbf44c60c	-0.76864696
1	0xbf472ddc	-0.7780435
2	0xbf6bfb62	-0.92180455
3	0xbf285dc1	-0.6576806
4	0xbf023781	-0.5086594
5	0xbfbedffd	-1.4912106
6	0xbf210fbe	-0.62914646
7	0xbf3b1fb7	-0.7309527
8	0xbeac4dc1	-0.33653072
9	0xbf865077	-1.0493306
10	0xbe873922	-0.26410776
11	0xbf0ee64c	-0.55820155
12	0xbf58e465	-0.847235
13	0xbf5d97b1	-0.8655959
14	0xbecda9b7	-0.40168545
15	0xbeb06644	-0.34453022
16	0xbf6c03fa	-0.9219357
17	0xbea94ec5	-0.3306791
18	0xbeefe158	-0.4685161
19	0xbf82d61b	-1.022159
20	0xbf1bfffc	-0.60937476
21	0xbf10326e	-0.5632695
22	0xbef5f9cc	-0.48042142
23	0xbf3c7720	-0.7361927
24	0xbf558d56	-0.83418787
25	0xbebf9e08	-0.37425256
26	0xbf2a12de	-0.6643504
27	0xbf26c3d3	-0.65142554
28	0xbf6dbf53	-0.9287006
29	0xbf44c14f	-0.76857466
30	0xbf4476c9	-0.7674375
31	0x3dd184ea	0.102304295
32	0xbf1e7ca9	-0.61908966
33	0xbe55d720	-0.20882845
34	0xbe602da5	-0.21892412
35	0xbe815cad	-0.25266019
36	0xbf1b758a	-0.60726225
37	0xbf972957	-1.1809491
38	0xbc995b54	-0.018720306
39	0xbf4e8b4b	-0.80681294
40	0xbedaf34e	-0.42763752
41	0xbe0b41ae	-0.13599274
42	0xbf0cd6c6	-0.5501522
43	0xbf067a1d	-0.5253008
44	0x3e136ab4	0.14396173
45	0xbea0b739	-0.31389788
46	0xbcf53fce	-0.029937651
47	0xbf538ee0	-0.82639885
48	0xbe615a27	-0.22007047
49	0xbed7ac6a	-0.4212373
50	0xbf5fc5fd	-0.8741148
51	0xbe8a1e43	-0.26976213
52	0xbf7a9fcd	-0.97900087
53	0xbe5e94cb	-0.21736448
54	0xbece6f19	-0.40319136
55	0xbf180faf	-0.5939893
56	0xbd30ee60	-0.043196082
57	0xbea259ef	-0.3170924
58	0xbf99360d	-1.196962
59	0xbf445748	-0.7669568
60	0xbee360f3	-0.44409904
61	0xbf15a578	-0.5845561
62	0x3ca8dbf5	0.020612696
63	0xbf7f7ae6	-0.99796903
64	0xbed9ecbf	-0.42563435
65	0xbf86dbbc	-1.0535808
66	0xbee573da	-0.4481495
67	0xbf06ae80	-0.52610016
68	0xbf752db1	-0.95772845
69	0x3d18c3cb	0.037296098
70	0xbfae74e7	-1.3629426
71	0xbee9cd5f	-0.45664498
72	0xbf9d3506	-1.2281806
73	0xbf12c734	-0.5733521
74	0xbf5e3500	-0.8679962
75	0xbeb4af05	-0.3528978
76	0x3cf174b6	0.029474597
77	0xbfa55358	-1.291606
78	0xbf5d284b	-0.8638961
79	0xbf477ffc	-0.77929664
80	0xbf27aaeb	-0.65495175
81	0xbf79aab7	-0.97526115
82	0xbf75f638	-0.96078825
83	0xbf330ee8	-0.6994462
84	0xbeb8d792	-0.36101967
85	0x3d994502	0.07483865
86	0xbefd086e	-0.49420494
87	0xbf02e64a	-0.51132643
88	0xbf14312e	-0.5788754
89	0xbf8d4779	-1.1037437
90	0x3ba8c6e0	0.005150661
91	0xbf3dcd65	-0.7414153
92	0xbf5caec6	-0.86204183
93	0xbddc3d1e	-0.10753845
94	0xbe777c55	-0.24168523
95	0xbf7c1e63	-0.98483866
96	0xbf2722c7	-0.6528744
97	0xbe5a49f1	-0.21317269
98	0xbf501a34	-0.8128998
99	0xbed01383	-0.40639886
100	0xbf631894	-0.8870938
101	0xbf9b6405	-1.2139899
102	0xbf13b7c4	-0.5770228
103	0xbf533903	-0.8250887
104	0xbf3b9a3d	-0.73282224
105	0xbf5f8459	-0.8731132
106	0xbeb2002f	-0.34765765
107	0xbd76849c	-0.06018506
108	0xbf865eb3	-1.049765
109	0xbf84662e	-1.0343683
110	0xbf1b5e07	-0.6069035
111	0xbf12ea66	-0.57388914
112	0xbf14dd10	-0.58149815
113	0xbf8bea65	-1.0930907
114	0xbf40fe9f	-0.7538852
115	0xbe23c8f7	-0.15994631
116	0xbf310d2d	-0.6916073
117	0xbe7611a0	-0.24030161
118	0xbec034b3	-0.37540206
119	0xbf2d68ac	-0.6773784
120	0xbf9f74fb	-1.2457575
121	0xbf39280d	-0.7232674
122	0xbf55726c	-0.8337772
123	0xbebb83d4	-0.36624014
124	0xbf958f05	-1.1684271
125	0xbed2922f	-0.41127154
126	0xbf2a1b3c	-0.66447806
127	0xbf1f1e41	-0.6215554
128	0xbf3e2849	-0.7428022
129	0xbe9203e1	-0.28518584
130	0xbec55cb8	-0.385473
131	0xbf34bab7	-0.70597404
132	0xbf822756	-1.0168254
133	0xbe7cdc0a	-0.24693313
134	0xbf52e0a3	-0.8237402
135	0xbde605fa	-0.11231609
136	0xbf441927	-0.7660088
137	0xbfb838e6	-1.4392364
138	0xbf32dab4	-0.69864964
139	0xbf35c12c	-0.7099788
140	0x3e66f489	0.2255422
141	0xbf3ba926	-0.73304975
142	0xbe87b8ad	-0.26508084
143	0xbe6bd31d	-0.23029752
144	0xbe704a89	-0.23465933
145	0xbfaa2934	-1.3293824
146	0xbdefb2be	-0.11704014
147	0xbe893006	-0.2679445
148	0xbf2e3151	-0.68044
149	0xbf27c664	-0.65537095
150	0xbf6723da	-0.9028908
151	0xbf7bd705	-0.9837497
152	0xbf3ad27a	-0.7297741
153	0xbeab333d	-0.3343753
154	0xbf3f301f	-0.746828
155	0xbee26fe6	-0.44225997
156	0xbed4ec76	-0.41586655
157	0xbeb99ad2	-0.3625093
158	0xbf3e2098	-0.74268484
159	0xbf37a992	-0.7174312
160	0xbf3a868d	-0.7286156
161	0xbe1fe480	-0.1561451
162	0xbeb9d844	-0.3629781
163	0xbefc9d09	-0.49338558
164	0x3e4a2d44	0.1974383
165	0xbf2c19db	-0.6722695
166	0xbef73dfb	-0.48289475
167	0xbf92f579	-1.1481162
168	0xbe9ce7d9	-0.30645636
169	0xbfa3272c	-1.2746329
170	0xbf4da2cd	-0.8032654
171	0xbece8a1e	-0.4033975
172	0xbed318dd	-0.41229907
173	0xbeca15a0	-0.39469624
174	0xbecceb7d	-0.40023413
175	0xbf5ab197	-0.8542723
176	0xbf3f786d	-0.7479313
177	0xbf26dd33	-0.65181273
178	0xbf2f3dca	-0.6845366
179	0xbf043ff6	-0.51660097
180	0xbf0505cf	-0.5196199
181	0xbf59d255	-0.85086566
182	0xbf0eef43	-0.55833834
183	0xbe89bc4b	-0.2690147
184	0xbee6ade0	-0.4505453
185	0xbee9b44f	-0.45645377
186	0xbf4c8608	-0.79892015
187	0xbef1d363	-0.47231588
188	0xbef32902	-0.47492224
189	0xbf82b1a9	-1.0210468
190	0xbf05ab92	-0.5221492
191	0xbdfd44d8	-0.123666465
192	0xbf74bfc1	-0.95605093
193	0xbe8ce87b	-0.2752112
194	0xbf81b1f8	-1.0132437
195	0xbe88301b	-0.26599202
196	0xbf1ba095	-0.60791904
197	0xbe7c887d	-0.24661441
198	0xbf1d9225	-0.61551124
199	0xbf46db0f	-0.77678007
200	0xbe0aa9dd	-0.1354136
201	0x3e31ca0f	0.17362235
202	0xbd3ce0d5	-0.046112854
203	0xbd7fee0f	-0.06248289
204	0xbdca98a0	-0.09892392
205	0x3d57f69c	0.05272542
206	0xbdd56e7c	-0.10421464
207	0x3e08fe1b	0.13378184
208	0xbec0851f	-0.37601563
209	0xbedb54d0	-0.42838144
210	0xbe280888	-0.16409504
211	0x3dc14044	0.09436086
212	0xbe6a4257	-0.22876869
213	0xbc365c86	-0.011130458
214	0x3d24dfee	0.04025262
215	0xbece5474	-0.40298808
216	0xbe3ab012	-0.18231228
217	0xbd545242	-0.05183626
218	0x3df9fa8d	0.12205992
219	0x3e69d9ec	0.22837037
220	0x3d962f84	0.07333282
221	0x3e3ee833	0.18643264
222	0xbe069c01	-0.13145448
223	0x3e24f763	0.16109996
224	0xbea3ba90	-0.31978273
225	0x3e048539	0.12941445
226	0x3e2d77ed	0.1694028
227	0xbe29b1f7	-0.16571794
228	0xbde9bb35	-0.1141266
229	0xbd995a8b	-0.07487973
230	0xbcebb99f	-0.028775034
231	0xbf109365	-0.56474906
232	0x3dcaa146	0.09894042
233	0xbeab86f8	-0.3350141
234	0x3dbaf829	0.09129364
235	0xbea4b5b7	-0.32169887
236	0x3d1d1e17	0.038358774
237	0xbd911f54	-0.070860535
238	0xbe7c12cb	-0.24616544
239	0xbe56f77d	-0.20992847
240	0x3e49a5da	0.19692174
241	0x3e9de13d	0.30835906
242	0xbccf0633	-0.02527151
243	0x3edbc8e8	0.42926717
244	0xbdf2173a	-0.11820836
245	0x3cf87286	0.030328047
246	0xbe624aeb	-0.22098891
247	0x3e6d7a43	0.2319117
248	0x3ed26cb3	0.41098556
249	0xbe5c5662	-0.21517327
250	0x3e3a816d	0.18213435
251	0x3e0b1296	0.13581309
252	0x3d0695cc	0.0328577
253	0xbda40078	-0.08007902
254	0x3eb04173	0.34424934
255	0x3e737bf4	0.23777753

lstm.bias_hh_l0 f4 [400]
0	0xbf4c2135	-0.7973817
1	0xbf3729db	-0.7154824
2	0xbf546d05	-0.8297885
3	0xbf25e12b	-0.64796704
4	0xbf08db71	-0.5345984
5	0xbfc5a623	-1.5441326
6	0xbf0ff00a	-0.56225646
7	0xbf10b3cd	-0.56524354
8	0xbeb8f05b	-0.36120877
9	0xbf840db9	-1.0316688
10	0xbebc6fa1	-0.36803916
11	0xbf028041	-0.5097695
12	0xbf4c45a3	-0.7979376
13	0xbf6c3f6d	-0.9228428
14	0xbef467c5	-0.4773542
15	0xbe96205a	-0.29321557
16	0xbf6d8596	-0.9278196
17	0xbe34b9be	-0.1764898
18	0xbee9b0a1	-0.4564257
19	0xbf8547a9	-1.0412494
20	0xbf185d89	-0.59517723
21	0xbef79297	-0.48354027
22	0xbf0c6be7	-0.54852146
23	0xbf16cab5	-0.58903056
24	0xbf6a1f9a	-0.9145447
25	0xbe8d233c	-0.27565944
26	0xbf2ed9a1	-0.68300825
27	0xbf10d18d	-0.5656975
28	0xbf823b07	-1.0174264
29	0xbf3f7963	-0.74794596
30	0xbf53ec99	-0.82782894
31	0x3e68015f	0.22656773
32	0xbf259f3b	-0.6469609
33	0xbe5bf284	-0.21479231
34	0xbe6ef752	-0.23336533
35	0xbe88b9f3	-0.26704368
36	0xbf1ec23f	-0.62015146
37	0xbfa6a526	-1.3019149
38	0xbdc00cb5	-0.09377424
39	0xbf5fe2d8	-0.8745551
40	0xbeadd193	-0.33948955
41	0xbe78b87c	-0.24289125
42	0xbef4ae24	-0.4778911
43	0xbf1bfcf0	-0.60932827
44	0xbbdb147c	-0.0066857915
45	0xbee492ab	-0.4464315
46	0x3d5180b7	0.051148143
47	0xbf4d9426	-0.8030418
48	0xbe952854	-0.2913233
49	0xbef10165	-0.47071376
50	0xbf64d67a	-0.89389765
51	0xbec42a7d	-0.38313666
52	0xbf7d63f2	-0.9898063
53	0xbe098ad3	-0.13431863
54	0xbec8b0c9	-0.39197376
55	0xbf15fe7c	-0.5859144
56	0xbd4a3a99	-0.04937229
57	0xbe93f743	-0.28899583
58	0xbf9423e9	-1.1573459
59	0xbf3db99d	-0.7411135
60	0xbf049520	-0.51790047
61	0xbf17283a	-0.59045756
62	0xbd21e4da	-0.03952489
63	0xbf734331	-0.950244
64	0xbf14e57d	-0.5816267
65	0xbf6a14bb	-0.9143788
66	0xbee5f753	-0.44915256
67	0xbf1f54d9	-0.6223884
68	0xbf58f8a6	-0.8475441
69	0x3daa737b	0.083228074
70	0xbfaa91f5	-1.3325793
71	0xbe9c4145	-0.30518547
72	0xbf9329e6	-1.1497161
73	0xbf1959e0	-0.59902763
74	0xbf763f6b	-0.9619052
75	0xbed34dd0	-0.41270304
76	0xbe0c10ed	-0.13678332
77	0xbf9e88ab	-1.2385458
78	0xbf711a7d	-0.9418104
79	0xbf3cd52d	-0.7376278
80	0xbf41dd2d	-0.7572811
81	0xbf60b330	-0.8777342
82	0xbf727e21	-0.9472371
83	0xbf4d3147	-0.80153316
84	0xbeb198bb	-0.34686837
85	0x3db48927	0.08815222
86	0xbf0043b7	-0.50103325
87	0xbf1c32bb	-0.6101491
88	0xbf2aef66	-0.66771543
89	0xbf9114c1	-1.1334459
90	0xbca5cedc	-0.02024024
91	0xbf4b9e84	-0.7953875
92	0xbf535726	-0.8255485
93	0x3c7be12a	0.0153735075
94	0xbeb61726	-0.35564536
95	0xbf5db6fd	-0.8660734
96	0xbf4020d5	-0.750501
97	0xbe8f3f67	-0.2797806
98	0xbf5b8bf7	-0.85760444
99	0xbeab7a4d	-0.33491746
100	0xbf5d5db8	-0.8647113
101	0xbfa716e0	-1.3053856
102	0xbf0d6b15	-0.5524152
103	0xbf47c473	-0.7803413
104	0xbf33e77f	-0.7027511
105	0xbf820bdd	-1.015987
106	0xbedd301b	-0.43200764
107	0x3d691d48	0.05691269
108	0xbf845871	-1.033949
109	0xbf75e19b	-0.9604737
110	0xbf0a95c4	-0.54134774
111	0xbf0c9593	-0.5491573
112	0xbef5a92d	-0.47980633
113	0xbf908e21	-1.1293374
114	0xbf2b52a6	-0.66922987
115	0xbe700c6b	-0.23442237
116	0xbf1cd959	-0.61269146
117	0xbe965561	-0.29362014
118	0xbec077fd	-0.37591544
119	0xbf47a55e	-0.77986705
120	0xbf9b48ea	-1.2131627
121	0xbf24bfc8	-0.64355135
122	0xbf475e2c	-0.7787807
123	0xbf083da4	-0.53219056
124	0xbf8c2824	-1.094975
125	0xbebc5458	-0.367831
126	0xbf3deb82	-0.7418748
127	0xbf13d428	-0.577456
128	0xbf227945	-0.6346629
129	0xbedc073e	-0.42974275
130	0xbf003dea	-0.50094473
131	0xbf27a83f	-0.654911
132	0xbf590188	-0.8476796
133	0xbe480c79	-0.19536008
134	0xbf5709c1	-0.8399926
135	0xbe124ea3	-0.1428781
136	0xbf5e1cc1	-0.86762625
137	0xbfa963f5	-1.323363
138	0xbf118a26	-0.5685142
139	0xbf5ca99b	-0.861963
140	0x3e2462c7	0.16053306
141	0xbf556b49	-0.8336683
142	0xbe32acbf	-0.1744871
143	0xbe84c4ed	-0.25931492
144	0xbe9f6398	-0.31130672
145	0xbf9835b0	-1.1891384
146	0xbd874809	-0.066055365
147	0xbeb8fe30	-0.3613143
148	0xbf28d578	-0.6595073
149	0xbf213683	-0.62973803
150	0xbf509617	-0.8147902
151	0xbf9200d0	-1.1406498
152	0xbf2eb191	-0.68239695
153	0xbe83c3b5	-0.2573525
154	0xbf2a901e	-0.66626155
155	0xbf1675db	-0.58773583
156	0xbed0bc45	-0.40768638
157	0xbe9eb78a	-0.30999404
158	0xbf481c35	-0.7816804
159	0xbf48aff9	-0.7839351
160	0xbf1638f0	-0.5868063
161	0xbe90f6c1	-0.28313258
162	0xbee9986d	-0.45624104
163	0xbf05bc8c	-0.52240825
164	0x3e5d1d1b	0.21593134
165	0xbf299753	-0.6624653
166	0xbebb307e	-0.36560434
167	0xbf81b200	-1.0132446
168	0xbebccba7	-0.36874124
169	0xbfad10ae	-1.3520715
170	0xbf584688	-0.8448262
171	0xbede6b94	-0.4344145
172	0xbee6b5f6	-0.450607
173	0xbeb49c45	-0.35275474
174	0xbef34b11	-0.4751821
175	0xbf45d87c	-0.77283454
176	0xbf293343	-0.66093844
177	0xbf1a8a0f	-0.6036691
178	0xbf0f6656	-0.5601553
179	0xbeba6a01	-0.36409
180	0xbf07f48d	-0.5310753
181	0xbf4ea8d7	-0.8072638
182	0xbf32d5d3	-0.6985752
183	0xbea3b2c2	-0.3197232
184	0xbef510b3	-0.47864303
185	0xbf19f522	-0.6013967
186	0xbf79e6ed	-0.9761799
187	0xbeeaa138	-0.45826125
188	0xbf06fb1b	-0.52726907
189	0xbf850215	-1.039126
190	0xbefc791d	-0.49311152
191	0xbe18ae10	-0.1491015
192	0xbf808f94	-1.0043817
193	0xbe85dc2a	-0.26144534
194	0xbf8189b6	-1.0120151
195	0xbe4a67ae	-0.19766113
196	0xbeeab4dc	-0.4584111
197	0xbe3691a7	-0.17829
198	0xbf2cb5bb	-0.674648
199	0xbf46c9dc	-0.7765176
200	0xbde533d8	-0.11191529
201	0x3e544aca	0.20731655
202	0xbd9554eb	-0.072915874
203	0xbd4500c5	-0.048096437
204	0xbe33b301	-0.17548753
205	0x3cff944b	0.031198641
206	0xbde94bb2	-0.11391391
207	0x3e42c3f3	0.19020061
208	0xbec9f797	-0.3944671
209	0xbec1a39d	-0.3782014
210	0xbdbeff03	-0.093259834
211	0xbd08befa	-0.033385254
212	0xbe505d80	-0.20348167
213	0x3c51355b	0.012769069
214	0x3e31486d	0.17312784
215	0xbefe4d98	-0.49668574
216	0xbdec2175	-0.11529819
217	0xbd81b4bd	-0.06333301
218	0x3e2b61b8	0.16736495
219	0x3d8b1275	0.0679063
220	0x3d671ed5	0.056425888
221	0x3e60b5db	0.21944372
222	0xbe0b50ed	-0.1360509
223	0x3ded48b0	0.1158613
224	0xbe85e867	-0.2615387
225	0x3dccbd5c	0.09997055
226	0x3e526eac	0.2055003
227	0x3b49933f	0.0030757932
228	0xbca0dc9e	-0.019636448
229	0xbd6aba00	-0.05730629
230	0xbdeadca6	-0.114678666
231	0xbf0cfd08	-0.55073595
232	0xbd6c6816	-0.05771645
233	0xbebd58e1	-0.36981872
234	0x3e198fd1	0.14996268
235	0xbe201131	-0.15631558
236	0x3d935f9a	0.07195969
237	0xbd0041d6	-0.031312786
238	0xbe2a16cb	-0.16610257
239	0xbe122c47	-0.14274703
240	0x3e2e9574	0.170492
241	0x3e742b36	0.23844609
242	0xbd87cde5	-0.06631068
243	0x3ee49f32	0.44652706
244	0xbe8517cf	-0.25994727
245	0xbd9976d2	-0.07493366
246	0xbea5ee56	-0.32408398
247	0x3e2a59c2	0.16635802
248	0x3ee2fe59	0.44334677
249	0xbe41d0a3	-0.18927245
250	0x3d158c95	0.036511023
251	0x3d4ae88b	0.049538177
252	0x3d71afaf	0.059005436
253	0xbd18fa12	-0.03734786
254	0x3e7c9adc	0.24668449
255	0x3e43888a	0.19095054

linear.weight f4 [1, 100]
0	0x3daf2c05	0.08553318
1	0x3d928880	0.071549416
2	0x3c6f5787	0.0146082705
3	0x3c2e9368	0.010655262
4	0xbda0b5a0	-0.07847142
5	0x3c6106c4	0.013734523
6	0x3e152eb1	0.14568593
7	0xbd63b611	-0.055593554
8	0xbe0fc384	-0.14039427
9	0xbd92845e	-0.07154153
10	0xbd005e58	-0.031339973
11	0xbd2781b8	-0.040895194
12	0x3d0240e8	0.03180018
13	0x3e253a80	0.16135597
14	0x3caa2ec6	0.020774256
15	0xbdda379e	-0.106551394
16	0x3d92549a	0.07145043
17	0xbe0a8185	-0.1352597
18	0xbdda43a9	-0.106574364
19	0xbd41367c	-0.0471711
20	0x3d24a973	0.040200662
21	0x3db8cc24	0.09023312
22	0x3b1ed18f	0.0024233793
23	0x3daca273	0.08429422
24	0x3de1b600	0.11021042
25	0xbda75657	-0.08170765
26	0x3dddaea3	0.10824325
27	0x3dba9560	0.09110522
28	0xbd47a7bb	-0.048743945
29	0x3b46766c	0.0030282987
30	0x3e100565	0.14064558
31	0x3e2ab730	0.16671443
32	0xbd6ca408	-0.05777362
33	0xbd0a5eaa	-0.033781685
34	0x3dd576cd	0.1042305
35	0xbd95f097	-0.073212795
36	0xbe15fcd4	-0.14647228
37	0x3cf88200	0.030335426
38	0x3bdc6d1a	0.006726873
39	0x3d7fcec2	0.06245304
40	0xbe209bfe	-0.15684506
41	0x3db7cdfb	0.089748345
42	0xbd34869c	-0.044073686
43	0xbc492c48	-0.012278624
44	0x3e0f02bf	0.13965891
45	0x3d5cc85f	0.053902026
46	0x3d6d6367	0.057956126
47	0xbda2c785	-0.079482116
48	0x3e0e074b	0.1386997
49	0xbd1d8324	-0.038455144
50	0x3bf1013a	0.0073548825
51	0x3d816bac	0.06319365
52	0xbd00ff10	-0.031493247
53	0x3d288045	0.041137952
54	0x3e88a8ab	0.26691183
55	0x3e6e1a19	0.23252143
56	0xbdb0ab35	-0.08626405
57	0x3c9daef6	0.019248467
58	0x3c8fb7aa	0.017543633
59	0xbc0396bc	-0.008031543
60	0xbd2308f0	-0.039803445
61	0xbd6dff41	-0.058104757
62	0xbdd3a2d7	-0.103337936
63	0xbb72dba0	-0.0037057176
64	0x3c893f72	0.016753886
65	0x3a85d9c6	0.0010211996
66	0xbd8659ab	-0.065600716
67	0x3ebd333a	0.36953145
68	0xbd1bbe2f	-0.03802317
69	0xbdeb8bd0	-0.115012765
70	0xbd5731bc	-0.052537665
71	0xbda4082a	-0.0800937
72	0x3b697af3	0.0035626262
73	0x3d2b43a2	0.041812547
74	0x3db5b7bc	0.08872935
75	0xbd41c0d9	-0.047303054
76	0xbddf3669	-0.1089905
77	0xbb8cc2fb	-0.0042957044
78	0xbcdea7d2	-0.027179632
79	0xbc09e452	-0.008416252
80	0xbd5350ac	-0.051590607
81	0xbd62c803	-0.055366527
82	0x3d8cc36c	0.06873211
83	0x3d1cc113	0.038270067
84	0xbddc643b	-0.10761305
85	0xbc7c150b	-0.015385876
86	0x3ce69f64	0.028152175
87	0x3cc9b0e4	0.02462048
88	0xbe40a9fd	-0.18814845
89	0xbda79fa0	-0.08184743
90	0xbe030f99	-0.12798919
91	0xbdaa8471	-0.083260424
92	0x3c10be46	0.008834427
93	0xbdb49e29	-0.08819229
94	0x3dbf84a4	0.09351471
95	0x3d9f4400	0.07776642
96	0x3d9df63f	0.07712983
97	0xbdce9a65	-0.10088042
98	0x3d04a7bd	0.03238653
99	0xbd1c09eb	-0.038095396
